model/tetris_ppo_interrupted_20251029_171715.pth/model.ckpt-1.pth (torch, 70369 bytes, 15 tensors)

actor.0.weight f4 [32, 181]
0	0x3da1c7aa	0.07899411
1	0xbe4c1503	-0.1992989
2	0x3e066a25	0.13126428
3	0xbd97f641	-0.07420016
4	0x3df76df1	0.120815165
5	0xbd2d0536	-0.042241298
6	0x3ccb71e3	0.024834579
7	0xbd588f0d	-0.0528708
8	0x3cc9b3f6	0.024621945
9	0xbe355a13	-0.17710142
10	0x3e0fb96b	0.14035575
11	0x3d9138e4	0.07090929
12	0x3dd7f478	0.105446756
13	0x3dc5f7fa	0.096664384
14	0x3e16218e	0.14661238
15	0x3d7aea97	0.06125888
16	0x3e5c6400	0.21522522
17	0xbdf3d4be	-0.11905812
18	0x3da6da33	0.08147087
19	0x3e394b72	0.18095186
20	0x3d7ecd7a	0.062207676
21	0x3e125fb5	0.14294322
22	0x3c8259b3	0.015911913
23	0xbda1c125	-0.078981675
24	0xbe30ed87	-0.1727811
25	0xbd0957da	-0.033531047
26	0x3d5804f0	0.052739084
27	0xbe0c25d0	-0.136863
28	0xbe07df23	-0.13268714
29	0xbe2f50bc	-0.17120641
30	0x3dfa6d0f	0.122278325
31	0xbd3bb612	-0.045827933
32	0xbe0320c1	-0.12805463
33	0xbe613dbb	-0.21996205
34	0xbe2821e1	-0.16419174
35	0x3cd2f503	0.025751596
36	0x3dfbe381	0.12299252
37	0xbccc03af	-0.0249041
38	0xbd87978d	-0.06620703
39	0x3d894584	0.06702712
40	0x3d160a6b	0.03663103
41	0x3e4a2808	0.19741833
42	0xbdea2775	-0.11433307
43	0xbe552428	-0.20814574
44	0xbd602fe4	-0.054733172
45	0x3e5ad0b7	0.21368681
46	0xbdb6aa52	-0.08919205
47	0x3e7a3d82	0.24437526
48	0xbb90dea6	-0.004421073
49	0x3e383ee5	0.17992742
50	0xbe03d800	-0.12875366
51	0x3d310994	0.043222025
52	0x3e435502	0.19075397
53	0x3e3a3e6f	0.18187879
54	0xbe5eccd6	-0.21757826
55	0xbe6b1b76	-0.22959694
56	0xbdab65fe	-0.08369063
57	0x3d9772e9	0.07394964
58	0xbdf08792	-0.11744608
59	0xbd342fe8	-0.043991
60	0xbc94c53e	-0.018160459
61	0x3db58cf6	0.08864777
62	0xbc83ff9a	-0.016113091
63	0x3d8ebdd7	0.06969803
64	0x3cd5912b	0.026070198
65	0xbdd863ca	-0.10565908
66	0x3dc2beea	0.0950907
67	0x3b95b825	0.004569071
68	0xbe296ed5	-0.16546185
69	0x3e643e62	0.22289422
70	0x3d03bdee	0.032163553
71	0x3dc6ba3c	0.0970349
72	0x3cf08dd6	0.029364508
73	0x3e3e2bce	0.18571398
74	0xbdb583d8	-0.08863038
75	0xbde59201	-0.11209489
76	0x3dd34c78	0.1031732
77	0xbd6f58af	-0.058434185
78	0xbd5018b2	-0.0508048
79	0x3de34f6d	0.11099134
80	0xbe6ec53d	-0.23317428
81	0x3e74e19e	0.23914191
82	0x3e52ca6c	0.2058503
83	0x3cf18417	0.02948193
84	0xbe87dd4e	-0.2653603
85	0x3dbcaec2	0.0921302
86	0x3cbdcd76	0.02316926
87	0x3e21b9a0	0.15793467
88	0xbd7467bd	-0.059669245
89	0x3e196468	0.14979708
90	0xbdd4d28b	-0.103917204
91	0x3da00b05	0.07814602
92	0x3de92f65	0.11385993
93	0x3d1d622a	0.038423695
94	0xbb89f05d	-0.0042095617
95	0x3d2aa27a	0.041658856
96	0x3e68fa03	0.22751622
97	0x3e4c7ff1	0.19970681
98	0xbd6752bd	-0.05647539
99	0x3e378e52	0.17925385
100	0x3d45b54b	0.048268598
101	0x3df89721	0.121382006
102	0xbd9a80f8	-0.0754413
103	0xbd20634e	-0.039157204
104	0x3dc40f61	0.09573246
105	0x3e6b6085	0.22986038
106	0x3dbad469	0.09122545
107	0xbdc3a5cf	-0.0955311
108	0xbcc3b4d2	-0.023889933
109	0xbd8db838	-0.069199026
110	0x3d29fbec	0.041500017
111	0xbe050d7f	-0.1299343
112	0x3e458e46	0.19292554
113	0x3df1f972	0.11815156
114	0x3e54340a	0.20722976
115	0x3e657346	0.22407255
116	0x3e2ce7f1	0.16885354
117	0x3e10efcd	0.14153977
118	0x3e43c7fb	0.19119255
119	0x3e2a7a79	0.16648282
120	0x3ca595c0	0.020213008
121	0x3d47740e	0.048694663
122	0xbd95f55b	-0.073221885
123	0x3d0a4342	0.03375555
124	0xbdd45437	-0.10367625
125	0xbbf5487a	-0.0074854465
126	0x3e9655bc	0.29362285
127	0x3e049648	0.12947953
128	0xbda787ca	-0.081801966
129	0xbca33f3b	-0.019927612
130	0x3db6d466	0.089272305
131	0x3c548776	0.0129717495
132	0x3e3f43fd	0.18678279
133	0xbd6b0dff	-0.057386395
134	0x3e3b0078	0.18261898
135	0xbdc417c5	-0.09574846
136	0xbce489c1	-0.027897717
137	0x3e0302d6	0.1279405
138	0xbe3ef0d0	-0.1864655
139	0xbdb40059	-0.08789129
140	0xbe2969ad	-0.16544218
141	0x3e359361	0.17732002
142	0x3e396bc2	0.18107513
143	0xbdc8eead	-0.09811149
144	0xbe069a11	-0.13144709
145	0xbdac54a1	-0.08414579
146	0xbba7ce1b	-0.0051210052
147	0x3e15f070	0.14642501
148	0x3d484c1c	0.04890071
149	0xbdb79bd1	-0.089652665
150	0x3d61a359	0.05508742
151	0xbdbed62e	-0.09318195
152	0x3e1f7c8f	0.15574859
153	0xbcc253f7	-0.023721678
154	0x3de99e2a	0.114071205
155	0x3e9dbbf5	0.30807462
156	0xbe3c2ed5	-0.1837724
157	0x3dc91106	0.098177
158	0x3c71ca4d	0.014757705
159	0xbdac186d	-0.08403096
160	0x3e39fb42	0.18162253
161	0x3dd3ffd3	0.10351529
162	0xbe16afec	-0.14715546
163	0xbe8111f9	-0.25209025
164	0x3cfe3ec2	0.031035785
165	0x3e041f76	0.12902626
166	0x3b06b8fa	0.0020557032
167	0x3dfa6436	0.12226145
168	0xbe05819a	-0.1303772
169	0xbe6719fe	-0.22568509
170	0x3e1d71d9	0.1537546
171	0xbd95b012	-0.07308973
172	0x3de72031	0.11285437
173	0xbc1e3ce6	-0.009658074
174	0x3e809e44	0.25120747
175	0x3db0e4d4	0.086373955
176	0xbce6a20c	-0.028153442
177	0xbe3340f2	-0.17505243
178	0x3e00f7b3	0.1259449
179	0xbe4d5877	-0.20053278
180	0x3c19a906	0.009378677
181	0x3e6be34f	0.2303593
182	0x3e05bb2c	0.13059682
183	0xbcfa6d2a	-0.030569632
184	0xbd641e2c	-0.055692837
185	0x3b2ade83	0.0026072569
186	0x3e93d9a7	0.28876993
187	0x3dc7415e	0.09729265
188	0x3d9b3b25	0.0757964
189	0xbdd11c28	-0.102104485
190	0x3e3f24f0	0.18666434
191	0x3dffcde1	0.1249044
192	0x3e3809e8	0.17972529
193	0x3e550b57	0.20805107
194	0xbdd927bd	-0.106032826
195	0x3e4b6bf4	0.198654
196	0x3ea8095d	0.32819644
197	0x3dca9820	0.09892297
198	0xbb979766	-0.0046262024
199	0xbdb54608	-0.08851248
200	0xbe20c899	-0.15701522
201	0xbdf27734	-0.118391424
202	0x3dd1f09b	0.1025097
203	0x3d878d23	0.066187166
204	0x3d9bebb9	0.0761332
205	0xbc5101d2	-0.012756782
206	0x3e1c2303	0.15247731
207	0x3e171ac5	0.14756306
208	0xbdd14b74	-0.1021947
209	0x3d561539	0.052266333
210	0xbdfe3c59	-0.12413854
211	0x3de49aee	0.11162363
212	0x3d0d9f15	0.03457554
213	0x3e163aa5	0.14670809
214	0xbde32e27	-0.11092787
215	0x3d8c6172	0.06854524
216	0x3e02f2d9	0.12787952
217	0xbe64f57a	-0.22359267
218	0x3cacad9c	0.021078877
219	0xbd2bfea3	-0.041990887
220	0x3e40afb6	0.18817028
221	0x3e263d69	0.16234364
222	0x3e2dfd76	0.16991219
223	0xbcb0c3e9	-0.021577792
224	0x3d94a5b7	0.0725817
225	0xbe184048	-0.14868271
226	0x3e04b254	0.12958652
227	0xbdd505ee	-0.104015216
228	0xbe2d5126	-0.16925487
229	0xbe44522d	-0.19171973
230	0xbde730e2	-0.112886205
231	0xbdf82a78	-0.12117475
232	0xbddde19c	-0.10834047
233	0x3b0b0823	0.0021214567
234	0xbdaa2d08	-0.0830937
235	0xbd65aca5	-0.05607285
236	0xbd9c92a0	-0.07645154
237	0xbdf30d42	-0.11867763
238	0xbc0cd5cb	-0.008595894
239	0x3caf1b38	0.021375284
240	0x3e9caa64	0.30598748
241	0xbe1ac95b	-0.15115874
242	0xbdf4b904	-0.119493514
243	0xbdf7a1f9	-0.12091441
244	0xbd38ad9c	-0.04508744
245	0xbdd44af9	-0.103658624
246	0x3d909cdb	0.07061168
247	0x3e091c3d	0.13389678
248	0x3c30cdb8	0.010791235
249	0x3e80236b	0.25027022
250	0x3e58e4fc	0.211811
251	0xbe179ab5	-0.1480511
252	0xbe45569f	-0.19271325
253	0xbddadf6a	-0.10687144
254	0xbd352c4a	-0.04423169
255	0xbdc7ef1c	-0.09762403

actor.0.bias f4 [32]
0	0x3bc21140	0.0059224665
1	0x3dc53143	0.096285366
2	0x3d802bc5	0.062583484
3	0xbbb81fbe	-0.0056190183
4	0xbd109fc2	-0.035308607
5	0x3dac000e	0.08398448
6	0xbd70189c	-0.05861722
7	0x3da5ec04	0.08101657
8	0xbd76f978	-0.060296506
9	0x3c096b73	0.008387434
10	0x3d4cecaa	0.050030388
11	0xbdd95032	-0.10610999
12	0x3c9f1e21	0.019423546
13	0x3d2f8cc1	0.042858843
14	0x3c7649d1	0.015032248
15	0xbd49f31e	-0.04930412
16	0x3e28658c	0.16444987
17	0x3d9fb880	0.077988625
18	0x3c34df83	0.0110396175
19	0x3ca56b1f	0.02019268
20	0x3d0971dc	0.03355585
21	0x3cdd9419	0.027048158
22	0xbb82696c	-0.0039798524
23	0x3d814b1f	0.06313156
24	0x3d9d05a7	0.07667094
25	0xbcb5b224	-0.02217967
26	0x3d901811	0.0703584
27	0xbcd3680f	-0.025806455
28	0xbbe8b8ee	-0.0071021235
29	0x3d00060a	0.03125576
30	0xbc0dd985	-0.008657818
31	0x3cd99799	0.026561545

actor.2.weight f4 [32, 32]
0	0x3d765652	0.060140915
1	0x3cc80661	0.024417104
2	0x3d941ab4	0.07231656
3	0xbe9d5340	-0.30727577
4	0x3d50c0ce	0.050965123
5	0xbd890862	-0.06691052
6	0xbe9ce9b5	-0.30647054
7	0xbe5418a1	-0.2071252
8	0x3e2ebbcd	0.17063828
9	0x3dd2c13a	0.10290761
10	0xbe00e369	-0.1258675
11	0x3e8397ed	0.25701848
12	0x3e737bf3	0.23777752
13	0x3e423794	0.18966514
14	0xbd59e076	-0.05319258
15	0x3e9edf73	0.31029853
16	0xbedc5e8c	-0.43040884
17	0x3d8e1658	0.069378555
18	0x3e5ad31d	0.21369596
19	0x3d91a0de	0.07110761
20	0xbe9f2063	-0.31079397
21	0x3e565a21	0.20932819
22	0xbe88fe2c	-0.26756418
23	0x3e484081	0.19555856
24	0xbe86c87a	-0.26324826
25	0xbd93b2a1	-0.07211805
26	0xbdb4ff7a	-0.08837791
27	0x3d24e6bc	0.040259108
28	0xbde14998	-0.11000365
29	0x3ea71e98	0.3264053
30	0xbdd7429e	-0.10510753
31	0x3e8d3a01	0.27583316
32	0xbec24b88	-0.3794825
33	0x3e872abd	0.26399794
34	0x3d33d093	0.043900084
35	0xbd98d43c	-0.074623555
36	0x3dea91e9	0.114536114
37	0x3e92f2ca	0.28700858
38	0xbe02af4a	-0.1276218
39	0x3eb98f37	0.36242077
40	0xbd0e7d2d	-0.034787346
41	0x3ea5254c	0.32255018
42	0x3e796dbf	0.24358271
43	0xbe67f733	-0.22652893
44	0x3e01ed85	0.12688263
45	0xbe2fabce	-0.17155382
46	0xbdf60d92	-0.12014307
47	0x3e3d3d4d	0.18480416
48	0x3e873c32	0.26413113
49	0xbba533f0	-0.005041592
50	0x3e2e9edc	0.17052788
51	0x3e4d5ef5	0.20055754
52	0xbeb860b2	-0.36011273
53	0xbe14ef59	-0.14544429
54	0xbd7e50ce	-0.06208878
55	0x3e27f72d	0.16402884
56	0x3e3270a8	0.17425787
57	0xbe0c0654	-0.13674289
58	0xbd8329f8	-0.06404489
59	0x3e1eddb9	0.15514268
60	0xbe2f940e	-0.17146322
61	0xbe1e9cb0	-0.15489459
62	0xbe6016e8	-0.21883738
63	0xbde843f6	-0.113410875
64	0x3d583f4d	0.052794743
65	0x3dcdcb4a	0.1004854
66	0xbe39b267	-0.18134461
67	0xbcdd5325	-0.027017185
68	0x3ebe9aae	0.37227386
69	0x3e44ef9a	0.19232026
70	0x3e0a0393	0.13477926
71	0xbe91db91	-0.28487828
72	0x3e089009	0.13336195
73	0xbd61946f	-0.055073198
74	0x3c0cff94	0.008605856
75	0x3e721dac	0.23644131
76	0x3dc227c2	0.094802395
77	0xbe80ec61	-0.25180343
78	0xbe8c27a0	-0.2737398
79	0xbd66a712	-0.056311674
80	0x3e857b83	0.26070794
81	0xbe5e4948	-0.21707642
82	0xbe7b68f9	-0.24551763
83	0x3d881ddf	0.066463225
84	0x3e45a864	0.19302517
85	0xbe194e3e	-0.14971253
86	0xbe7cda81	-0.24692728
87	0xbdddce9f	-0.108304255
88	0x3e0d89e7	0.13822137
89	0x3db226c6	0.08698802
90	0x3e41c975	0.18924506
91	0x3db2b7b1	0.087264426
92	0x3e85a11a	0.26099473
93	0x3dd0443f	0.10169267
94	0x3e76ef59	0.24114741
95	0xbea2a07e	-0.3176307
96	0xbbccf998	-0.00625534
97	0xbe0ecca2	-0.13945249
98	0x3e120341	0.14259054
99	0xbe2b2f23	-0.167172
100	0xbe0090d6	-0.1255525
101	0x3e686ee8	0.22698557
102	0x3e5652c2	0.20930007
103	0x3dd64d31	0.10463942
104	0x3e9617a0	0.293149
105	0x3e54f5c3	0.20796876
106	0xbe096e34	-0.13420945
107	0xbe865b9a	-0.2624176
108	0x3e677450	0.22602963
109	0xbecb6282	-0.39723593
110	0x3dffeddb	0.12496539
111	0x3d66d9a0	0.056359887
112	0xbe073484	-0.13203627
113	0x3e9c553d	0.30533782
114	0x3e81a413	0.2532049
115	0xbe9bd07b	-0.30432495
116	0x3e2eee08	0.17082989
117	0x3e0e34ee	0.13887379
118	0xbe3a7f77	-0.18212686
119	0x3d3cedca	0.04612521
120	0xbea47e35	-0.32127538
121	0x3e48760a	0.19576278
122	0x3e371db2	0.17882422
123	0x3d24fff7	0.04028317
124	0x3d609d68	0.054837614
125	0xbd441ae1	-0.047877196
126	0xbd0c1876	-0.034203015
127	0xbe59325c	-0.21210617
128	0x3e5a55ab	0.21321742
129	0x3e211364	0.15730053
130	0x3e788967	0.24271165
131	0xbd004a0d	-0.03132062
132	0xbeb0b8d2	-0.34516007
133	0x3e86207b	0.26196656
134	0xbe8ef96c	-0.2792467
135	0xbe524419	-0.2053379
136	0x3e063587	0.13106357
137	0xbe72e02a	-0.23718324
138	0x3e9b9293	0.30385265
139	0x3c9b9e92	0.01899651
140	0xbe1866df	-0.14882992
141	0x3d172541	0.036900762
142	0x3d8cfbfc	0.06884
143	0x3d1a91ce	0.037736706
144	0x3dc9f94d	0.098620035
145	0xbe582303	-0.21107106
146	0xbc8e28fa	-0.017353524
147	0x3d20f8fc	0.03929995
148	0x3e8fb28a	0.28065902
149	0x3eb5641a	0.35427934
150	0xbd0e26ca	-0.03470496
151	0x3e824643	0.2544423
152	0x3eb4d166	0.35316008
153	0x3e877c70	0.26462126
154	0x3e30eb1a	0.17277184
155	0x3b2a60ae	0.0025997567
156	0x3c2c05b8	0.01049941
157	0xbeb29a16	-0.34883183
158	0xbcdb2321	-0.02675015
159	0xbe01ca98	-0.1267494
160	0xbe78954f	-0.24275707
161	0x3e082097	0.13293682
162	0xbda46211	-0.08026517
163	0xbd4d9197	-0.050187673
164	0xbca6ef5e	-0.020377811
165	0x3e901450	0.28140497
166	0xbde95c60	-0.11394572
167	0x3e067935	0.13132174
168	0xbddf8ee9	-0.1091593
169	0xbd14bf7a	-0.03631542
170	0xbc9f1bee	-0.019422498
171	0x3b98808c	0.004653996
172	0x3c20d59a	0.009816552
173	0x3ea48213	0.3213049
174	0xbd432ffd	-0.047653187
175	0x3e65750a	0.22407928
176	0x3e4d30c3	0.20038132
177	0x3d355546	0.044270776
178	0x3e828f19	0.254998
179	0x3ea69be4	0.3254081
180	0x3da147b9	0.07875008
181	0x3eb3100c	0.3497318
182	0x3d0a7670	0.033804357
183	0x3e095499	0.13411178
184	0x3dba6b69	0.09102518
185	0x3d8f7e54	0.07006517
186	0xbe095ff5	-0.13415511
187	0xbe9105b0	-0.28324652
188	0xbe65f729	-0.22457565
189	0x3e8571a6	0.2606327
190	0xbe8790af	-0.26477572
191	0x3e677e9c	0.22606891
192	0x3e030d1c	0.1279797
193	0x3eb1671c	0.3464898
194	0x3e845ab1	0.25850442
195	0xbdacfe3f	-0.08446931
196	0xbdc4b029	-0.096039124
197	0x3e9f0aa8	0.31062818
198	0x3b15a927	0.0022836418
199	0xbc528c60	-0.012850851
200	0xbe500b1c	-0.20316738
201	0x3e818a27	0.25300714
202	0x3ebdf739	0.37102678
203	0xbdf9c66e	-0.121960506
204	0x3e1a909d	0.15094228
205	0x3ea8dff9	0.32983378
206	0xbe5172cf	-0.20453952
207	0x3e905ce6	0.28195876
208	0x3e5b9e9d	0.21447225
209	0x3e3beba0	0.18351603
210	0x3ebb822a	0.36622745
211	0x3ce115ad	0.027476156
212	0x3d34207a	0.043976285
213	0xbd908d80	-0.07058239
214	0xbd6ed1a7	-0.05830541
215	0x3e89e481	0.26932147
216	0x3e89764b	0.26848063
217	0x3d0b44a2	0.034001
218	0x3e918f8b	0.28429827
219	0xbdbd2445	-0.092354335
220	0x3dfb3d6c	0.12267575
221	0xbe5462ba	-0.20740786
222	0xbe82a8cb	-0.25519404
223	0xbe86aac7	-0.26302168
224	0xbc9d3e85	-0.01919485
225	0x3e70f41c	0.2353062
226	0xbe8c7d7f	-0.27439496
227	0xbdbf1b86	-0.093314216
228	0xbcd2a4e3	-0.02571339
229	0xbe07902d	-0.13238592
230	0xbd135bc4	-0.035976186
231	0x3d9bff78	0.07617086
232	0xbeb95c35	-0.3620316
233	0xbb0f41a7	-0.00218592
234	0x3e583b13	0.21116285
235	0x3ea523b6	0.32253808
236	0x3cb5307f	0.022117851
237	0xbe493eb4	-0.19652826
238	0x3ea399c4	0.3195325
239	0xbe63cd17	-0.22246204
240	0xbeb87179	-0.36024073
241	0xbe14be69	-0.1452576
242	0x3d681da8	0.056668907
243	0xbdb9759b	-0.090556346
244	0xbe83f8d0	-0.25775766
245	0xbb9cde5e	-0.0047872504
246	0x3e5cc86a	0.21560827
247	0x3e70765a	0.23482648
248	0xbe8f465c	-0.27983367
249	0xbc7a016d	-0.015259129
250	0xbd3223ac	-0.04349105
251	0xbead0821	-0.33795264
252	0xbdb858d1	-0.090013154
253	0xbe8cc9a7	-0.274976
254	0xbe613e23	-0.2199636
255	0x3dc96793	0.09834208

actor.2.bias f4 [32]
0	0xbcf4ca41	-0.029881598
1	0x3dc6e3cf	0.0971142
2	0xbc917f2f	-0.017760841
3	0xbc58a6e3	-0.013223383
4	0x3dc37b6d	0.09545026
5	0x3d0e2c47	0.034710195
6	0x3da7e8f4	0.08198729
7	0xbcc47170	-0.023979872
8	0xbd89cfd7	-0.067290954
9	0x3c1e6dfb	0.009669776
10	0xbb671215	-0.003525858
11	0xbcc6d28d	-0.02427032
12	0xbda6464d	-0.081188776
13	0x3d5d05d0	0.05396062
14	0x3d4c18ce	0.049828343
15	0x3d5655d4	0.052327946
16	0x3d3ebddc	0.046567783
17	0x3db3460a	0.08753593
18	0xbce478d4	-0.027889647
19	0x3d1fe29e	0.03903448
20	0xbc6bfd96	-0.014403721
21	0x3d748dc9	0.05970553
22	0xbd89f852	-0.067368165
23	0x3da1147d	0.07865236
24	0xbcddc18f	-0.027069835
25	0xbc847b4b	-0.016172072
26	0x3d1160be	0.03549265
27	0x3d5b84f4	0.05359359
28	0x3d9dd8b0	0.077073455
29	0x3db1b077	0.08676236
30	0x3dfcc5c5	0.12342409
31	0x3d818a90	0.06325257

actor.4.weight f4 [32, 32]
0	0x3e2b9584	0.16756254
1	0xbe265355	-0.16242726
2	0x3e31f509	0.1737863
3	0x3d9ecc8b	0.07753857
4	0x3ddcd59e	0.10782932
5	0xbe92bed8	-0.28661227
6	0x3d1a945b	0.03773914
7	0x3e45bc6e	0.19310161
8	0xbde2919b	-0.11062928
9	0xbeaa5419	-0.33267286
10	0xbe15ee40	-0.14641666
11	0xbea428bc	-0.32062328
12	0x3e28a5c6	0.16469488
13	0x3e1ff955	0.15622456
14	0x3eb83b51	0.35982755
15	0xbd379484	-0.04481937
16	0xbe1a1280	-0.1504612
17	0x3e3e743d	0.18599029
18	0xbe46cfe5	-0.19415243
19	0x3d995811	0.074875005
20	0xbe4e19b3	-0.20126991
21	0x3ea26d2d	0.3172392
22	0x3e8629b7	0.262037
23	0x3e3801ce	0.17969438
24	0xbe28e9b7	-0.16495405
25	0x3ebc0736	0.36724252
26	0x3e520668	0.20510256
27	0x3e86b0e7	0.2630684
28	0xbd3dd3d2	-0.046344586
29	0x3d9e5818	0.07731646
30	0x3e4bcec8	0.199031
31	0xbd05877a	-0.032599904
32	0x3e9fe0db	0.3122624
33	0x3e572d0b	0.21013276
34	0x3e7dc230	0.24781108
35	0x3ddaffad	0.106932975
36	0xbc0f7f23	-0.008758339
37	0xbd881360	-0.066443205
38	0x3e00a1fe	0.12561795
39	0xbdb476b7	-0.088117056
40	0x3bb9d5ff	0.0056712623
41	0xbe269b14	-0.16270095
42	0x3e6bfb78	0.23045146
43	0x3cfd998c	0.030957006
44	0xbe80f02e	-0.25183243
45	0xba265c48	-0.00063461484
46	0xbdac4afa	-0.08412738
47	0xbd98a4b9	-0.07453293
48	0x3e9da60c	0.30790746
49	0x3e5340a5	0.20630129
50	0x3e260bf8	0.16215503
51	0x3e9ea409	0.30984524
52	0xbe12b693	-0.14327459
53	0x3e07d56e	0.1326501
54	0xbd3287f3	-0.043586683
55	0x3e0b41ea	0.13599363
56	0x3ecb9ef6	0.39769715
57	0xbe4075aa	-0.18794885
58	0xbe8bb816	-0.27288884
59	0xbdd86d73	-0.10567751
60	0x3ea8238e	0.32839626
61	0x3e176e7f	0.14788245
62	0x3d6be837	0.057594504
63	0x3d960526	0.07325201
64	0x3e58c663	0.21169429
65	0x3e388913	0.1802104
66	0x3e26317c	0.16229814
67	0xbdf15e8a	-0.1178561
68	0xbd7021f2	-0.058626123
69	0x3d956189	0.07293994
70	0xbeabea9c	-0.3357743
71	0xbd3c537b	-0.04597805
72	0xbe1bcaba	-0.15214053
73	0xbe3578f1	-0.17721917
74	0x3e33bd35	0.17552646
75	0x3e3f2ae5	0.18668707
76	0xbe6dabe8	-0.23210108
77	0x3e6bf46d	0.2304246
78	0xbd8a460b	-0.06751641
79	0x3d8f9f5f	0.070128195
80	0xbd5495d6	-0.051900707
81	0xbe970bf5	-0.2950131
82	0x3e1fb4fd	0.15596385
83	0xbe7f5053	-0.24932985
84	0x3d471d1e	0.048611753
85	0xbe5cbb22	-0.2155576
86	0xbe029668	-0.12752688
87	0x3e5fdb75	0.2186106
88	0xbcf843ab	-0.030305704
89	0xbe42cd72	-0.19023684
90	0xbc92dd1b	-0.017927697
91	0x3d064af5	0.03278633
92	0x3cdcd689	0.026957767
93	0xbce2bc3f	-0.027677653
94	0xbe5f38d9	-0.2179903
95	0xbd85a8d4	-0.06526342
96	0x3e82a25e	0.255145
97	0xbe9dda6a	-0.308307
98	0x3e12e385	0.14344604
99	0x3e3beaa7	0.18351232
100	0xbe992734	-0.29912722
101	0xbe9af5b2	-0.30265576
102	0x3c3e47c2	0.011613788
103	0xbe96e554	-0.29471838
104	0x3d3e84d3	0.04651339
105	0xbe01ce14	-0.12676269
106	0xbe53e703	-0.20693593
107	0xbe1bcaaa	-0.15214029
108	0xbea76c94	-0.32700026
109	0xbdc1a585	-0.094553985
110	0xbe930d23	-0.2872096
111	0xbe4f5dcc	-0.20250624
112	0x3d48a365	0.04898395
113	0xbdc9cd82	-0.09853651
114	0x3e58f4f5	0.21187194
115	0x3e8b22d0	0.27174997
116	0xbe729274	-0.2368868
117	0xbe072d94	-0.1320098
118	0x3dee628e	0.116398916
119	0xbe115a01	-0.1419449
120	0x3e8882a3	0.26662168
121	0xbe4076e8	-0.18795359
122	0xbddb078a	-0.10694797
123	0xbe681e0d	-0.22667713
124	0x3df88d8b	0.12136372
125	0x3e0bd5b8	0.13655746
126	0x3e27de21	0.16393329
127	0xbcffd650	-0.031230122
128	0x3e6314e7	0.22175942
129	0xbe6d9111	-0.2319987
130	0x3d465665	0.048422236
131	0x3d4f055e	0.050542228
132	0x3dfe200c	0.12408456
133	0x3dfb91fa	0.12283702
134	0xbdb0d8a6	-0.086350724
135	0x3e646271	0.22303177
136	0xbea400b8	-0.32031798
137	0xbe69da11	-0.22837092
138	0x3e4aebb1	0.19816472
139	0x3cfc55e6	0.030802678
140	0x3de44e6c	0.1114777
141	0xbe782561	-0.24233009
142	0x3e7d8579	0.24757947
143	0xbe606864	-0.21914822
144	0x3de8c604	0.113658935
145	0x3e60c2b8	0.2194928
146	0xbd8cb332	-0.06870116
147	0xbe21f8f0	-0.15817618
148	0xbea7ba85	-0.3275949
149	0xbed3ca81	-0.41365436
150	0x3dcbeb71	0.09957016
151	0x3e502147	0.20325194
152	0xbdcf3806	-0.101181075
153	0xbe92cae0	-0.28670406
154	0x3e0226de	0.12710139
155	0xbe72c809	-0.2370912
156	0xbd6a3521	-0.057179574
157	0xbce336d3	-0.027736103
158	0xbe92690b	-0.28595766
159	0x3dd98f21	0.10623003
160	0x3e8ca42c	0.27469003
161	0xbde4e5bb	-0.1117663
162	0xbe5ced69	-0.2157494
163	0x3e4956c3	0.19662003
164	0xbb296418	-0.0025847014
165	0x3c082d70	0.008311614
166	0x3d25c190	0.0404678
167	0x3eb4d3d3	0.3531786
168	0x3c31bb01	0.010847808
169	0x3e2fd409	0.17170729
170	0xbe6413c1	-0.2227316
171	0xbd79f4b0	-0.061024368
172	0x3dfcebb3	0.123496436
173	0x3e94f5e3	0.29093847
174	0x3d2abc70	0.041683614
175	0x3d353110	0.044236243
176	0x3dd3e528	0.103464425
177	0xbe209e62	-0.15685418
178	0x3d908630	0.07056844
179	0xbde6df5c	-0.11273071
180	0xbd6b006f	-0.05737346
181	0xbdbd9ef2	-0.09258832
182	0xbe9899ac	-0.29804742
183	0x3e8c62ce	0.27419132
184	0xbe2b5981	-0.16733362
185	0x3ebd215a	0.36939508
186	0x3e17fcde	0.14842555
187	0xbdca1447	-0.09867149
188	0xbdf9d8d7	-0.12199562
189	0x3eafb957	0.3432109
190	0xbe017beb	-0.12644927
191	0x3dab5364	0.08365515
192	0x3d3bdda1	0.04586566
193	0xbe611e51	-0.21984221
194	0x3e59a2ee	0.21253559
195	0x3e06cbd5	0.13163693
196	0xbe966ac2	-0.29378325
197	0xbe351296	-0.17682871
198	0x3e062d45	0.13103206
199	0x3ce7e674	0.02830813
200	0x3e07bed3	0.13256387
201	0xbe908a9d	-0.28230754
202	0x3cf87eb7	0.03033386
203	0xbeab1021	-0.33410743
204	0xbda95d94	-0.08269802
205	0x3eaed9c0	0.34150505
206	0x3cfa6580	0.030565977
207	0x3d93e221	0.07220865
208	0xbeb7fa3c	-0.359331
209	0xbe51d165	-0.20490034
210	0xbdba2ad2	-0.090901986
211	0x3e3624d5	0.17787488
212	0xbe6fb3a4	-0.23408371
213	0xbd83bce5	-0.06432513
214	0xbd2e6fc6	-0.042587064
215	0x3e2642d3	0.16236429
216	0xbe4292f1	-0.19001366
217	0xbda22649	-0.079174586
218	0xbe08583a	-0.13314906
219	0x3ea0ecb5	0.31430593
220	0x3e2f94d3	0.17146616
221	0xbeac2c86	-0.3362772
222	0xbe93b0a0	-0.28845692
223	0xbe80e590	-0.25175142
224	0xbe1e0c5c	-0.15434402
225	0x3dc8bedc	0.098020285
226	0x3e2df483	0.16987805
227	0x3e587e60	0.21141958
228	0x3e0cb114	0.13739425
229	0x3e2bf7f4	0.16793805
230	0x3d66eb64	0.05637683
231	0xbc9aaad2	-0.018880282
232	0xbe2a0114	-0.16601974
233	0x3d7bfa0a	0.061517753
234	0xbce085a5	-0.027407477
235	0x3e75c29b	0.24000017
236	0x3e08d4d8	0.13362443
237	0xbe815be1	-0.2526541
238	0x3e5b8051	0.21435668
239	0xbd9fd231	-0.07803763
240	0x3e22af0e	0.1588709
241	0xbceecb8d	-0.029149795
242	0xbe8460f7	-0.25855228
243	0x3c28e12d	0.010307592
244	0xbc2eac5b	-0.01066121
245	0x3da6d0d8	0.081453025
246	0xbe3aad77	-0.18230234
247	0x3ea506a9	0.32231644
248	0xbe07bf77	-0.13256632
249	0xbe412725	-0.18862589
250	0x3e9156a0	0.28386402
251	0x3e82fb6f	0.25582454
252	0x3e9e7a22	0.30952555
253	0x3dbc19a3	0.09184577
254	0xbd0a3534	-0.033742145
255	0x3e77b93e	0.24191758

actor.4.bias f4 [32]
0	0x3c27acdf	0.010234087
1	0x3df3ffd1	0.119140275
2	0xbd8fd4b3	-0.07022991
3	0xbccb53e4	-0.024820276
4	0xbdc14f9d	-0.09439013
5	0x3db71df0	0.08941257
6	0xbd93df16	-0.07220285
7	0x3d2d0369	0.04223958
8	0xbcc2dc5a	-0.023786712
9	0x3da629d0	0.08113444
10	0x3de658bb	0.11247393
11	0x3dd50f8e	0.104033574
12	0x3bd2b36c	0.00643008
13	0xbd65e9fe	-0.056131355
14	0x3c3c4d52	0.011493044
15	0x3b5da88f	0.0033822393
16	0x3ca1bb3c	0.0197426
17	0x3db3a4d2	0.08771671
18	0xbcb4bcdc	-0.022062711
19	0x3e02ea53	0.127847
20	0xbd9e777c	-0.077376336
21	0x3c04fd53	0.008117038
22	0xbd93c18d	-0.07214651
23	0xbb4f2ce1	-0.0031612443
24	0xbcb32706	-0.021869194
25	0x3d24383b	0.040092688
26	0x3d0d1b21	0.0344497
27	0xbd737a13	-0.05944259
28	0x3d362ed8	0.044478267
29	0x3d8fee7c	0.07027909
30	0x3e1532ac	0.14570111
31	0x3dec5d54	0.115412384

actor.6.weight f4 [4, 32]
0	0xbec09f6c	-0.3762163
1	0x3ea1c134	0.31592715
2	0xbe0e605c	-0.13903946
3	0xbebede6b	-0.37279066
4	0xbd4d47ad	-0.050117183
5	0x3e18c445	0.14918621
6	0xbe851a03	-0.25996408
7	0xbe567588	-0.20943272
8	0xbe542815	-0.20718415
9	0x3de7bd30	0.113153815
10	0x3dfda42c	0.12384829
11	0x3da1bbc7	0.07897144
12	0xbdd5e5dd	-0.104442336
13	0xbecaea6d	-0.39631978
14	0xbead37bb	-0.3383158
15	0x3dc1406f	0.09436118
16	0xbe374f62	-0.17901376
17	0x3e8a4def	0.27012584
18	0xbeaf92f9	-0.3429182
19	0x3df46254	0.11932817
20	0xbea7d437	-0.32779095
21	0xbe807a30	-0.25093222
22	0x3e44d74f	0.19222759
23	0x3f092591	0.53572947
24	0x3e86a266	0.26295775
25	0x3e2a7db7	0.16649519
26	0xbd9f6bc1	-0.07784224
27	0xbe9e2a66	-0.30891722
28	0x3d3f6bfb	0.046733838
29	0xbe9bcc27	-0.30429193
30	0x3ee90eef	0.45519206
31	0x3ed97d8b	0.42478594
32	0x3ed65cbe	0.41867632
33	0x3d6ded57	0.058087673
34	0x3e30cf80	0.17266655
35	0x3d555a8c	0.052088305
36	0x3ea108a0	0.31451893
37	0x3e0a9723	0.13534217
38	0xbe601441	-0.21882726
39	0x3e487a57	0.19577919
40	0xbed82e57	-0.42222854
41	0x3cf1deaa	0.02952512
42	0x3ef3c064	0.4760772
43	0xbd0dfe16	-0.034666143
44	0x3e594a10	0.21219659
45	0xbeb303b7	-0.34963772
46	0xbe189438	-0.14900291
47	0x3ec258c3	0.37958345
48	0x3e1b8fef	0.15191625
49	0x3e27092c	0.16312093
50	0x3db89b28	0.09013969
51	0x3d27496f	0.040841516
52	0x3da43c3c	0.08019301
53	0x3d532df9	0.051557515
54	0x3e97c6a0	0.29643726
55	0xbe59317f	-0.21210288
56	0xbe6bc8bd	-0.23025794
57	0xbba18fec	-0.004930487
58	0xbea6d4c6	-0.32584208
59	0xbe4ee185	-0.20203216
60	0xbe8f0997	-0.27937004
61	0xbe796f37	-0.24358831
62	0x3ddf43d6	0.109016106
63	0x3e2016a8	0.15633643
64	0x3e31bae9	0.17356457
65	0x3dbd1d9c	0.09234163
66	0xbe8965da	-0.2683552
67	0xbe407fa6	-0.18798694
68	0xbeb8c804	-0.360901
69	0x3ee03ac3	0.43794832
70	0xbd43f4e6	-0.047840975
71	0x3dfd0e23	0.12356212
72	0x3e300c53	0.17192201
73	0x3d7f95fb	0.062398892
74	0xbdd00abd	-0.10158298
75	0x3e14c78c	0.14529246
76	0x3ecdc18b	0.40186724
77	0xbe404cf0	-0.1877935
78	0x3dc89896	0.097947285
79	0x3e4495f7	0.19197832
80	0x3d45f876	0.048332654
81	0xbec9b246	-0.39393824
82	0xbea06e1d	-0.3133401
83	0xbd73ba84	-0.059504047
84	0xbdc7d13e	-0.09756707
85	0x3ca9869a	0.020694066
86	0xbe8ca013	-0.27465877
87	0xbe4d3267	-0.20038758
88	0x3ea39add	0.3195409
89	0x3ecec25f	0.40382668
90	0x3ee3a890	0.4446454
91	0xbdf55a35	-0.11980096
92	0x3e4bbc15	0.19895966
93	0x3c23e3d1	0.010003046
94	0x3e280816	0.16409335
95	0x3eb8ec46	0.36117762
96	0xbe183109	-0.14862455
97	0xbf25934a	-0.6467787
98	0xbb04065b	-0.002014539
99	0xbe87c198	-0.26514888
100	0x3eb64201	0.35597232
101	0xbed8b5bb	-0.4232615
102	0xbdfd1da7	-0.12359171
103	0xbf216f6d	-0.6306065
104	0x3ea3c647	0.3198721
105	0xbe8b7c90	-0.2724347
106	0xbf057e82	-0.5214616
107	0xbeef154a	-0.4669593
108	0x3e19f267	0.15033875
109	0x3ef49ad4	0.47774374
110	0xbeb77ed7	-0.3583896
111	0x3d0a9d8d	0.03384166
112	0xbeae780e	-0.3407597
113	0x3e8b1b66	0.2716934
114	0xbebad599	-0.36491087
115	0xbed16418	-0.40896678
116	0xbee71f7b	-0.45141205
117	0xbde2be84	-0.11071494
118	0xbcfe562c	-0.03104695
119	0x3cef7326	0.029229712
120	0x3eb2b0e7	0.3490059
121	0xbe3c39a8	-0.18381369
122	0xbe3f0fc2	-0.18658355
123	0x3e5258f2	0.20541742
124	0xbe874546	-0.2642004
125	0x3ebe0552	0.37113434
126	0xbf3318ca	-0.699597
127	0xbeed03a0	-0.46291828

actor.6.bias f4 [4]
0	0x3d99dbb3	0.075126074
1	0x3d45ac22	0.04825986
2	0xbba9c7b3	-0.0051812767
3	0xbe845e40	-0.25853157

critic.0.weight f4 [32, 181]
0	0xbd0af2b4	-0.033922866
1	0xbc2220b1	-0.00989549
2	0xbe68722d	-0.22699805
3	0x3db473bc	0.08811137
4	0xbdcd82bf	-0.100347035
5	0x3dfa5984	0.12224105
6	0x3d335fea	0.043792643
7	0x3c0538ae	0.008131189
8	0xbe3e363e	-0.18575379
9	0xbd48c775	-0.049018342
10	0xbcaf8ae2	-0.02142853
11	0xbe28e010	-0.16491723
12	0xbd970c6d	-0.07375417
13	0xbe99ff40	-0.30077553
14	0xbcc53913	-0.024075067
15	0xbdb0fe3e	-0.08642243
16	0xbe4ae4e0	-0.19813871
17	0xbe66ff86	-0.22558412
18	0xbe8f1476	-0.27945298
19	0x3cce01f7	0.025147421
20	0xbd4a625a	-0.0494102
21	0xbd1fb3d2	-0.03898985
22	0xbcb33826	-0.02187736
23	0xbe100150	-0.14063
24	0x3e122c3c	0.14274687
25	0xbe22b0d5	-0.15887769
26	0xbe9cdb0c	-0.3063587
27	0xbd803031	-0.06259192
28	0xbd59b931	-0.053155128
29	0xbe5cb065	-0.21551664
30	0xbdce9e0b	-0.10088738
31	0x3dbc3dda	0.09191485
32	0x3e024375	0.12721045
33	0xbe0ccdc8	-0.13750374
34	0x3c4cde10	0.012504116
35	0xbcfcc24b	-0.030854365
36	0x3d827e29	0.063717194
37	0xbddbb227	-0.10727339
38	0xbe2b56ed	-0.16732378
39	0xbd838a02	-0.06422807
40	0x3db3ddf9	0.08782572
41	0xbe1fab31	-0.15592648
42	0xbe8012ef	-0.25014445
43	0xbe948a17	-0.29011604
44	0xbe2daef1	-0.16961266
45	0xbcbc7a9e	-0.023007687
46	0x3ddc1fb6	0.10748236
47	0x3d9eb18f	0.0774871
48	0xbdbbb27b	-0.09164902
49	0xbced7e42	-0.028990868
50	0x3dbb8791	0.091567166
51	0x3c80f0e1	0.01573986
52	0xbe04f5e7	-0.1298443
53	0xbe51a92f	-0.20474695
54	0xbd4e740a	-0.050403632
55	0xbe199109	-0.14996733
56	0xbe745400	-0.23860168
57	0xbe0bfa4e	-0.13669702
58	0xbe5ab28a	-0.2135717
59	0xbe954e0a	-0.29161102
60	0xbdf8d464	-0.12149885
61	0xbe2b1b8e	-0.1670973
62	0xbd4e1afc	-0.050318703
63	0xbc3d9943	-0.011572185
64	0xbdcc7543	-0.099833034
65	0x3d778683	0.060431015
66	0xbdf8c7b5	-0.12147466
67	0xbbce6d83	-0.006299676
68	0xbbc989ac	-0.006150445
69	0xbe470f99	-0.19439544
70	0xbc7b1166	-0.015323972
71	0xbded7211	-0.11594022
72	0x3de97ef0	0.114011645
73	0xbe056a2b	-0.13028781
74	0x3d2ea7e7	0.042640593
75	0xbe132c33	-0.1437233
76	0xbeb5c499	-0.35501555
77	0xbe854c91	-0.26034978
78	0xbe8c73c3	-0.2743207
79	0xbb6fa2ff	-0.003656566
80	0x3d910f99	0.07083053
81	0xbd97d6c6	-0.07414012
82	0xbe1f4d58	-0.15556848
83	0x3df4c7a1	0.11952139
84	0x3d6463c2	0.0557592
85	0xbddb07f4	-0.10694876
86	0xbd31685a	-0.043312408
87	0xbdc07092	-0.09396471
88	0xbdac913a	-0.08426137
89	0x3b086dde	0.002081744
90	0x3d44fe7a	0.04809425
91	0x3dd3aba0	0.10335469
92	0x3de28f67	0.11062508
93	0xbd43ccb5	-0.047802646
94	0x3da4854b	0.08033236
95	0xbde1a227	-0.11017256
96	0xbe255444	-0.16145426
97	0x3df1c45c	0.11805031
98	0xbe59dd96	-0.21275935
99	0xbdd4467f	-0.103650086
100	0x3cef82ea	0.02923723
101	0x3df5f555	0.12009684
102	0xbd6cba5a	-0.057794906
103	0xbe3ceaac	-0.18448895
104	0x3df58c59	0.1198966
105	0xbdf1b0d5	-0.11801306
106	0xbdb1826e	-0.086674556
107	0x3bb0a040	0.005390197
108	0xbe4e8aee	-0.20170185
109	0xbcb46375	-0.022020081
110	0xbc81b920	-0.015835345
111	0xbe36a25e	-0.17835376
112	0x3d0e1eec	0.03469746
113	0xbc8df820	-0.01733023
114	0xbd075ab9	-0.033045504
115	0x3de2b127	0.110689454
116	0xbdb55aca	-0.08855207
117	0xbe14cb27	-0.14530621
118	0x3e31273b	0.17300121
119	0x3e12a29f	0.14319848
120	0x3c12cd5a	0.008960092
121	0x3dfede57	0.12444752
122	0x3e048dff	0.12944792
123	0x3e5fcb00	0.21854782
124	0x3d0a238d	0.03372531
125	0xbc2da584	-0.010598544
126	0xbe00a8eb	-0.12564437
127	0x3b88c950	0.004174389
128	0x3d3b5d0c	0.045743033
129	0x3c1ebb6b	0.009688239
130	0x3da9706c	0.08273396
131	0x3d694f26	0.056960247
132	0x3b102949	0.0021997264
133	0xbd1fd85f	-0.039024707
134	0x3e49858b	0.19679849
135	0x3d9ba8a3	0.07600524
136	0xbd237035	-0.03990193
137	0xbdfbcdd9	-0.12295122
138	0x3d1db0cc	0.038498685
139	0xbddb45d2	-0.107066765
140	0xbd2afbc6	-0.041744016
141	0xbcdda90b	-0.027058145
142	0x3c0188c0	0.007906139
143	0x3d96ae4e	0.07357465
144	0xbe4023d4	-0.18763667
145	0x3d94a618	0.07258242
146	0x3d376f0d	0.04478364
147	0xbd6223c4	-0.05520989
148	0x3d985994	0.07438961
149	0x3c744ea8	0.014911331
150	0x3c84a897	0.016193671
151	0x3d95f6c9	0.07322461
152	0xbe334d94	-0.17510062
153	0xbc6633c6	-0.01405043
154	0xbd184daa	-0.03718344
155	0xbe0fb0e4	-0.14032322
156	0x3de7ba95	0.113148846
157	0x3dd3b389	0.10336978
158	0x3d4c56fa	0.049887635
159	0xbe52a7bf	-0.20571803
160	0xbde565b5	-0.1120104
161	0x3e30c9a2	0.17264417
162	0x3e047a32	0.12937239
163	0x3cf76cdd	0.030203277
164	0x3d5742c3	0.052553903
165	0xbeaae1f4	-0.33375514
166	0xbe187c55	-0.14891179
167	0xbe6a9085	-0.22906692
168	0xbdc24da1	-0.09487463
169	0xbec554db	-0.38541302
170	0xbe2c9976	-0.16855416
171	0x3d383178	0.044969052
172	0x3db110da	0.08645792
173	0x3debc62c	0.11512408
174	0xbdabb504	-0.08384135
175	0x3df19bca	0.117972925
176	0xba87b137	-0.0010352497
177	0xbdf868e6	-0.12129383
178	0x3e1dc516	0.15407214
179	0x3e08b395	0.13349755
180	0x3e6f2805	0.2335511
181	0x3c00ac03	0.007853511
182	0x3e10809d	0.14111562
183	0x3df7713a	0.12082143
184	0xbc85dd99	-0.016341018
185	0xbce25ecc	-0.027633093
186	0x3d0b95d5	0.034078438
187	0x3d9fa18b	0.07794484
188	0x3db21e58	0.08697194
189	0x3e3bdc68	0.18345797
190	0xbb3b6a00	-0.0028597116
191	0x3e04f119	0.12982596
192	0x3e0ceb11	0.13761546
193	0x3e62ced8	0.22149217
194	0x3e3e3edd	0.18578668
195	0x3db7a4d3	0.089669846
196	0xbdda9e3b	-0.10674711
197	0x3d6b7abd	0.0574901
198	0x3c0a7b04	0.008452181
199	0x3e557a67	0.20847474
200	0x3df1781f	0.117904894
201	0xbda18931	-0.07887495
202	0x3db02ff2	0.08602895
203	0xbb156907	-0.0022798197
204	0x3e0f77e3	0.14010577
205	0x3cd577e6	0.026058149
206	0x3cf3f700	0.029780865
207	0x3d50b338	0.050952166
208	0x3d24536c	0.04011862
209	0xbd8d9d9a	-0.06914826
210	0x3df2f8e7	0.118638806
211	0x3e80967f	0.2511482
212	0x3e93c6f7	0.28862736
213	0x3d5fc2fc	0.05462931
214	0xbdc97b48	-0.09837967
215	0x3d9d4b3c	0.076803654
216	0x3e30da75	0.17270835
217	0xbd840bd6	-0.0644757
218	0xbd63a838	-0.055580348
219	0xbcd1a0ec	-0.025589429
220	0x3d98bda2	0.074580446
221	0x3e1f2006	0.1553956
222	0xbd9216e6	-0.07133274
223	0x3e8a3da4	0.27000153
224	0x3d9f1d19	0.07769222
225	0x3eadc8bf	0.3394222
226	0x3dd32c83	0.10311224
227	0x3e1771a2	0.14789441
228	0x3e2b0131	0.16699673
229	0x3e4b81d9	0.19873752
230	0x3e0926f4	0.13393766
231	0x3dfc3c22	0.12316157
232	0x3e0c1bc7	0.13682471
233	0x3da3d37c	0.07999322
234	0x3d046571	0.032323305
235	0x3e6b9c3a	0.23008814
236	0xbd1ef8e6	-0.038811587
237	0x3ebe9bee	0.3722834
238	0xbcc2ece6	-0.023794603
239	0x3e34f98e	0.17673323
240	0x3cefaee6	0.029258203
241	0x3c459c07	0.012061126
242	0x3e06ee73	0.13176899
243	0x3e36de8e	0.17858335
244	0x3dff7788	0.12473971
245	0x3ea4a432	0.3215652
246	0x3dd40db2	0.10354175
247	0x3d282879	0.041054223
248	0x3cc487e0	0.023990571
249	0x3cac4e93	0.02103356
250	0xbdacecf4	-0.08443633
251	0x3e1d729a	0.15375748
252	0x3ae22600	0.0017253757
253	0x3e415de6	0.18883476
254	0xbbb4c679	-0.005516824
255	0x3dd08b14	0.10182777

critic.0.bias f4 [32]
0	0xbd30b9dd	-0.043146003
1	0x3e183320	0.14863253
2	0x3e0650bd	0.13116737
3	0x3df6afbf	0.1204524
4	0x3e0d24da	0.13783589
5	0xbccd7751	-0.025081309
6	0x3e1b115b	0.1514334
7	0x3e329f33	0.17443542
8	0x3e2c6956	0.16837057
9	0xbd6b1d0d	-0.05740075
10	0x3e0d5432	0.13801649
11	0x3e0da1d6	0.13831267
12	0x3e1fdad7	0.15610825
13	0x3e195c62	0.14976647
14	0xbd52166f	-0.051290926
15	0xbd674426	-0.056461476
16	0x3e38e2cb	0.18055265
17	0x3e2cfbad	0.16892882
18	0x3e10fae3	0.14158206
19	0x3d442a08	0.047891647
20	0xbdf48d1b	-0.11940976
21	0x3e28acd2	0.16472176
22	0xbc6a4a09	-0.014299878
23	0xbdc32265	-0.095280446
24	0xb988fff8	-0.00026130653
25	0x3e314df6	0.17314896
26	0x3d8014dd	0.06253979
27	0x3e043a41	0.12912847
28	0xbe167d76	-0.14696297
29	0x3e204b18	0.15653646
30	0xbdae465e	-0.08509515
31	0x3e3e5a54	0.18589145

critic.2.weight f4 [32, 32]
0	0x3e82a0cd	0.25513306
1	0x3de9e956	0.114214584
2	0x3df07b52	0.117422715
3	0xbe0180b3	-0.12646751
4	0xbe2cd518	-0.16878164
5	0x3e0f7339	0.14008798
6	0x3d29e78e	0.041480593
7	0xbe544f9f	-0.20733498
8	0x3e80a388	0.25124764
9	0x3d9dc030	0.077026725
10	0x3d19c38b	0.03754
11	0xbe280e34	-0.16411668
12	0x3e4c5cc6	0.19957265
13	0xbe826898	-0.25470424
14	0xbe41e9ca	-0.1893684
15	0x3d8be46d	0.06830678
16	0xbe6b5353	-0.22981004
17	0xbdcfb777	-0.10142415
18	0xbe1f915d	-0.15582795
19	0x3d31faef	0.0434522
20	0x3e2d4dca	0.16924205
21	0x3e0d8cdc	0.13823265
22	0x3d7774a5	0.060413975
23	0xbe6b6301	-0.22986986
24	0x3d05af68	0.032637984
25	0x3e26dd75	0.16295417
26	0xbd988ff1	-0.0744933
27	0x3e57351d	0.21016355
28	0xbdfb181d	-0.122604586
29	0x3d72f44b	0.059315007
30	0xbe988094	-0.29785597
31	0xbe405813	-0.18783598
32	0xbd99c77f	-0.07508754
33	0x3ea08b5a	0.31356317
34	0x3e9526b0	0.2913108
35	0x3ea8fe1f	0.3300638
36	0x3e2aea84	0.16691023
37	0xbe113444	-0.14180094
38	0x3e5944df	0.21217678
39	0x3e3f2a9b	0.18668596
40	0xbc201c61	-0.009772391
41	0x3e5cf528	0.21577895
42	0x3e5805eb	0.21096008
43	0x3eacfcad	0.33786526
44	0x3d83e8e6	0.06440906
45	0x3e14980a	0.14511123
46	0x3e4937e8	0.19650233
47	0xbe800955	-0.2500712
48	0x3ec877e8	0.3915398
49	0x3e876c2b	0.26449713
50	0x3ec7657a	0.38944608
51	0xbc9a45c6	-0.018832099
52	0xbec986e4	-0.39360726
53	0xbdb9fe91	-0.09081758
54	0x3d990e2f	0.074734084
55	0xbe37cc08	-0.17948925
56	0x3e78c70e	0.24294683
57	0x3ec5af9c	0.38610542
58	0x3e77469f	0.24148034
59	0xbc039c5d	-0.008032885
60	0xbf0804d3	-0.5313236
61	0x3e4d5fe0	0.20056105
62	0xbdfb00b1	-0.12255991
63	0x3e09d190	0.13458848
64	0xbe27a1f6	-0.16370377
65	0xbe08a98c	-0.13345927
66	0xbe53264c	-0.20620078
67	0xbe3df2b7	-0.1854962
68	0x3d643176	0.055711232
69	0x3e2c0634	0.16799241
70	0xbe239c1c	-0.1597752
71	0xbe17c3fd	-0.14820857
72	0xbe67bd5d	-0.2263083
73	0xbdfd1bae	-0.12358795
74	0xbc6f669e	-0.014611868
75	0xbe80cd60	-0.2515669
76	0x3e80547c	0.25064456
77	0xbe18be77	-0.14916407
78	0x3e91b89b	0.28461155
79	0x3d6f71cd	0.05845814
80	0x3c6f098d	0.014589679
81	0x3e82829c	0.25490272
82	0x3d0b018f	0.033937033
83	0x3dd177a0	0.10227895
84	0x3c035550	0.008015946
85	0x3e3684df	0.17824124
86	0x3e806edb	0.25084576
87	0x3e0b32ef	0.13593648
88	0x3e5e345b	0.2169966
89	0xbe929aff	-0.28633878
90	0x3e1a155b	0.15047209
91	0x3e48cca8	0.1960932
92	0xbe9d907b	-0.30774292
93	0xbbe5951d	-0.007006301
94	0x3e53b90c	0.20676059
95	0xbe1bcda9	-0.15215172
96	0x3d341604	0.04396631
97	0xbe49e695	-0.19716866
98	0x3d41ab56	0.04728254
99	0xbe2a18fe	-0.16611096
100	0x3e90b199	0.28260496
101	0xbe4a52e9	-0.1975819
102	0x3eabac5a	0.3352993
103	0x3dc359fd	0.09538648
104	0x3bbac8cf	0.005700208
105	0x3dd059d6	0.10173385
106	0x3e41143f	0.1885538
107	0x3cb73d6b	0.022368154
108	0xbdea63e5	-0.114448346
109	0x3eb7e03c	0.35913265
110	0xbe34326f	-0.17597364
111	0xbe83ff1c	-0.2578057
112	0x3e06e961	0.13174964
113	0x3dce7ee3	0.100827955
114	0x3ebedcc6	0.37277812
115	0x3e3a2ff5	0.18182357
116	0xbe539c9f	-0.20665215
117	0x3e8af718	0.27141643
118	0xbade044f	-0.001693854
119	0xbe76bf89	-0.24096502
120	0x3e51913b	0.20465557
121	0xbd8ac491	-0.06775773
122	0x3edc487c	0.4302405
123	0x3ec1442d	0.37747326
124	0xbe51d9e0	-0.20493269
125	0x3e1ab300	0.15107346
126	0xbe036d27	-0.12834607
127	0x3df50070	0.11962974
128	0xbe868cbb	-0.26279244
129	0xbc821b89	-0.01588227
130	0x3d824a8c	0.06361875
131	0xbead90fa	-0.3389967
132	0xbd3ac9e5	-0.045602698
133	0xbe8021be	-0.25025743
134	0x3c1df276	0.009640327
135	0xbe9cd339	-0.306299
136	0x3d30439d	0.04303323
137	0xbbf0508b	-0.00733382
138	0xbe227488	-0.15864766
139	0xbe5f038c	-0.21778697
140	0xbc899756	-0.016795795
141	0x3e1edd5d	0.15514131
142	0x3e7a53a9	0.24445976
143	0xbe8bcb41	-0.27303508
144	0x3d878803	0.06617739
145	0xbd0f0c67	-0.034923937
146	0xbdb27430	-0.08713567
147	0xbdbecd70	-0.09316528
148	0xbdee555f	-0.11637377
149	0x3e95f1b1	0.29285958
150	0xbdfabcbe	-0.12243031
151	0x3e0a5d92	0.13512257
152	0x3e876435	0.2644364
153	0xbe8145eb	-0.25248656
154	0x3e40b43e	0.18818757
155	0x3e02f7cf	0.12789844
156	0x3e44bde4	0.19213063
157	0x3d9b80b0	0.075929046
158	0xbdfc111b	-0.1230795
159	0xbe4a1c3d	-0.19737335
160	0x3df21a00	0.11821365
161	0x3eb74ad2	0.3579927
162	0x3e8cd0f6	0.27503175
163	0xbe27a2d3	-0.16370706
164	0x3e920bc8	0.28524613
165	0xbd9f3cac	-0.07775244
166	0x3e2ccd12	0.16875103
167	0x3eb41490	0.35171938
168	0x3e4a13a9	0.19734062
169	0xbb6abec1	-0.0035819265
170	0x3e5f2c44	0.2179423
171	0x3df257f1	0.1183318
172	0xbe199568	-0.149984
173	0xbe340e6b	-0.17583625
174	0xbe1ab9e2	-0.15109971
175	0x3dd66f86	0.1047049
176	0x3e837eeb	0.25682768
177	0x3e8923f0	0.2678523
178	0x3e354e2d	0.17705603
179	0xbe58be60	-0.21166372
180	0x3e50d481	0.20393564
181	0x3e34b4b1	0.17647053
182	0x3e8bc3fe	0.27297968
183	0xbde9bd4c	-0.11413059
184	0x3e1d9c26	0.15391597
185	0x3c9bdadb	0.019025257
186	0x3ea7ddfc	0.32786548
187	0xbdc47ca3	-0.09594085
188	0xbef43a85	-0.47700897
189	0x3de036b2	0.10947932
190	0xbe62543b	-0.22102444
191	0x3eccfc85	0.40036407
192	0xbdef55f4	-0.11686316
193	0xbd2a3949	-0.041558538
194	0x3e9d4be5	0.30721965
195	0x3ea5c8be	0.32379717
196	0x3ebc7b84	0.36812985
197	0xbe4cce3f	-0.20000552
198	0xbe3ddfa0	-0.18542337
199	0x3eab4829	0.3345349
200	0xbd32197a	-0.043481328
201	0x3d3740e0	0.044739604
202	0x3ebfeca7	0.3748524
203	0xbdd26df3	-0.102748774
204	0x3cb40eda	0.021979738
205	0x3e553c72	0.2082384
206	0xbe504f37	-0.20342718
207	0x3dabfe73	0.08398142
208	0xbcb76211	-0.022385629
209	0x3e31c960	0.17361975
210	0x3c502eb5	0.012706448
211	0xbe21ddbb	-0.1580724
212	0x3e0dc540	0.13844776
213	0x3ecfc169	0.40577248
214	0xbe1b444e	-0.15162775
215	0xbadd273a	-0.0016872652
216	0x3d819f5d	0.06329224
217	0xbe178660	-0.14797354
218	0x3c9aa1c8	0.018875971
219	0x3ea9ddee	0.3317713
220	0xbdeaf9c9	-0.11473424
221	0x3df3ff1c	0.119138926
222	0xbd11f465	-0.035633463
223	0x3db44b36	0.08803408
224	0xbe9f683e	-0.31134218
225	0xbe360e12	-0.17778805
226	0x3dbf2b22	0.09334399
227	0xbd455faf	-0.048186954
228	0x3e952756	0.29131573
229	0x3d3bdad2	0.04586298
230	0xbdcf0763	-0.10108831
231	0x3e972f7b	0.29528412
232	0xbe4e0dfa	-0.20122519
233	0xbd4e52a9	-0.0503718
234	0xbe83f218	-0.2577064
235	0x3e36ed3b	0.17863934
236	0xbd2809d8	-0.041025013
237	0x3df794b1	0.120889075
238	0x3e4ad108	0.19806302
239	0x3e8ca1b0	0.27467108
240	0x3d53be62	0.051695235
241	0xbddd7f1c	-0.1081526
242	0x3eb38554	0.3506266
243	0xbeb2e788	-0.3494227
244	0x3ea869d3	0.32893237
245	0xbe19e9ee	-0.15030643
246	0x3ea48354	0.32131445
247	0xbeafcd99	-0.34336546
248	0xbeae6351	-0.34060147
249	0xbe2f58d1	-0.17123725
250	0x3ee97109	0.4559405
251	0xbe4c3565	-0.19942243
252	0x3e1bc619	0.15212287
253	0x3dc958dc	0.09831402
254	0x3de9a576	0.11408512
255	0xbe51e290	-0.20496583

critic.2.bias f4 [32]
0	0x3d8c92e8	0.06863958
1	0x3de0ec35	0.10982553
2	0xbcfef7d1	-0.031124027
3	0x3e1364c1	0.14393903
4	0xbcb83658	-0.02248685
5	0x3e15a9eb	0.146156
6	0x3ddb340f	0.10703289
7	0x3d89ad16	0.06722467
8	0x3dc16745	0.09443525
9	0xbcc3a9e2	-0.023884717
10	0x3e084b22	0.13309911
11	0xbd06a70f	-0.032874163
12	0x3dc0496d	0.09389005
13	0xbd0c09d7	-0.03418907
14	0x3de7db6a	0.11321147
15	0x3d4c5fa2	0.04989589
16	0x3dceac01	0.10091401
17	0x3d92e330	0.07172239
18	0x3dc629c8	0.09675938
19	0x3d9e2772	0.07722367
20	0xbca76e11	-0.020438226
21	0x3df95d81	0.121760376
22	0x3e18ca91	0.14921023
23	0xbd36e17b	-0.04464863
24	0xbc4f7e8a	-0.012664447
25	0xbd65e177	-0.056123223
26	0xbd13d4c7	-0.036091592
27	0xbd00a3f3	-0.031406354
28	0x3dc45ec4	0.095883876
29	0xbd23fb48	-0.040034562
30	0xbcdeeb8c	-0.027211927
31	0x3dea5aa0	0.114430666

critic.4.weight f4 [32, 32]
0	0x3e5b2679	0.21401395
1	0x3e70bdba	0.23509875
2	0xbd8cd65f	-0.068768255
3	0x3ebae36d	0.36501637
4	0x3e8f2571	0.27958253
5	0xbe11d89c	-0.14242786
6	0x3ea21e23	0.31663617
7	0xbe6eeb95	-0.23332055
8	0x3d0ce772	0.03440041
9	0xbd835bff	-0.06414031
10	0x3da04be0	0.07826972
11	0x3ddeef8a	0.10885532
12	0xbe1c355d	-0.15254731
13	0xbe26910d	-0.1626627
14	0x3ddd13f9	0.10794825
15	0xbd08580a	-0.033287086
16	0xbce7a32b	-0.028276047
17	0x3d42f299	0.04759464
18	0x3e92a508	0.28641534
19	0xbd02cd10	-0.031933844
20	0xbe6a8e90	-0.22905946
21	0x3df90536	0.12159197
22	0xbe11fd81	-0.1425686
23	0x3e880a5c	0.26570404
24	0xbe61e133	-0.22058563
25	0x3e3742e0	0.17896605
26	0x3b9f5a72	0.004863077
27	0xbe1c853c	-0.152852
28	0x3e872796	0.2639739
29	0xbea2cfd7	-0.31799194
30	0x3e30381d	0.17208906
31	0x3e84f07b	0.25964722
32	0x3db2c222	0.08728434
33	0x3eb7041a	0.35745317
34	0x3e36b096	0.178408
35	0x3ec60fda	0.3868397
36	0x3c6acce8	0.01433108
37	0x3ec50855	0.3848292
38	0xbd324084	-0.04351856
39	0x3de00ceb	0.10939964
40	0x3e93e94f	0.28888938
41	0x3e5eda2b	0.21762912
42	0x3dd4f834	0.103989035
43	0xbe884aad	-0.26619473
44	0xbdd24ee8	-0.102689564
45	0xbe547108	-0.20746243
46	0xbde773e3	-0.113014005
47	0xbddf31e2	-0.10898186
48	0x3e719ef1	0.23595788
49	0x3e023217	0.1271442
50	0xbe088045	-0.13330181
51	0xbe07ae12	-0.13249996
52	0x3e90bb0d	0.28267708
53	0xbce75c45	-0.02824224
54	0x3e658562	0.22414163
55	0xbd251743	-0.040305387
56	0x3d6271f5	0.05528446
57	0x3e0d5846	0.13803205
58	0xbc3aad57	-0.0113938665
59	0xbd83bc44	-0.06432393
60	0x3ddcc32c	0.107794136
61	0x3e47cd44	0.19511896
62	0xbe256e3f	-0.16155337
63	0x3de39d9e	0.111140475
64	0xba1253cc	-0.0005581945
65	0x3e72637a	0.2367076
66	0x3d7eea77	0.06223532
67	0x3dc215d6	0.09476821
68	0xbe14cbc8	-0.14530861
69	0x3d697b6d	0.057002474
70	0x3d5e871d	0.054328073
71	0x3d843d65	0.064570226
72	0xbe49b609	-0.19698347
73	0x3e282fe3	0.16424517
74	0x3e2248cf	0.15848087
75	0x3e745ceb	0.2386357
76	0xbe185a2c	-0.14878148
77	0x3bbd607a	0.005779323
78	0xbe6a3491	-0.22871615
79	0x3d33c145	0.043885488
80	0x3e406ea1	0.18792202
81	0x3d3704ee	0.044682436
82	0xbe7466bc	-0.23867315
83	0xbd48117f	-0.04884481
84	0x3e59d524	0.21272713
85	0x3dd1b7b7	0.10240119
86	0xbd052e54	-0.032514885
87	0xbe5f1386	-0.21784791
88	0x3d27f56f	0.041005548
89	0x3d6d2121	0.057892922
90	0xbdf5448c	-0.11975965
91	0xbdc159d4	-0.094409615
92	0xbe6a0cec	-0.22856492
93	0x3cfa49cf	0.030552773
94	0xbe0b89d4	-0.13626796
95	0xbe348941	-0.17630483
96	0x3dc4d8b0	0.09611642
97	0xbe4155d9	-0.18880405
98	0xbd131bff	-0.03591537
99	0x3be1d0b2	0.0068913335
100	0x3dca01f5	0.098636545
101	0x3e7d8be9	0.24760403
102	0x3e07050d	0.1318552
103	0xbe87d68e	-0.2653088
104	0xbd6065b8	-0.054784507
105	0xbdd120a3	-0.10211303
106	0x3cb857cf	0.022502808
107	0x3e9c7fb5	0.30566183
108	0xbe56e313	-0.2098506
109	0xbceaf223	-0.028679913
110	0xbe4118f7	-0.1885718
111	0xbda628bb	-0.081132375
112	0xbe2bdbf7	-0.16783129
113	0xbe9709ef	-0.29499766
114	0x3ce607bd	0.028079862
115	0x3e8be985	0.273266
116	0xbb44fee8	-0.0030059163
117	0x3e5c9daa	0.21544519
118	0x3e6ae166	0.22937545
119	0x3e61ed7e	0.22063252
120	0x3d6375f2	0.055532403
121	0x3e09e081	0.13464548
122	0x3e3abe8b	0.18236749
123	0xbe4be67d	-0.19912143
124	0xbe1023ba	-0.14076129
125	0xbe37fe67	-0.1796814
126	0xbe9d999a	-0.3078125
127	0xbdbe2561	-0.09284473
128	0xbea93f26	-0.3305599
129	0x3eb164e5	0.3464729
130	0x3e06ebea	0.13175932
131	0x3d5b82df	0.053591605
132	0x3e76652b	0.2406203
133	0x3ede2d80	0.4339409
134	0x3ec9c90c	0.394112
135	0x3eb25829	0.34832886
136	0x3eb97cc8	0.36228013
137	0xbe333d2f	-0.17503808
138	0xbcf20f13	-0.029548204
139	0xbd86a15e	-0.06573747
140	0x3ea54a13	0.32283077
141	0x3e7e07ae	0.24807617
142	0x3ecaa06e	0.39575523
143	0x3e3b0938	0.18265235
144	0xbe1d6a91	-0.15372683
145	0x3e3946d0	0.18093419
146	0xbd25dc5d	-0.040493358
147	0xbd0444d0	-0.032292187
148	0xbe947efb	-0.29003128
149	0x3d6331c7	0.055467393
150	0x3e06ac61	0.13151695
151	0xbda9790d	-0.08275042
152	0xbe1b8d0e	-0.15190527
153	0xbdebecf6	-0.11519806
154	0xbeaddcff	-0.3395767
155	0xbd0559be	-0.032556288
156	0x3d011e08	0.03152278
157	0xbe607498	-0.21919477
158	0xbe66daef	-0.22544454
159	0x3e867b34	0.26265872
160	0xbe7b28dc	-0.24527305
161	0x3e7f97f8	0.24960315
162	0x3e507d10	0.20360208
163	0x3ebd51cc	0.3697647
164	0x3c30387e	0.010755656
165	0x3d1a4a6d	0.037668634
166	0xbdef23de	-0.11676763
167	0xbe0d64dd	-0.13808008
168	0x3eb4aae1	0.3528662
169	0xbe8daacd	-0.27669373
170	0x3ea823a7	0.328397
171	0x3e5b5cbb	0.21422093
172	0x3e87a703	0.26494607
173	0xbe9af529	-0.30265167
174	0xbb861189	-0.004091446
175	0xbe1d4b30	-0.15360713
176	0x3ebb8385	0.3662378
177	0x3e6b5d9f	0.22984932
178	0xbd835bc7	-0.064139895
179	0x3e2e6bc7	0.17033301
180	0xbe97cbdd	-0.29647723
181	0xbd80284c	-0.06257686
182	0x3eb47138	0.3524263
183	0xbe76567a	-0.24056426
184	0xbd80aa73	-0.062825106
185	0x3d4fb2d0	0.05070764
186	0xbe26b97e	-0.16281697
187	0xbe4e0f3d	-0.20123
188	0x3e364e1d	0.17803235
189	0x3d75e0b2	0.06002874
190	0x3e232d61	0.1593528
191	0x3ed86dd3	0.4227129
192	0xbd6e8886	-0.058235668
193	0xbe7d4965	-0.24735029
194	0x3c739d1a	0.014868999
195	0xbe09b2c4	-0.134471
196	0xbdee1e43	-0.11626866
197	0xbea2dee3	-0.31810674
198	0xbeab02f8	-0.33400702
199	0x3d9f2233	0.07770195
200	0xbe809fc9	-0.25121906
201	0x3e74b133	0.23895721
202	0xbe58b05e	-0.21161029
203	0xbe5e23dd	-0.21693368
204	0xbe29935c	-0.1656012
205	0x3e908545	0.28226677
206	0xbc02fba9	-0.007994571
207	0xbe838385	-0.2568628
208	0xbec23758	-0.3793285
209	0xbeadb404	-0.33926404
210	0xbdb69476	-0.089150354
211	0x3db957a2	0.09049918
212	0xbe46ee15	-0.19426759
213	0xbd85570a	-0.06510742
214	0xbea4680d	-0.32110634
215	0x3d060a88	0.032724887
216	0xbe44fac2	-0.19236282
217	0x3e638c19	0.22221412
218	0xbe169a20	-0.14707232
219	0xbe8cb2ba	-0.27480108
220	0xbe756457	-0.23964058
221	0x3e561a3f	0.2090845
222	0x3e14d43a	0.14534083
223	0xbdb98df1	-0.09060276
224	0xbd29f5f2	-0.041494317
225	0x3e87434f	0.2641854
226	0x3dfcea9a	0.12349434
227	0x3e1e3f2b	0.15453784
228	0x3d5d04a0	0.05395949
229	0x3ecdd6e6	0.40203017
230	0xbc81e5d2	-0.015856657
231	0xbe57200d	-0.2100832
232	0x3eb78c9f	0.35849473
233	0x3e69c69e	0.22829673
234	0xbe2cde4c	-0.16881675
235	0xbdf30633	-0.11866417
236	0x3ec53496	0.38516682
237	0xbe01317c	-0.12616533
238	0xbe0280c6	-0.12744436
239	0x3e71f91e	0.23630187
240	0x3e8a3f4f	0.27001426
241	0x3c7febc9	0.01562018
242	0x3e9a7ef6	0.30174989
243	0x3e29ab15	0.16569169
244	0xbe21b705	-0.15792473
245	0x3d7a2032	0.06106586
246	0x3e73d279	0.23810758
247	0xbe285bb2	-0.16441229
248	0xbd3fb071	-0.046799127
249	0xbe804e20	-0.25059605
250	0xbe5bb82e	-0.21456978
251	0xbe68e27c	-0.22742647
252	0xbc550e36	-0.013003876
253	0xbe816ec9	-0.25279835
254	0xbd6f73a0	-0.058459878
255	0x3d952179	0.07281775

critic.4.bias f4 [32]
0	0x3d9c42a4	0.07629898
1	0x3d9a5db3	0.07537403
2	0xbd2d44bb	-0.042301875
3	0xbcc14ed2	-0.023597155
4	0x3d9b4e62	0.0758331
5	0x3de7a669	0.11311037
6	0xbd96b44b	-0.07358607
7	0x3d908d1a	0.07058163
8	0xbcc90c82	-0.024542097
9	0xbd23d4fb	-0.039998036
10	0x3db1f662	0.08689572
11	0x3d9bb3a0	0.0760262
12	0xbcabe4cb	-0.02098312
13	0x3dde0de2	0.10842492
14	0xbc978e51	-0.018500479
15	0x3da55bd5	0.08074156
16	0xbcf53044	-0.029930241
17	0x3e2d8b83	0.16947751
18	0x3d3534ed	0.044239927
19	0xbd08d714	-0.03340824
20	0xbd2a7425	-0.04161467
21	0x3e237409	0.15962233
22	0x3db601a0	0.08887029
23	0x3d972fb1	0.07382143
24	0x3d8af874	0.0678567
25	0xbd4d312d	-0.050095726
26	0x3da83c2a	0.082146004
27	0x3db96dc2	0.09054138
28	0xbcf94494	-0.030428208
29	0xbc3e4a95	-0.011614461
30	0xbc834b70	-0.016027182
31	0x3d9bd69a	0.076092914

critic.6.weight f4 [1, 32]
0	0xbe4e9903	-0.20175557
1	0xbef04c1c	-0.46933067
2	0x3e78649f	0.24257134
3	0x3e1ee419	0.155167
4	0xbee003db	-0.4375294
5	0xbe27f9e6	-0.16403922
6	0x3e2f6a88	0.17130482
7	0xbea3b133	-0.3197113
8	0x3e24a8cf	0.1608002
9	0x3e78908d	0.24273892
10	0xbebaca2d	-0.36482373
11	0xbe7efd88	-0.24901402
12	0x3dfd995f	0.12382769
13	0xbe9db62f	-0.30803058
14	0x3d8ac2c3	0.06775429
15	0xbef4e23f	-0.47828862
16	0x3e1f95db	0.15584509
17	0xbe2601b5	-0.16211589
18	0xbe34512d	-0.17609091
19	0x3df18f87	0.11794954
20	0x3f0468d1	0.5172244
21	0xbe0df274	-0.1386202
22	0xbf0f9580	-0.56087494
23	0xbeaf567a	-0.34245664
24	0xbef9b56b	-0.48771223
25	0x3e76dc8e	0.24107572
26	0xbee69e85	-0.45042816
27	0xbec908ec	-0.3926462
28	0x3ea7009f	0.3261766
29	0x3e047654	0.12935764
30	0x3de4c89c	0.11171076
31	0xbecbb210	-0.39784288
