models/tetris_ppo_interrupted_20251022_154146.pth/model.ckpt-1.pth (torch, 70113 bytes, 15 tensors)

actor.0.weight f4 [32, 180]
0	0xc0adff64	-5.4374256
1	0xbfe3989a	-1.7780945
2	0x4038f5d9	2.8900054
3	0x3fe56321	1.7920877
4	0xbe8aa2dc	-0.27077377
5	0x400f7c03	2.241944
6	0x4019cf57	2.40328
7	0x3faf654e	1.3702791
8	0xbff0e147	-1.8818749
9	0xc0da8f05	-6.8299584
10	0xc12d3e04	-10.827641
11	0xc01a6d63	-2.4129264
12	0xbeb388d9	-0.35065344
13	0x3fa8128a	1.3130658
14	0x40887078	4.263729
15	0x4012aba6	2.2917266
16	0x3f87a891	1.0598317
17	0x3f4406e0	0.7657299
18	0xc02b0019	-2.671881
19	0xc14512d9	-12.3171015
20	0xc040f26b	-3.014796
21	0xbf90cadc	-1.1311908
22	0x3f98f101	1.1948549
23	0xbfbf4245	-1.4942099
24	0x3fe77a81	1.808426
25	0x3f1e78eb	0.61903256
26	0x3f7f7f8e	0.9980401
27	0x3faba539	1.3409797
28	0xbe026bc8	-0.12736428
29	0xc094b632	-4.6472406
30	0xbfc823b4	-1.5635896
31	0x3f8082cd	1.0039917
32	0x3ecb54e7	0.39713213
33	0xbfa9b935	-1.3259646
34	0xbed8fcd4	-0.42380393
35	0xbe3ff58b	-0.18746011
36	0xbfb765ad	-1.4327904
37	0xbf174bce	-0.59100044
38	0xbee2e512	-0.44315392
39	0xbfe140c4	-1.759789
40	0xbfdf533b	-1.7447275
41	0xbf98305b	-1.1889757
42	0xbf81af55	-1.0131632
43	0xbf4db466	-0.8035339
44	0xbfc2ae4b	-1.520944
45	0xbff173dd	-1.8863484
46	0xbff960ef	-1.9482707
47	0xbec72117	-0.38892433
48	0xbf9b7fbc	-1.2148356
49	0xbf8a4b9b	-1.0804323
50	0xbf462c28	-0.7741113
51	0xbf9753d4	-1.1822457
52	0xbf1d3b2d	-0.6141842
53	0xbeadfeaa	-0.33983356
54	0xbcbbe408	-0.022935882
55	0x3f6a593e	0.9154242
56	0x3e2c56ba	0.16829959
57	0x3f31f53b	0.69514817
58	0xbf0d36ea	-0.5516192
59	0xbf894150	-1.0723057
60	0xc0048dfc	-2.071166
61	0xbf425bed	-0.7592152
62	0xbf23b3fe	-0.6394652
63	0x3fdc05e3	1.7189296
64	0x3f4560f5	0.7710107
65	0xbe15e67a	-0.14638701
66	0x3e90ac2f	0.28256366
67	0xba34bee4	-0.00068949
68	0x3e5ba7d8	0.21450746
69	0xbdd51c72	-0.10405816
70	0xbfd5d1bf	-1.6704634
71	0xc0022e16	-2.0340629
72	0xbdd0cac3	-0.10194924
73	0xbd5f6431	-0.05453891
74	0x3eaced35	0.33774725
75	0x3e85dd0c	0.26145208
76	0x3e2c1183	0.16803555
77	0xbe5f795d	-0.2182364
78	0x3e7d344c	0.24726981
79	0x3e1dda82	0.15415385
80	0xbfc0b71a	-1.5055878
81	0xbf1b6dad	-0.60714227
82	0xbf58c374	-0.8467324
83	0xbf6375f1	-0.8885184
84	0x3f1e6e3a	0.6188694
85	0x3f3f3c9b	0.7470185
86	0x3f83a4af	1.0284632
87	0x3e55e789	0.20889105
88	0x3f74e71a	0.95665133
89	0x3e196ec4	0.1498366
90	0xbfc039f1	-1.5017682
91	0xbf2ceb26	-0.6754631
92	0xbed9bf86	-0.42528933
93	0xbef51a59	-0.47871664
94	0x3e11c3e1	0.14234878
95	0xbe8b3856	-0.27191418
96	0x3effc424	0.4995433
97	0xbeb4a463	-0.35281667
98	0xbe28a49c	-0.16469043
99	0xbe3bd769	-0.18343891
100	0xbf843b8f	-1.0330676
101	0xbf3eb901	-0.74501044
102	0xbea5fc44	-0.32419026
103	0x3e0d674e	0.13808939
104	0x3b1d8dfe	0.0024040933
105	0x3ea1cd4c	0.31601942
106	0xbe94ea7d	-0.2908515
107	0xbed4736e	-0.41494316
108	0x3dc87d09	0.097894736
109	0xbf1321e6	-0.574736
110	0xbfff401b	-1.9941438
111	0xbf3f8434	-0.748111
112	0xbefbb61c	-0.49162376
113	0x3e3bae7d	0.18328281
114	0x3ee7fec2	0.45311552
115	0x3dfbd394	0.12296215
116	0x3eebdf98	0.46069026
117	0xbebcd3f6	-0.36880463
118	0x3dbe124d	0.09280834
119	0xbeafff88	-0.34374642
120	0xbfe38947	-1.7776269
121	0xbfd026dd	-1.626186
122	0xbf52afdc	-0.8229959
123	0x3e8e6c08	0.27816796
124	0x3eb7f28e	0.35927242
125	0x3e926469	0.28592232
126	0xbdc3b861	-0.09556652
127	0x3f55b7b3	0.8348343
128	0xbf4b8618	-0.79501486
129	0xbfabb374	-1.341414
130	0xbfd3cf12	-1.6547568
131	0xbf5502e2	-0.83207524
132	0xbf507835	-0.8143342
133	0xbf9d6691	-1.2296926
134	0x3ed4d3f8	0.4156797
135	0xbe8bf17e	-0.2733268
136	0xbf1fd3fe	-0.6243285
137	0xbf25c1ed	-0.6474903
138	0xbe75c652	-0.24001434
139	0xbe3c1c43	-0.18370156
140	0xbff8fe64	-1.9452634
141	0xbf4198a0	-0.7562351
142	0xbe41caaf	-0.18924974
143	0xbdcf76f1	-0.10130108
144	0x3f23857a	0.63875544
145	0xbecca283	-0.39967737
146	0xbf5e96c6	-0.8694881
147	0x3ec5e612	0.38652092
148	0xbee54ca0	-0.44785023
149	0xbf93362a	-1.1500905
150	0xbf6aa319	-0.9165512
151	0xbf928a61	-1.144848
152	0x3b55026a	0.003250266
153	0xbedd2054	-0.43188727
154	0xbeb49cc6	-0.3527586
155	0x3e016515	0.12636216
156	0xbe1ae322	-0.15125707
157	0x3deff816	0.117172405
158	0xbe74f15a	-0.23920193
159	0x3e35a814	0.17739898
160	0xbd4c9f07	-0.049956348
161	0x40615099	3.5205443
162	0x3efde800	0.49591064
163	0xbeaa01ef	-0.332046
164	0xbe559453	-0.20857362
165	0x3e363cce	0.17796633
166	0xbe376731	-0.17910458
167	0x3eacc12d	0.3374113
168	0x3e9cd913	0.30634364
169	0x3e887d59	0.26658133
170	0x3f0e2ff9	0.5554195
171	0x3e01fcd9	0.1269411
172	0x3f8c17a9	1.094472
173	0xbf827650	-1.0192356
174	0xbf6c9c56	-0.9242605
175	0x3db6802f	0.08911168
176	0x3ee44efd	0.44591513
177	0x3d797238	0.060899943
178	0xbe5031bb	-0.2033147
179	0x3ef64461	0.48099044
180	0xbfd88708	-1.6916208
181	0xbe6d9667	-0.23201905
182	0x3e886688	0.26640725
183	0x3d1d3201	0.038377766
184	0xbf28d837	-0.6595492
185	0xbf4a0b19	-0.78923184
186	0xbf4298c3	-0.76014346
187	0xc021b0db	-2.5264194
188	0xbf54940c	-0.830384
189	0x3f999d45	1.200112
190	0xc0053791	-2.0815165
191	0xbf9b1b49	-1.2117702
192	0xbf7ba9b3	-0.98305815
193	0x3f31d9d9	0.69473034
194	0x3ecb72d4	0.39736044
195	0xbca1ebf9	-0.01976584
196	0xbf9d2468	-1.2276735
197	0xc07682a6	-3.8517241
198	0xbfd956d2	-1.697962
199	0x3fe064a7	1.7530717
200	0x3ee97199	0.4559448
201	0xbeeafd91	-0.4589658
202	0x3ed92768	0.42412877
203	0x3ea7eea1	0.32799247
204	0xbe57f678	-0.21090114
205	0xbf528b83	-0.8224413
206	0xbfc96565	-1.5734068
207	0xc01b3374	-2.4250154
208	0xbf560eeb	-0.83616513
209	0x3fa02c6a	1.2513554
210	0x3f196a99	0.5992828
211	0x3e3fc4d6	0.1872743
212	0x3e83876c	0.25689256
213	0xbeaaace4	-0.3333503
214	0x3eb3828c	0.35060537
215	0x3ee32f0f	0.4437184
216	0xbe2a9b87	-0.16660891
217	0xbec0eda6	-0.3768131
218	0xbe945a79	-0.28975275
219	0x3dfa0064	0.12207106
220	0x3db6e190	0.089297414
221	0x3f017dcf	0.50582594
222	0xbe0495e2	-0.12947801
223	0x3f1a0be2	0.6017438
224	0x3f2d63fb	0.67730683
225	0x3f3da554	0.74080396
226	0x3f1021b3	0.5630142
227	0xbd56b3e9	-0.05241767
228	0xbf033820	-0.51257515
229	0xbecb22c3	-0.3967496
230	0xbfec7ec9	-1.8476192
231	0xc02e8776	-2.7270179
232	0xc0272a9b	-2.6119754
233	0xc0441387	-3.0636919
234	0xc020f1e4	-2.5147638
235	0xc025f169	-2.5928595
236	0xc01723f6	-2.36157
237	0xc00afcd1	-2.1716807
238	0xc00c5e13	-2.1932418
239	0xbf7bcf4f	-0.983632
240	0xc04fb824	-3.245614
241	0xc091e734	-4.559473
242	0xc04e9d0b	-3.2283351
243	0xc025f324	-2.5929651
244	0xc0263b7c	-2.5973806
245	0xc04773f2	-3.1164517
246	0xc022dc0e	-2.544681
247	0xc043c6e0	-3.0590134
248	0xc074db35	-3.8258793
249	0xc0067103	-2.1006477
250	0xbfc80fd7	-1.5629834
251	0xc0013bd9	-2.0192778
252	0xc00a287a	-2.1587205
253	0xbf77e0d6	-0.9682745
254	0xc0737cb8	-3.8044872
255	0xc0622788	-3.5336628

actor.0.bias f4 [32]
0	0xbe96d302	-0.2945786
1	0xc042f7e0	-3.046379
2	0x3f6d8d0b	0.9279334
3	0xbf6ed434	-0.93292546
4	0x3e32908b	0.17437951
5	0x3ead9f0d	0.3391041
6	0xbe0b2490	-0.13588166
7	0xbd0d9ce3	-0.034573447
8	0xc010a5e0	-2.2601242
9	0xbeba2330	-0.3635497
10	0x3c974beb	0.018468818
11	0xbec43cc5	-0.38327613
12	0xbd58b1f7	-0.052904096
13	0x3f7f630e	0.9976052
14	0x3ea3d75c	0.32000244
15	0xbe1ef9a5	-0.1552492
16	0xbfbffc46	-1.4998863
17	0x3ecbd01f	0.3980722
18	0xbf175c53	-0.5912525
19	0xbfe30fbb	-1.7739176
20	0xbe81470d	-0.2524952
21	0xbf209f7e	-0.62743366
22	0xbe20d98e	-0.1570799
23	0xbff64081	-1.9238435
24	0xbe81ff8f	-0.25390288
25	0x3f4aeef4	0.79270864
26	0xbf5be0f4	-0.85890126
27	0xbee9bd19	-0.45652083
28	0xbe5edfc9	-0.21765055
29	0xbf854e6e	-1.041456
30	0x3dd32807	0.10310369
31	0xbe16a620	-0.14711809

actor.2.weight f4 [32, 32]
0	0x3e0f9b53	0.14024095
1	0x4006eec7	2.1083238
2	0xbe253d60	-0.16136694
3	0x3fbb0e84	1.4613805
4	0x3fda45d3	1.7052559
5	0xbfdd88a1	-1.7307321
6	0xbe9e68c9	-0.3093932
7	0x3f1ff121	0.6247731
8	0x402331f2	2.5499234
9	0x3faa9ff8	1.3330069
10	0x3d81967e	0.06327532
11	0x3f4acf06	0.7922214
12	0x3fcdf93d	1.6091686
13	0x3f8b2492	1.0870535
14	0xc0397844	-2.8979654
15	0x3f57012e	0.83986175
16	0x4025c82b	2.5903423
17	0x3f763824	0.96179414
18	0xbf92cc1e	-1.1468542
19	0x3fc39af0	1.5281658
20	0x40225199	2.5362303
21	0xc00e033c	-2.2189474
22	0x3fe1aaaa	1.7630208
23	0x402a7195	2.6631825
24	0xc0022892	-2.0337262
25	0x3ec302ed	0.3808817
26	0x401aafb4	2.416974
27	0x3f698b17	0.9122786
28	0x3fd8b167	1.6929139
29	0xbf8cf1d3	-1.1011299
30	0xbd1277ae	-0.035758667
31	0x3fe4cdeb	1.7875341
32	0x3ed6a52b	0.41922888
33	0xbf195c73	-0.5990669
34	0x3f7fc025	0.99902564
35	0x3ef9612e	0.48706955
36	0x3e71fe49	0.23632158
37	0xbf388d8f	-0.72091
38	0x3e4ce958	0.20010889
39	0x3f168045	0.58789474
40	0xbecd86f9	-0.40142038
41	0x3e9063c4	0.28201115
42	0xbfdf50e8	-1.7446566
43	0xbe6a3160	-0.22870398
44	0xbda56924	-0.080766946
45	0x3f413213	0.7546703
46	0x3e5c4edb	0.21514456
47	0xbcdd72e2	-0.02703232
48	0xbf46ccd8	-0.77656317
49	0x3f376f90	0.71654606
50	0xbf9e0d99	-1.23479
51	0x3ce6fc93	0.028196609
52	0x3ee3a3d9	0.44460943
53	0x3e3aa1ce	0.18225786
54	0xbf7136aa	-0.94224036
55	0xbd76ad31	-0.060223762
56	0x3f061599	0.52376705
57	0xbf932aeb	-1.1497473
58	0xbdfe0633	-0.12403526
59	0xbe5bedbb	-0.21477406
60	0x3f884d82	1.0648654
61	0xbfb1ddc6	-1.3895805
62	0x40091def	2.142452
63	0xbf72cf3e	-0.94847476
64	0xbfce34fb	-1.6109918
65	0x3fd9c245	1.7012411
66	0x3fc40b98	1.5316038
67	0x400c5446	2.1926436
68	0x3feddd66	1.858319
69	0xbf1b1d52	-0.60591614
70	0xbf6f4adc	-0.934736
71	0xbef9fe01	-0.48826602
72	0x3f93b810	1.1540546
73	0x3f9dbaa1	1.232258
74	0x3ee6780d	0.45013466
75	0x3fa7a722	1.309788
76	0x3fd52afa	1.665374
77	0x3f5ecb2d	0.8702877
78	0xbf0cbf81	-0.5497971
79	0xbfb605e5	-1.4220549
80	0x3ffed535	1.9908816
81	0x3fbeffc1	1.49218
82	0x3f412b0a	0.754563
83	0x3f96770a	1.1755078
84	0x400c6eac	2.1942549
85	0xbfaf684b	-1.3703703
86	0x3faab757	1.3337201
87	0x3f97b789	1.1852885
88	0xbe7bb303	-0.24580006
89	0x3e900757	0.281306
90	0x3fab692a	1.3391469
91	0x3ec8f179	0.3924673
92	0xbf549286	-0.8303608
93	0x3e962e53	0.29332218
94	0x3f0ad0ce	0.5422486
95	0x3f9cc42e	1.2247369
96	0xbf2e70af	-0.6814069
97	0x3fa3a2d8	1.2784071
98	0x3f835f53	1.0263466
99	0x3f08e383	0.53472155
100	0x3fa48fd8	1.2856398
101	0xbf85b00e	-1.0444353
102	0xbe9e84e3	-0.3096076
103	0x3ef3293d	0.474924
104	0x3f992709	1.1965038
105	0x3f7460e5	0.9546035
106	0xbdcc416a	-0.09973414
107	0xbd615f9b	-0.055022817
108	0x3f9048a7	1.1272172
109	0x3f4c8f17	0.7990584
110	0xbe644cf5	-0.22294982
111	0x3f22f878	0.63660383
112	0x3fa22b8e	1.2669542
113	0x3fd764f3	1.6827682
114	0xbf728c1f	-0.9474506
115	0x3fd5bab5	1.6697603
116	0x4005a280	2.0880432
117	0xbfc190fc	-1.5122371
118	0x3f52f23a	0.8240086
119	0x3fef6e87	1.8705605
120	0xbf202a13	-0.625642
121	0x3ead2152	0.33814484
122	0x3ff1333a	1.8843758
123	0x3ec60a75	0.38679853
124	0xbf0585bc	-0.5215719
125	0x3d91d58d	0.0712081
126	0xbf41ba41	-0.75674826
127	0x3f20087e	0.6251296
128	0xbe5b88d5	-0.21438916
129	0x3edf2719	0.43584517
130	0xc0414e3f	-3.0204008
131	0x3e888fe7	0.2667229
132	0xbf084b44	-0.53239846
133	0xbf491e75	-0.785621
134	0x3fddc2dd	1.7325093
135	0xbf9dfe4a	-1.2343228
136	0xbf4f5126	-0.809832
137	0xbfcfe441	-1.6241533
138	0x3e335643	0.17513375
139	0x3f4745fb	0.77841157
140	0x3e0c9ff4	0.13732892
141	0x3e2fbfbe	0.17162988
142	0xbd76d0d0	-0.060257733
143	0xbfaa3f70	-1.330061
144	0xbe2fa4b7	-0.17152677
145	0xbfdb6cdf	-1.71426
146	0xbf6bf6e0	-0.92173576
147	0x3f1fc534	0.62410283
148	0x3f3b175b	0.7308251
149	0x3e7f4c15	0.24931367
150	0xbf782910	-0.96937656
151	0xbeddfd60	-0.43357372
152	0x3fb45f87	1.4091653
153	0xbfe643ff	-1.7989501
154	0xbfa874ac	-1.3160605
155	0xbf2c33ae	-0.67266357
156	0x3e3d55e8	0.18489802
157	0x3e691564	0.22762066
158	0x3f3e56e4	0.74351335
159	0xbf881696	-1.0631893
160	0xbf40987b	-0.75232667
161	0x3fe97578	1.8238974
162	0x3f55c0a5	0.8349708
163	0x3f7eca2e	0.9952725
164	0x3f79525d	0.973913
165	0xbf362acb	-0.71159047
166	0x3ebf44ed	0.37357274
167	0x3f2e1b01	0.68009955
168	0x401089ec	2.258418
169	0x3f8dbb2b	1.1072744
170	0x3f0d015f	0.5508022
171	0x3f210d32	0.6291076
172	0x3ff659b1	1.9246122
173	0x3fd5e940	1.6711807
174	0xc02d485a	-2.707541
175	0xbd2b1f05	-0.04177763
176	0x3fc5f2bb	1.54647
177	0x402cb228	2.6983738
178	0xbf9ca15d	-1.2236744
179	0x3fca7725	1.581761
180	0x3fd92e05	1.6967169
181	0xbf937076	-1.1518695
182	0x3f666a58	0.9000602
183	0x40153114	2.3311205
184	0xc01505d7	-2.3284814
185	0xbdf1a057	-0.117981605
186	0x3fc08f02	1.5043643
187	0x3f5c000c	0.8593757
188	0x3f44f8a3	0.7694189
189	0xbe7797b0	-0.24178958
190	0x3f509e4c	0.8149154
191	0x3ff79620	1.934269
192	0x3d815c8a	0.063164786
193	0x3fe40c1d	1.7816197
194	0x3f783099	0.96949154
195	0xbdb76950	-0.08955634
196	0x3fb72b1e	1.4310033
197	0xbf146e43	-0.57980746
198	0x3faf4e82	1.3695834
199	0x3faabe79	1.3339378
200	0x3fcf7506	1.6207588
201	0x3fcda9fd	1.6067501
202	0xbfa131f9	-1.2593375
203	0xbdec7fee	-0.11547838
204	0x403e873b	2.9770038
205	0x3fc5a0b3	1.5439667
206	0xbf9839c1	-1.1892625
207	0xbdcbd0d1	-0.09951938
208	0x3f9f1394	1.242785
209	0x3f8ecdf7	1.1156605
210	0xbf644e5d	-0.8918207
211	0x3f64ed0b	0.894242
212	0x3eb2880b	0.34869418
213	0xbf5a73cb	-0.85332936
214	0x3f529660	0.82260704
215	0x3fbc185d	1.4694935
216	0xbf66ea63	-0.90201396
217	0x3e04b272	0.12958696
218	0x3fcf8abb	1.6214212
219	0x3ff40dd0	1.9066715
220	0x3f1c838f	0.6113824
221	0xbf77916d	-0.9670628
222	0xbe6e69c8	-0.2328254
223	0xbf0022e6	-0.5005325
224	0xbf09a706	-0.5377048
225	0x3fadfdcf	1.3593081
226	0x3d5e476e	0.05426734
227	0x3f41a7f3	0.75646895
228	0x3f89e5e0	1.0773277
229	0xbee3dc45	-0.4450399
230	0x3ea4871c	0.3213433
231	0x3f893c6a	1.0721562
232	0x3fca99b4	1.5828156
233	0x3f00aaa4	0.50260377
234	0x3ef8a5dc	0.4856404
235	0xbf337602	-0.7010194
236	0x3e80c5c3	0.2515088
237	0x3fd93b82	1.6971285
238	0xbe5f52e8	-0.2180897
239	0xbe16d38e	-0.14729139
240	0x3f92ee83	1.1479038
241	0x4001aa46	2.0260177
242	0x3eb120d5	0.3459536
243	0x3f711e1e	0.9418658
244	0x3fe5f51f	1.796543
245	0xc01b7676	-2.4291053
246	0x3eb2f3fa	0.34951764
247	0x3fa0044f	1.2501315
248	0xbf67afbc	-0.90502524
249	0xbe9b2197	-0.30299065
250	0x3f6347b7	0.88781303
251	0xbf318fe9	-0.69360214
252	0x3ef6924b	0.48158488
253	0xbf6299ba	-0.8851582
254	0x3e8e41a8	0.27784467
255	0x3fb50cc9	1.4144527

actor.2.bias f4 [32]
0	0xc04c83b0	-3.1955376
1	0xbf0d785e	-0.5526179
2	0xbf84967f	-1.0358428
3	0xbf1b44ab	-0.60651654
4	0x3ef122b3	0.47096786
5	0xc0056d48	-2.084795
6	0xbeee7f48	-0.46581483
7	0xbf33c5d9	-0.70223767
8	0xbf92ed22	-1.1478617
9	0xbf9e1863	-1.2351192
10	0xbf41ea94	-0.7574856
11	0xc013b0ef	-2.3076742
12	0x3f782c22	0.9694234
13	0xbf1baf07	-0.60813946
14	0xbf89cdeb	-1.0765966
15	0xbe9a57e7	-0.3014519
16	0xbf72b7a8	-0.9481149
17	0xc02d95fc	-2.7122793
18	0xbfe3b0fb	-1.7788385
19	0xbf45e87d	-0.77307874
20	0xbf85b951	-1.0447179
21	0xc0017add	-2.023124
22	0xbf337eea	-0.7011553
23	0xbf4009fd	-0.7501524
24	0xbea984be	-0.33109087
25	0x3f3c3693	0.73520774
26	0xbee2202b	-0.44165167
27	0x3e732306	0.23743829
28	0xbf9fc12e	-1.2480829
29	0xbfcc7ff4	-1.5976548
30	0xbf30cae4	-0.69059587
31	0xbf9d373e	-1.2282484

actor.4.weight f4 [32, 32]
0	0x3ff9eb57	1.9524945
1	0x3eb5efb9	0.35534456
2	0x3fb44e20	1.4086342
3	0x3ec04d75	0.37559095
4	0xc00c5163	-2.1924675
5	0x3fd02d6a	1.6263859
6	0xbfb5d463	-1.420544
7	0x3f60b7f3	0.87780684
8	0x3f8fede5	1.1244475
9	0x3fa61669	1.2975589
10	0x3f198f0d	0.59983903
11	0x3fe29307	1.7701119
12	0x3f76f620	0.96469307
13	0xbe921a32	-0.2853561
14	0x3ee8a3e2	0.45437533
15	0x3e92de47	0.2868521
16	0xbfae7786	-1.3630226
17	0x3ffc48d9	1.9709731
18	0x3e9098bd	0.2824153
19	0x3f92f047	1.1479577
20	0x3f2c9d94	0.67427945
21	0x3f8cc180	1.0996552
22	0xbf38f747	-0.72252315
23	0xbef2ca18	-0.4741981
24	0xbeaf2de1	-0.3421469
25	0xbf4f117d	-0.8088606
26	0xbe526155	-0.20544942
27	0xbe83cf90	-0.25744295
28	0x3ff2f21a	1.8980134
29	0x3e1ec943	0.15506463
30	0x3de6a19a	0.11261292
31	0x3e237ca6	0.15965518
32	0x3f6d6563	0.9273283
33	0x3faa87ef	1.3322734
34	0x3f813cd0	1.0096684
35	0x3f1bbbaf	0.6083326
36	0x3ed823a6	0.42214698
37	0x3f0db462	0.5535337
38	0x3fb0ca55	1.3811747
39	0x3ef5b98d	0.47993127
40	0x3d8b7b5c	0.06810638
41	0x3f094a97	0.5362944
42	0x3ddac7bd	0.10682628
43	0x3f2cc936	0.67494524
44	0x3f924f6c	1.1430488
45	0xbf5f4f0f	-0.8723001
46	0x3e2daded	0.16960879
47	0x3cc7561d	0.024333054
48	0xbf7d98a7	-0.99061054
49	0x3f32d87e	0.6986159
50	0x3fecac66	1.8490112
51	0x3f5ee1ec	0.8706348
52	0xbf1651df	-0.58718675
53	0x3eeba391	0.4602323
54	0x3ebb0ff2	0.36535603
55	0xbf51a8b4	-0.81898046
56	0xbfa8fb9a	-1.3201783
57	0x3d06a985	0.03287651
58	0x3eda9fb2	0.42699963
59	0xbfae78f0	-1.3630657
60	0x3f9e94e9	1.2389194
61	0xbef4d96a	-0.47822124
62	0x3c4cf078	0.012508504
63	0x3f3156af	0.69272894
64	0xbdf91cad	-0.121636726
65	0xbf40b219	-0.75271755
66	0xbf00e382	-0.5034715
67	0xbf7b5b85	-0.9818652
68	0xbf83cf0e	-1.0297563
69	0x3e898f4b	0.26867136
70	0xbf8f2a3e	-1.1184766
71	0xbebbbf7d	-0.3666953
72	0xbed81aea	-0.42208034
73	0xbf974d87	-1.1820534
74	0x3f4f2f63	0.8093168
75	0xbfd01abd	-1.625816
76	0xbf233078	-0.6374583
77	0xbedd21be	-0.43189806
78	0xbe667658	-0.22506082
79	0xbfa59bb0	-1.2938137
80	0xbf870d9a	-1.0551026
81	0x3d7c47bc	0.06159185
82	0xc0296c06	-2.6472182
83	0xbf3b69e3	-0.73208445
84	0x3f11551a	0.5677048
85	0x3f22e37c	0.63628364
86	0x3f4df815	0.8045667
87	0x3faeb6a1	1.3649484
88	0x403d26ba	2.9554887
89	0x3e2d5593	0.16927175
90	0x3f299aa9	0.6625162
91	0x3f4e8476	0.8067087
92	0xbf0efd83	-0.5585558
93	0xbf6bc40f	-0.92096037
94	0x3ea19e8c	0.31566274
95	0x3e2e9419	0.17048682
96	0x3eca6abd	0.3953456
97	0xbf33b332	-0.70195305
98	0x3fce7508	1.6129465
99	0x3f718a97	0.94352096
100	0xbe6d3bb8	-0.23167312
101	0x3e044dc6	0.12920293
102	0x3f577f8c	0.84178996
103	0x3f39048b	0.7227256
104	0x3ef5856a	0.4795335
105	0x3f5fb29b	0.87381905
106	0xbd8d599b	-0.069018565
107	0x3f03ab85	0.51433593
108	0xbf16e06d	-0.58936197
109	0xbfa35e07	-1.276307
110	0xc02047a8	-2.5043736
111	0xbff18c60	-1.8870964
112	0xbfa5dd11	-1.2958089
113	0x3f4139f2	0.7547904
114	0xbebbf8ae	-0.36713165
115	0xbf18648d	-0.5952843
116	0x3dea5612	0.11442198
117	0x3ec06a5d	0.3758115
118	0x3e71e27e	0.23621556
119	0xbf1af1fb	-0.6052548
120	0xbf475905	-0.7787021
121	0x3f0e1594	0.55501676
122	0xbfaf813d	-1.3711315
123	0xbef4c411	-0.47805837
124	0x3f1f2495	0.62165195
125	0x3ff491f2	1.9107039
126	0x3fb09841	1.3796464
127	0x3f0332ae	0.51249206
128	0x3f96d7b5	1.1784579
129	0xbf87bf95	-1.0605341
130	0xbe51081e	-0.20413253
131	0x3f1f5082	0.6223222
132	0xbfb2169d	-1.3913151
133	0x3e396779	0.18105878
134	0x3e1ea7c6	0.15493688
135	0x3d0ee0a3	0.0348822
136	0x3edbd95f	0.42939278
137	0x3efa3c42	0.48874098
138	0xbe644920	-0.2229352
139	0xbe14a997	-0.14517818
140	0x3f5d7a82	0.8651506
141	0x3f3d1821	0.7386494
142	0x3e9d62f7	0.30739567
143	0xbf8133b2	-1.0093901
144	0xbf841fd2	-1.0322211
145	0x3f77c88a	0.96790373
146	0xbfa967f7	-1.3234853
147	0xbf2e9441	-0.6819497
148	0x3f3d0283	0.7383196
149	0x3ee3f643	0.4452382
150	0xbe4db13c	-0.20087141
151	0x3f323328	0.6960931
152	0x3fca87d9	1.5822707
153	0xbf776430	-0.9663725
154	0x3dc4ed05	0.096155204
155	0xbf8905fe	-1.0704954
156	0xbe82873b	-0.25493798
157	0x3f525a1b	0.8216874
158	0x3fa71edc	1.3056293
159	0x3f255798	0.6458678
160	0x4009444f	2.1447942
161	0xbe6409b9	-0.22269334
162	0x3f9f98f1	1.2468549
163	0x3e76832f	0.2407348
164	0xc0044a2f	-2.0670278
165	0x4007379a	2.1127687
166	0xbd03ffef	-0.0322265
167	0x3fe0470d	1.7521683
168	0x3f8fac84	1.1224523
169	0x3f506182	0.81398785
170	0x3efb5d5c	0.49094665
171	0x3f6e753a	0.93147624
172	0x3d8e3610	0.06943905
173	0xbf17d06f	-0.5930242
174	0x3f3d6460	0.73981285
175	0xbec9faeb	-0.39449248
176	0xbf62f835	-0.88659984
177	0x3ff03da2	1.8768809
178	0x3eaa9338	0.33315444
179	0x3f129c24	0.572695
180	0x3f870d69	1.0550967
181	0x3fbba803	1.4660648
182	0x3ed6abca	0.4192794
183	0x3deaa5ce	0.11457406
184	0xbdd1b5b5	-0.10239736
185	0x3ec8a91c	0.3919152
186	0xbfd2d082	-1.6469882
187	0x3cb7a34b	0.022416731
188	0x3f9491bd	1.1606976
189	0x3f7280e3	0.94727916
190	0x3ee92359	0.4553478
191	0x3ecca898	0.39972377
192	0x3e93f1df	0.2889547
193	0xbdea5528	-0.114420235
194	0xbde871cf	-0.11349832
195	0xbe403923	-0.18771796
196	0x3ecef11e	0.40418333
197	0x3f04e51f	0.5191211
198	0xbfb090e0	-1.3794212
199	0x3e7ef160	0.24896765
200	0x3e915bed	0.28390446
201	0xbfe064c9	-1.7530757
202	0x3e98d266	0.2984802
203	0x3ed2d384	0.41177
204	0x3db852db	0.090001784
205	0xbec9eac7	-0.39436933
206	0x3de91a20	0.11381936
207	0xbf2ad5fb	-0.6673276
208	0xbffca8d3	-1.9739021
209	0x3ede7fc8	0.43456864
210	0xbf8d1d05	-1.1024481
211	0xbec9ef7d	-0.39440528
212	0x3fefe7fd	1.8742672
213	0x3f15c179	0.5849834
214	0xbfa8e312	-1.3194296
215	0x3f7858b4	0.9701035
216	0x3fb55e6b	1.4169439
217	0xbf174257	-0.590856
218	0x3f6c82e4	0.92387223
219	0x3fa3f3c6	1.2808769
220	0xbf04ffaa	-0.5195261
221	0x3f7d6f27	0.9899773
222	0x3fafee0f	1.3744525
223	0x3ec55a9d	0.38545695
224	0xbe641bcc	-0.22276229
225	0xbe268169	-0.16260304
226	0xbf72f8e8	-0.9491105
227	0xbfe9f7a2	-1.8278697
228	0xbdb30a1f	-0.08742165
229	0xbd0a306b	-0.03373758
230	0xbf6a4c2a	-0.9152247
231	0xbdc20572	-0.09473695
232	0x3f7289d7	0.94741577
233	0xbe5a63ff	-0.21327208
234	0xbf30ab62	-0.6901151
235	0xbe60bc47	-0.21946822
236	0x3e9bc62c	0.3042463
237	0x3f46db67	0.7767853
238	0x3eef2dfe	0.46714777
239	0x3dacbc2a	0.08434327
240	0xbfbb2566	-1.4620788
241	0xbef0453b	-0.4692782
242	0xbf119a58	-0.56876135
243	0x3f06981d	0.52575856
244	0x3ee22e8b	0.44176134
245	0x3ed26351	0.41091397
246	0xc00883cb	-2.133044
247	0xbeda7e52	-0.426745
248	0x3f194d27	0.5988335
249	0x3e6debbb	0.23234455
250	0x3d192b86	0.037395023
251	0xbffd36d0	-1.9782352
252	0xbe5ed481	-0.21760751
253	0xbed2c6ac	-0.411672
254	0x3f67f2da	0.9060494
255	0xbe83b8a2	-0.257268

actor.4.bias f4 [32]
0	0xc01e0bcd	-2.4694703
1	0xbf1babf1	-0.60809237
2	0x3e206f9b	0.15667574
3	0x3ee5df38	0.44896865
4	0xbf6ba988	-0.9205556
5	0xc027d457	-2.6223352
6	0xbf24adae	-0.64327514
7	0x3f4ba768	0.79552317
8	0x3d3be39b	0.04587136
9	0xbf1b7d58	-0.60738134
10	0xbd8f9f98	-0.07012862
11	0xbf64f488	-0.89435625
12	0xbf8bf154	-1.0933022
13	0xbfe76c99	-1.8080016
14	0x3f514e71	0.8176032
15	0xc013197c	-2.2984304
16	0xbf0667cb	-0.52502126
17	0xbfec4434	-1.8458314
18	0xbfea21c1	-1.8291551
19	0x3f6d70f3	0.9275047
20	0xbf723b51	-0.9462176
21	0xbf85acbc	-1.0443339
22	0xbfcda900	-1.60672
23	0x40286118	2.6309261
24	0xbeea5ac3	-0.4577237
25	0xbfb2d38b	-1.3970808
26	0xbff55ea2	-1.9169505
27	0xc01bcb91	-2.4342997
28	0xbedd112d	-0.43177167
29	0xbe8f4d08	-0.27988458
30	0xbfec8969	-1.8479434
31	0xbff71033	-1.9301819

actor.6.weight f4 [4, 32]
0	0xbfa6bda6	-1.3026626
1	0xbf48bf55	-0.7841695
2	0x40039353	2.055867
3	0x3eb65f87	0.35619757
4	0x3f6ddc37	0.92914146
5	0xc007405c	-2.1133032
6	0x3f3d2c62	0.7389585
7	0x40221219	2.5323546
8	0x400d5db2	2.2088437
9	0x3fee931c	1.8638644
10	0xbee6164e	-0.44938892
11	0x3fadc866	1.3576782
12	0x3fb667d6	1.4250438
13	0xc0170757	-2.359823
14	0x40256a9c	2.584632
15	0xbfaf0ac5	-1.3675162
16	0x3e303eb7	0.17211424
17	0x3fe18b1a	1.7620575
18	0xbeb3a379	-0.35085657
19	0x3f8b77d4	1.0895944
20	0x3fb4ac4d	1.4115082
21	0x3f7f58a6	0.9974464
22	0xbf3a96ea	-0.72886527
23	0x40415a2f	3.0211294
24	0xbf82c037	-1.0214909
25	0x3e7b09c5	0.24515446
26	0x3f3c4159	0.7353721
27	0xbd91095c	-0.07081863
28	0xbfcf7ba5	-1.6209608
29	0x3fad4c1b	1.353885
30	0x3f43cb53	0.76482123
31	0xbef4eed5	-0.47838464
32	0xbf8cc5ab	-1.0997823
33	0x3daa026f	0.083012454
34	0x3fc2ec82	1.5228426
35	0x3eefe0d6	0.46851224
36	0xbec8b3c6	-0.39199656
37	0xc017b75a	-2.370566
38	0x3f41b06b	0.7565982
39	0x3fc55d34	1.5419068
40	0x3ffd653f	1.9796523
41	0x3fe1876e	1.7619455
42	0xbd936ad6	-0.07198112
43	0x3f519ac4	0.8187678
44	0x3fc3ff57	1.5312299
45	0xbfefb8e7	-1.8728303
46	0x4048ec05	3.1394055
47	0xbf9a2a41	-1.2044145
48	0x3ef02541	0.46903422
49	0x3f286878	0.65784407
50	0xbf8c9708	-1.0983591
51	0x3fe662bc	1.7998881
52	0x3f1caba9	0.6119943
53	0x3f835372	1.025984
54	0xbef44b23	-0.47713575
55	0x404acc8d	3.1687348
56	0xbe947fd7	-0.29003784
57	0x3db1146f	0.086464755
58	0x3d90cb48	0.07070023
59	0xbe9803fd	-0.29690543
60	0x3e44563e	0.19173524
61	0x3fd11398	1.6334105
62	0x3f379f2a	0.7172724
63	0xc05657e9	-3.3491156
64	0xc012d45c	-2.2942114
65	0x3e0f3071	0.13983323
66	0x3fb8f35f	1.4449271
67	0x3ec55e96	0.38548726
68	0xbde336b9	-0.11094422
69	0xc02a21e5	-2.6583188
70	0x3f826d68	1.0189638
71	0x4012c9af	2.2935598
72	0x3fd2a4a3	1.6456493
73	0x3fdcf369	1.7261783
74	0x3e718bdf	0.23588513
75	0x3f985edb	1.1903948
76	0x3fb1b1f6	1.3882434
77	0xbf9048a6	-1.127217
78	0x403ef9e2	2.9840016
79	0xbfd81bbc	-1.6883464
80	0xbdc144d9	-0.0943696
81	0x3f951334	1.1646485
82	0xc001fcf5	-2.0310643
83	0x3fa8e199	1.3193847
84	0x3fa8afb1	1.3178617
85	0x3fa58e51	1.2934057
86	0xbfa7ff3a	-1.3124764
87	0x40370108	2.859438
88	0xbe5790c3	-0.21051316
89	0xbe178bb6	-0.14799389
90	0xbfb91a1e	-1.4461095
91	0xbfb8a068	-1.4423952
92	0xbf6e6c6c	-0.9313419
93	0x3fdc96dd	1.723354
94	0x3ef27568	0.473552
95	0xc03d1394	-2.95432
96	0xbf52aeca	-0.82297957
97	0x3fce4251	1.6113988
98	0x3f3590e1	0.7092419
99	0x40039173	2.0557525
100	0xbe9989f2	-0.29988056
101	0xbf642b0c	-0.89128184
102	0xbf7dca85	-0.99137145
103	0x4019297b	2.3931568
104	0x3f889436	1.067023
105	0x3f76ab2f	0.96354955
106	0x402220cc	2.5332518
107	0x40192fda	2.3935456
108	0x3fe02e14	1.7514062
109	0x3f055741	0.52086264
110	0x40392826	2.8930755
111	0x3e477b53	0.19480638
112	0xbedbdc5a	-0.42941552
113	0x4011155c	2.2669287
114	0x3fd57823	1.6677288
115	0xbfcb9533	-1.5904907
116	0x402b8a14	2.6803026
117	0x3fd9906d	1.69972
118	0x3dc33666	0.0953186
119	0x4041628d	3.02164
120	0x3f1410ae	0.5783795
121	0x3fc4df40	1.538063
122	0x3f00082a	0.5001246
123	0x4001979b	2.0248783
124	0xbf02ad94	-0.5104611
125	0x40133d9f	2.300636
126	0x3fc253d6	1.5181835
127	0x3ff65e59	1.9247543

actor.6.bias f4 [4]
0	0x400849f3	2.1295135
1	0x404b17a9	3.173319
2	0x40433e82	3.0506902
3	0x3ffd32be	1.978111

critic.0.weight f4 [32, 180]
0	0xc02ff3e7	-2.7492616
1	0xc06802b4	-3.625165
2	0xc08499ba	-4.1437654
3	0xc01ab90b	-2.4175441
4	0xc00ebcf6	-2.2302833
5	0xbff9fba4	-1.952992
6	0x3e5c2741	0.21499349
7	0x3f954c08	1.1663828
8	0x40594acd	3.3951905
9	0x40d0b175	6.521662
10	0x3eef7c5a	0.4677456
11	0xbff684d6	-1.9259288
12	0xbfa90957	-1.3205975
13	0xc018c3c5	-2.3869488
14	0xc08ee0fb	-4.4649634
15	0xc03e7989	-2.976168
16	0xbfdddba8	-1.7332659
17	0x40389fcd	2.8847535
18	0x40977671	4.733208
19	0x40af57da	5.479474
20	0xc06ac6d4	-3.6683855
21	0xc025e0f7	-2.5918558
22	0xc0258907	-2.5864885
23	0xbfaf0774	-1.367415
24	0xc0004114	-2.003972
25	0xc00c120f	-2.1886022
26	0x3df3acc8	0.1189819
27	0x3f5f6fcb	0.8727996
28	0x4066f9dc	3.6090002
29	0x40a95e5d	5.292769
30	0xc0761fab	-3.8456829
31	0xbfadb243	-1.3570026
32	0xc0111704	-2.2670298
33	0xc006e3aa	-2.1076455
34	0xc0900311	-4.5003743
35	0xc0013b7d	-2.0192559
36	0xbffb5032	-1.9633849
37	0xbfcbe3d4	-1.5928903
38	0xc0291cbc	-2.6423788
39	0xbed3ec37	-0.41391155
40	0xc1743647	-15.263251
41	0xc191d6f3	-18.229956
42	0xc1809e43	-16.077276
43	0xc167ec67	-14.495215
44	0xc18ce337	-17.610945
45	0xc18f32f9	-17.899889
46	0xc1745dbe	-15.272886
47	0xc180c0d0	-16.094147
48	0xc1a61d5b	-20.764334
49	0xc1ad23ad	-21.64242
50	0x3fa3ad40	1.2787247
51	0x3fe96b7d	1.8235928
52	0x3fa4ab46	1.2864769
53	0x3fbdeefc	1.4838557
54	0x401cffed	2.4531205
55	0x3f562737	0.8365359
56	0x3eda9884	0.42694485
57	0x3f283d84	0.65718865
58	0x3ebd2d47	0.36948606
59	0xbd9559a8	-0.07292491
60	0x3ec30027	0.38086054
61	0x3fea17af	1.8288478
62	0x3f3dc245	0.74124557
63	0x400ac43c	2.1682272
64	0x3f7d6ae0	0.98991203
65	0xbe8be327	-0.2732174
66	0xbebc3ecd	-0.36766663
67	0x3f94815e	1.160198
68	0x3fcc9bc5	1.5985037
69	0x3f4ca12a	0.79933417
70	0x3faf1713	1.3678917
71	0x3f883746	1.0641868
72	0x3f3eb788	0.74498796
73	0x3f03a880	0.51428986
74	0x3f10b2e7	0.56522983
75	0x3f8f497e	1.1194303
76	0x3f5ee404	0.87066674
77	0x3df03379	0.11728568
78	0x3f845b72	1.0340407
79	0x3f5ae77d	0.85509473
80	0x3f224f2d	0.6340206
81	0x3e93f50f	0.28897902
82	0x3f9fbbba	1.2479165
83	0x3f854daa	1.0414326
84	0x3f8dcf1b	1.1078829
85	0x3f711649	0.9417463
86	0x3f530d00	0.8244171
87	0xbe29f846	-0.16598615
88	0x3fab19a0	1.3367195
89	0x3b4032b4	0.0029327096
90	0xbe94d4f3	-0.29068717
91	0x3f5b393a	0.85634196
92	0x3df36d69	0.11886103
93	0x3f15d80f	0.58532804
94	0x3dd0aead	0.10189567
95	0x3dd457a0	0.10368276
96	0x3e41a90f	0.18912147
97	0x3e333883	0.17502026
98	0xbf237184	-0.63845086
99	0x3ee63248	0.44960237
100	0x3f2cf62f	0.67563146
101	0x3f4cb7a1	0.79967695
102	0x3f041834	0.5159943
103	0x3e84ba56	0.25923413
104	0xbf1a44e4	-0.6026137
105	0x3dfe561d	0.124187686
106	0xbe36ef64	-0.17864758
107	0xbd70a908	-0.05875495
108	0x3f92e159	1.1475021
109	0x3c60729f	0.013699203
110	0x3e97c110	0.29639482
111	0xbd86492c	-0.06556925
112	0xbe8a4a84	-0.27009976
113	0x3ee52881	0.44757465
114	0xbf190709	-0.5977636
115	0x3e03a019	0.12854041
116	0x3e42c6f6	0.1902121
117	0x3f236bcb	0.63836354
118	0x3f3a0b0a	0.72673094
119	0x3f32a80d	0.69787675
120	0x3ea2272f	0.3167052
121	0x3fa81b6f	1.3133372
122	0x3fc21963	1.5163997
123	0xbd5c254a	-0.0537465
124	0xbeffbdfe	-0.4994964
125	0xbee82515	-0.4534079
126	0xbe752ffe	-0.23944089
127	0x3e2ef058	0.17083871
128	0x3f3c04fa	0.73445094
129	0x3f0af3de	0.5427836
130	0x3e1c8fbe	0.15289208
131	0x3ebd489d	0.36969462
132	0xbe838f85	-0.25695434
133	0xbf47da10	-0.7806711
134	0xbecd82d7	-0.40138885
135	0xbe94701b	-0.2899178
136	0xbf532672	-0.8248054
137	0x3e169d3d	0.14708419
138	0x3eae1d22	0.34006602
139	0x3dcacb61	0.09902073
140	0x3f8a344a	1.0797207
141	0x3f7adc7f	0.979927
142	0x3de9954b	0.114054285
143	0xbebd6b7b	-0.36996064
144	0x3f22ce83	0.6359636
145	0x3e21f7de	0.1581721
146	0xbe9401ee	-0.28907722
147	0x3e8643b4	0.26223528
148	0xbda298c2	-0.079392925
149	0x3eadc2ea	0.3393777
150	0x3eb4705b	0.3524197
151	0xbe08278c	-0.13296336
152	0x3e6168ea	0.22012678
153	0x3f1c33cf	0.61016554
154	0x3f932e8b	1.1498579
155	0xbe58d222	-0.2117391
156	0xbe84fd4e	-0.25974506
157	0x3f138e10	0.57638645
158	0x3f358ee7	0.70921177
159	0x3f74c3c4	0.95611215
160	0xbf07a752	-0.52989686
161	0xc02f861c	-2.7425604
162	0xbfa0bfeb	-1.2558569
163	0xbfe05bf9	-1.7528068
164	0xbf342c06	-0.70379674
165	0xbff538fd	-1.9158016
166	0xbf860d08	-1.0472727
167	0xbfb6ff2d	-1.4296623
168	0xbff2ef5a	-1.8979294
169	0xbfd5356a	-1.6656926
170	0xbfe4b558	-1.7867842
171	0xbf98aab8	-1.1927099
172	0xc00e61ca	-2.2247186
173	0xc018b7b0	-2.3862114
174	0xc00886c0	-2.1332245
175	0xbfd1e2f3	-1.6397384
176	0x3e78aee0	0.2428546
177	0x3e1cd38a	0.15315071
178	0xbe5da4aa	-0.21644846
179	0xbdfa690b	-0.122270666
180	0x3f9255d9	1.1432449
181	0x3f101d64	0.56294847
182	0x40040957	2.06307
183	0x3fd113cf	1.633417
184	0xbdc0ec43	-0.09420063
185	0xbfeeeea3	-1.8666576
186	0xbf655121	-0.8957692
187	0x3cbf7dd6	0.023375433
188	0x3f21b9ea	0.6317431
189	0x3efaaaaa	0.4895833
190	0xbf845fc4	-1.0341725
191	0x3e4d3b1f	0.20042084
192	0xbeff1364	-0.4981948
193	0x3e4c714d	0.19965096
194	0xbf3f1c22	-0.746523
195	0xbfeabb16	-1.8338344
196	0xbcee07f2	-0.029056523
197	0x3f602888	0.87561846
198	0x3f8fd131	1.1235715
199	0x3f84dec7	1.0380486
200	0x3fda6c33	1.706427
201	0xbeea9acc	-0.45821226
202	0x3fabb037	1.3413152
203	0x3f0c35a4	0.5476935
204	0x3e8a3482	0.26993185
205	0x3e058011	0.13037135
206	0xbf150efb	-0.58225983
207	0xbf2d18d1	-0.6761599
208	0xbfe0f115	-1.7573572
209	0xc0730058	-3.796896
210	0x3f9de62c	1.2335868
211	0xbeb1ccff	-0.34726712
212	0xbca10929	-0.019657688
213	0x3f271ec3	0.65281314
214	0xc0189e7a	-2.3846726
215	0xbfd251e0	-1.6431236
216	0xbf74b626	-0.95590436
217	0xbfb0eac0	-1.382164
218	0xbf31fa20	-0.69522285
219	0xbf704795	-0.93859226
220	0x401e7884	2.4761057
221	0x403ab6bc	2.9174032
222	0x404b39ad	3.1753953
223	0x3fdfdd87	1.748948
224	0xbe697e61	-0.22802116
225	0xbfdf120d	-1.7427384
226	0x3ed1052f	0.40824267
227	0xbf107a1a	-0.5643631
228	0x3ee4b8ca	0.44672233
229	0x4035e932	2.842358
230	0xc06f4083	-3.7383125
231	0xc07fdba1	-3.99778
232	0xc0397c8d	-2.898227
233	0xc074bcf5	-3.824033
234	0xc0d8d868	-6.776417
235	0xc00d9126	-2.2119842
236	0xc066b5fd	-3.6048577
237	0xbe979b3d	-0.29610625
238	0xbe2c6db4	-0.16838723
239	0x3ecd5ff4	0.4011227
240	0xc05ece77	-3.4813516
241	0xc057b7ee	-3.3706012
242	0xc036e9cf	-2.8580205
243	0xc09a9c57	-4.8315845
244	0xbffc22e2	-1.9698145
245	0xbfc07472	-1.5035536
246	0xbd586ade	-0.05283629
247	0x3f42a2ea	0.7602984
248	0x3f9fe9c9	1.249322
249	0x3fb8171a	1.438205
250	0xbfe921f1	-1.8213483
251	0xc0814b63	-4.0404525
252	0xc01dd012	-2.4658246
253	0xc05ad4a5	-3.4192288
254	0xbfa8b463	-1.318005
255	0x3f5786b2	0.84189904

critic.0.bias f4 [32]
0	0xc0042408	-2.0646992
1	0x3ee79339	0.4522951
2	0xc05770f1	-3.3662684
3	0x4001ff29	2.0311987
4	0xc053f03e	-3.3115382
5	0xbffdedcd	-1.9838196
6	0xbfec9ff3	-1.8486313
7	0xc06830a3	-3.6279685
8	0x3feb2a38	1.8372259
9	0xbdc3df55	-0.095640816
10	0xbf9af22a	-1.2105153
11	0xc0b0f7ce	-5.5302496
12	0x3eac1477	0.33609363
13	0xbfab6639	-1.3390571
14	0xc0473b29	-3.1129858
15	0x3e0a07bb	0.13479511
16	0xc00fd9ae	-2.247661
17	0xbebd1a0a	-0.3693393
18	0xc00ae8d1	-2.17046
19	0xc013d3e7	-2.3098085
20	0xc0d5fce7	-6.687122
21	0xbfa1bfae	-1.2636621
22	0x3f973e44	1.1815877
23	0xc0e3a665	-7.114062
24	0xbfb8d706	-1.444062
25	0xc07b7bcf	-3.9294317
26	0x3c8ed8d3	0.017437374
27	0x3dd2c146	0.1029077
28	0xbee18316	-0.44045323
29	0x3f5ba4c7	0.85798305
30	0x3f65c424	0.8975241
31	0xbfc519ad	-1.5398461

critic.2.weight f4 [32, 32]
0	0x3f0f19e2	0.5589887
1	0xbf80fcad	-1.007711
2	0x3f428a6b	0.7599246
3	0x3e9b38dd	0.3031682
4	0x3fa26401	1.2686769
5	0x3f01ba72	0.5067512
6	0x3ea91342	0.33022505
7	0x3ef68351	0.4814706
8	0x3eef4f32	0.4674011
9	0xbead17b9	-0.3380716
10	0xbef30970	-0.47468138
11	0x3f219010	0.63110447
12	0xbee272ee	-0.4422831
13	0x3e862475	0.2619969
14	0x3ea9debb	0.33177742
15	0xbf2978d8	-0.6620002
16	0x3fca77ff	1.581787
17	0x3f738b1a	0.9513413
18	0x3f614723	0.8799917
19	0x3f83bd06	1.029206
20	0x3f34ffa0	0.7070255
21	0x3c48797a	0.0122359935
22	0xbf650567	-0.8946137
23	0x3ee5c1b3	0.44874343
24	0xbea0e5d8	-0.31425357
25	0x3f774f9e	0.9660586
26	0x3f25f148	0.6482129
27	0xbfa16d49	-1.2611476
28	0x3eaaa775	0.33330885
29	0x3e3a5b34	0.18198854
30	0x3e404d77	0.1877955
31	0x3f48d2b1	0.7844649
32	0x3f17e52f	0.5933408
33	0xbfcd4941	-1.603798
34	0x3fbc64d1	1.4718267
35	0xbe8ed7cb	-0.27899012
36	0x3f37a2a6	0.71732557
37	0x3ec8641e	0.39138883
38	0x3fdaa50d	1.708162
39	0x40033ed3	2.0507095
40	0xbf9f07a6	-1.2424209
41	0x3e5772a3	0.21039824
42	0x3f0fb2ca	0.56132185
43	0x3fb124d6	1.3839366
44	0xbe999b75	-0.30001417
45	0x3fa554ad	1.2916466
46	0x3ea55f58	0.32299304
47	0xc02a6ff6	-2.6630836
48	0x3fcec169	1.6152774
49	0xbea8f2d9	-0.32997778
50	0x3f420571	0.7578955
51	0x3f873a1a	1.0564606
52	0x3fae7423	1.3629192
53	0x3f968f65	1.176251
54	0xbdd17892	-0.10228075
55	0x3feb4b8b	1.8382429
56	0x3ffc8e55	1.9730936
57	0x3f87fbfd	1.0623776
58	0xbf22da61	-0.6361447
59	0xbf56541b	-0.83722085
60	0x3e4b1dcd	0.19835587
61	0xbf7e40e8	-0.9931779
62	0xbfb0c10f	-1.3808917
63	0x3cdc74a2	0.026911084
64	0x3eaf302b	0.34216437
65	0x3f94d892	1.1628592
66	0x3ef86b3c	0.48519313
67	0x3ef14c22	0.47128397
68	0x3f6559d6	0.89590204
69	0x3f96445f	1.1739615
70	0xbe90e1f7	-0.28297397
71	0x3ed72f02	0.42028052
72	0x3ed5b1e2	0.41737276
73	0xbf4b55cd	-0.79427797
74	0x3e08296b	0.1329705
75	0x3efed81b	0.4977425
76	0x3f7ff7f7	0.9998774
77	0x3e3ff27b	0.18744843
78	0x3fe8eabc	1.8196635
79	0x3ed56b0c	0.41683233
80	0x3e34522b	0.1760947
81	0xbecd7dc2	-0.40135008
82	0xbcc53e98	-0.024077699
83	0x3f542831	0.8287383
84	0x3f7c9d61	0.9867764
85	0x3d507d5e	0.05090081
86	0x3f3a7766	0.7283844
87	0xbdf1f3a4	-0.11814049
88	0x3f0b27e9	0.54357773
89	0x3f9b9ac6	1.2156608
90	0x3ac03a68	0.0014665844
91	0x3eab827f	0.33497998
92	0x3efee8cb	0.49786982
93	0x3effc644	0.49955952
94	0x3f0b92a8	0.54520655
95	0x3f21d966	0.6322235
96	0xc10102ea	-8.063211
97	0x3f7c1f14	0.9848492
98	0x40917b9d	4.5463395
99	0xc00eac27	-2.2292573
100	0x40b5c13f	5.6798396
101	0xc0022b87	-2.0339067
102	0xbebae74e	-0.36504596
103	0x408b5c66	4.355029
104	0x3f731b19	0.9496322
105	0xbf6631fb	-0.89920014
106	0x40182291	2.3771098
107	0x40a97bd0	5.296364
108	0x40585e59	3.3807585
109	0x3f70492f	0.9386167
110	0x40492baa	3.14329
111	0xc0caf1ff	-6.3420405
112	0x3fe86e4b	1.8158659
113	0x3fcb8262	1.5899165
114	0xc09df712	-4.93641
115	0x4093c645	4.617953
116	0x40b9b4e1	5.80333
117	0x3e701fdc	0.23449653
118	0xc08eebcf	-4.466285
119	0x409bc527	4.8678164
120	0xbff46f7e	-1.9096525
121	0x40a6110a	5.18958
122	0xc013085b	-2.297385
123	0x3dc1dbf3	0.0946578
124	0x40528ef4	3.2899752
125	0x3fa8e602	1.3195193
126	0xc0c0e8f1	-6.028435
127	0x40462244	3.0958414
128	0xbf3fc200	-0.74905396
129	0xbf1ba21d	-0.6079424
130	0x3f557cce	0.8339356
131	0x3e82de1a	0.25560075
132	0x3f901079	1.1255027
133	0x3e9f7ec6	0.31151408
134	0xbf8ee3e3	-1.1163296
135	0x3fcbadc6	1.5912406
136	0xbf3b01b0	-0.7304945
137	0xbe329aa4	-0.17441803
138	0xbfbefec7	-1.4921502
139	0x3f96cad6	1.1780651
140	0xbf67fe60	-0.9062252
141	0x4000cc0d	2.0124543
142	0x3f1e17a5	0.6175483
143	0xc08c0dc9	-4.3766828
144	0x3fce6acc	1.6126342
145	0xbec20653	-0.3789545
146	0x3f864d30	1.0492306
147	0x3ff3b3c0	1.903923
148	0x3f235a17	0.6380934
149	0x3f96d033	1.1782287
150	0xbf68a466	-0.9087585
151	0x3f93a770	1.1535473
152	0x3e9c4d76	0.30527848
153	0x3f60c237	0.8779635
154	0xbf52c6a9	-0.8233438
155	0xbf2a5fc3	-0.6655237
156	0xbe22bab1	-0.1589153
157	0xbf3b0913	-0.7306072
158	0xbf283e29	-0.6571985
159	0x3f5754f7	0.8411402
160	0x3eabb6ed	0.33538
161	0xc0318a59	-2.774069
162	0x3f89a6b6	1.0754001
163	0x3f45acf9	0.7721706
164	0xbf1c9c8e	-0.61176383
165	0x3f5c3635	0.86020213
166	0x3f5fa1f1	0.8735648
167	0xbf18e996	-0.59731424
168	0xbf3fe7bd	-0.7496298
169	0x3e8ee6ea	0.27910548
170	0xbf8fc9e4	-1.1233487
171	0xbe5041c3	-0.20337586
172	0xbe124d88	-0.14287388
173	0x3f93a2fa	1.1534111
174	0xbf2431b7	-0.6413836
175	0xc028e4e5	-2.6389706
176	0xbf26cc2f	-0.6515531
177	0x3f52abcb	0.82293385
178	0x4014995e	2.3218608
179	0x3e254081	0.16137888
180	0xbda9a7b8	-0.08283943
181	0x3f5b778e	0.857293
182	0xbf860f24	-1.047337
183	0x3d82ea99	0.06392402
184	0x3f834105	1.0254217
185	0xbf24e749	-0.64415413
186	0x3fd6e79f	1.6789435
187	0xbf12b59b	-0.5730836
188	0xbf2525f2	-0.64511025
189	0xbf66b01d	-0.9011248
190	0xbf2bf16d	-0.6716526
191	0xbf721c42	-0.9457437
192	0xc01fceca	-2.4969964
193	0xc075f2f7	-3.8429544
194	0x4016afdf	2.3544843
195	0xc0c31b9f	-6.0971217
196	0x4042e447	3.045183
197	0xc042a84a	-3.0415215
198	0x3f949076	1.1606586
199	0x3ff3c521	1.9044534
200	0xc0eaa99c	-7.3332043
201	0xc0d49d13	-6.644174
202	0xbfa3cd3e	-1.279701
203	0x401960d9	2.396536
204	0xc1004bf1	-8.01854
205	0xc030c0fd	-2.761779
206	0x3f0c7cd9	0.54878
207	0x3f7d3d26	0.9892143
208	0x3ff9ef91	1.9526235
209	0xc09d39f3	-4.913324
210	0x3f0078c4	0.50184274
211	0x3f6bd3df	0.92120165
212	0x40298b98	2.6491451
213	0xbf6579e5	-0.8963912
214	0xbf9ba066	-1.2158325
215	0x3fad73ee	1.3551004
216	0xbebbaefd	-0.36656943
217	0x3fe7aeb8	1.8100195
218	0xc0507451	-3.2570994
219	0xc0719664	-3.774804
220	0xbf4af6b1	-0.7928267
221	0xc0577302	-3.3663945
222	0xc010434b	-2.2541072
223	0xbede2bc0	-0.43392754
224	0xbe9b5100	-0.30335236
225	0x3f6c2884	0.9224932
226	0x3ff797f5	1.9343249
227	0xbeda1ff7	-0.42602512
228	0x3f30e55a	0.6909996
229	0xc06f964f	-3.743549
230	0xbdea251e	-0.11432861
231	0x3faf3f22	1.3691142
232	0xbec05131	-0.37561944
233	0xbfb1617d	-1.3857876
234	0xbef28cc7	-0.4737303
235	0x3fad009a	1.3515809
236	0x3e40084b	0.18753164
237	0xbf6c7e7b	-0.92380494
238	0x3f4fb681	0.81137854
239	0x3f3d9618	0.7405715
240	0x3fed6ec9	1.8549434
241	0x3f940470	1.1563854
242	0xbf4c31dc	-0.7976358
243	0x3f8de116	1.1084316
244	0x40002d2a	2.0027566
245	0xbe8bbd57	-0.27292892
246	0x3f81a9cf	1.0129946
247	0x3fc6b9a6	1.5525405
248	0xbdc3a071	-0.09552086
249	0x4026f845	2.6089032
250	0xbf2810e2	-0.6565076
251	0xbf2b5217	-0.66922134
252	0xbf03f3f7	-0.51544136
253	0xbe702ccf	-0.23454593
254	0x3e8c9c2b	0.27462897
255	0x3e0ee0fb	0.1395301

critic.2.bias f4 [32]
0	0xbf2304e6	-0.6367935
1	0xbf3f561a	-0.74740756
2	0x3f154e72	0.58322823
3	0xc0634e75	-3.5516636
4	0xbf8fa98c	-1.1223617
5	0xbd0e1658	-0.034689277
6	0xc0c16dd0	-6.044655
7	0xbe7c5347	-0.24641143
8	0xc0c3aca3	-6.114824
9	0xc0bb55c4	-5.8542194
10	0xbfcd4e0c	-1.6039443
11	0xc04b4f52	-3.1767163
12	0xc02ecc6a	-2.7312264
13	0xc085d55c	-4.182295
14	0xc0937bb3	-4.60885
15	0xc0b6671e	-5.7000875
16	0xc0a21c0b	-5.065923
17	0xbf328959	-0.69740826
18	0x3ed50c60	0.41611004
19	0xc0590e6f	-3.391506
20	0xbf19b4c1	-0.60041434
21	0xc00c891c	-2.1958685
22	0xc0828792	-4.079049
23	0xc022662e	-2.5374866
24	0xbf9b288f	-1.2121753
25	0xc0893ade	-4.288436
26	0xbfa751f3	-1.3071884
27	0xc07c3838	-3.9409313
28	0x3eb8d85b	0.36102566
29	0xc0909f71	-4.519463
30	0xc022d952	-2.5445142
31	0xbf6e8297	-0.93168014

critic.4.weight f4 [32, 32]
0	0x3f0582f2	0.5215293
1	0x3ec39bb9	0.38204744
2	0xbe5536d2	-0.20821694
3	0x3f77b001	0.96752936
4	0xbd4d7d2e	-0.05016821
5	0x3f0ba1c8	0.54543734
6	0xbe52c2f9	-0.20582189
7	0xbebd09c5	-0.36921516
8	0xbe17367c	-0.14766878
9	0x3f5e0dbf	0.86739725
10	0x3e94d788	0.29070687
11	0x3e9bbe31	0.30418542
12	0x3f32ca6b	0.69840115
13	0xbe2e3aa7	-0.17014562
14	0x3e600c87	0.21879779
15	0xbbdff687	-0.0068348083
16	0xbec459cc	-0.3834976
17	0xbdc2f48e	-0.09519301
18	0x3ee8473d	0.4536685
19	0x3fbf5b31	1.4949704
20	0x3f00cc1e	0.5031146
21	0xbd3f7515	-0.046742518
22	0x3e90ad7a	0.28257352
23	0x3f3e9953	0.74452704
24	0xbf163a67	-0.58682865
25	0x3e97f881	0.2968178
26	0xbedadc22	-0.42746073
27	0x3d69c6d5	0.057074387
28	0xbe9e33b8	-0.30898833
29	0x3f04fa8c	0.51944804
30	0x3f19d345	0.60087997
31	0xbe56662f	-0.20937417
32	0xbfebac5c	-1.8411975
33	0xbf12890a	-0.57240355
34	0x3f0ccaf0	0.5499716
35	0xbe9bd29e	-0.30434126
36	0xbee2fd7a	-0.44334012
37	0xbf54999d	-0.83046895
38	0x3e9dcc0d	0.3081974
39	0xbfb3f37e	-1.4058683
40	0xbea70ef2	-0.3262859
41	0x3ef58493	0.4795271
42	0xbddbcc19	-0.10732288
43	0x3f1e882f	0.6192655
44	0x3e04ddb8	0.12975204
45	0x3e800f69	0.25011757
46	0xbf01a1c5	-0.50637466
47	0x3ec2b5a6	0.38029212
48	0xbecbb0b2	-0.39783245
49	0x3f868eef	1.051237
50	0x3f0bc556	0.54597986
51	0xbbd3890c	-0.0064555462
52	0xbec56531	-0.38553765
53	0xbd9b413a	-0.075808
54	0x3e92790f	0.28607985
55	0x3e9d1240	0.30677986
56	0x3f947e9a	1.1601136
57	0x3f3ac66e	0.7295903
58	0xbf6df36e	-0.9294957
59	0x3dad4701	0.084608085
60	0xbfaaf40d	-1.3355728
61	0xbd209a39	-0.03920958
62	0x3f1461b4	0.57961583
63	0x3f45d03c	0.77270865
64	0xbd145e8e	-0.036222987
65	0x3f372fcc	0.7155731
66	0xbf62714f	-0.88454145
67	0xbf2f8b31	-0.68571764
68	0xbf3813fe	-0.71905506
69	0x3e1abbdc	0.15110725
70	0xbee5fc67	-0.4491913
71	0x3f64ab44	0.8932383
72	0xbeef7cc0	-0.46774864
73	0x3eced63b	0.4039782
74	0x3f8727f9	1.0559074
75	0xbf2e3880	-0.6805496
76	0xbe8b585c	-0.2721585
77	0xbe42a1aa	-0.19006982
78	0xbf61745c	-0.88068175
79	0xbe9c4d69	-0.3052781
80	0xbe58e93e	-0.21182725
81	0xbec98a48	-0.39363313
82	0x3ee511f6	0.44740266
83	0x3f9a5a4a	1.2058804
84	0x3ecd92bf	0.4015102
85	0x3e384039	0.17993249
86	0xbe8078c1	-0.25092128
87	0xbef28e68	-0.47374272
88	0x3fca9372	1.5826247
89	0xbeaffeee	-0.34374183
90	0xbf873a97	-1.0564755
91	0xbecc0e89	-0.3985484
92	0xbe5a4b74	-0.21317846
93	0xbf5e40cb	-0.86817616
94	0xbee6ca12	-0.45076042
95	0x3f10eada	0.56608355
96	0x3ee31aaf	0.44356295
97	0xbef3d434	-0.47622836
98	0xbe5df984	-0.21677214
99	0x3f615014	0.88012815
100	0x3e378e6d	0.17925425
101	0x3c8ae74b	0.016955992
102	0x3d993090	0.07479966
103	0xbeac2695	-0.33623186
104	0xbeb8d6e9	-0.36101463
105	0xbf30053d	-0.68757993
106	0x3fa98fd1	1.3247014
107	0x3eaa8850	0.33307123
108	0x3e2c9966	0.16855392
109	0xbc805daf	-0.015669672
110	0x3ed792aa	0.42104083
111	0xbedfea17	-0.43733284
112	0xbde7cda9	-0.113185234
113	0x3eb1704c	0.34655988
114	0x3dbe8a60	0.09303737
115	0x3cf2f539	0.029657947
116	0xbecdb97a	-0.4018057
117	0x3f54970f	0.83043
118	0x3f26ad79	0.6510845
119	0xbe46f8c7	-0.19430839
120	0x3e79d732	0.24398497
121	0x3db2fcc4	0.087396175
122	0x3f2a55b1	0.66537005
123	0xbdbf0594	-0.09327236
124	0xbdbeb962	-0.09312703
125	0x3da6b65f	0.08140253
126	0xbe081bae	-0.13291809
127	0xbe7bc7f5	-0.24587996
128	0x403002ea	2.7501779
129	0x404bba21	3.1832354
130	0x3fcdedd8	1.6088209
131	0x4053e1d3	3.3106582
132	0x40972c72	4.7241755
133	0x407b3e8e	3.925693
134	0x3ffa5046	1.9555748
135	0xbdc035e8	-0.09385282
136	0x4070ac41	3.7605135
137	0x4078ae70	3.8856468
138	0x40896e1f	4.2946925
139	0x403c78c3	2.9448707
140	0x404a4c6a	3.160914
141	0x402ca271	2.6974146
142	0x402dcacd	2.715503
143	0x40093ea6	2.1444488
144	0x403d9551	2.9622386
145	0x3feb273e	1.8371351
146	0xbea01bcd	-0.3127121
147	0x3f8b1391	1.0865346
148	0x3f0fec56	0.56219995
149	0x402f712a	2.741282
150	0x4068ceda	3.6376252
151	0x407624c6	3.8459945
152	0x3ff53c52	1.9159033
153	0x403d5668	2.9583988
154	0x408002c0	4.0003357
155	0x40495008	3.1455097
156	0x3ffc11e0	1.9692955
157	0x40328478	2.7893353
158	0x4088333c	4.256254
159	0x4018ea4b	2.3893
160	0x3dea8487	0.11451059
161	0x3f221a3e	0.6332129
162	0xbe23485b	-0.1594557
163	0x3f5e8f80	0.86937714
164	0x3f24d29a	0.6438385
165	0xbedc2258	-0.42994952
166	0x3ed2ec21	0.41195777
167	0x3f8d3fc2	1.1035082
168	0x3f4b79f8	0.79482985
169	0x3fbf3b51	1.4939977
170	0x3f0ff7d0	0.56237507
171	0x3f9dcd2c	1.2328238
172	0x3f1704a8	0.5899148
173	0x3e6fe21c	0.23426098
174	0x3e04038d	0.1289198
175	0x3f409b20	0.752367
176	0x3ebe4a30	0.37165976
177	0x3ecf68ae	0.40509552
178	0xbe8a18af	-0.26971957
179	0x3f4de465	0.8042663
180	0x3fc7ae8b	1.5600141
181	0x3f5077c3	0.8143274
182	0x3ec897e1	0.39178374
183	0x3dc2e98d	0.095172025
184	0x3f65cfda	0.8977028
185	0x3ee04ef6	0.43810242
186	0x3e8d0c04	0.2754823
187	0x3f5ac25c	0.8545282
188	0x3f2292a4	0.63505006
189	0x3f2f46f9	0.6846767
190	0x3f01a260	0.5063839
191	0x3f9d5688	1.2292032
192	0xbf07440d	-0.5283821
193	0x3f4c9026	0.79907453
194	0xbf10514d	-0.56374055
195	0x3f5d1ec9	0.863751
196	0x3f70c39f	0.94048494
197	0x3f27b996	0.65517557
198	0xbf6f68ed	-0.9351948
199	0x3e0e2ecd	0.1388504
200	0x3ec09a29	0.37617615
201	0x3f4aaab7	0.7916674
202	0xbe813f37	-0.25243542
203	0x3da773b4	0.081763655
204	0x3e881d8c	0.26585042
205	0xbf09408f	-0.53614134
206	0xbf07183d	-0.5277136
207	0xbe81bfb2	-0.25341564
208	0xbe894fd8	-0.26818728
209	0xbedfc854	-0.43707526
210	0x3ea5a711	0.32354024
211	0x3f3e7a89	0.74405724
212	0x3efb8e6d	0.491321
213	0xbec7ce79	-0.39024714
214	0xbee8065a	-0.45317346
215	0xbe8913db	-0.2677296
216	0x3d6fc479	0.05853698
217	0xbe4a6cc1	-0.19768049
218	0xbe91ccad	-0.28476468
219	0x3bc632a6	0.0060485182
220	0x3dcfe85a	0.101517394
221	0xbe5458a2	-0.20736936
222	0x3dc070e5	0.09396533
223	0x3dd7870c	0.10523805
224	0x3f115a45	0.56778365
225	0xc002f6e7	-2.0463197
226	0xbfa0160f	-1.2506732
227	0xbc3bd150	-0.011463478
228	0xbe0853b5	-0.13313182
229	0xbfcb4211	-1.5879537
230	0x3c740ae1	0.014895172
231	0xbf4f1ea8	-0.8090615
232	0xbe992177	-0.29908344
233	0x3ef7ddb0	0.48411322
234	0xbe42347e	-0.18965337
235	0x3f669ed2	0.9008609
236	0x3f6f7739	0.93541294
237	0xbede67b1	-0.43438485
238	0xbe9258fd	-0.28583518
239	0xbe0b608a	-0.13611045
240	0xbf38644e	-0.7202805
241	0xbdb7c349	-0.089727946
242	0x3ead57fb	0.33856186
243	0x3f1c9c71	0.6117621
244	0x3ed541ba	0.41651708
245	0x3e9219b6	0.2853524
246	0x393f031f	0.00018216342
247	0x3f062e63	0.5241453
248	0xbf376059	-0.7163139
249	0x3e9db05e	0.3079862
250	0xbf2470f9	-0.6423488
251	0x3e95e38c	0.29275167
252	0x3eb95f87	0.36205694
253	0xbebf29e0	-0.37336636
254	0x3f3dd2e7	0.74149936
255	0x3fa498da	1.2859147

critic.4.bias f4 [32]
0	0x40046c26	2.0691009
1	0xbe31b071	-0.17352463
2	0x3f2ebccd	0.6825684
3	0x4018fe8f	2.390537
4	0xc050a140	-3.259842
5	0xbe70c842	-0.23513892
6	0x3fe0e7b1	1.7570707
7	0x3fdbd2a5	1.7173659
8	0x3f1c93d9	0.611631
9	0x3f453723	0.77037257
10	0x3fa94605	1.3224493
11	0xbc815aae	-0.01579031
12	0x3fb89a35	1.442206
13	0x400413c2	2.063706
14	0x3f2cd26d	0.67508584
15	0x3f71719d	0.94313985
16	0x3f9f553f	1.244789
17	0x3f39ac1a	0.7252823
18	0x3ea91605	0.33024612
19	0x402db97d	2.7144463
20	0x3f7f6732	0.9976684
21	0xbf6c3ffc	-0.9228513
22	0x3fa338cd	1.2751709
23	0x3fd20ec5	1.6410757
24	0x3d8a58ed	0.067552425
25	0x3ff32cf3	1.8998092
26	0x4002aaea	2.0416818
27	0xbf18d83e	-0.5970496
28	0x3ff284c9	1.8946773
29	0x3fb899fa	1.442199
30	0x3f1775bd	0.5916403
31	0x4005191f	2.0796583

critic.6.weight f4 [1, 32]
0	0x3c8a3ae6	0.016873788
1	0x3e150784	0.14553648
2	0x3af76a1f	0.0018876231
3	0xbca31064	-0.019905277
4	0x3f236b3f	0.6383552
5	0xbedc0113	-0.4296957
6	0x3d0dd667	0.034628298
7	0x3bd512db	0.006502492
8	0xbcefbea1	-0.029265704
9	0xbc6a59bb	-0.01430362
10	0xbdeafce2	-0.11474015
11	0xbd3a37f7	-0.04546353
12	0xbec25e3d	-0.37962523
13	0x3d12bdff	0.035825726
14	0xbc1328cc	-0.008981895
15	0x3cb33356	0.021875065
16	0xbb5acaa5	-0.0033384946
17	0xbdd5c55e	-0.104380354
18	0x3cc78e44	0.02435983
19	0x3d040cf6	0.032238923
20	0x3d340b50	0.0439561
21	0xbcaf47f6	-0.021396618
22	0x3d01c182	0.031678684
23	0x3e32e9f7	0.17472063
24	0xbd255aac	-0.040369675
25	0x3d97e587	0.07416826
26	0x3c8c953a	0.017161
27	0xbd809259	-0.062779136
28	0x3c9543ca	0.0182208
29	0xbd908377	-0.07056325
30	0x3c52ce47	0.012866563
31	0x3d0f61cc	0.035005376
