model/tetris_ppo_interrupted_20251028_195711.pth/model.ckpt-1.pth (torch, 70369 bytes, 15 tensors)

actor.0.weight f4 [32, 181]
00000000: d135 903e edd7 04bf 36a1 9abf 0ecc 85bf
00000010: a580 af3e 9cad fd3e 3419 1ebf b12f 9abf
00000020: 5cc2 45c0 09d6 94bf c668 f6be d1a9 0dbf
00000030: eef0 49bf b8de 0bbf 41d1 98bf eaf4 ebbf
00000040: 9e3d 29c0 20f7 29c0 8d50 0ac0 4368 10bf
00000050: e867 f63d 2e6b 8b3e b30f 80bf 2dc7 81bf
00000060: cddc 47bf 3241 473e 3de3 b1bf ea73 87bf
00000070: ae73 f9be eefe 86be 4d69 53bc f5d3 97be
00000080: 4741 80bc 7d0f eabd 4a3b 633c 0a42 883e
00000090: 7e09 11bf 188d a83e 68ce 02bf 1f3d 4abf
000000a0: 7e03 a8bd 14ce e43e 6835 073e 7b6c 64be
000000b0: 9718 fcbe 6b62 ffbe 3697 933e b7e1 163f
000000c0: 77bd be3d cf55 813e f18c 553f 3af8 4f3f
000000d0: fde1 b53e 279b db3f dbb4 893e 93e7 14bf
000000e0: edaf 4ec0 0e06 37c0 7525 5dbf 7786 453e
000000f0: 3bd9 433f 93e8 d43f e123 0840 c46d a93f
00000100: 5c7b 813f b572 79bf 2909 9cc0 797b 9ac0
00000110: 2fe1 abbf f122 3abf 8671 e13f b0ad 6d3f
00000120: d8d0 603f 2864 7b3e 6e83 833e 3c6b 35c0
00000130: 682a a0c0 aeba 6fc0 1ac3 99bd 8c81 413f
00000140: c1d2 42bf 401e 13bf deb3 f2bd 3832 e1be
00000150: b16e 29bf 47b1 60bf 9ad1 43c0 5201 68c0
00000160: 0143 99bf bf9f 62bf 3c82 623f 3ae6 553f
00000170: 9d5a 793f 03b0 273d 3be0 3ebf 2f72 fbbf
00000180: b6c1 50c0 0a1e 48c0 ea84 f3bf dfe5 983d
00000190: 3814 ffbd 6564 333f d412 dcbf 1805 b3bf
000001a0: 90f2 aebf 1f0f 10c0 27bc 87c0 7eb1 69c0
000001b0: 2a03 7dbe b498 c9bc e25d 3dbf b0c6 2fbe
000001c0: f2f2 c8bf e644 5dbf 2902 fdbd 3767 b4bf
000001d0: a340 2bc0 4e44 15c0 70fa 12be ba98 59bf
000001e0: 8838 5f3e ea1e edbd 108f f0bf fd0b 65bf
000001f0: 04fc 6fbf b814 11c0 5937 23bf b1fc afbf
00000200: ff0c 2fbf 05d7 aebf ae01 f9bf d6aa 783e
00000210: 5355 72bf 4f7b aabc 4fce 61bf 76c4 a6bf
00000220: c4f8 04c0 8fb6 06c0 9839 2abf 1cd4 dabe
00000230: e91e a33e 2efe 64be 336f aebf fa95 b6bd
00000240: a438 52bf ade1 8bbf c9b4 49c0 86a6 4cbf
00000250: 2a35 33be fbe6 8bbf f4af 0dbf eeb1 e5be
00000260: c7ce 03c0 b667 40bf 60e3 7cbf 0930 0cc0
00000270: e5a1 2fc0 bad5 043f e8fd 8bbf 9d95 d6be
00000280: 1e6f 50c0 1378 7a3e 3ca1 05bf 0abc e3bf
00000290: a888 14c0 2bff 9bbf 1cec 23c0 7794 d9bf
000002a0: 575a afbe ab27 a53e 0401 bdbf 7937 11bf
000002b0: b913 9dbf 3b1f 54c0 a24c afbf d7e6 e7bf
000002c0: da64 53c0 411b 19c0 1c6c 46bf 90ce 08be
000002d0: 4bd3 653f ab1e fabe 0265 cebf fcfa 70c0
000002e0: 4057 1cc0 4613 90c0 d7b8 4cc0 8afc 253f
000002f0: 0346 0740 0db4 ba40 0480 0640 0d38 20bf
00000300: 32b8 49c0 a7eb 4cc0 bea4 abc0 40b5 b2c0
00000310: 202a 43c0 233a 883f 7e6b bb40 8ac8 fb40
00000320: 13c3 fd3f 8a83 b53e d978 14c0 415c 20bf
00000330: a156 89c0 d633 74c0 e1c3 62c0 4da0 fe3f
00000340: 0303 2740 71f2 9340 fb97 d83f 5570 973f
00000350: dc84 3fbf 82fb 853f d12b 25be 144b 72bd
00000360: bc6d 55c0 3865 8a3f 0ed6 5e3e 94d3 a0bf
00000370: 1a16 4d3f a729 13bf a45e 0dbf 4d69 3bbf
00000380: 72cd 2fbf cb29 79bf e128 d0bf 2576 a3bf
00000390: f86d 07c0 8c47 20bf be93 9dbf 12f0 3a3d
000003a0: a95b 43bf bda9 cabe 7eb2 7fbf e25f 1fc0
000003b0: a3cf 553f 5949 453f f6b0 21be 0370 033f
000003c0: eeeb ba3e db1a 1d3f 8a53 8f3f 0ec4 8e3f
000003d0: 9d72 95bf 0fb0 64bf ebed 05c0 b465 b5bf
000003e0: d698 74bf 47bd 1640 8a70 df3f 0426 203f
000003f0: f122 c53f c262 eb3e 9619 373f fc4c 72bf
0.2816606 -0.51891977 -1.2080448 -1.0452898 0.34277835 0.49546516 -0.61757207 -1.2045804
-3.0899878 -1.1627818 -0.4812681 -0.55337244 -0.78883255 -0.54636717 -1.1938859 -1.8434117
-2.6443858 -2.6557083 -2.1611664 -0.5640909 0.12031537 0.2723021 -1.0004791 -1.0138909
-0.7807129 0.19458464 -1.3897473 -1.0582249 -0.4872107 -0.2636637 -0.012903524 -0.29653898
-0.015656127 -0.114287354 0.013869116 0.26612884 -0.5665511 0.32920146 -0.510962 -0.78999513
-0.08203791 0.44688475 0.13203967 -0.22307007 -0.4923751 -0.49879774 0.28826302 0.58938164
0.09313481 0.2526078 0.83418185 0.8123814 0.35523978 1.7156724 0.26895794 -0.58165854
-3.2294877 -2.8597445 -0.8638528 0.19289576 0.7650334 1.6633476 2.1271899 1.3236623
1.0115771 -0.97440654 -4.876118 -4.8275723 -1.3428096 -0.72709566 1.761277 0.9284315
0.8781867 0.24549925 0.2568621 -2.83467 -5.0051765 -3.745769 -0.07507916 0.755883
-0.76102835 -0.5746803 -0.11850713 -0.43983626 -0.66184527 -0.87770504 -3.059668 -3.6250806
-1.1973573 -0.88525003 0.8847997 0.8355442 0.9740389 0.040939342 -0.745609 -1.9644221
-3.2618232 -3.1268334 -1.9024937 0.074657194 -0.12455028 0.70075065 -1.7193246 -1.398593
-1.3667774 -2.250923 -4.241718 -3.6514583 -0.24708238 -0.024608947 -0.7397138 -0.17165637
-1.5699141 -0.86433256 -0.12353928 -1.4093999 -2.67582 -2.332294 -0.14353347 -0.8499867
0.21798909 -0.11578162 -1.8793659 -0.8947142 -0.9374392 -2.2668896 -0.6375633 -1.374899
-0.68379205 -1.3659369 -1.9453638 0.24283919 -0.94661444 -0.020810751 -0.88205427 -1.3028705
-2.0776834 -2.1048925 -0.6649413 -0.42739952 0.3185952 -0.22362587 -1.3627685 -0.089153245
-0.82117677 -1.0928246 -3.1516593 -0.79941595 -0.17500749 -1.0929865 -0.5534661 -0.44862312
-2.0594957 -0.7515825 -0.98784447 -2.1904318 -2.7442563 0.5188862 -1.0936861 -0.4191102
-3.256782 0.24459867 -0.5219915 -1.779176 -2.3208408 -1.2187246 -2.561286 -1.6998433
-0.3424861 0.32256827 -1.4765935 -0.5672527 -1.2271644 -3.3144062 -1.3695261 -1.8117322
-3.3030305 -2.3922884 -0.7750871 -0.13360047 0.8977553 -0.48851523 -1.6124575 -3.7653189
-2.4428253 -4.5023527 -3.1987817 0.6483847 2.1136482 5.834479 2.1015635 -0.62585527
-3.1518674 -3.201883 -5.36386 -5.5846252 -3.049446 1.0642742 5.8568716 7.86823
1.9825157 0.3545192 -2.319876 -0.6264077 -4.291825 -3.8156638 -3.5432055 1.989267
2.6095588 4.623345 1.6921381 1.1831156 -0.748121 1.0467379 -0.16129996 -0.05915363
-3.3348227 1.081214 0.21761343 -1.2564569 0.8011185 -0.5748543 -0.55222535 -0.7320755
-0.6867286 -0.97329396 -1.6262475 -1.277043 -2.116087 -0.6260917 -1.2310712 0.045639105
-0.7631174 -0.39582625 -0.9988173 -2.4902272 0.83519953 0.77065045 -0.15790161 0.5134279
0.36508125 0.61369103 1.1197369 1.1153581 -1.1675602 -0.89331144 -2.0926464 -1.4171662
-0.9554571 2.3553026 1.7456219 0.6255801 1.5401288 0.45973784 0.71523416 -0.9464872

actor.0.bias f4 [32]
00000000: 9d65 89c0 d4b5 8fbd 5c18 8bbf 13e6 84bf
00000010: b21a c4c0 72e3 9dc0 f57f 97be 8d71 99c0
00000020: 5ac6 47bf 00ab 02c0 7a20 4cbe 05db b63e
00000030: c394 223e 6ee8 d7bf fbc4 c4bf 53fc 03bf
00000040: 2274 cc3d 4b32 20bf 8f5c 6540 4b99 55be
00000050: a42e 45bf 3155 0ebe ee1c 04bf 3a8d e7be
00000060: 3e18 29be b96d 09c0 d8d6 80c0 a11b f6bf
00000070: f404 dc3f d93e 0bc0 6509 b9bf 6f3a 27bf
-4.293654 -0.07017103 -1.0866809 -1.0382713 -6.1282587 -4.9340143 -0.2958981 -4.795111
-0.78037035 -2.041687 -0.19934264 0.35713974 0.1587706 -1.6867807 -1.5372614 -0.5155689
0.09983088 -0.6257674 3.5837743 -0.20859258 -0.7702429 -0.13899685 -0.51606643 -0.45224935
-0.16513154 -2.147322 -4.026226 -1.9227182 1.7189012 -2.175711 -1.4455992 -0.6532354

actor.2.weight f4 [32, 32]
00000000: 33bf 823f c1cb c9bf b576 883e 16b2 aabf
00000010: 82ca 453f 02fc 3d3f 9d49 913f 366f be3e
00000020: 9720 65be e2a9 c13e e27a 21bf f3ca 423a
00000030: bca7 ff3c 33d6 14bd e8c7 703f b2a1 333e
00000040: 1ef1 cabe e38c c6be 2700 55bf 2f6a fcbd
00000050: 5f6d 5dbf 76fd 1a40 3f95 00c0 15d7 00c0
00000060: 9587 8b3f caf7 193f 9c95 bc3f 570f e23e
00000070: fee0 39bf 472d dabe 26ee ecbf 75a3 703f
00000080: fbb4 973f c4fb a83f b05e 4fbf 7e57 673f
00000090: 9059 2840 e9ff aa3f d10a 573d 8cce 7a3f
000000a0: ee16 c23f 7bcc 0440 a012 73be 6654 d0bd
000000b0: 638b 09c0 3fb1 0340 bc0f 7e3f c4cd b3be
000000c0: 8276 fc3f 3759 483e f8a4 5bbf 6dd7 1740
000000d0: c129 2a40 1bb0 bd3f 1f5f 0dbf b33f 3ebf
000000e0: 19ec 0fc0 116c 8cbf 485b 123f 2d51 e33f
000000f0: a374 9abf a447 a93f 0e46 3f3f 2b23 abbf
00000100: 2902 183e 0605 60bf 5c56 75bf 3aca 95bf
00000110: a770 fc3f 4e8a 133e 01b9 973f e61b 81be
00000120: 87ea c43f 7449 1f3f 9c10 27bf 3630 e23f
00000130: a326 1bbf 3da2 633e b1c3 393f 81ab 6e3f
00000140: 6194 79c0 5c60 94bf a966 f9bd 66f6 36bf
00000150: 968b e6bf 67e1 c33f 609d fe3e 1941 1a40
00000160: 9273 0b40 8e0e 4440 2381 18c0 ba20 ee3e
00000170: 2521 933e e7a1 f4bf b4a1 83bf 90f4 0ebf
00000180: 2fcf 6e40 b2f5 10c0 358d 41bf 706c 47bf
00000190: ada4 efbe a8f9 d6bc 9d13 3dbf 0e80 5140
000001a0: 3098 d8c0 950e 3b3e 2347 03bf 9dd0 cfc0
000001b0: 8d4d f1bf 0481 69be 97cd 25bf d430 b43e
000001c0: 6efe bebe 4f0d 4f3d 76b3 bcbf 5c52 cec0
000001d0: 3278 babf 67b9 713f e71b 7dbf 0133 333f
000001e0: 6125 fa3f b366 8dbf 72a2 4740 496d f8be
000001f0: c8a1 e7bf 6044 4340 f34c edbe c9e3 53bf
00000200: 7e51 b13e 3e3e 1f3f 71c6 063f 0648 5d3f
00000210: e0a5 d33f 6792 d13f 0cfe c7bf 8071 823f
00000220: d4a2 153d a8ca d5be 7bf8 e7bf a2d2 4c3e
00000230: 8b3c 59c0 9658 87bf bbb5 b2bf b340 3b3e
00000240: d8be af3f 2dfd acbf 910b 7dbf 915f a43f
00000250: 018e a7bf 0cd7 8dbf 1416 96bf 54b0 a23e
00000260: 91b8 82bf 2b18 57c0 a5ce c33d e6ba 03bf
00000270: a0a5 6dbe d967 833e be42 253e f7b1 1ec0
00000280: afe1 b93f 2285 cb3f 9276 473f f96f 443f
00000290: e501 f6bf 6a85 f53e 1835 d5be a145 813f
000002a0: 0526 293f bc06 343f eea7 89bf eba4 60bf
000002b0: 0385 3bbf 80ed 1b40 7f61 1ec0 a635 793f
000002c0: 2da5 bd3f 4333 88bf 52ca 3ebf 542b 4bbf
000002d0: 65de 99be 2b2b 943f 554b 6fbf d3dd 9abe
000002e0: 6fa5 18be 1aec 9dbe 5a0e 613f 5d75 b23f
000002f0: efa1 dcbf 42f1 0e3f 7043 843e acb9 1a3e
00000300: 945c aa40 048b c2bf 1b65 cbbf 97df e33f
00000310: fbe0 75be cdea 323f 7827 0c3f dd67 4d40
00000320: 2434 edc0 8448 f93f e474 90bf b4f5 96c0
00000330: d17f 95bf a819 0f40 a3e5 6cbf a59c 6c3e
00000340: 8d17 683e bb1c 1dc0 3a51 9ec0 b0c9 fbc0
00000350: b251 a13e 057e 623f c60e 2ec0 61c5 ab3f
00000360: f21f 823f 538f 23c0 2a4c ae40 a708 713e
00000370: 1024 2ac0 3d4f 6f40 47a7 4abf 21b1 05c0
00000380: d35b 243f e81d ffbf 63d2 b1bf 9c00 4b3f
00000390: deb5 c5bf c16f 8cbf c65a 633f 49e5 d03f
000003a0: 8a04 913f 23cd 8d3e 2451 adbe cad0 62bf
000003b0: c230 7bbf 0a9f 06be e16d 10bf 30cf dabf
000003c0: d0c1 80bf 5140 1abe da3d 7abe 54e6 dd3f
000003d0: 02ea b33b d6ac 9cbf f491 67bf e967 643f
000003e0: 0c56 ba3f cc2c 99bf 852f bc3d 32ed aabf
000003f0: 6d85 abbe 75d9 ba3f f340 27c0 09da 01bf
1.0214599 -1.5765306 0.26653066 -1.3335598 0.7726213 0.7421266 1.135059 0.37194222
-0.22375713 0.37824923 -0.6307813 0.00074307545 0.031207912 -0.03633709 0.9405503 0.1754215
-0.39637083 -0.38779363 -0.8320336 -0.123249404 -0.8649501 2.42172 -2.0091093 -2.0131276
1.0900751 0.6014372 1.4733157 0.44152328 -0.72608936 -0.4261267 -1.8510177 0.93999416
1.1852106 1.3201833 -0.81003857 0.9036788 2.6304665 1.3359348 0.05250055 0.97971416
1.5163248 2.0749805 -0.23737574 -0.10172348 -2.1491325 2.0576932 0.9924276 -0.35117924
1.9723666 0.19565283 -0.857986 2.3725235 2.6587985 1.4819368 -0.5522327 -0.7431595
-2.2487853 -1.0970479 0.57170534 1.7759148 -1.2066845 1.3224988 0.7471627 -1.3370107
0.14844574 -0.87507665 -0.958349 -1.170234 1.9721879 0.14408228 1.1853334 -0.25216597
1.5384072 0.62221456 -0.6525972 1.7670963 -0.6060583 0.22229858 0.72564226 0.93230444
-3.8996813 -1.1591907 -0.12177784 -0.71469724 -1.8011348 1.5303162 0.49729443 2.4102232
2.1789289 3.0633883 -2.3828819 0.46509343 0.28736225 -1.9111909 -1.0283723 -0.5584192
3.7313955 -2.264996 -0.7560609 -0.7789984 -0.46805325 -0.026242092 -0.7385805 3.2734408
-6.7685776 0.18267281 -0.5128042 -6.4942155 -1.8851792 -0.22803122 -0.6476683 0.35193503
-0.3730349 0.0505498 -1.4742267 -6.4475536 -1.4567931 0.94423527 -0.988707 0.699997
1.9542657 -1.1046966 3.1192899 -0.48520878 -1.8096247 3.0510483 -0.4634777 -0.8276945
0.34632486 0.6220435 0.5264655 0.86438024 1.6534996 1.6372803 -1.5624404 1.0190887
0.036532238 -0.41756177 -1.8122705 0.20002225 -3.3943202 -1.0573909 -1.396171 0.182864
1.3730116 -1.3514763 -0.98845774 1.2841665 -1.3090211 -1.1081252 -1.1725488 0.31775153
-1.0212575 -3.36085 0.09560899 -0.5145706 -0.23207712 0.25665167 0.16138741 -2.479612
1.4521998 1.5900004 0.779153 0.76733357 -1.9219328 0.4795335 -0.4164207 1.0099374
0.6607364 0.70322776 -1.0754373 -0.87751645 -0.73249835 2.4363708 -2.4747007 0.97347486
1.4816033 -1.0640644 -0.74527466 -0.7936299 -0.30052486 1.1575674 -0.9347432 -0.30247363
-0.14906858 -0.30844194 0.87912524 1.3942066 -1.7236918 0.5583688 0.258327 0.1510989
5.323801 -1.5198674 -1.589023 1.7802609 -0.24011604 0.6988953 0.54747725 3.2094643
-7.412615 1.9475255 -1.1285672 -4.717493 -1.1679631 2.235941 -0.925379 0.2310663
0.22665234 -2.4548786 -4.9474154 -7.86837 0.3150764 0.8847354 -2.7196517 1.341961
1.0165999 -2.5556228 5.4467974 0.23538457 -2.658451 3.7392113 -0.79161495 -2.088936
0.6420261 -1.9931002 -1.389233 0.79297805 -1.5446126 -1.0971605 0.88810384 1.6319972
1.132951 0.2769557 -0.33850968 -0.88599837 -0.98121274 -0.13146606 -0.5641766 -1.7094479
-1.0059147 -0.15063597 -0.24437657 1.7335916 0.0054905424 -1.2240245 -0.9045708 0.89221054
1.455751 -1.1966796 0.09188751 -1.3353636 -0.33500233 1.4597613 -2.6133392 -0.5072332

actor.2.bias f4 [32]
00000000: 9eb9 a4bf 1d02 6bc0 32f2 453f aaf6 d0c0
00000010: 5d14 523f 98ff 7ebf 24d6 d3c0 2228 19bf
00000020: 181d 56c0 62e4 83c0 97b4 fabb a6fe 273f
00000030: 04a0 d7bf 4e6b 0dc0 87eb 9ebf 8fb6 26c0
00000040: 1655 2140 630c 1ac0 1a04 a8bf ea42 81bf
00000050: c177 0cc0 d1f1 acbf 8c94 58c0 a0e8 91bf
00000060: e915 31c0 1105 3f3f 8523 d4bd 064a 0c40
00000070: 2309 0abf a8db 65c0 3615 45c0 56ad 34c0
-1.2869146 -3.672004 0.77322686 -6.5301104 0.8206232 -0.99608755 -6.61989 -0.5982686
-3.3455257 -4.1216288 -0.0076509225 0.6562294 -1.6845708 -2.2096744 -1.2415627 -2.6048925
2.5208182 -2.407006 -1.3126252 -1.0098546 -2.1948092 -1.3511297 -3.3840666 -1.1399117
-2.7669623 0.74617106 -0.10358337 2.192018 -0.5392019 -3.5915318 -3.0794196 -2.8230796

actor.4.weight f4 [32, 32]
00000000: abf8 b8be cc95 e9be ab87 463c 0f41 653f
00000010: c292 e63e 7e86 b93e 6d7e 273f 010e 02c0
00000020: 1d7d b53e d052 8e3f b0a6 d53f 9474 2b3d
00000030: c8fa 713f 0133 a63e 08c5 7e3e 4aef e73e
00000040: 083d 2ebf 696b 2d3f be74 793f 680d 42be
00000050: e91c a23f 8baa 86be 3b27 7c3f a975 69be
00000060: cc34 cabd 990b ad3f 597b a1bf bbcb f4bf
00000070: ac2c 8f3e 208e 06bf be8c 573e 070f 8a3f
00000080: 97fa 0840 d251 00bf e192 b3be c2aa 9dbd
00000090: 524e d2bf 2e06 e1bf 867f ba3f 2346 90bd
000000a0: 1e4a 40be ea68 9a3f 94e1 3340 61ba f6bf
000000b0: 30e5 5f3f 0054 aebe d479 adbf 8951 9fbe
000000c0: 3cdc 0fbf 8c73 0c3f d9c7 683f 1827 12bf
000000d0: 53c8 da3e a152 1dbf 5f52 3c3f d425 babf
000000e0: 0987 503e a574 c93f 8a1b eabf 1adb 393f
000000f0: 573c 51bf 9103 ab3e 16ed c4bd 0473 e3be
00000100: 32cc 1c3f af63 27c0 23c4 55c0 0a6f 8f40
00000110: 400d 52c0 eb89 33c0 15db 5240 ccfa a7bf
00000120: de67 2240 bed3 1040 8004 b2bf 6b68 21c0
00000130: ac47 0d40 4c19 36c0 1bb4 0cbf e326 5240
00000140: 61b5 3cc0 959d 7340 5ba1 623f d292 033f
00000150: c62d 1f40 25f8 38bf 771c 5840 f589 2e3f
00000160: 111b 2dc0 2850 9bc0 7689 b53f 2f44 debf
00000170: 8fae 813f 747e 0d40 6072 adbb d647 3740
00000180: b733 f8bf 7bef ffbf ffc7 be3e 6f42 983e
00000190: a656 323f 1962 573f b593 0540 0b49 4abf
000001a0: 1f6b 483f b13b 293f 2913 8dbf 0252 c1bf
000001b0: 98bf 923f e447 0bbe f138 95bf 1da6 bf3f
000001c0: d7ff 13be 25e8 5dbd bd0b 913f 98a7 4a3f
000001d0: 2b75 cc3f 0f0e eabf d561 243f 628d 133f
000001e0: 224d 963f 099a 01bf c156 02bf d615 04bf
000001f0: d14c 8c3f 2f18 c43f 8316 70bf ff1d aa3e
00000200: 767a 1dbe 2df5 693f 47cf efbf 6806 a3bf
00000210: d26b 44bf e656 5c3f 7762 283d 203b 2a3e
00000220: 161d ce3e 4511 22be 9338 9cbd 7dd3 1ac0
00000230: 042e 253d b921 a53f 9266 1f3f eb44 62bf
00000240: ef9e 10bf 7b08 2ec0 d468 f43f 66cd c83e
00000250: 4f4e fd3e 92b0 d33e bcca 09bf 0131 25c0
00000260: 9233 1240 c62d f93f 9155 debe ed21 48bf
00000270: 786b 53bf bf3b 7e3f 15a4 ad3e 9a5d 69bf
00000280: 64b1 0ac0 98d4 5740 2740 3a3c 422a ca3e
00000290: bd0a 2040 b197 12bf 8bd6 a63f 2329 55be
000002a0: c734 7e3f 0b87 e63f 4802 0440 6580 b3bf
000002b0: 0585 933e f962 7c40 be57 eebe e11a 403f
000002c0: f339 59bf affe 1ebf 2af1 d13e c25c 863f
000002d0: 0676 19c0 7a55 84be eaf2 ef3e 93cd d4bf
000002e0: 738e b840 f349 3840 32af 173d aab4 4e3f
000002f0: fc8e c6bf 6d75 78bf cdeb 28bf ae11 c53f
00000300: 8407 04c0 e79f 9340 c2e2 bcbf 1f9f 8f3f
00000310: 9745 3440 4d59 1d3f a8a6 783f e284 5bbf
00000320: d7ee cd3f bb52 2e40 40af c33f 03ed e83e
00000330: 092b 133f b821 b440 357c 103f c152 273f
00000340: 28d8 b0bd 102b cabf 5c0d bb3f c7d7 c03f
00000350: 20bb f43d 7106 55bf e63d 383d 0576 2bc0
00000360: 48ed ca40 12c6 5a40 72c1 cabe e8e9 f63f
00000370: 96ed 13c0 cca8 bfbf 629f b1bf d6c0 ab3f
00000380: 770a 0440 4cd2 c63e 0556 773e c460 ae3f
00000390: fcd8 68be 6580 56be 2513 1d40 eea5 843f
000003a0: 1f8d 1f40 dc12 9f3f b0f8 0640 d63a 0bbf
000003b0: 1ff9 c03f 324a 953e 0d37 043f 2e95 913f
000003c0: 4b48 4dbe a6d9 8d3f 2825 4740 9c67 cb3f
000003d0: 7164 e5bd 8edf 00bc b8fb ba3f d3da 8abd
000003e0: 7511 b5bd a4ad 7dbe 6d77 5e3e 311d 233d
000003f0: 829a c33f 9ff6 c93f 44c9 953f f5d9 d63f
-0.3612722 -0.45622098 0.012117307 0.89552397 0.45033842 0.36235422 0.65427285 -2.0321047
0.35447016 1.1119022 1.6691494 0.041859224 0.94523287 0.32460788 0.24879849 0.4529975
-0.68061876 0.6774202 0.9744376 -0.18950427 1.2665073 -0.2630199 0.9849736 -0.2279879
-0.098733515 1.3519164 -1.2615768 -1.9124674 0.2796377 -0.52560616 0.21049783 1.0785836
2.1402948 -0.5012485 -0.35072997 -0.07698585 -1.6430151 -1.7580011 1.4570167 -0.070446275
-0.18778273 1.2063267 2.8106432 -1.9275628 0.8745909 -0.34048462 -1.3552804 -0.31116894
-0.56195426 0.5486381 0.90929943 -0.570909 0.4273096 -0.61454207 0.7356319 -1.4542794
0.20364012 1.5738722 -1.8289654 0.7259995 -0.81732696 0.33401158 -0.09615533 -0.44423687
0.6124908 -2.6154592 -3.3400962 4.4823046 -3.2820587 -2.8052928 3.2946217 -1.3123412
2.5375896 2.2629237 -1.3907623 -2.5219982 2.2074995 -2.845294 -0.5496232 3.2836235
-2.9485705 3.806493 0.8852746 0.51395905 2.4871688 -0.7225364 3.3767374 0.68179256
-2.704777 -4.8535347 1.4182575 -1.7364558 1.0131396 2.210843 -0.0052931756 2.8637595
-1.9390782 -1.9994959 0.3726196 0.29738185 0.69663465 0.8413406 2.0871403 -0.79017705
0.78288454 0.66106707 -1.1021472 -1.5103152 1.146472 -0.13601643 -1.1658002 1.4972569
-0.14453064 -0.05417647 1.1331707 0.7916198 1.5973257 -1.828554 0.6421178 0.5763761
1.1742289 -0.50625664 -0.50913626 -0.5159582 1.0960943 1.531988 -0.9378435 0.3322601
-0.15378746 0.91389734 -1.8735131 -1.273633 -0.7672702 0.86070096 0.04110953 0.16624117
0.40256566 -0.158269 -0.07627978 -2.4191582 0.040327087 1.2900916 0.62265885 -0.8838641
-0.56492513 -2.7192676 1.9094491 0.39219207 0.49473807 0.4134565 -0.53824973 -2.581116
2.2843976 1.9467094 -0.43424657 -0.78176767 -0.8258586 0.99309915 0.33914247 -0.9115845
-2.167077 3.3723507 0.011367834 0.39485365 2.5006554 -0.5726271 1.3034223 -0.20816474
0.9929928 1.8009962 2.0626392 -1.4023558 0.28812423 3.9435408 -0.46551317 0.75041014
-0.8485405 -0.62107366 0.41004306 1.0497057 -2.3978286 -0.25846463 0.46865016 -1.6625236
5.767389 2.8795135 0.037032314 0.8074442 -1.5512385 -0.9705418 -0.65984803 1.539602
-2.0629587 4.6132693 -1.4756701 1.1220435 2.8167474 0.6146439 0.971293 -0.8574964
1.6088513 2.7237995 1.5287857 0.45493326 0.5748754 5.629116 0.56439525 0.6536065
-0.086349785 -1.5794392 1.4613452 1.506585 0.11949754 -0.83212954 0.044980906 -2.6790783
6.341465 3.4183393 -0.39600712 1.9290133 -2.311376 -1.4973388 -1.3876765 1.3418224
2.0631387 0.3883232 0.24153908 1.362328 -0.22739023 -0.20947416 2.4542935 1.0363138
2.4929883 1.242763 2.1089287 -0.5438665 1.5076026 0.2915817 0.516465 1.1373651
-0.20047109 1.1082046 3.1116428 1.5890994 -0.11200798 -0.0078658 1.4608068 -0.06780019
-0.0884122 -0.2477327 0.21725245 0.03982276 1.5281527 1.5778388 1.1702046 1.6785265

actor.4.bias f4 [32]
00000000: 9222 d4bc 2084 b63e 8095 9fc0 e56e d4bd
00000010: 6836 1abd 15c4 3bc0 0610 29c0 15d4 ecbf
00000020: e3d8 62bf 950b 39c0 1713 2ac0 1ff3 be3f
00000030: 2725 20c0 a604 813e 407f 2ac0 f526 debf
00000040: a196 a8c0 a4ca 6cc0 471c 1ac0 858f 6dc0
00000050: 8322 98c0 589b 18c0 974c 01c0 5c15 16c0
00000060: 9017 48c0 0d1b ffbf 61c6 75be f7d7 83c0
00000070: 5e57 5cc0 02c3 813f 7931 a6bf 8171 47c0
-0.02589539 0.35647678 -4.9869995 -0.10372714 -0.037649542 -2.933843 -2.641603 -1.8502222
-0.8861219 -2.891332 -2.6574152 1.4917945 -2.5022676 0.2519886 -2.6640167 -1.7355639
-5.2683873 -3.6998682 -2.407976 -3.7118847 -4.754213 -2.3844814 -2.0202997 -2.3450537
-3.1264381 -1.993013 -0.24001457 -4.120113 -3.4428325 1.0137637 -1.2983848 -3.1163027

actor.6.weight f4 [4, 32]
00000000: 04c2 e83f 75d9 cc3f 2644 49c0 d1d7 3e40
00000010: 76d2 40bf 24d6 f1be 1e04 74bf c012 17bf
00000020: 82ff c33d 642d 5bc0 e1af b0bf 8bda d1be
00000030: faa9 67bf 2705 46bf 6309 49be fc81 983d
00000040: acf4 67c0 d3ed 6ac0 acd9 5cbf bdff 1ac0
00000050: 08f0 37c0 505c e0be a9ab 0bc0 7d25 1fc0
00000060: 0ac3 4bc0 b4b6 dabf e8b5 b1bf 9829 be3f
00000070: 435f 5dc0 de0e 863f 4089 5c3f 81b5 d1bf
00000080: 110a ac3f eda6 c43f 14e8 0dc0 e592 2c40
00000090: 1594 aebf fb33 90bf a054 61c0 f130 48bf
000000a0: 569a 903f cf41 dcbf 4c75 2fc0 770a d3be
000000b0: d347 e8bf e504 22c0 65a4 423e e159 10c0
000000c0: 9b00 27c0 4ee7 29c0 c3f3 cfbf 6b58 50c0
000000d0: 8103 42c0 9d02 2bc0 db38 a3bf cd8f bfbf
000000e0: 4a76 ccbf 98b0 a6bf 99ff bdbf d8d6 e23f
000000f0: ecb1 95bf dc20 f43e 8f6e 833f 55c5 19c0
00000100: 21ec fe3f f94d 0940 85c7 f5bf 53ca 6640
00000110: 7abf d1be 9d0d 27c0 9502 5dc0 ea57 a8bf
00000120: b465 803f 78f3 83c0 3846 c4bf 2c18 3e3f
00000130: 04ae 1fc0 0255 3abf 3027 e93e 4953 1fbf
00000140: 9f25 efbf 903c cbbf 3239 dabf e860 1fbf
00000150: cbcb c0bf d958 bebf 43fc 2ac0 fab9 07c0
00000160: 2922 57c0 3371 51c0 eac5 c4bd 2364 f33f
00000170: af10 a0c0 f7a1 603e eb44 0d3f d076 5ebf
00000180: 498a 6540 b209 2440 d7ef 6dbf 8e15 ad40
00000190: b4d3 00be 2239 c7bf 691a 60bf f91c 08c0
000001a0: e032 debe 0862 f6bf 3566 abbf f4a3 48bf
000001b0: f5a7 febe 83ed 18c0 60c2 0a3f d5b1 94bf
000001c0: 1f7f 77bf 3712 b6bf 2cf9 a1bf b8a1 c7bd
000001d0: 6e64 103f ce68 b0bf 1df6 2fc0 9919 a8bf
000001e0: 5926 2cc0 c112 2ac0 e163 713e e558 7540
000001f0: 8c83 2ac0 bc22 0840 9be9 4b40 88b0 84be
1.8184209 1.6003863 -3.1447845 2.9819224 -0.7532114 -0.4723369 -0.9531878 -0.59012985
0.095702186 -3.4246454 -1.3803674 -0.40987048 -0.9049374 -0.7735161 -0.19632487 0.074466676
-3.6243086 -3.6707656 -0.8626964 -2.421859 -2.8740253 -0.4382043 -2.1823523 -2.486663
-3.1837792 -1.7087007 -1.3883638 1.4856443 -3.4589393 1.0473287 0.86146927 -1.6383516
1.3440572 1.5363442 -2.21729 2.6964657 -1.3638941 -1.1265863 -3.52079 -0.7819968
1.12971 -1.7207583 -2.7415342 -0.41218922 -1.8146919 -2.5315487 0.19008024 -2.2554858
-2.609412 -2.6547427 -1.6246265 -3.2553966 -3.0314639 -2.6720345 -1.2751726 -1.496576
-1.5973599 -1.3022642 -1.4843627 1.7721815 -1.1694922 0.4768132 1.0268115 -2.4026692
1.9915811 2.145384 -1.9201514 3.606099 -0.40966398 -2.610206 -3.4532826 -1.3151829
1.0031037 -4.1234703 -1.5333929 0.74255633 -2.494996 -0.7278596 0.4553771 -0.6223646
-1.8683356 -1.5877857 -1.7048705 -0.6225724 -1.5062193 -1.4870864 -2.6716468 -2.120726
-3.36146 -3.2725341 -0.096080616 1.9014934 -5.0020366 0.21936785 0.55183285 -0.86900043
3.5865653 2.5630918 -0.9294409 5.408881 -0.12580758 -1.556431 -0.875403 -2.1267684
-0.4339819 -1.9248667 -1.3390566 -0.7837517 -0.49737516 -2.3894966 0.5420284 -1.161677
-0.96678346 -1.4224309 -1.2654166 -0.09747642 0.56403244 -1.3781984 -2.7493966 -1.3132812
-2.6898406 -2.6573946 0.23573257 3.8335507 -2.664279 2.12712 3.1861331 -0.25915933

actor.6.bias f4 [4]
00000000: ad36 5440 8dc6 4640 e423 9340 9500 263f
3.3158371 3.1058686 4.598131 0.6484464

critic.0.weight f4 [32, 181]
00000000: 7f49 3bbf 538d ceba 5f2d fa3f 0e5b c83f
00000010: 1880 be3f 02e7 cb3f 0862 ca3f a643 4a3f
00000020: b6d2 dbbd d97b 87be d699 ddbe 20ba 4440
00000030: 65f2 6e40 eb1a 0d40 56ad 6440 d579 4840
00000040: 2fca 4940 e8fb e8be 2cd7 bc3e 6a1b 72c0
00000050: d82a 0dc0 6952 f1bf ee36 23bf 7faa c23e
00000060: 9a29 363f 603b 28bf 6844 78c0 67cf 4dc0
00000070: 50e9 fbbe 0621 a0be 7925 353f c05c d9bd
00000080: 4479 1a3f 9a50 823e f4e8 21be 09cf 35bf
00000090: 5057 bcbf 1899 003f b3fc acbe 1331 613e
000000a0: 9a54 1a3f dc36 f33f 55f8 6d40 a80e a940
000000b0: 7a22 9d40 5ca7 9640 33bd 0f40 23b4 e13f
000000c0: 880a 823e 3eec ca3e b51e 963f 2b46 8b3f
000000d0: ba96 323f 41d0 2fbf ee24 f93e 6cc0 a0bd
000000e0: 7883 d0bd d9b3 e23d c5fc 8dbf 0b13 9a3f
000000f0: e6d1 2e3f 3cd4 e93c b9b3 15bf 1292 2abe
00000100: 33e1 b73f a481 9b3f 390f a83f 2088 2fbf
00000110: 6284 e8bf 8bb7 53bd a300 813e ecc0 d53d
00000120: 6ec2 86be a7de 5abf a172 c73e ea15 803f
00000130: e973 a4be 4aa9 a73e 6500 43bd a784 c43e
00000140: 03a9 893f 7640 11bd a127 b2bf b447 babf
00000150: e2fe 09bf 679b e43e 3d56 e2bb 70a0 4ebe
00000160: 9c18 39bf 9eac eebb bded 143f 091e d83e
00000170: 37a7 6ebe 0044 14bf f1e9 08c0 192d 9bbe
00000180: 0213 8b3f cfb7 0a40 81de 783f 2523 7a3e
00000190: d958 e33f 9e48 1b40 43ab 033f 9b66 bdbf
000001a0: 28e9 93bf 228c 50bc 00a6 c63f 5839 7340
000001b0: b805 6640 4ff1 0b40 d4a7 aa3f b2a2 ae3f
000001c0: 34d0 2b3e bfd4 73bf fd5e 2c3f ccbe 253f
000001d0: 1d38 2e40 ca96 ad40 acbb a140 f398 2e40
000001e0: 1ce6 0240 dda4 a63f 74f2 1cbe a668 f9be
000001f0: 28ee ef3e a057 323e 3281 883e 1385 af3f
00000200: 3288 4340 86ab dd3f 37fc 06be 83b5 8e3f
00000210: 3e0c 023f 864b 22bf 9d57 fa3e 1522 393e
00000220: 6749 e9be 86c0 06be 21eb f23c 734c 363e
00000230: e4c5 c23f 095a d53e ec7b 8d3e 5a78 713e
00000240: f9ac 893f b547 443f b4bb 03be 9716 3dbe
00000250: de98 263f 9d54 753f 6982 183f cb35 983e
00000260: 97c6 163e 046d 983e 3826 cdbe c334 35be
00000270: 9e22 5bbe c543 d83e ddab 493f 27ce b23e
00000280: cf71 ac3e 32b9 af3f 4892 ca3f 6bcb be3f
00000290: 0c27 9e3f 090d 993f 9bfe 9c3f 38c1 b03f
000002a0: cf7a 823f c29b 993f 743f 9c3f 425a ba3f
000002b0: 9478 a43f c5d7 a43f 5b9b a53f 4982 a63f
000002c0: 2843 24c0 ca2e 09c0 6acb 1ac0 53c4 22c0
000002d0: 3faf 063d 2692 aa3f c459 b33f 458d a73f
000002e0: 567e 0740 062c e83f 0e32 0740 9916 bf3f
000002f0: 7e90 3840 24ba 3540 b8a4 863f e5b4 9240
00000300: 8e89 7b3f 31b9 273f 0c8b 523f 0e1b 2440
00000310: 18c8 0940 483f 8b3e 8dd1 913e 45cb 3940
00000320: 6020 e040 ecf1 3cbf ce27 d03f 50ff 5a3e
00000330: 8e49 d3be 6a59 523f 2cbf 613f ae2a a2bf
00000340: 2463 e6bd 84da cd3f 38d6 e43d 570d 693e
00000350: 6429 e53e 7a68 36bf f335 6d3f 6e86 72bf
00000360: 0b13 963d af61 99bf ff15 4640 5765 fd3f
00000370: 8fa5 1a40 a32a 08c1 33a4 67c1 2603 78c1
00000380: 48a9 7ec1 d752 8cc1 1558 81c1 a6e5 66c0
00000390: 1881 14c0 eb47 2fc0 e00b 10c0 9a5b ee3f
000003a0: 1b6e ab3f 8ea2 af3f 84ad ac3f 2fe5 db3e
000003b0: 4c7c e73e de3c 1ac1 4373 33c1 04b7 d6c0
000003c0: 889a b6c0 5ca4 493f 9820 a13f 4400 c33f
000003d0: f863 603f 06a1 5f3f 1103 503f ea64 e9c0
000003e0: 0938 7fc1 65da 10c1 754d f4c0 f5d9 733f
000003f0: 72a3 993f 24ed 3d3f 1c40 6a3f ffb9 b43f
-0.7315902 -0.0015758671 1.9545096 1.5652788 1.4882841 1.5929873 1.5811167 0.79009473
-0.10733549 -0.26461676 -0.4328143 3.0738602 3.7335446 2.204768 3.5730796 3.132436
3.1529653 -0.4550469 0.36882913 -3.7829232 -2.20574 -1.8853275 -0.6375569 0.38020703
0.7115723 -0.657156 -3.8791752 -3.2157838 -0.4920144 -0.31275195 0.70760304 -0.10613394
0.60341287 0.2545212 -0.15811521 -0.71019036 -1.4714146 0.502336 -0.33786544 0.21991377
0.6028534 1.9001117 3.718282 5.283039 4.9104586 4.7079296 2.2459228 1.7633098
0.2539866 0.39633363 1.1728121 1.0880789 0.6976124 -0.68677145 0.48660988 -0.078492016
-0.10181326 0.110694595 -1.1092764 1.2037061 0.6828903 0.028543584 -0.5847736 -0.16657284
1.43656 1.2148938 1.3129646 -0.68567085 -1.81654 -0.051688712 0.25195798 0.104371876
-0.26320213 -0.8549599 0.38954642 1.0006688 -0.32119682 0.32746345 -0.047607798 0.38382456
1.0754703 -0.035461865 -1.3918344 -1.4553132 -0.53904545 0.44649813 -0.006907253 -0.2017839
-0.72303176 -0.007283761 0.5817526 0.42210415 -0.23305975 -0.5791626 -2.1392787 -0.30307844
1.0865176 2.1674688 0.97214514 0.24427469 1.7761489 2.4263072 0.514332 -1.4796938
-1.1555529 -0.012728723 1.5519409 3.800375 3.594099 2.1866033 1.3332467 1.3643401
0.16778642 -0.952465 0.6733244 0.6474426 2.722175 5.424657 5.054159 2.7280853
2.0452948 1.3019062 -0.15326864 -0.48712653 0.46861386 0.17416239 0.26661068 1.3712486
3.0551877 1.731797 -0.1318215 1.1149143 0.5079993 -0.6339649 0.4889497 0.18079408
-0.45563814 -0.1315938 0.029653134 0.178026 1.5216641 0.41670254 0.27633607 0.23581067
1.0755912 0.76671916 -0.12864572 -0.18465649 0.65077007 0.95832235 0.5957399 0.2972854
0.14724194 0.29770672 -0.4006822 -0.17695908 -0.21399924 0.42239204 0.7877787 0.34922907
0.3368058 1.3728392 1.5825891 1.4905828 1.2355666 1.1957103 1.22652 1.3808966
1.0193728 1.2000659 1.2206864 1.4558794 1.2849298 1.2878348 1.2938036 1.300851
-2.566599 -2.1434808 -2.4186654 -2.5432327 0.03288197 1.3325851 1.4011769 1.3089987
2.117086 1.8138435 2.11243 1.4928771 2.883819 2.8394861 1.0519018 4.584582
0.98256767 0.65516955 0.8224342 2.5641513 2.1528378 0.27196717 0.28480187 2.9030316
7.003952 -0.73806643 1.6262147 0.21386456 -0.41267055 0.82167685 0.8818233 -1.2669275
-0.11249378 1.6082311 0.111736715 0.22758995 0.4475814 -0.7125317 0.92660445 -0.94736373
0.07327851 -1.1982936 3.0950925 1.9796551 2.416355 -8.510409 -14.477588 -15.500769
-15.916328 -17.54045 -16.168009 -3.6077666 -2.3203793 -2.7387645 -2.2507248 1.8621705
1.3392977 1.3721483 1.3490453 0.4294829 0.45212018 -9.63986 -11.21564 -6.709841
-5.7063637 0.7876642 1.2588072 1.5234456 0.8765254 0.8735508 0.8125468 -7.2935686
-15.95118 -9.053319 -7.634455 0.9525445 1.2003005 0.7418997 0.91504073 1.4119262

critic.0.bias f4 [32]
00000000: 6d66 bec0 59d0 16c0 097d 073f fe95 d63f
00000010: 5da7 ebbf 1480 ac40 8341 413f c30b bcc0
00000020: 21cf b4c0 d240 15c1 bcc2 6240 9f88 573f
00000030: 5a5a ca3f 5d0d 9c40 f0d5 07c0 638a cb40
00000040: 6ddc 9dc0 68b8 423e 6d85 853f 8601 c940
00000050: 1a16 cb40 b81a c540 b620 68c0 1401 4e3f
00000060: 29c3 173f c2fc df3f 7e93 8ebf 40e2 bbc0
00000070: 0faa 293f 83d2 2cc0 86a2 3b40 de57 fb3f
-5.950003 -2.3564665 0.52925164 1.6764524 -1.841045 5.3906345 0.7549059 -5.8764358
-5.6502843 -9.328325 3.5431356 0.8419284 1.5808823 4.8766313 -2.1224327 6.360643
-4.9331574 0.19015658 1.0431343 6.281436 6.346448 6.1595116 -3.6269965 0.80470395
0.59282166 1.749901 -1.1138761 -5.8713684 0.66275114 -2.7003486 2.9317946 1.963619

critic.2.weight f4 [32, 32]
00000000: 1001 36bf 5b06 f8be 39ab 31be 1d40 873d
00000010: 18b9 a3be 81fd ac3e 31a9 94bd 367c 1e3e
00000020: 663d cebe 136b 8abf 5268 723c 3173 493e
00000030: 82ed 8cbe bcd2 03bf 1d98 0abe 52a3 9a3e
00000040: 46ab 84be 1fd7 c7be 9290 87be 866b c83e
00000050: 76bb b33e 870c bbbd 34c2 12bd bccd 3e3e
00000060: 6b79 edbe a050 3bbe 0fb0 23be f692 17bf
00000070: 1735 fcbe f5ac 75be ac37 ccbd 1a82 11be
00000080: 9faf bc3f c3dd e03f 485f 20bf e4a2 93bf
00000090: 31f4 763f 5f62 9fbf 0186 5a3f 549c d43e
000000a0: eda5 3740 e0fc 1b3f 93b9 d43f 6d5c 0c3f
000000b0: 8e9a 2140 6df8 0a40 a1c0 8e3f 677c 7ec0
000000c0: bb10 a63f aa37 9a3f c096 cf3f e936 3bc0
000000d0: 6fa4 77c0 e7c6 66c0 29da dc3f 7cdc 90bf
000000e0: e307 9b3f 3985 9a3f 7136 293f 10ca 4f40
000000f0: 79ee 14c0 ea95 d83f 1e1d 8fbf 0ae9 a23f
00000100: 0e3f 2540 1b8a 9e3f 1da7 abbf dd32 83bf
00000110: a01e 883f bba2 31bf d901 5d3e f21e ba3f
00000120: 261e fb3f e6f4 843f ac45 94bb e350 273e
00000130: b4d2 883f 06d8 df3f 9464 c33d b24f 3cc0
00000140: 9d26 d43f 6e85 9abe e80d 61be 44c1 12c0
00000150: c1b1 3ec0 da92 11c0 ace8 263f 5010 5abf
00000160: a884 9e3f 5c88 bd3e 98a7 b83e ef3f 1140
00000170: 5df0 51be e600 0840 d2b5 fdbe dd30 cf3e
00000180: dd5f aa3f 146e 863f cfce dfbf bdf2 04bf
00000190: 994d 5d3f 5aab 2fbf c4fc fc3e a762 823f
000001a0: 37b0 0e40 3057 b23f d2c0 2a3f 3995 b63e
000001b0: d5ba e03f 6dcd ec3f ecd4 9d3f f560 59c0
000001c0: 00dd e33f 181e 493f c98c a03d f0a5 1cc0
000001d0: 2443 68c0 3252 3ac0 d3d9 8c3f 810d 37be
000001e0: 5626 f53f c25a 7f3f 4440 513f 6efb 0840
000001f0: 0662 24bf 1029 d93f 07f7 8ebe 68b5 093f
00000200: 0176 883f 1b8e bd3f c201 04bf c0c3 52bf
00000210: c406 903f 4a5a b6bf 38b1 843f 0af1 5d3f
00000220: 4fc9 3240 f400 4f3f 2e62 df3f e831 4c3f
00000230: db36 0640 e7af 1140 657e d23f 7401 84c0
00000240: 4165 e03f 1973 e63f 6b3a b13f 7ad2 39c0
00000250: 7620 7dc0 7a21 50c0 7713 a43f eed2 a5bf
00000260: d342 dd3f b9c3 b53f 9506 9e3e d2fb 4d40
00000270: f1e6 f0bf 6b97 1540 decf 8bbf 2ad7 ae3f
00000280: bd99 54bf b324 aa3f 147d e9bf a689 c6bf
00000290: 6953 d03e 9e4a bebf 97b7 523e 0661 d3be
000002a0: ee64 1f40 c9cb 30be 5135 183d ef8c 1dc0
000002b0: 764b 8f3e c734 163f 0093 7f3f c7c7 abbf
000002c0: 2768 c2bd cd5a 3dbf a1f1 6bbe a5f0 cdbf
000002d0: 9563 cabf 24ec a3bf e8cf be3f 9c46 143e
000002e0: 89ae a7bd 8445 03bf 0d1e 8bbf 267e 4640
000002f0: 082d 10be 2e39 4640 d0c3 e9bf ab39 053e
00000300: 304b 0140 0db1 f83f 104d a0bf 1010 7cbf
00000310: 23fe ad3f 6cf3 79bf 7338 edbd df7d e93f
00000320: b4c8 e43f 7f7b 1540 08a8 ce3e 751c 6c3e
00000330: f42e ba3f ebe2 773f 7d95 6c3f 5010 51c0
00000340: 398e 2f40 da32 903e 3d6a f73d f603 1fc0
00000350: 8c14 2fc0 365e 22c0 126c 763f 684a 5abf
00000360: a4fe f53f 5f0b 003e b5f7 523f f2de d23f
00000370: b231 083e 0405 1340 c164 fabe 3fdc 8f3e
00000380: 7e52 0940 b723 b13f 0a69 acbf 2b8e 5abf
00000390: 2b7d 903f 754e 72bf 63cf f53e 8696 a63f
000003a0: c310 0e40 ec0d 603f a733 b03f c559 173f
000003b0: ea37 bf3f e20d c73f 0403 8f3f 8632 68c0
000003c0: 1e12 f33f 79d6 5d3f 80d8 da3e 1cee 38c0
000003d0: 26ab 54c0 70ef 4ac0 ca67 8d3f 7f75 5bbf
000003e0: efb8 e33f 64f2 433f f467 fa3e 430e fb3f
000003f0: 5b8c aebf 59b0 f53f e524 22bf 7f02 773f
-0.7109537 -0.4844235 -0.17350473 0.066040255 -0.31977153 0.33787158 -0.07258833 0.1547707
-0.40281218 -1.0813926 0.01479538 0.19672848 -0.27524954 -0.5149343 -0.13534589 0.3020273
-0.2591192 -0.39031312 -0.26477486 0.39144534 0.3510396 -0.09133249 -0.035829738 0.18633169
-0.46381697 -0.18292475 -0.1598513 -0.5920862 -0.49259254 -0.23991759 -0.09971556 -0.14209786
1.4741095 1.7567676 -0.6264539 -1.1534085 0.96466357 -1.2451895 0.85360724 0.4152552
2.8695023 0.6093273 1.6619133 0.5482853 2.5250583 2.1714127 1.1152536 -3.976343
1.2973856 1.2048237 1.621788 -2.9252264 -3.8694112 -3.60589 1.7254077 -1.1317286
1.2111782 1.2071906 0.66098696 3.246708 -2.3270552 1.692075 -1.1180761 1.2727368
2.5819736 1.2385896 -1.3410374 -1.0249897 1.0634346 -0.6938893 0.21582736 1.4540694
1.9618576 1.0387237 -0.004524907 0.1633945 1.0689301 1.74878 0.09540668 -2.9423642
1.6574284 -0.30179924 -0.21977961 -2.293046 -2.9795992 -2.274588 0.6519878 -0.8518114
1.2384233 0.37018096 0.36065364 2.2695272 -0.20501848 2.1250548 -0.4955278 0.40466967
1.3310505 1.0502343 -1.7484988 -0.5193289 0.8644653 -0.68620837 0.49411595 1.0186356
2.2295053 1.3932858 0.6670047 0.35660723 1.7557017 1.8500191 1.2330604 -3.3965428
1.7801819 0.78561544 0.07839353 -2.447628 -3.629098 -2.9112668 1.1003975 -0.17876245
1.9152324 0.9974786 0.81738687 2.140346 -0.6421207 1.6965656 -0.27922842 0.5379243
1.0661012 1.4808992 -0.5156518 -0.8232994 1.1252065 -1.4246304 1.0366583 0.8669592
2.793537 0.8086083 1.7451837 0.7976365 2.097098 2.2763612 1.6444823 -4.1251774
1.75309 1.8003875 1.3845953 -2.9034715 -3.9551063 -3.2520432 1.281844 -1.2954996
1.7286018 1.4200355 0.30864397 3.218495 -1.8820478 2.3373668 -1.0922811 1.3659413
-0.83047086 1.329245 -1.8241296 -1.5510757 0.40688637 -1.4866521 0.20577846 -0.4128496
2.4905353 -0.17265238 0.03716022 -2.461727 0.2798726 0.5867428 0.9983368 -1.3420342
-0.09492522 -0.73966676 -0.23041393 -1.6089064 -1.581164 -1.2806439 1.4907198 0.1448006
-0.08187587 -0.5127795 -1.0868546 3.1014495 -0.14079678 3.09724 -1.8262882 0.1301028
2.020214 1.9429032 -1.2523518 -0.9846201 1.3593181 -0.9763706 -0.115830325 1.8241538
1.787375 2.3356626 0.40362573 0.2305773 1.4545579 0.96830624 0.924156 -3.2666206
2.7430556 0.28163797 0.1208081 -2.4846168 -2.735629 -2.5370002 0.9625865 -0.85269785
1.9218335 0.12504338 0.8240922 1.6474288 0.13300207 2.2971811 -0.48904994 0.28097722
2.14566 1.3839024 -1.3469555 -0.8537318 1.1288198 -0.94650966 0.48009786 1.3014686
2.219773 0.87521243 1.3765763 0.5912135 1.4938939 1.5551112 1.1172795 -3.6280837
1.8989904 0.86655384 0.427433 -2.889533 -3.322946 -3.170864 1.1047299 -0.8572616
1.7790812 0.76541734 0.48907435 1.9613727 -1.3636583 1.9194442 -0.63337547 0.96488184

critic.2.bias f4 [32]
00000000: 915b ce40 6e34 6ec0 e6d9 08c0 ad83 4bc0
00000010: ab42 69c0 ae91 ebbf e510 2ec0 f318 6cc0
00000020: c86b c440 5969 57c0 117f 67c0 8d3d c240
00000030: d8e5 64c0 3f4c 15c0 c521 a840 38e7 61c0
00000040: 13ac af40 82fd 48c0 3363 5e40 5239 31c0
00000050: 434a 62c0 b77b 61c0 fd9c 2cc0 65f6 6fc0
00000060: fe5e 3ac0 dfdd be40 15ae 68c0 ac19 5cc0
00000070: d821 3cc0 6a1e 59bf 9bec dabe 655a e6bf
6.4486775 -3.72195 -2.1382995 -3.1799119 -3.644694 -1.8403833 -2.7197812 -3.6890228
6.138157 -3.365805 -3.6171305 6.0700135 -3.5765285 -2.3327787 5.2541223 -3.5297375
5.489755 -3.140473 3.4748046 -2.7691236 -3.5357826 -3.523176 -2.6970818 -3.7494137
-2.9120479 5.964584 -3.6356251 -3.439067 -2.9395657 -0.84812033 -0.4275864 -1.7996336

critic.4.weight f4 [32, 32]
00000000: d44a 9fbd 4441 df3e 24db 11bd d44e 9c3e
00000010: b248 9d3e b5de 5c3f c886 703e 04b9 783e
00000020: f271 c83e 6960 30be 4a29 7c3e 2666 f9bc
00000030: 131b 85bd 4eb3 26ba 4bc0 ee3d e8fe 223e
00000040: 4205 3e3e f9e0 dd3c b88e 0abe c5be 0cbc
00000050: e51b acbd 7382 7f3b 7370 c23e c359 323c
00000060: 3ac2 93be 691f 0f3f 668e 3bbe a942 883d
00000070: 2a07 ab3c a657 2f3f 128b bfbb fe76 663e
00000080: 982b 6cbd e739 dcbf c00c 4bbf 38dc 94bf
00000090: 7da0 e6bf b1be a6be ed84 1cbf 49b2 96bf
000000a0: 17f0 14be 6f88 ccbf 559e bbbf 47ad 24bd
000000b0: 89dc 9abf 1966 96bf e6f8 eebc b95a bebf
000000c0: 22db 2a3e e441 babf d274 3ebe 821e d9bf
000000d0: 4a9c d3bf 491e dfbf 9ea3 b3bf 27f9 e6bf
000000e0: 3abf d4bf ced6 ff3d 49c1 90bf 3fe6 dabf
000000f0: f6de 94bf 66bb 80be c55b b2be 39f4 8abf
00000100: 7620 d43a d84c 513e 33d7 a5bd 5e26 8f3e
00000110: 1565 f33d 4b88 303f 18c0 063e a2c8 01be
00000120: 3d9e a53d 0c8a e93c e9e7 f83c 3e15 ca3e
00000130: e211 913e 29bf d6be b18b c53e bcd7 bc3d
00000140: d1e6 cb3d eae0 ca3e 8db4 f83e 4ac3 043e
00000150: cd8d fa3d 60ba ab3d 2e01 0b3e 81f3 0cbe
00000160: 593f 26be f4eb e93c 5cc2 0b3e 0340 593e
00000170: 2bd3 4dbe 4522 943f 12dd 003f a583 1bbe
00000180: 60b0 cb3e 8f48 1dbd 3ca3 d63e 0a7d 983e
00000190: b6f1 4fbd 0f94 6a3f b7f5 f43e 4a26 2bbe
000001a0: cafa a13e 8d35 54bd 31f1 ff3d 2629 203e
000001b0: 4b2d 913e a789 b6bd 62ff fd3c 66d3 5d3e
000001c0: f63f 8cbe 5913 a83d 2bf3 af3f 4168 d13e
000001d0: 14e0 cabd 2068 e9bb 5775 483c 40c7 943e
000001e0: 708c 04be 04cf 593e 533a 06bd f1a1 873e
000001f0: b22e 293e 9dd6 9e3f 8a04 8e3e ba1d ea3e
00000200: a688 7a3f 5f79 1240 7ef1 643f c6ea da3f
00000210: 72e7 1b40 174d d7be 41b1 b23f a4d4 f43f
00000220: ad2a 04bf e5ad 1740 6864 0c40 5fd0 8c3e
00000230: db2f ac3f 7ecc ee3f 1a5f 083f 57be 0b40
00000240: d186 4d3e a5e8 f93f de6b a43f f29a 2640
00000250: 873e 0940 1503 2340 81b3 0940 ae7b f63f
00000260: 88b2 1240 5b24 ec3e c488 a33f 188a ff3f
00000270: 9e93 d83f 4e4b 4a3f bc19 bdbf af01 c63f
00000280: 763a a9be 278f 803e 01da e0be 0393 5bbc
00000290: 6d43 653e 15ee 00bf 920e bf3d ef2e 683d
000002a0: 1254 74bc af0e c5be 5533 ad3d ce89 86be
000002b0: 51bf 473d 55c3 0e3d 9085 46be f819 9b3e
000002c0: c9ab 37be 5899 473e bd8f 243f 11aa 1abe
000002d0: adcd ee3e 29ba 5e3e 3177 003e 536d b43d
000002e0: 28a8 36be d699 953e 77fd 81bc fac1 183e
000002f0: 357e 7fbd 8785 6b3e d430 263e 2d8c 03bf
00000300: 63be d63d 9a1d abbd 6a1a 7c3e 69a0 18bd
00000310: 6119 ca3e 620e 9e3f 3a2f 1e3e cee8 e63d
00000320: bd2d b83e ada4 7ebd 81b2 7cbe 49cc c43e
00000330: b448 2fbe 1125 433e 14cb be3e 561d 0b3e
00000340: a205 a7bb 64e1 5dbe e650 893e e6b3 b73e
00000350: f3f2 e53b 697b 2cbe 9513 6abd 80da 23be
00000360: a977 023e 61a8 833e ea09 f83d 6561 f6bd
00000370: ce83 ae3e c405 883f 7f17 2b3d 108d 583f
00000380: 7e98 d63d 7178 c83d b1a1 543f 5b27 c93e
00000390: 2947 973e 204a 233f 8baf e93e 1903 203f
000003a0: 57fc edbe d8bf da3d 98d8 e73e a47e 923e
000003b0: a4bc c23e d239 113e 9361 653e e52f 953d
000003c0: f314 9e3e 8467 5abe 8f4f 71be b547 e63e
000003d0: bb91 d03e a1b8 133e 0be4 d23e ed2c c03e
000003e0: da0f 7dbe 4817 e4bd 18d8 683e eaeb 9a3e
000003f0: 221a 1e3f 4f2f e93e 5111 19be 4d41 8a3e
-0.07777944 0.4360448 -0.03560938 0.3052889 0.30719525 0.86277324 0.23488915 0.24289328
0.39149433 -0.17224278 0.24625126 -0.030444216 -0.064993046 -0.0006359116 0.11657771 0.15917552
0.18556693 0.027084814 -0.13531005 -0.008590405 -0.08403758 0.0038987666 0.37976417 0.010885659
-0.2885912 0.55907303 -0.1831604 0.066533394 0.02087744 0.68493116 -0.005845436 0.2250633
-0.05765876 -1.720517 -0.7931633 -1.1629705 -1.8017727 -0.3256736 -0.6114033 -1.1773158
-0.14544712 -1.5979136 -1.4657694 -0.040204313 -1.2098552 -1.1749908 -0.029171418 -1.4871436
0.16685155 -1.4551358 -0.18599251 -1.6962435 -1.6532071 -1.7431117 -1.4034307 -1.8044785
-1.6620858 0.124921426 -1.1308986 -1.7101516 -1.1630542 -0.25142974 -0.3483564 -1.0855781
0.001618399 0.2043947 -0.080976866 0.2795896 0.11884514 0.68957967 0.13159215 -0.12674192
0.08086822 0.028508209 0.03038402 0.39469332 0.28333956 -0.4194272 0.3858314 0.092208356
0.09956134 0.3962472 0.4857525 0.12965122 0.122340776 0.083851576 0.13574669 -0.13764764
-0.16235103 0.028554894 0.13648361 0.21215825 -0.20100085 1.1572958 0.50337327 -0.15186937
0.39783 -0.038399275 0.41921413 0.29782897 -0.050767623 0.9163217 0.47843716 -0.16713825
0.3163665 -0.051808883 0.124971755 0.15640697 0.28354868 -0.08912974 0.031005565 0.21662673
-0.27392548 0.08206815 1.3746084 0.40899852 -0.09906021 -0.0071230084 0.012235007 0.29058266
-0.12944198 0.21270376 -0.032770466 0.2649074 0.16521719 1.2409245 0.27737838 0.45725805
0.9786476 2.288658 0.8943099 1.7102897 2.4360013 -0.42051002 1.3960344 1.9127393
-0.5162762 2.3699887 2.1936283 0.27502725 1.3452104 1.8656156 0.53270113 2.1834924
0.2007096 1.9524122 1.2845418 2.603207 2.1444414 2.547063 2.151581 1.9256494
2.2921467 0.46121487 1.2776113 1.9964018 1.6920049 0.79021156 -1.4773479 1.5469264
-0.33052415 0.25109217 -0.43916324 -0.01340175 0.22389002 -0.50363284 0.09328951 0.056685384
-0.014912622 -0.38487765 0.084570564 -0.26277012 0.048766438 0.034854252 -0.19386888 0.3029325
-0.17936625 0.1949209 0.6428183 -0.15103938 0.46641293 0.21750702 0.12545468 0.088099144
-0.17837584 0.2921893 -0.015867932 0.14917746 -0.06237622 0.23000155 0.16229564 -0.51385766
0.10485532 -0.083552554 0.24619451 -0.037262354 0.39472488 1.2348139 0.15447703 0.11274873
0.35972396 -0.062168766 -0.24677469 0.38437107 -0.17117578 0.19057108 0.3726431 0.1358541
-0.005097107 -0.21668011 0.26819533 0.3587944 0.007017487 -0.16843952 -0.05714758 -0.1600132
0.12740959 0.257144 0.12111266 -0.12030295 0.34084934 1.062676 0.041770454 0.84590244
0.10478304 0.097885974 0.8305922 0.39287838 0.29546478 0.6378498 0.4564174 0.62504727
-0.46481583 0.106811225 0.45282435 0.28612244 0.38034546 0.14182213 0.22400503 0.07284526
0.30875358 -0.2132855 -0.23565505 0.44976583 0.40736184 0.14425899 0.41189608 0.37534276
-0.24713078 -0.11137253 0.22738683 0.30258113 0.61758626 0.45543906 -0.14948012 0.27002946

critic.4.bias f4 [32]
00000000: 194f c73f 15db 8040 6e1a 8a3f dc4c 6d3f
00000010: 9f0b 04c0 2d36 0a3f 2b3e c73f 4bc4 863f
00000020: fec0 e13f 1ce0 d63f 73ec 973f 388d 533f
00000030: 6016 a83f 1843 9e3f ca32 513f b12b b0be
00000040: da25 a0be 6cf4 883f e717 ae3f a445 363f
00000050: 8640 e53e f67c f83e 20a2 f43f 66c2 d63e
00000060: ada2 103f 9d70 f5bf 3bae 543f 8ce2 623f
00000070: 6145 7240 4852 bd3f dfff 1e3f 37a7 f33e
1.5571014 4.0267434 1.0789316 0.92695403 -2.0632093 0.53988916 1.5565847 1.0528654
1.7637022 1.6787143 1.1869034 0.8263736 1.3131828 1.2364225 0.8171812 -0.34408334
-0.31278878 1.0699592 1.3601044 0.71200013 0.4477579 0.48532838 1.9111977 0.4194519
0.56498224 -1.9174992 0.83078355 0.88626933 3.7854846 1.4790735 0.6210918 0.47588512

critic.6.weight f4 [1, 32]
00000000: 4adb 43bd 7809 fabe 1662 2cbd ef9b 23bd
00000010: 14e5 dc3f cd2f 82bd 5f85 b5bd 0b69 213d
00000020: cda6 b2bd 9520 a33c a84a 653d da95 40bd
00000030: 5135 29bd 718d d93c d529 0d3d fbb5 843f
00000040: 72f6 49bd 33cc debc 8929 4fbd 233a 9abd
00000050: af8a 883d 7bc9 d63d 75ca 18bd f443 693d
00000060: b055 1abd 4dd7 993f dffb 893d 2a1b b73d
00000070: 6a54 11bd 6ef6 afbd 1e18 f63d 02ad 363d
-0.047816552 -0.4883535 -0.04208573 -0.03994363 1.7257409 -0.063567735 -0.08863329 0.039406817
-0.08723221 0.019912997 0.0559794 -0.04701791 -0.041310612 0.026556702 0.034463722 1.0368036
-0.049307294 -0.02719698 -0.05057672 -0.0753062 0.06667077 0.10487648 -0.037302453 0.05694957
-0.037679374 1.201883 0.06737494 0.08940728 -0.035480894 -0.085919246 0.12016319 0.044598587
