model/tetris_ppo_interrupted_20251029_170302.pth/model.ckpt-1.pth (torch, 70369 bytes, 15 tensors)

actor.0.weight f4 [32, 181]
0	0xbdc305be	-0.095225796
1	0xbc80aa22	-0.015706126
2	0xbe1c7891	-0.15280367
3	0xbdd458b6	-0.10368483
4	0x3df834df	0.12119459
5	0xbddcc598	-0.107798755
6	0xbc20b04f	-0.00980766
7	0x3da198e0	0.07890487
8	0x3dba8329	0.09107048
9	0x3dd87b06	0.1057034
10	0xbd1625e2	-0.03665722
11	0xbdddb7c7	-0.10826068
12	0xbd950fee	-0.07278429
13	0x3d1fef9e	0.039046876
14	0xbd1580e9	-0.03649989
15	0xbe1b3763	-0.15157847
16	0x3d945631	0.07243002
17	0xbdec5d62	-0.11541249
18	0x3df0059c	0.1171982
19	0xbe243f73	-0.16039829
20	0x3e0e86c9	0.13918604
21	0x3d8d9722	0.06913592
22	0xbd8444cb	-0.06458434
23	0xbdef922b	-0.11697801
24	0x3db58b47	0.08864456
25	0xbd80a4c7	-0.06281429
26	0x3da00f6d	0.07815442
27	0xbd3586d3	-0.04431803
28	0x3cb43388	0.021997228
29	0x3ba535a0	0.005041793
30	0xbe274e4f	-0.16338466
31	0xbcbe7798	-0.023250386
32	0xbd4e5056	-0.050369583
33	0x3c922c78	0.01784347
34	0xbde67cd6	-0.11254279
35	0x3dcb4aa5	0.09926347
36	0xbe28e785	-0.16494568
37	0x3df91cd4	0.12163702
38	0xbd91558f	-0.07096397
39	0xbd9e4a9a	-0.07729073
40	0xbd88b8e2	-0.066758886
41	0x3e23fe40	0.16014957
42	0xbdba69a6	-0.09102182
43	0x3dd1ca53	0.102436684
44	0x3ba8e69a	0.005154443
45	0x3dcd19a3	0.100146554
46	0x3d8f9985	0.070117034
47	0xbb72b100	-0.003703177
48	0x3dbdf8dc	0.09275982
49	0xbd896446	-0.06708579
50	0xbdc7d75f	-0.09757876
51	0x3dcb6d1c	0.0993292
52	0xbe11e8ae	-0.14248917
53	0xbdea2c44	-0.11434224
54	0xbdeb5a05	-0.11491779
55	0x3d419107	0.04725745
56	0xbdb322d3	-0.087468766
57	0xbd7ebe0c	-0.06219296
58	0xbe07a8f2	-0.13248041
59	0x3e28d20a	0.16486374
60	0xbdd03743	-0.1016679
61	0xbe018bb4	-0.12650949
62	0xbcba8e88	-0.022773042
63	0xbdddd332	-0.10831298
64	0xbbbfcca9	-0.005853255
65	0xbe2a5010	-0.16632104
66	0x3e09ddb1	0.13463475
67	0xbdccf1f3	-0.10007086
68	0xbd3db444	-0.046314493
69	0x3be57b00	0.007003188
70	0x3dc26984	0.09492782
71	0xbd4689a6	-0.048471116
72	0xbe01de9b	-0.12682573
73	0x3da08d7e	0.078394875
74	0x3d395d0b	0.04525475
75	0xbe16ed74	-0.14739019
76	0xbe10e1cf	-0.14148639
77	0xbc154fb0	-0.009113237
78	0xbd57c8e6	-0.052681826
79	0xbd886a70	-0.06660926
80	0x3d5dd748	0.054160386
81	0xbd62b848	-0.055351526
82	0xbc3258fe	-0.010885475
83	0xbce52578	-0.027971968
84	0xbcd13f8a	-0.025542993
85	0x3d952db8	0.07284111
86	0xbe277ad0	-0.16355443
87	0x3c255a40	0.010092318
88	0x3de81ec4	0.11333993
89	0x3e230888	0.15921223
90	0xbd2db2a0	-0.04240668
91	0x3e184d38	0.14873207
92	0xbd4f6a1c	-0.050638303
93	0xbe1cdd86	-0.1531888
94	0x3d4db5f8	0.050222367
95	0xbd807a15	-0.06273285
96	0xbdc4376e	-0.09580885
97	0x3e04fb0c	0.12986392
98	0x3e1c752e	0.15279076
99	0xbe032314	-0.1280635
100	0xbd085864	-0.03328742
101	0xbcf94151	-0.030426653
102	0x3bacd6a0	0.0052746087
103	0x3b2baa4a	0.002619403
104	0xbc90713a	-0.017632116
105	0xbdb40350	-0.08789694
106	0xbd229b6b	-0.039699
107	0xbe27f8dd	-0.16403528
108	0x3df61ed8	0.12017602
109	0xbdde925a	-0.10867758
110	0xbe227d88	-0.15868199
111	0xbbffe262	-0.0078089694
112	0x3dce26cd	0.100659944
113	0xbd8f1844	-0.0698705
114	0x3bbe9147	0.0058156583
115	0x3dee3195	0.11630551
116	0xbba3dc53	-0.00500063
117	0xbe21aa2e	-0.15787575
118	0x3daafe1c	0.08349249
119	0xbe02b22f	-0.12763284
120	0xbd9bcb3d	-0.07607124
121	0xbcaac850	-0.02084747
122	0x3e1401ec	0.14453858
123	0xbde92825	-0.1138461
124	0x3db9c00c	0.09069833
125	0xbdd02684	-0.10163596
126	0x3d3b1ff3	0.045684766
127	0x3dc415f0	0.09574497
128	0x3d478954	0.04871495
129	0x3c961cf8	0.01832436
130	0xbdac8ea0	-0.08425641
131	0x3d79bbf7	0.060970273
132	0x3d937997	0.07200926
133	0x3cec7676	0.02886508
134	0x3d1107fd	0.03540801
135	0xbdc33656	-0.09531848
136	0x3d9b7467	0.07590561
137	0xbd7a2445	-0.061069746
138	0xbbdaa8f8	-0.0066729747
139	0x3d858b12	0.06520666
140	0xbe1936e3	-0.14962344
141	0x3d26165d	0.04054867
142	0x3d7d0db3	0.061780643
143	0x3ddddd19	0.10833187
144	0xbdb43a47	-0.08800178
145	0xbe298005	-0.16552742
146	0x3dad9934	0.08476487
147	0xbd80cbd5	-0.06288878
148	0x3d0adc4f	0.03390151
149	0x3c816a6b	0.015797814
150	0x3d9c1546	0.07621245
151	0xbd628313	-0.055300783
152	0x3da929aa	0.082599
153	0x3daab90c	0.08336076
154	0xbdf7f673	-0.12107553
155	0xbd0c0a22	-0.03418935
156	0x3e1b4e2d	0.1516654
157	0x3d1f0240	0.038820505
158	0xbd9ae07c	-0.07562348
159	0x3d2cdbb8	0.042201728
160	0x3cafe19b	0.021469882
161	0xbcedcd42	-0.029028539
162	0x3e248a62	0.16068414
163	0xbd1b6327	-0.037936356
164	0xbd2c6a1a	-0.042093374
165	0x3d00902f	0.031387504
166	0xbca303b2	-0.019899223
167	0xbd90e643	-0.07075169
168	0x3e0c7f72	0.13720492
169	0x3d49caf4	0.049265817
170	0xbda34727	-0.079725556
171	0x3e28bf85	0.16479309
172	0x3d04655a	0.03232322
173	0xbd311c2a	-0.04323975
174	0x3de63fec	0.11242661
175	0xbd509048	-0.050918847
176	0x3db6e037	0.08929484
177	0xbcfefdc0	-0.031126857
178	0x3dea8e46	0.11452918
179	0xbd92c847	-0.07167106
180	0xbdbc0f1a	-0.09182568
181	0xbd8919b9	-0.06694359
182	0xbe13dfcd	-0.14440842
183	0x3deac901	0.1146412
184	0xbe0d0e35	-0.13774951
185	0x3e242adb	0.16031973
186	0x3e19b444	0.15010172
187	0x3cd34355	0.025788942
188	0x3e2516a6	0.16121921
189	0xbe2b00ba	-0.16699496
190	0xbd138b05	-0.03602125
191	0x3e07d285	0.132639
192	0xbde3aed5	-0.11117331
193	0x3e024c7e	0.12724492
194	0xbca6ec37	-0.020376308
195	0x3e0afc47	0.13572799
196	0xbd327d93	-0.04357679
197	0xbd855627	-0.06510573
198	0xbe0a0a8b	-0.13480584
199	0xbdc9bfbb	-0.09851023
200	0xbe15287a	-0.14566222
201	0xbc090d7f	-0.008365034
202	0x3d1afc8a	0.037838496
203	0xbe145b28	-0.14487898
204	0xbd3547e1	-0.044258002
205	0xbdda29ad	-0.1065248
206	0xbd93dd15	-0.072199024
207	0xbc4b5242	-0.0124097485
208	0x3d5d63e3	0.054050338
209	0x3d8c5869	0.068528004
210	0x3c689da0	0.014197737
211	0x3d417510	0.04723078
212	0xbdac6223	-0.084171556
213	0x3b77dac0	0.0037819594
214	0xbd84059a	-0.06446381
215	0xbe02a3e4	-0.12757832
216	0x3d431eda	0.047636844
217	0xbc81cf18	-0.01584582
218	0x3d93b934	0.07213059
219	0xbe1b4813	-0.15164213
220	0xbb897540	-0.0041948855
221	0xbe24c9ad	-0.16092558
222	0xbd9eef62	-0.077605024
223	0xbd1052a9	-0.03523508
224	0xbe019bfc	-0.1265716
225	0x3d976dc8	0.07393986
226	0x3d4c7768	0.049918562
227	0xbba28f71	-0.004960947
228	0xbd9f2c57	-0.07772129
229	0xbd7f2112	-0.062287398
230	0xbdd11783	-0.10209563
231	0xbd3a8bb8	-0.045543402
232	0xbdec03b0	-0.11524141
233	0x3c05f16d	0.008175236
234	0x3d3a6b99	0.04551277
235	0xbd3d145c	-0.046161994
236	0x3e01bbc4	0.12669283
237	0x3de11736	0.10990755
238	0xbdc9334f	-0.098242395
239	0xbe26975e	-0.1626868
240	0x3e1921a8	0.14954245
241	0x3dda23b0	0.10651338
242	0x3e07b910	0.1325419
243	0x3d23d0b8	0.03999397
244	0xbe01e020	-0.12683153
245	0x3d86b0d9	0.065767
246	0x3d788d49	0.060681615
247	0x3dde4aab	0.108540855
248	0x3e1f1ace	0.15537569
249	0x3b9c3120	0.0047665983
250	0x3e0a2b74	0.13493139
251	0xbdc51579	-0.09623236
252	0x3cfe4cc0	0.031042457
253	0x3d91b102	0.0711384
254	0xbde248a1	-0.11049009
255	0x3e192057	0.14953743

actor.0.bias f4 [32]
0	0xba6a6735	-0.00089417706
1	0x3ba734cf	0.005102731
2	0xbbb9c722	-0.0056694904
3	0x3aeb3e19	0.0017947584
4	0x3ba35c31	0.0049853553
5	0xba2bf23f	-0.000655923
6	0x3c0530de	0.008129327
7	0xbb147125	-0.0022650447
8	0x3bd7b62a	0.006582995
9	0xb9c3c9d8	-0.00037343684
10	0x3b0f1dd4	0.0021837847
11	0x3b04f431	0.002028715
12	0xbaa868b0	-0.0012848582
13	0xbac974c0	-0.0015369877
14	0x3ba8be51	0.0051496406
15	0x3b6a44b8	0.0035746526
16	0x3b1cba91	0.0023914913
17	0xbaccf15c	-0.0015635896
18	0xbb40cda3	-0.0029419444
19	0x3b21fed3	0.0024718537
20	0x3b9394ca	0.004503821
21	0x3aa3c7dc	0.0012495476
22	0xbb98d5f0	-0.004664175
23	0xbbca4450	-0.0061726943
24	0xbbc1d05b	-0.0059147305
25	0xba653519	-0.0008743569
26	0x3ba8739e	0.005140736
27	0xbb408c33	-0.002938044
28	0x3aea2c3e	0.0017865968
29	0x3b2adb9f	0.0026070846
30	0x3bd776d9	0.006575447
31	0xbb7e6249	-0.0038815907

actor.2.weight f4 [32, 32]
0	0x3d75572c	0.059897587
1	0x3e8c2417	0.27371284
2	0xbdfccb0e	-0.12343417
3	0xbdda8e14	-0.106716305
4	0x3da2e012	0.07952894
5	0x3bfd01b0	0.0077211484
6	0xbe3f4b4a	-0.18681064
7	0xbe6e711e	-0.23285338
8	0x3e28a976	0.16470894
9	0x3d1b39c5	0.03789689
10	0x3d8cb401	0.068702705
11	0x3dfc6e74	0.12325755
12	0xbe97b6bb	-0.296316
13	0x3e9a2854	0.30108893
14	0x3e73a79c	0.23794407
15	0x3b1012d7	0.0021983886
16	0x3e63125d	0.22174974
17	0x3e9b5661	0.3033934
18	0xbe4f77a5	-0.20260485
19	0xbdedf54c	-0.11619052
20	0x3e006e10	0.12541986
21	0xbe473d1a	-0.19456902
22	0xbe606c58	-0.2191633
23	0xbe752927	-0.2394148
24	0x3d59ac96	0.053143106
25	0xbe1c6449	-0.15272631
26	0xbe47e4c1	-0.19520856
27	0xbe7fb453	-0.24971132
28	0x3e276b6a	0.16349569
29	0x3e7ed861	0.2488723
30	0xbe2a14f0	-0.1660955
31	0xbe8fbeb8	-0.28075194
32	0x3df809d1	0.12111247
33	0x3e3665b2	0.17812231
34	0x3d53e552	0.05173237
35	0x3b3c3983	0.0028720803
36	0xbe32e06b	-0.17468421
37	0xbe84f779	-0.25970057
38	0x3c73b742	0.014875235
39	0x3e29cbb6	0.16581616
40	0x3da2eb34	0.07955018
41	0x3e80cea6	0.2515766
42	0xbe9a2def	-0.3011317
43	0xbe8426cd	-0.25810853
44	0x3df26201	0.11835099
45	0x3df678b1	0.12034739
46	0x3e09baef	0.13450216
47	0x3c7e9d9e	0.015540509
48	0xbdfbb201	-0.12289811
49	0x3d2158c0	0.03939128
50	0x3e8d41de	0.27589315
51	0xbe21485e	-0.15750262
52	0x3e4b41d1	0.19849326
53	0xbe8db777	-0.27679035
54	0xbe869a55	-0.2628962
55	0x3e7a3943	0.24435906
56	0xbe962349	-0.29323795
57	0xbe59bc65	-0.21263273
58	0xbdf72109	-0.12066848
59	0xbe0d5958	-0.13803613
60	0xbdd400e4	-0.103517324
61	0xbd16dca1	-0.036831502
62	0x3e2cbf71	0.16869904
63	0xbdd38280	-0.10327625
64	0xbd8813ce	-0.066444024
65	0x3ddc5e9e	0.10760234
66	0xbe5466c7	-0.20742331
67	0x3e8e6e9a	0.27818757
68	0x3c30afd7	0.010784111
69	0xbdfb1377	-0.12259572
70	0x3e0c1691	0.13680483
71	0x3dc5c386	0.09656434
72	0xbe025fff	-0.12731932
73	0xbdd6853b	-0.104746304
74	0xbd53d68d	-0.051718283
75	0x3e77fb83	0.24217038
76	0xbbf3c557	-0.007439296
77	0x3e98dd8d	0.2985653
78	0x3d21473a	0.039374568
79	0xbe32755b	-0.1742758
80	0xbe385dc7	-0.18004523
81	0x3e0477d5	0.12936337
82	0x3e2f1e6a	0.17101446
83	0x3e90e53a	0.28299886
84	0x3e6c04a6	0.23048648
85	0xbc3f70bb	-0.011684592
86	0xbe7de848	-0.2479564
87	0x3e796feb	0.243591
88	0xbe5ef56f	-0.21773313
89	0xbe6e317e	-0.23261067
90	0xbda4dc10	-0.08049786
91	0xbe003b35	-0.12522586
92	0x3dad96f5	0.084760584
93	0x3d022e7c	0.031782612
94	0x3e3c489c	0.18387073
95	0x3e0d9ff3	0.13830547
96	0xbe8f700c	-0.28015172
97	0xbdcc9586	-0.09989457
98	0xbe465dae	-0.19371673
99	0x3dabaf12	0.083830014
100	0xbe484265	-0.19556578
101	0x3d9cdbaf	0.07659089
102	0xbe1e5882	-0.1546345
103	0xbd74f14d	-0.059800435
104	0x3e39dfad	0.18151732
105	0xbd4475ef	-0.047964033
106	0xbe440caa	-0.19145456
107	0xbd09f0dd	-0.03367697
108	0xbdfff108	-0.12497145
109	0x3e538f43	0.20660119
110	0x3e806fbd	0.2508525
111	0x3dd46d23	0.10372379
112	0x3e93d11d	0.28870478
113	0x3e32b7cb	0.17452924
114	0x3e46e4be	0.19423196
115	0xbced2c1b	-0.028951695
116	0x3e8c2fd4	0.2738024
117	0xbdcbc72c	-0.099500984
118	0xbd95c24b	-0.07312449
119	0xbd6196a0	-0.055075288
120	0x3dbe992e	0.093065605
121	0x3e50de25	0.20397241
122	0x3e3eb25a	0.18622723
123	0x3e9ab8ec	0.3021921
124	0xbe0b4f13	-0.13604383
125	0xbe6e3a21	-0.23264362
126	0xbe337e1e	-0.17528579
127	0xbe43987d	-0.19101138
128	0xbdbe3c6f	-0.092888705
129	0xbd7544d1	-0.05988008
130	0x3e05d03c	0.13067716
131	0x3e766291	0.24061038
132	0x3e3d8a2d	0.18509741
133	0xbe99ca21	-0.30037025
134	0xbdddabdb	-0.108237945
135	0x3e120854	0.1426099
136	0x3e7efc11	0.24900843
137	0x3dac0fc0	0.084014416
138	0xbd257294	-0.040392473
139	0xbe35da0f	-0.17758964
140	0xbcd72b1f	-0.026265679
141	0xbe8fbdce	-0.28074497
142	0xbe80f866	-0.25189513
143	0xbe3bcfcb	-0.18340985
144	0x3dc5a79e	0.09651111
145	0xbdea3ae5	-0.114370145
146	0x3df92132	0.12164535
147	0xbe7e9cb1	-0.2486446
148	0x3e45fd6c	0.19334954
149	0xbe658168	-0.22412646
150	0x3e7efaec	0.24900407
151	0xbe4a720c	-0.19770068
152	0xbe25475b	-0.16140501
153	0x3e8bf464	0.27334893
154	0xbe609e97	-0.21935497
155	0xbe1b613a	-0.15173808
156	0x3e2dddfa	0.16979209
157	0x3e428dcb	0.18999402
158	0xbc1d80e5	-0.00961325
159	0xbe8407cf	-0.25787207
160	0xbe93e40f	-0.28884932
161	0xbdcf61a2	-0.10126044
162	0x3e46fdeb	0.194328
163	0xbda03082	-0.07821752
164	0xbe108581	-0.14113428
165	0x3e1ea6e9	0.15493359
166	0xbd636603	-0.055517208
167	0x3dd60635	0.10450403
168	0xbe46d671	-0.1941774
169	0x3dd5496c	0.10414395
170	0x3e97d065	0.2965118
171	0xbe95efd0	-0.29284525
172	0x3e672e0c	0.22576159
173	0x3e5cac5d	0.21550126
174	0xbe522e85	-0.20525558
175	0x3e7f8d1a	0.2495617
176	0x3de73cdb	0.11290904
177	0x3d8d5963	0.06901815
178	0xbdf44b6b	-0.11928447
179	0xbe1ac939	-0.15115823
180	0x3e6eb21a	0.23310128
181	0x3e6c8093	0.23095922
182	0xbd736432	-0.059421726
183	0x3b314e33	0.0027054667
184	0x3e9753ea	0.2955621
185	0x3d12f71b	0.03588019
186	0xbcf9fbc7	-0.030515565
187	0x3e33b6b9	0.17550172
188	0xbe698556	-0.2280477
189	0x3dc4ebc5	0.09615282
190	0xbe78ab7d	-0.24284168
191	0xbe3917b2	-0.18075445
192	0xbe8bf98b	-0.27338824
193	0x3cb8124e	0.022469666
194	0xbe350e40	-0.17681217
195	0x3e87de33	0.26536712
196	0xbce0c04e	-0.027435448
197	0x3e99ba44	0.30024922
198	0x3e74884e	0.23880121
199	0xbe4cb34f	-0.19990276
200	0x3e2f8ef8	0.17144382
201	0x3cd923d4	0.026506342
202	0xbe2c16d3	-0.16805582
203	0xbe83c9e3	-0.25739965
204	0xbe683c8b	-0.22679345
205	0x3e0c6af2	0.13712671
206	0xbe666504	-0.22499472
207	0x3e869621	0.26286414
208	0x3df3ecfc	0.119104356
209	0x3e9a08e8	0.3008492
210	0xbd9e65ac	-0.07734236
211	0x3cfaa049	0.030594008
212	0xbdd38959	-0.10328931
213	0xbe4408e6	-0.1914402
214	0x3e225995	0.15854485
215	0x3e18e43c	0.14930815
216	0x3d8fe551	0.070261605
217	0xbe6c5cb4	-0.23082238
218	0x3e5d646c	0.21620339
219	0x3e339e32	0.17540815
220	0xbe26bdd6	-0.16283354
221	0x3e2d5e6b	0.16930549
222	0xbe36a341	-0.17835714
223	0xbe1bf246	-0.15229139
224	0x3d12733c	0.035754427
225	0x3d27d2b1	0.040972415
226	0xbe01669a	-0.12636796
227	0x3e9626a2	0.2932635
228	0x3cdfe63e	0.027331468
229	0xbcd72fa2	-0.02626783
230	0xbd848a8d	-0.06471739
231	0x3e6ec780	0.2331829
232	0xbe907339	-0.28212908
233	0xbe409b9c	-0.1880936
234	0x3de2299e	0.11043094
235	0x3d833d44	0.0640817
236	0x3d97aa0c	0.07405481
237	0x3e885a55	0.26631418
238	0x3de6b2f8	0.11264604
239	0xbdb606f6	-0.088880464
240	0x3e1c1641	0.15242864
241	0xbe8d1a71	-0.27559236
242	0xbe91428d	-0.28371087
243	0x3e0f8398	0.14015043
244	0xbe80a202	-0.25123602
245	0x3e734dd4	0.23760158
246	0xbd611c22	-0.05495847
247	0x3d553fd4	0.052062824
248	0xbd70ad64	-0.05875911
249	0xbcd8a1c8	-0.02644433
250	0xbe0dfecf	-0.13866733
251	0x3e76f3ef	0.24116491
252	0x3d0c6891	0.03427941
253	0x3d93a431	0.072090514
254	0xbbfd0d97	-0.0077225673
255	0xbe657eed	-0.224117

actor.2.bias f4 [32]
0	0xba98db7e	-0.0011662093
1	0x3b717ce9	0.0036848134
2	0x3a93cc93	0.0011276178
3	0x3af0e2ff	0.0018378197
4	0x3b9b5a95	0.004741023
5	0xbc1e6b5a	-0.009669149
6	0xbbcafc0a	-0.006194596
7	0x3bfba77a	0.007679877
8	0xb9b15fbf	-0.00033831407
9	0x3919256f	0.00014605162
10	0x3a23241e	0.00062233384
11	0x3bed07d3	0.0072335987
12	0xbb388771	-0.0028156901
13	0xb9e7e591	-0.00044230794
14	0x3c1762a5	0.009239827
15	0xbbd1f237	-0.006407048
16	0xbb37512e	-0.002797197
17	0x3adcda4b	0.0016849724
18	0xbb07e96d	-0.0020738498
19	0x3bf5ba47	0.0074990126
20	0x3aec65a7	0.0018035666
21	0x3bed538b	0.007242625
22	0x3bfccd54	0.0077149067
23	0xbb8f10ae	-0.004366002
24	0xbbe4bc30	-0.0069804415
25	0x3bfe3030	0.0077572092
26	0xbaa476f1	-0.0012547654
27	0x3843e25b	4.6702433e-05
28	0xba57af0e	-0.00082276843
29	0xba9aaa42	-0.0011800008
30	0xbb25612b	-0.0025234919
31	0xb9fb22be	-0.00047900336

actor.4.weight f4 [32, 32]
0	0x3e728f05	0.2368737
1	0x3e8dbbaa	0.2768224
2	0xbe62fe1c	-0.22167248
3	0x3db7ad5e	0.08968614
4	0xbe0e3865	-0.138887
5	0xbba05b4d	-0.0048936964
6	0xbe0d4975	-0.13797553
7	0x3d889ff7	0.06671136
8	0x3bc37828	0.0059652515
9	0xbe08e378	-0.13368022
10	0x3de2de75	0.110775866
11	0x3e49e347	0.19715606
12	0x3e5843d8	0.2111963
13	0xbe9c2f35	-0.30504766
14	0xbe62a326	-0.22132549
15	0xbe987aa9	-0.29781082
16	0x3e2d1439	0.16902246
17	0x3e97a95e	0.29621404
18	0xbcbc506c	-0.022987567
19	0x3bf1a1f6	0.0073740436
20	0x3e7be082	0.24597362
21	0xba9f9d34	-0.0012177587
22	0xbe38cd6d	-0.18047114
23	0xbd240a9d	-0.040049184
24	0xbd84eebf	-0.0649085
25	0xbdb519c8	-0.08842808
26	0xbd931aec	-0.07182869
27	0x3e977c96	0.2958724
28	0x3b8bcd45	0.0042664134
29	0x3e81548f	0.25259826
30	0xbdb87b3a	-0.090078786
31	0xbe44a513	-0.19203596
32	0xbdd798a4	-0.10527161
33	0x3becef0d	0.0072306455
34	0xbe97c9c7	-0.2964613
35	0x3e461b60	0.1934638
36	0xbc13bc27	-0.009017027
37	0xbe947a3b	-0.28999504
38	0x3e034f7c	0.1282329
39	0x3e9abac1	0.30220607
40	0xbe6b0c4f	-0.22953914
41	0x3db01fd0	0.08599818
42	0xbdd7604d	-0.10516415
43	0xbe9a0c82	-0.30087668
44	0x3e5cf2c7	0.21576987
45	0x3dbfbb10	0.09361851
46	0xbe81da27	-0.2536175
47	0x3e0a1eb8	0.13488281
48	0x3de68dd6	0.11257522
49	0xbdee1abb	-0.11626192
50	0xbe6ab3ae	-0.22920105
51	0x3e982632	0.2971664
52	0xbe268aaa	-0.16263834
53	0xbe87b36f	-0.26504084
54	0xbe6095c6	-0.21932134
55	0x3d6ad4e4	0.057331935
56	0xbe51e0fe	-0.20495984
57	0xbda88075	-0.08227626
58	0x3e503c0c	0.20335406
59	0xbe3995d8	-0.18123567
60	0x3cfd96c6	0.030955683
61	0xbcd8e153	-0.02647463
62	0xbdcac1a5	-0.09900216
63	0x3e15e1a0	0.1463685
64	0x3b0db6af	0.002162378
65	0xbe0d513a	-0.13800517
66	0x3e052e51	0.1300595
67	0x3e7ff3b7	0.24995314
68	0xbe9b2852	-0.303042
69	0x3dc746e7	0.097303204
70	0xbe903a79	-0.2816961
71	0x3e4802fc	0.19532388
72	0x3c0c92e5	0.008579944
73	0x3e1477db	0.14498846
74	0x3d84924e	0.06473218
75	0x3e428ce0	0.18999052
76	0xbe337883	-0.1752644
77	0x3b0b8903	0.0021291382
78	0xbe8925e0	-0.2678671
79	0x3e170f64	0.14751965
80	0x3e75783b	0.23971646
81	0x3e11f7f3	0.14254741
82	0xbe9c2c34	-0.30502474
83	0x3e24d75c	0.16097778
84	0xbd96c6e8	-0.07362157
85	0xbe1c2425	-0.15248163
86	0xbe87371a	-0.26409227
87	0x3e8f1433	0.27945098
88	0xbe93751a	-0.2880028
89	0x3e88b4c6	0.2670042
90	0x3c42c0ee	0.011886818
91	0xbe889d0b	-0.26682314
92	0x3e8dd500	0.2770157
93	0x3d3a5762	0.04549349
94	0x3e6f437c	0.23365587
95	0x3e04866a	0.129419
96	0x3bd330db	0.006445033
97	0xbe0fcb66	-0.14042434
98	0xbe841fbf	-0.2580547
99	0xbd5c7909	-0.053826366
100	0xbdcce2f7	-0.100042276
101	0x3d985cb1	0.074395545
102	0x3dea3624	0.11436108
103	0x3e0e4965	0.13895185
104	0xbe1bd47d	-0.15217777
105	0x3deab679	0.11460585
106	0xbd86a31b	-0.06574079
107	0xbde8033c	-0.11328742
108	0xbe64adfa	-0.22331992
109	0x3e836ccb	0.2566894
110	0xbe579205	-0.21051796
111	0xbe668d05	-0.22514732
112	0xbe8446a0	-0.25835133
113	0xbdae02a5	-0.08496598
114	0xbe6b1884	-0.2295857
115	0xbd8ea00f	-0.069641225
116	0x3cf98166	0.03045721
117	0x3de3c5da	0.111217216
118	0x3e39d4e8	0.18147624
119	0x3dcd29fc	0.100177735
120	0x3e7d4371	0.24732758
121	0xbcbe895d	-0.02325886
122	0xbdb94fa2	-0.09048392
123	0xbdbc4c54	-0.09194246
124	0xbe80a05b	-0.25122342
125	0x3db88882	0.09010412
126	0x3e63709c	0.22210926
127	0xbe91ca00	-0.28474426
128	0x3e6f2473	0.23353748
129	0xbe0926a4	-0.13393646
130	0xbe87aca3	-0.264989
131	0x3bdb8b77	0.006699975
132	0xbde3fb0f	-0.1113187
133	0x3d283903	0.041069996
134	0x3e50aff4	0.20379621
135	0xbd9890aa	-0.074494675
136	0x3d910dc5	0.070827045
137	0x3df0b9c5	0.11754183
138	0xbe72370c	-0.23653811
139	0x3dedc493	0.11609759
140	0x3e5c6a5c	0.21524948
141	0xbde56aa7	-0.11201983
142	0x3e228bd5	0.15873654
143	0xbdd51c90	-0.104058385
144	0xbe939df7	-0.28831455
145	0xbe6c3a10	-0.23069024
146	0x3dbf0026	0.093262
147	0x3d09edaa	0.03367392
148	0xbd90f8d4	-0.0707871
149	0x3e6301aa	0.22168604
150	0x3dc5362e	0.096294746
151	0x3e796144	0.2435351
152	0x3b464e18	0.003025895
153	0x3cfdc645	0.030978331
154	0x3d9fc3c4	0.07801011
155	0x3e866a80	0.26253128
156	0xbe448eac	-0.1919505
157	0xbd708b15	-0.05872639
158	0xbe247eed	-0.16064043
159	0xbdbd2c55	-0.09236971
160	0xbe3e2a41	-0.18570806
161	0x3e519d47	0.20470153
162	0x3e2f6ffe	0.17132565
163	0xbd8ec763	-0.06971624
164	0xbe2d0a98	-0.16898572
165	0xbc0d531f	-0.008625775
166	0xbd28ab9b	-0.04117928
167	0xbdcc8f52	-0.09988274
168	0xbe5a5a37	-0.21323477
169	0xbe8fdc2d	-0.28097668
170	0xbc08a3ed	-0.008339864
171	0xbe288356	-0.1645635
172	0x3dbac005	0.09118656
173	0xbe9c530a	-0.30532104
174	0xbdb93dd0	-0.09044993
175	0x3da36c70	0.07979667
176	0x3e404e50	0.18779874
177	0xbe673bc4	-0.22581393
178	0xbe7325dd	-0.23744912
179	0x3e7cc93f	0.24686144
180	0xbe4634ab	-0.19356029
181	0x3cfb0324	0.030641146
182	0xbe288b30	-0.16459346
183	0xbe97d462	-0.29654223
184	0xbd69e353	-0.05710156
185	0xbe6d2164	-0.23157269
186	0xbe3b5091	-0.18292452
187	0x3e177539	0.1479081
188	0xbcb08fc7	-0.021552933
189	0xbe1f045a	-0.15529004
190	0x3e6611d0	0.22467732
191	0xbd99d02d	-0.075104095
192	0x3da51f49	0.08062608
193	0xbe586d36	-0.2113541
194	0x3db90ced	0.090356685
195	0x3db50a39	0.088398404
196	0xbcc54733	-0.024081802
197	0xbe0d75ed	-0.13814516
198	0xbc4fb3cd	-0.012677145
199	0x3cb016a2	0.021495167
200	0xbe667aea	-0.22507825
201	0x3dd6d5da	0.10490008
202	0xbe94a5b6	-0.29032677
203	0xbde27ed4	-0.11059347
204	0xbe6e2386	-0.23255739
205	0x3e92a5da	0.2864216
206	0xbe6da87d	-0.23208804
207	0xbd16fe42	-0.036863573
208	0x3e0ecafc	0.1394462
209	0xbe8327ab	-0.25616202
210	0x3c32588e	0.010885371
211	0x3db8e51b	0.090280734
212	0x3e28a93e	0.16470811
213	0xbe75349f	-0.23945855
214	0xbe819e98	-0.2531631
215	0xbe2975a2	-0.1654878
216	0x3cd72566	0.02626295
217	0x3da679a4	0.0812867
218	0xbe91dca9	-0.28488663
219	0x3e818573	0.25297126
220	0xbe4d7017	-0.2006229
221	0xbe814008	-0.25244164
222	0xbe6f79e5	-0.23386343
223	0x3e17e05a	0.14831677
224	0x3e87d41f	0.26529023
225	0x3d84e771	0.064894564
226	0x3e16f0f4	0.14740354
227	0x3e289c1b	0.164658
228	0x3d6eb615	0.058279116
229	0xbe9831b2	-0.29725415
230	0x3c9b97f1	0.01899335
231	0x3d76fa9b	0.06029759
232	0xbdcbe6f7	-0.099561624
233	0xbd15c590	-0.036565363
234	0xbcf770a4	-0.030205078
235	0xbe8f1a8c	-0.2794994
236	0xbd0d56c0	-0.03450656
237	0x3e6ad6cb	0.229335
238	0x3dceb315	0.10092751
239	0x3e99f8b1	0.3007255
240	0x3e32122a	0.17389742
241	0x3dd2de72	0.10296334
242	0xbd2a6512	-0.041600294
243	0xbd76aad5	-0.060221512
244	0x3e14ea30	0.1454246
245	0xbe5f3d5a	-0.21800748
246	0x3da79525	0.08182744
247	0xbdf6ba5c	-0.12047264
248	0x3dcd1a49	0.10014779
249	0xbd401654	-0.046896294
250	0x3de9622f	0.1139568
251	0x3e72d08b	0.23712365
252	0xbcaf0862	-0.021366302
253	0xbe40e457	-0.18837105
254	0xbdaf0f05	-0.085477866
255	0x3e3cf7cf	0.18453906

actor.4.bias f4 [32]
0	0x3ab130aa	0.0013518531
1	0x3a9930a0	0.0011687465
2	0xbadb943c	-0.0016752551
3	0xbb771362	-0.0037700762
4	0x3bbb37a8	0.005713422
5	0xb9cb2c9c	-0.00038752414
6	0xbb50cee6	-0.0031861602
7	0xba53527a	-0.0008061301
8	0xbbe6539c	-0.00702901
9	0xb92cf93d	-0.00016496047
10	0x3ba4693f	0.005017429
11	0x3b912669	0.0044296277
12	0x3bcf31fe	0.006323098
13	0xbb1ab518	-0.0023606475
14	0x3b5a4ef2	0.0033311215
15	0x3ac46e5a	0.0014986501
16	0x3b562e79	0.0032681508
17	0xbb51ccc1	-0.0032012912
18	0xba405709	-0.0007337188
19	0x3c269a34	0.010168601
20	0xbb4d8f79	-0.0031366034
21	0x3a03a0ca	0.0005021213
22	0x3ba853d1	0.005136945
23	0x3ba39cca	0.004993056
24	0x3b4c85c5	0.0031207663
25	0x3bcd11e3	0.006258236
26	0x3a2ad403	0.00065165776
27	0x3ac44fce	0.0014977397
28	0xbb2a3786	-0.0025973036
29	0x3b8d9734	0.0043210033
30	0xbb4aa5c6	-0.0030921563
31	0xbab987a5	-0.0014154805

actor.6.weight f4 [4, 32]
0	0x3e22cc64	0.15898281
1	0xbd4e4179	-0.05035541
2	0xbe6b0e55	-0.22954686
3	0xbcceeec2	-0.025260333
4	0x3e4a8e3b	0.19780819
5	0x3e0708b4	0.13186914
6	0xbe24a9b6	-0.16080365
7	0x3e5898d0	0.21152043
8	0x3ec25cc8	0.3796141
9	0x3e2d9d0f	0.16954444
10	0x3bbac846	0.005700144
11	0xbe454775	-0.1926554
12	0x3db4899a	0.08815308
13	0x3b65c660	0.0035060868
14	0x3db71809	0.08940131
15	0x3e43f91c	0.19137996
16	0x3e9175ce	0.2841019
17	0x3db001a8	0.08594066
18	0x3be39570	0.0069453046
19	0xbe743414	-0.23847991
20	0xbe71aff2	-0.23602274
21	0x3eb569c1	0.35432246
22	0x3c25cc7b	0.010119553
23	0x3d80c424	0.06287411
24	0xbd7bfb5a	-0.061519004
25	0xbe91af80	-0.28454208
26	0xbea1d31d	-0.3160638
27	0xbe99f0fa	-0.30066663
28	0x3d8f770e	0.0700513
29	0x3c18c3d1	0.00932403
30	0xbdeb3335	-0.11484376
31	0x3e026528	0.127339
32	0xbe3648be	-0.17801186
33	0xbe366a53	-0.17813997
34	0xbea73c67	-0.3266327
35	0x3db0a3b6	0.086249754
36	0xbdcb242c	-0.099190086
37	0xbe8c71a2	-0.27430445
38	0xbdeea7ac	-0.116530746
39	0x3deedec0	0.1166358
40	0x3d10b0a6	0.035324715
41	0x3d1428d3	0.036171746
42	0x3e99886d	0.29986897
43	0xbe961226	-0.2931072
44	0xbec24a1d	-0.3794717
45	0xbde6efc6	-0.11276202
46	0xbd86e784	-0.06587127
47	0x3e70662c	0.23476475
48	0x3ed23a4a	0.41060096
49	0xbd2b7032	-0.041855045
50	0xbd847095	-0.06466786
51	0x3eb7114d	0.35755387
52	0x3e8f584f	0.27997062
53	0x3e549853	0.20761232
54	0xbea12fa4	-0.3148166
55	0x3e5ea41a	0.21742287
56	0xbe036a24	-0.12833458
57	0x3e5f956d	0.21834345
58	0x3e21bd88	0.15794957
59	0xbd29deb2	-0.041472144
60	0xbd96478e	-0.07337867
61	0x3e79154c	0.2432453
62	0x3eb045f8	0.34428382
63	0xbdcde2ed	-0.10053048
64	0x3e1beca5	0.15226991
65	0x3e01de5d	0.12682481
66	0xbdcbc0d1	-0.09948886
67	0xbe9bf02a	-0.30456668
68	0xbeaee8b2	-0.34161907
69	0x3d19c796	0.037543856
70	0xbe4e2918	-0.20132864
71	0xbe31b9b2	-0.17355993
72	0xbe94e502	-0.2908097
73	0x3e9801a3	0.2968875
74	0xbea70a0c	-0.32624853
75	0x3e286031	0.16442944
76	0xbe309a0d	-0.17246266
77	0xbde440e3	-0.11145189
78	0xbde9a23f	-0.11407899
79	0x3eb65adc	0.35616195
80	0x3ed0d0c1	0.40784267
81	0x3e7fa071	0.24963547
82	0xbe0564f1	-0.13026787
83	0xbe0723bd	-0.13197227
84	0xbe841ec8	-0.25804734
85	0xbe81a8d2	-0.25324112
86	0x3e89cd98	0.26914668
87	0xbe60ffa2	-0.21972516
88	0x3e847232	0.25868374
89	0x3e61f4d8	0.22066057
90	0x3e139c77	0.14415155
91	0xbe75c789	-0.24001898
92	0xbcfdb4ab	-0.030969938
93	0xbe2dab25	-0.16959818
94	0xbe4f0156	-0.20215353
95	0x3d9b13f9	0.07572169
96	0x3d733e94	0.05938585
97	0x3eb77cfb	0.3583754
98	0xbcab5945	-0.02091659
99	0x3d350afb	0.044199925
100	0xbe4afc7b	-0.19822876
101	0xbe9adab8	-0.30244994
102	0xbe92e2ba	-0.28688604
103	0xbde6dd83	-0.11272719
104	0xbebd55a3	-0.36979398
105	0xbd0c9f21	-0.034331445
106	0xbe37b3c3	-0.17939667
107	0x3da3a8bc	0.07991168
108	0xbea06b05	-0.3133165
109	0xbebdf457	-0.3710048
110	0x3e4c0f65	0.19927748
111	0x3e96c797	0.2944915
112	0x3e930603	0.28715524
113	0x3ebb5efe	0.3659591
114	0x3df55c4c	0.11980495
115	0x3eb413fd	0.351715
116	0x3e84e6ab	0.25957236
117	0x3e8fbcab	0.2807363
118	0x3e24ed32	0.16106108
119	0xbd27fd58	-0.04101309
120	0xbe396dae	-0.18108246
121	0xbcbadab2	-0.02280936
122	0xbe81eca9	-0.2537587
123	0x3e850216	0.25978154
124	0xbebc8edd	-0.36827746
125	0xbe6a3f66	-0.22875747
126	0xbeafacb1	-0.3431144
127	0xbe89d23b	-0.26918206

actor.6.bias f4 [4]
0	0xbac8d06f	-0.0015320907
1	0x3b577a49	0.0032879284
2	0xba92b988	-0.0011194209
3	0x3791acc5	1.7365799e-05

critic.0.weight f4 [32, 181]
0	0xbe15360b	-0.14571397
1	0xbd2cdf6c	-0.04220526
2	0x3df4ccdd	0.11953137
3	0x3debb31a	0.1150877
4	0x3dece575	0.11567203
5	0x3d88402e	0.06652866
6	0xbe109157	-0.14117943
7	0xbd2b7d5c	-0.0418676
8	0xbe19ab58	-0.15006769
9	0xbe0de0ce	-0.13855287
10	0xbd3ff59c	-0.04686509
11	0x3dcebca0	0.10094571
12	0x3e145c2d	0.14488287
13	0xbc31238d	-0.010811699
14	0xbe28344b	-0.16426198
15	0x3c94dfd1	0.01817313
16	0xbd65863d	-0.056036223
17	0x3dada42f	0.08478581
18	0xbdc41a3e	-0.09575318
19	0x3ce4533e	0.027871724
20	0x3cf16aa4	0.029469796
21	0xbd49b8fe	-0.049248688
22	0xbc3a4b17	-0.011370442
23	0x3d85aa88	0.06526667
24	0xbe04a8e0	-0.12955046
25	0x3cd9e1aa	0.026596863
26	0xbe31dab8	-0.17368591
27	0xbce73c3e	-0.028226968
28	0x3e250e8c	0.1611883
29	0x3e094830	0.13406444
30	0xbd8caf61	-0.06869388
31	0xbe17c900	-0.14822769
32	0x3e0fcf3c	0.14043897
33	0xbb8a4ab7	-0.0042203325
34	0xbb092703	-0.0020927794
35	0x3e0348b3	0.12820701
36	0x3daa5640	0.08317232
37	0xbd9a246b	-0.075264774
38	0xbdb96308	-0.09052092
39	0x3d8e08d2	0.06935276
40	0xbca3e168	-0.020004943
41	0xbda39563	-0.07987478
42	0xbce284e3	-0.027651256
43	0xbd94dab8	-0.0726828
44	0x3e0a074b	0.13479345
45	0xbe218be2	-0.15776017
46	0x3e0b0169	0.13574757
47	0x3e1bc536	0.15211949
48	0x3e090c8e	0.13383695
49	0x3e25bb36	0.16184697
50	0x3e03ff10	0.12890267
51	0x3d08fd68	0.033444792
52	0x3e054c37	0.13017355
53	0x3e0039d3	0.12522058
54	0x3e1d3d4c	0.15355414
55	0x3d1c5e67	0.038175967
56	0xbcd90592	-0.026491914
57	0x3d9f859c	0.07789156
58	0x3df16d28	0.11788398
59	0x3bcf9be0	0.0063357204
60	0x3dff5d74	0.12468997
61	0xbe0bd868	-0.13656771
62	0xbe173848	-0.14767563
63	0xbe17469b	-0.14773028
64	0xbdb743cd	-0.08948479
65	0xbe19ff80	-0.15038872
66	0xbd0568de	-0.032570712
67	0xbe1c46e4	-0.15261418
68	0xbd3ca1ea	-0.04605285
69	0x3e19a2c8	0.15003502
70	0x3cccd198	0.025002286
71	0x3dcd7aa8	0.100331604
72	0x3dc40758	0.09571713
73	0x3d079c38	0.033107966
74	0x3de95a0f	0.113941304
75	0xbc8a0d9c	-0.016852193
76	0x3ddc187f	0.1074686
77	0xbb773340	-0.0037719756
78	0xbe1538e5	-0.14572485
79	0x3d9135a4	0.07090309
80	0x3cf9e4f0	0.030504674
81	0x3dee5fc0	0.116393566
82	0x3d84d6ba	0.06486268
83	0xbd3986ae	-0.045294456
84	0xbc4f73cb	-0.012661885
85	0x3c8ac806	0.016941082
86	0xbc2fbac4	-0.010725681
87	0xbdc80e6f	-0.09768378
88	0x3d9e5126	0.077303216
89	0x3d590fe4	0.05299367
90	0x3e12417e	0.14282796
91	0x3d9773ee	0.07395159
92	0x3e04d578	0.12972057
93	0xbe0f8748	-0.1401645
94	0x3d04d5f5	0.032430608
95	0xbdb5c131	-0.08874739
96	0xbcbad75d	-0.022807771
97	0xbddab796	-0.106795475
98	0x3e291730	0.16512752
99	0x3d4cf9c4	0.050042883
100	0x3ce0fdf0	0.027464837
101	0xbbce6d17	-0.0062996256
102	0xbe1d1f22	-0.15343907
103	0x3d5c1ebd	0.05374025
104	0x3d0ae737	0.03391191
105	0xbd8d3a5a	-0.06895895
106	0x3e1acbde	0.15116832
107	0xbb31a5c2	-0.0027106856
108	0xbe2acee8	-0.16680491
109	0x3df24fac	0.118316025
110	0xbe25ea75	-0.1620272
111	0x3ddbb990	0.107287526
112	0x3df44c6d	0.119286396
113	0x3e01469a	0.12624589
114	0xbc1af5b8	-0.009457998
115	0x3d159033	0.036514472
116	0x3bd875a1	0.0066058193
117	0xbe294fb8	-0.16534317
118	0x3d8ab478	0.06772703
119	0xbde8cd64	-0.113673
120	0xbd01d998	-0.031701654
121	0xbe1ad9ad	-0.15122099
122	0xbe3359d7	-0.1751474
123	0xbda1a0b1	-0.078919776
124	0xbde8419b	-0.11340638
125	0x3d1a48fb	0.037667256
126	0x3dbe6684	0.09296897
127	0x3db45bcc	0.08806571
128	0xbdf52a84	-0.11971
129	0x3df58adc	0.11989376
130	0x3b802140	0.0039102137
131	0x3e00839d	0.12550206
132	0xbd733099	-0.05937252
133	0xbda8ab35	-0.0823578
134	0xbd73cd45	-0.059521932
135	0x3e0f7a16	0.14011416
136	0x3e1d23c6	0.15345678
137	0x3d9371a0	0.071994066
138	0xbddc4913	-0.10756125
139	0xbe15e12b	-0.14636676
140	0x3debd368	0.11514932
141	0xbdc98d9a	-0.098414615
142	0x3c559fd7	0.013038597
143	0x3d83b4df	0.06430983
144	0xbdaf08c2	-0.08546592
145	0x3dca3e12	0.0987512
146	0xbdcff5bd	-0.10154293
147	0x3bdd743c	0.006758241
148	0xbd84108c	-0.064484686
149	0xbcb82f5d	-0.022483522
150	0xbdb7b321	-0.08969713
151	0xbdefd280	-0.117100716
152	0x3c834273	0.016022896
153	0xbde80426	-0.11328916
154	0xbdfb316d	-0.122652866
155	0xbe05fba5	-0.13084276
156	0x3e015386	0.12629518
157	0x3db02bea	0.08602126
158	0x3d333b55	0.043757755
159	0x3d513784	0.051078334
160	0xbd0b6acb	-0.034037393
161	0xbdad126e	-0.08450781
162	0x3cd128ff	0.025532244
163	0x3d9f66d5	0.077832855
164	0x3e1f6722	0.15566686
165	0x3e0c9e98	0.13732374
166	0xbdbd56b5	-0.09245054
167	0xbdef27dd	-0.11677525
168	0x3e25bfb0	0.16186404
169	0xbe2acad0	-0.1667893
170	0x3e24b502	0.16084674
171	0xbad304fe	-0.001609951
172	0xbe1bb570	-0.15205932
173	0x3cbcae14	0.023032226
174	0x3e182fb6	0.1486195
175	0x3cf997eb	0.030467948
176	0xbdf373a4	-0.11887291
177	0xbe134a9f	-0.14383934
178	0xbe06c77e	-0.13162038
179	0xbd0ee22a	-0.034883656
180	0xbc9ce715	-0.019153157
181	0xbd3b858a	-0.04578165
182	0xbda48ea3	-0.08035018
183	0xbe12372b	-0.14278857
184	0x3d86032d	0.065435745
185	0xbddff1ad	-0.10934768
186	0x3c6fe7bc	0.014642652
187	0xbe288465	-0.16456755
188	0xbdd00e93	-0.1015903
189	0x3e26761d	0.16255994
190	0xbd18bcbe	-0.037289374
191	0x3dc6b254	0.09701982
192	0xbd83c7e1	-0.06434608
193	0xbdde0e7f	-0.10842609
194	0xbe118282	-0.14209941
195	0x3d7fb73c	0.062430605
196	0x3e1648ce	0.1467621
197	0x3d86f27c	0.06589219
198	0xbe27840f	-0.1635897
199	0x3d8ec825	0.06971768
200	0x3db024ed	0.08600793
201	0x3d18b169	0.037278567
202	0x3dc722e5	0.097234525
203	0x3d13b387	0.036059882
204	0xbdffc712	-0.124891415
205	0xbe1fa67f	-0.15590857
206	0xbe218f98	-0.15777433
207	0x3c8ca80d	0.017169977
208	0x3d8a7a39	0.06761593
209	0x3d40d4d2	0.04707796
210	0xbc65dff0	-0.014030442
211	0x3be69560	0.00703685
212	0x3df61fa4	0.12017754
213	0x3d91d9de	0.07121633
214	0xbddc0a12	-0.10744108
215	0x3e083461	0.13301231
216	0xbdaee000	-0.08538818
217	0x3e0e4c90	0.13896394
218	0x3d92b98a	0.07164295
219	0xbcfee370	-0.03111431
220	0x3c94a1c0	0.018143535
221	0x3d8a33de	0.06748174
222	0xbe220c97	-0.15825115
223	0xbe13a443	-0.1441813
224	0xbdf9bed5	-0.121946014
225	0xbda395d1	-0.079875596
226	0xbdd163af	-0.10224091
227	0x3bfa775b	0.007643623
228	0xbdb8d477	-0.090248995
229	0x3e0caf34	0.1373871
230	0x3c25c3c0	0.010117471
231	0x3d28b1a0	0.04118502
232	0xbe1ec6ee	-0.15505573
233	0xbc190a99	-0.009340906
234	0xbd8c07a0	-0.06837392
235	0x3d8b840f	0.068122976
236	0x3d8a3461	0.06748272
237	0xbd59307e	-0.05302476
238	0x3decf8a4	0.11570862
239	0x3d9b4658	0.075817764
240	0xbd16ad14	-0.036786154
241	0xbde81de9	-0.1133383
242	0x3e01acf2	0.1266363
243	0xbd76bd3a	-0.060239054
244	0x3d56844f	0.052372273
245	0xbc687c68	-0.014189817
246	0xbe253fb6	-0.16137585
247	0x3dfd2436	0.12360422
248	0x3d64e73e	0.055884592
249	0xbc9c0658	-0.019045994
250	0xbd2fef54	-0.04295285
251	0x3e0ad6c4	0.13558489
252	0x3e1a14ae	0.15046951
253	0x3d9b8f3a	0.07595678
254	0x3e0d915c	0.13824981
255	0xbd6b63bb	-0.057468157

critic.0.bias f4 [32]
0	0xbc06e012	-0.008232133
1	0x39450c59	0.00018791984
2	0x3c04a3c5	0.008095686
3	0x3c98cc72	0.018652175
4	0x3bebcdab	0.0071961484
5	0xbb8aa614	-0.004231224
6	0x3c741e83	0.014899853
7	0xbc3cfce8	-0.011534907
8	0xbb95f024	-0.004575746
9	0xbc197391	-0.009365932
10	0x3c0a7406	0.008450514
11	0xba503b44	-0.00079434016
12	0x3c9863d2	0.018602286
13	0x3bd262e4	0.00642048
14	0xbb8acc4b	-0.0042357794
15	0x3bf2b0ba	0.0074063214
16	0x3c5e369f	0.013562827
17	0xbc111134	-0.008854199
18	0xbbba041b	-0.005676759
19	0x3c8ad019	0.016944932
20	0xbc313b70	-0.010817394
21	0xbbf2e581	-0.007412613
22	0x3beb8678	0.007187661
23	0x3b428aea	0.002968485
24	0xbc0ae9a7	-0.008478559
25	0xbc802b82	-0.015645746
26	0xbbf56a6c	-0.007489493
27	0xba1f962c	-0.0006087746
28	0x3c9e100e	0.019294765
29	0x3ac4a728	0.001500343
30	0xbc277119	-0.010219836
31	0x3bd4d8f6	0.0064955903

critic.2.weight f4 [32, 32]
0	0xbe3a5c45	-0.1819926
1	0xbe928c85	-0.28622833
2	0x3e699d4b	0.22813909
3	0xbe023f4d	-0.1271946
4	0x3e621e5d	0.22081895
5	0xbdd02887	-0.1016398
6	0xbd7f717e	-0.062364094
7	0xbe960bfd	-0.2930602
8	0xbe07926e	-0.13239452
9	0x3de0d368	0.109778225
10	0xbe768f3b	-0.24078076
11	0x3d93c465	0.07215194
12	0x3d2b6e70	0.04185337
13	0x3e908256	0.28224438
14	0x3dcc105f	0.0996406
15	0xbdde7d03	-0.10863688
16	0xbdbdba7f	-0.09264087
17	0xbe879ec2	-0.2648831
18	0x3e64173d	0.2227449
19	0x3c9586dc	0.018252783
20	0xbd109fbc	-0.035308585
21	0xbe7b20c8	-0.24524224
22	0x3e86b62e	0.26310867
23	0xbe6cfc88	-0.23143208
24	0x3dbce64c	0.09223613
25	0x3d4114d3	0.047139
26	0xbe15bbe9	-0.14622463
27	0xbe1bca75	-0.1521395
28	0x3e66b060	0.22528219
29	0xbe576d42	-0.21037772
30	0x3de22ab0	0.11043298
31	0x3e918f46	0.2842962
32	0x3e72d521	0.23714115
33	0xbe3305fa	-0.17482749
34	0xbd621513	-0.05519588
35	0xbe9054a5	-0.2818958
36	0xbe2bad8d	-0.16765423
37	0xbe59d8b8	-0.21274078
38	0x3de7fe04	0.113277465
39	0x3e8e833b	0.27834496
40	0xbb7d4b02	-0.0038649444
41	0x3df9f933	0.12205734
42	0xbe52b512	-0.20576885
43	0xbe3e30bf	-0.18573283
44	0xbe21e912	-0.15811566
45	0xbdfad340	-0.12247324
46	0x3dcbd6d4	0.099530846
47	0xbe14780a	-0.14498916
48	0xbda0d676	-0.07853405
49	0x3e975f1b	0.29564747
50	0x3df69868	0.12040788
51	0xbe1b5b46	-0.15171537
52	0x3d5e8b99	0.05433235
53	0x3e78ad18	0.2428478
54	0x3e30abb4	0.17253
55	0xbe9052a0	-0.28188038
56	0xbe231dbd	-0.15929313
57	0xbe9a83b7	-0.30178615
58	0xbd65e35f	-0.05612504
59	0xbdbf501d	-0.09341452
60	0x3dc706e1	0.09718109
61	0xbcc2d979	-0.02378534
62	0xbe891f19	-0.26781538
63	0x3d448c53	0.047985386
64	0x3d0096de	0.03139388
65	0x3e3d65f7	0.18495928
66	0xbe563576	-0.20918831
67	0xbd447f42	-0.047972925
68	0xbc65284a	-0.013986656
69	0xbd17d43b	-0.037067633
70	0xbe724bfc	-0.23661798
71	0xbe11fdd9	-0.14256991
72	0x3e1316bb	0.1436414
73	0xbe4a1210	-0.19733453
74	0xbe997742	-0.299738
75	0x3e670c4b	0.22563283
76	0xbd046b6e	-0.032329015
77	0xbd6a92cc	-0.057268903
78	0xbd524328	-0.051333576
79	0xbda0d15d	-0.07852433
80	0xbda15a38	-0.07878536
81	0x3e995680	0.29948807
82	0xbdcf7b00	-0.10130882
83	0xbdb3456e	-0.08753477
84	0xbe9b8277	-0.30372974
85	0xbe44ab09	-0.1920587
86	0x3e9a183a	0.30096608
87	0x3e5670be	0.20941445
88	0x3e51cccd	0.20488282
89	0xbe25041c	-0.16114849
90	0xbe5be669	-0.21474613
91	0xbe8832a7	-0.26601145
92	0xbd80ed41	-0.062952526
93	0xbdecac07	-0.11556249
94	0xbc72fe9e	-0.014831213
95	0x3e8535aa	0.26017505
96	0xbce0c738	-0.027438745
97	0xbe87e1b5	-0.26539388
98	0x3e652221	0.223763
99	0x3e973ba0	0.29537678
100	0xbe6107f6	-0.21975693
101	0xbe296bd6	-0.16545042
102	0x3d7e6966	0.062112235
103	0xbc867e89	-0.016417759
104	0x3e2946f5	0.16530974
105	0xbde5d5f7	-0.11222451
106	0xbd5490bb	-0.05189584
107	0x3e903fc7	0.28173658
108	0x3e8971de	0.26844686
109	0xbd1e1297	-0.038591947
110	0x3d275289	0.040850196
111	0x3e62cad4	0.22147685
112	0xbdb6d1fd	-0.08926771
113	0x3e00e22c	0.12586278
114	0x3e9e3cc1	0.30905727
115	0xbdafca16	-0.08583467
116	0xbd9f8882	-0.07789709
117	0x3e071bb9	0.13194169
118	0x3ea01912	0.31269127
119	0xbe4198a4	-0.18905884
120	0xbe3915ea	-0.18074766
121	0xbde0bbfb	-0.109733544
122	0x3cd7f409	0.026361482
123	0x3e9f8022	0.31152445
124	0x3dcd778a	0.10032566
125	0xbd22056b	-0.03955595
126	0x3da77761	0.081770666
127	0x3cfa808b	0.030578872
128	0x3e16a73c	0.14712232
129	0xbe49b508	-0.19697964
130	0x3d679c80	0.056545734
131	0x3e6ec81c	0.23318523
132	0x3cf3f348	0.029779091
133	0x3df582e2	0.119878545
134	0xbe8fd0e1	-0.2808905
135	0x3d0c7ff2	0.034301706
136	0x3e0438e0	0.12912321
137	0x3d72538d	0.05916171
138	0xbe9255bc	-0.28581035
139	0x3e80b9f6	0.25141877
140	0xbe8f47df	-0.2798452
141	0x3e2b3ed7	0.1672319
142	0x3e2ad03d	0.16680999
143	0x3e37c7ae	0.17947266
144	0x3e49a306	0.19691095
145	0xbc07aeb5	-0.0082813995
146	0x3d52ddb0	0.05148095
147	0x3df6e9d3	0.12056317
148	0x3dac8639	0.084240384
149	0x3e562ddd	0.20915933
150	0x3de3030d	0.11084566
151	0xbc652fac	-0.013988417
152	0x3e680473	0.22657947
153	0x3dc704e7	0.09717732
154	0x3e497c54	0.19676334
155	0x3cf66fc5	0.030082593
156	0x3e2ca334	0.16859132
157	0xbcffb416	-0.031213801
158	0xbc3bd640	-0.011464655
159	0xbe244c6a	-0.16044775
160	0xbc8839ed	-0.016629184
161	0x3e31d6e1	0.17367126
162	0xbdc72f09	-0.09725768
163	0x3aa54130	0.0012607928
164	0x3e43cf24	0.19121987
165	0x3e89f29f	0.26942918
166	0x3e4c3c14	0.19944793
167	0xbe653ef8	-0.22387302
168	0x3e03923a	0.1284875
169	0x3e66ecd4	0.2255128
170	0xbdd468c4	-0.10371545
171	0x3dbdfa81	0.092762955
172	0x3e887e94	0.2665907
173	0x3e773a80	0.2414341
174	0xbe83513d	-0.25647917
175	0x3e22a70f	0.1588404
176	0xbe9ecc7a	-0.31015378
177	0x3e1e4425	0.15455683
178	0xbe9ab24f	-0.30214164
179	0x3e6aa20b	0.22913377
180	0x3e47b3a0	0.19502115
181	0xbe847cf8	-0.25876594
182	0xbe12719e	-0.14301154
183	0x3de0b6f6	0.10972397
184	0x3e785f76	0.24255165
185	0xbdd63dfe	-0.10461043
186	0xbe658936	-0.22415623
187	0x3e400517	0.18751942
188	0xbe1e4b32	-0.15458372
189	0x3d86cf69	0.06582529
190	0x3d109d0b	0.035306018
191	0xbe869df0	-0.26292372
192	0xbda19c02	-0.07891084
193	0x3db8b012	0.09017958
194	0x3d669c88	0.056301624
195	0x3e1da35b	0.15394346
196	0xbe92c7c4	-0.28668034
197	0xbdcd6513	-0.10029044
198	0x3e53856e	0.20656368
199	0xbe25ed0c	-0.16203707
200	0xbe17953a	-0.14803019
201	0x3e38a3ae	0.18031189
202	0x3bfd7779	0.0077351895
203	0x3e45f014	0.19329864
204	0xbd4019f6	-0.04689976
205	0x3e2e8ffd	0.17047115
206	0x3db4ad9b	0.08822175
207	0x3e02812a	0.12744585
208	0x3e487327	0.19575177
209	0x3c62f8b4	0.013853241
210	0x3bb6c7d4	0.0055780206
211	0x3d4de62b	0.050268333
212	0x3d8502dd	0.06494687
213	0x3e85a6e3	0.26103887
214	0x3e4e97e3	0.20175128
215	0xbd8661ef	-0.06561648
216	0xbdbd68eb	-0.09248527
217	0x3c3a5e31	0.011374996
218	0x3e7e3b44	0.24827296
219	0xbe1fa113	-0.15588789
220	0xbe226fd4	-0.15862972
221	0x3d4cec8e	0.050030284
222	0x3e7e2b32	0.24821165
223	0xbe52cf6c	-0.20586938
224	0x3e8b86b2	0.27251202
225	0x3d324aa3	0.04352821
226	0xbe93a07a	-0.2883337
227	0x3d8877f8	0.06663507
228	0xbe5f6fa2	-0.21819928
229	0xbd59e10b	-0.053193133
230	0xbe392ed4	-0.1808427
231	0x3d8abd40	0.06774378
232	0x3e2a4537	0.16627966
233	0xbe3f37bd	-0.18673606
234	0xbe0bb999	-0.13645019
235	0xbe090cea	-0.13383833
236	0xbd70377d	-0.058646668
237	0x3e247716	0.16061053
238	0xbd57b7ca	-0.05266551
239	0x3e688dd0	0.22710347
240	0xbdb65b42	-0.08904125
241	0x3e94ad48	0.29038453
242	0x3e6fc37b	0.23414414
243	0xbdae16fc	-0.08500478
244	0x3c0beb95	0.008540054
245	0xbc90ce89	-0.017676609
246	0xbe62f31b	-0.2216305
247	0xbe4ee178	-0.20203197
248	0x3e1b9c28	0.15196288
249	0x3c5b1346	0.013371294
250	0xbe85c127	-0.26123926
251	0x3e437209	0.1908647
252	0xbccaf623	-0.02477557
253	0xbdd92272	-0.10602273
254	0x3e2dff41	0.16991903
255	0x3d8aa800	0.06770325

critic.2.bias f4 [32]
0	0x3c8a074e	0.016849186
1	0xbc2fdd5e	-0.01073393
2	0xbc0266f9	-0.007959121
3	0x3c887f12	0.016662154
4	0x3c70f26d	0.014706236
5	0x3beecdbb	0.0072877086
6	0xbbf65c82	-0.007518352
7	0xbc0e6991	-0.008692161
8	0x3c5a48be	0.013323007
9	0x3c4cafc7	0.01249308
10	0x3c7c4df2	0.015399443
11	0xbbb99607	-0.0056636366
12	0xbc1f4f5c	-0.009723511
13	0x3c898999	0.016789244
14	0xb9eefc3d	-0.0004558283
15	0x3ae1bc61	0.0017222279
16	0x3a4efed8	0.0007896251
17	0x3bb86ef5	0.0056284615
18	0xbbcfd107	-0.0063420567
19	0x3bfed9c4	0.0077774245
20	0xbc2c887f	-0.01053059
21	0xbc8613d2	-0.016366873
22	0x3b7fc0f0	0.0039024912
23	0xbc2224d1	-0.009896473
24	0x3c84f8d8	0.01623194
25	0x3ba94910	0.0051661804
26	0x3c92df20	0.01792866
27	0xbc79def7	-0.015250913
28	0xbc907287	-0.017632736
29	0xbc17dd8d	-0.00926913
30	0xbc0e78f5	-0.008695831
31	0xbbea9373	-0.0071586906

critic.4.weight f4 [32, 32]
0	0xbc328b6b	-0.010897498
1	0xbe0000cd	-0.12500305
2	0x3d5fc2bc	0.054629073
3	0xbe771f9f	-0.24133156
4	0xbe96cfd7	-0.29455444
5	0xbd29a129	-0.04141346
6	0xbe2696ac	-0.16268414
7	0xbe06fe85	-0.13183029
8	0xbe770542	-0.241231
9	0x3dcaf153	0.0990931
10	0x3e926066	0.2858917
11	0x3e109997	0.1412109
12	0xbe7c9bd5	-0.2466882
13	0xbac6cf5e	-0.0015168001
14	0x3e805f07	0.250725
15	0xbe8dc8ee	-0.2769236
16	0x3e2f73ec	0.17134064
17	0x3e367923	0.17819647
18	0x3e5212d6	0.20514998
19	0xbe13e3c0	-0.14442348
20	0xbe523bb2	-0.20530584
21	0x3e4813ba	0.19538775
22	0xbda3071a	-0.07960339
23	0xbe8cf8b0	-0.27533484
24	0xbe1a903b	-0.15094082
25	0x3e5af3d9	0.21382083
26	0xbdd8f2ab	-0.1059316
27	0xbe9de4fa	-0.30838758
28	0xbe56789c	-0.20944446
29	0x3e8355cd	0.25651398
30	0xbc8397ee	-0.016063657
31	0x3e15d4e3	0.14631991
32	0x3e930ad3	0.28719196
33	0xbb9c9e09	-0.0047795814
34	0xbdd32910	-0.103105664
35	0xbd899a87	-0.06718927
36	0xbda691ec	-0.08133301
37	0x3e024d80	0.12724876
38	0x3e989a75	0.2980534
39	0xbe24ef9f	-0.16107033
40	0x3e4ba1f4	0.19885999
41	0x3d9d93a2	0.07694174
42	0x3ea21195	0.3165404
43	0xbe9331bb	-0.2874888
44	0x3e4ff143	0.20306878
45	0xbe1c59f8	-0.15268695
46	0xbe130f4b	-0.14361303
47	0xbd908a4a	-0.070576265
48	0xbe465a9c	-0.19370502
49	0xbd82f986	-0.06395249
50	0x3e89236f	0.26784846
51	0xbe40dea4	-0.1883493
52	0xbd86f219	-0.06589145
53	0xbde69089	-0.11258037
54	0x3e8df400	0.2772522
55	0x3b9773c0	0.004621953
56	0xbd688732	-0.056769557
57	0xbe361a14	-0.17783386
58	0x3e93edb0	0.2889228
59	0xbe90e8e3	-0.28302678
60	0xbe83ce33	-0.25743255
61	0x3dae0d7f	0.08498668
62	0xbe8cc09f	-0.27490708
63	0x3e5cfb1c	0.21580166
64	0xbe47cb31	-0.19511105
65	0x3a966735	0.001147485
66	0x3e49def3	0.19713955
67	0x3da16ed7	0.07882469
68	0x3e707c47	0.23484908
69	0xbe6ccd2e	-0.23125145
70	0xbe838a32	-0.25691372
71	0xbe8d2813	-0.27569637
72	0x3e2148a3	0.15750365
73	0x3e9437b9	0.28948763
74	0x3e39b3ba	0.18134966
75	0x3e8ac062	0.270999
76	0xbd5a7111	-0.053330485
77	0x3d84de28	0.064876854
78	0xbd5a8601	-0.053350452
79	0x38e1b3e2	0.00010762342
80	0x3e6208e8	0.2207371
81	0xbd9c8ad6	-0.07643668
82	0xbe59d52f	-0.2127273
83	0xbd764f6d	-0.06013434
84	0x3db8d22d	0.09024463
85	0x3d3c1f1d	0.04592811
86	0x3cdf2098	0.027237222
87	0x3e05f054	0.13079959
88	0x3e95c90d	0.29254952
89	0x3e3890e5	0.18024023
90	0xbdbfb563	-0.09360769
91	0x3e817286	0.25282687
92	0x3e7524e2	0.23939851
93	0xbd98b80f	-0.074569814
94	0xbcb44367	-0.022004796
95	0xbdcf74f9	-0.10129733
96	0x3dd665d2	0.104686394
97	0xbe6083aa	-0.21925226
98	0x3d29872f	0.041388687
99	0x3daeea37	0.08540767
100	0x3e4c8963	0.19974284
101	0x3e2bc91a	0.16775933
102	0xbd0a6ed5	-0.033797104
103	0xbe0e8ec9	-0.13921656
104	0xbdc43ea4	-0.0958226
105	0x3dbf9bb0	0.09355867
106	0x3ea12123	0.31470594
107	0x3e312023	0.17297415
108	0x3dbd9cf1	0.0925845
109	0x3e0db328	0.13837874
110	0x3e92fa3c	0.2870654
111	0x3cd82f47	0.026389731
112	0x3e7fcd2c	0.2498061
113	0x3dc78361	0.097418554
114	0x3dc8cda0	0.09804845
115	0x3e5445dd	0.20729776
116	0xbdecb148	-0.11557251
117	0xbe6ce6d8	-0.23134935
118	0x3e2a865b	0.16652815
119	0xbe23b60a	-0.15987411
120	0x3e302a04	0.17203528
121	0x3e94796a	0.28998882
122	0xbc2066fe	-0.00979018
123	0xbe211a0a	-0.1573259
124	0xbe08a846	-0.13345441
125	0x3e56e611	0.20986201
126	0x3e064979	0.13113965
127	0x3e8af637	0.27140972
128	0x3e0611a6	0.1309267
129	0xbd043c03	-0.032283794
130	0x3d3f2f67	0.046676066
131	0x3e890426	0.26760978
132	0xbd5cd1ca	-0.053911008
133	0x3e24f406	0.16108713
134	0xbe8cc044	-0.27490437
135	0x3db990c3	0.09060814
136	0x3b83e34b	0.004024898
137	0x3e2be7c8	0.16787636
138	0xbdc72887	-0.09724527
139	0x3e6c4f60	0.23077154
140	0xbe86632b	-0.26247534
141	0x3e918f66	0.28429717
142	0x3e565ed8	0.20934618
143	0x3e6bd633	0.2303093
144	0x3c0fd872	0.008779632
145	0x3e7d9981	0.24765588
146	0xbe94cef8	-0.29064155
147	0x3e09f126	0.13470897
148	0xbd290701	-0.041266445
149	0x3dced616	0.100994274
150	0x3ea19706	0.31560534
151	0xbddbf7bd	-0.10740612
152	0xbca53ee2	-0.020171586
153	0x3cf09631	0.029368492
154	0x3d8b077c	0.06788537
155	0x3e2fb24e	0.17157862
156	0xbe82fab0	-0.25581884
157	0xbe954469	-0.29153755
158	0x3e321e95	0.17394479
159	0x3e5a12bc	0.21296209
160	0xbda54c7b	-0.08071228
161	0xbe5d6605	-0.21620949
162	0xbca5bef9	-0.020232664
163	0x3e88a41c	0.26687706
164	0x3e4644c6	0.19362172
165	0x3e197a49	0.14988054
166	0xbe94212b	-0.28931555
167	0xbe1ad0ca	-0.15118709
168	0xbe556c88	-0.20842183
169	0x3e6b53ec	0.22981232
170	0xbdf2e815	-0.118606724
171	0x3e3cd8a7	0.18442021
172	0xbe571645	-0.21004589
173	0xbd2402a2	-0.040041573
174	0xbe4c95b9	-0.1997899
175	0xbe154b4b	-0.14579503
176	0x3e158ba7	0.14604054
177	0xbe88b439	-0.267
178	0xbe826f3c	-0.2547549
179	0xbe00c6dc	-0.12575859
180	0xbe812378	-0.25222373
181	0x3e6c8ff1	0.23101784
182	0xbe0a01e9	-0.13477291
183	0x3be9c5aa	0.007134159
184	0x39d6cf07	0.00040971508
185	0xbe1a0309	-0.1504022
186	0xbcbd02c8	-0.023072615
187	0x3e6b7da6	0.2299715
188	0x3e3d4392	0.18482807
189	0x3e378e7f	0.17925452
190	0x3d16e5a8	0.03684011
191	0x3e21157b	0.1573085
192	0xbe2da7a7	-0.16958486
193	0xbbc3bb1d	-0.0059732334
194	0xbca2f69e	-0.019892987
195	0x3e22bfff	0.15893553
196	0x3e8a88c9	0.27057484
197	0x3e915042	0.28381544
198	0xbe8a80ef	-0.27051494
199	0xbca81201	-0.020516397
200	0x3e0316ff	0.12801741
201	0x3ea23adf	0.3168554
202	0x3e915ae6	0.28389663
203	0xbd94162b	-0.07230791
204	0x3d945101	0.07242013
205	0xbe54bb4f	-0.20774578
206	0xbe4ba9b3	-0.19888954
207	0xbe8d13d3	-0.27554187
208	0x3e388bd3	0.18022089
209	0xbe48fa81	-0.1962681
210	0xbe8f45e0	-0.27982998
211	0xbdd2125c	-0.10257408
212	0x3e9ace64	0.3023559
213	0xbe2c3721	-0.16817905
214	0x3da4fa46	0.08055548
215	0xbe96d2a2	-0.29457575
216	0xbe29db1c	-0.1658749
217	0xbe13914f	-0.144109
218	0xbcd87a91	-0.026425632
219	0xbe8d572f	-0.27605578
220	0x3c043225	0.008068596
221	0x3e1f7776	0.15572914
222	0x3e9af4f5	0.30265012
223	0x3e1103d6	0.1416162
224	0x3dffaea3	0.12484481
225	0xbe79c990	-0.24393296
226	0xbe97060d	-0.29496804
227	0x3e37a007	0.1793214
228	0xbdb177db	-0.08665439
229	0xbd890221	-0.06689859
230	0xbd567b3d	-0.052363623
231	0xbe39bafc	-0.18137735
232	0x3e03e3df	0.12879895
233	0x3e842050	0.25805902
234	0x3d7da957	0.061929073
235	0xbe82f6e1	-0.2557898
236	0xbe6a53f3	-0.22883587
237	0x3e2dfcc0	0.16990948
238	0x3e0eafc2	0.13934234
239	0xbc733fce	-0.014846755
240	0xbe824fb9	-0.2545145
241	0xbe12da98	-0.143412
242	0xbd3aedb1	-0.045636836
243	0x3d8e9d49	0.069635935
244	0x3ce11157	0.027474089
245	0x3cb8e397	0.02256946
246	0xbe355738	-0.17709053
247	0xbd810ac6	-0.06300883
248	0x3dfa2854	0.12214723
249	0x3e6af8a1	0.22946407
250	0xbe69a165	-0.22815473
251	0xbe0acf82	-0.1355572
252	0xbe336098	-0.17517316
253	0x3e61034c	0.21973914
254	0x3e71f122	0.23627141
255	0x3e983a94	0.29732192

critic.4.bias f4 [32]
0	0xbc808c70	-0.015691966
1	0x3c879fde	0.016555723
2	0x3c35507c	0.011066552
3	0x3c8dcf9b	0.017310908
4	0x3c8eb0d5	0.017418304
5	0xbc52bf37	-0.012862972
6	0x3c792a88	0.015207894
7	0xbc817392	-0.015802179
8	0xbc7a0add	-0.015261379
9	0x3c92689d	0.01787215
10	0x3c755d4d	0.014975858
11	0x3c93e920	0.018055499
12	0xbc382d95	-0.011241336
13	0x3c81d9c4	0.015850909
14	0xbc89676a	-0.016772944
15	0x3c087abd	0.008330044
16	0x3c979e4c	0.018508099
17	0xbc8b932c	-0.01703795
18	0xbc4c0467	-0.0124522215
19	0x3c979936	0.018505674
20	0x3c91895c	0.017765693
21	0xbc8c00a8	-0.017090157
22	0xbc551530	-0.01300554
23	0x3c668173	0.014068949
24	0x3c5640d6	0.0130769815
25	0xbc746d7a	-0.014918679
26	0x3c909043	0.017646914
27	0x3ca07604	0.019587524
28	0x3c82c939	0.015965091
29	0xbc37e639	-0.011224323
30	0xbc449cbb	-0.012000258
31	0xbc8cf98b	-0.017208835

critic.6.weight f4 [1, 32]
0	0x3df3bd44	0.11901334
1	0xbec8c81e	-0.39215177
2	0xbed66daf	-0.41880557
3	0xbe8fe9c3	-0.28108034
4	0xbe16cb4e	-0.14725992
5	0x3e946d65	0.2898971
6	0xbd3d2098	-0.046173662
7	0x3be63ead	0.0070265145
8	0x3e92deab	0.28685507
9	0xbe6c73f7	-0.23091112
10	0xbd60df4e	-0.05490046
11	0xbd373091	-0.04472405
12	0x3d92ffea	0.07177718
13	0xbe8a8145	-0.2705175
14	0x3df3ca56	0.11903827
15	0xbeab32b4	-0.3343712
16	0xbeb23424	-0.34805405
17	0x3e8c4549	0.2739661
18	0x3eabe2a8	0.33571362
19	0xbeb07fc8	-0.3447249
20	0xbe41c567	-0.1892296
21	0x3ebc6546	0.36796016
22	0x3ecc1dd1	0.39866498
23	0xbe9c0f29	-0.30480316
24	0xbdff4f52	-0.12466301
25	0x3d92adc1	0.07162047
26	0xbde50640	-0.11182833
27	0xbcccc1cb	-0.024994751
28	0xbe15fc19	-0.14646949
29	0x3968f75f	0.00022217397
30	0x3e2cb5db	0.16866247
31	0x3e722ec7	0.23650657
