models/tetris_ppo_interrupted_20251024_074819.pth/model.ckpt-1.pth (torch, 70113 bytes, 15 tensors)

actor.0.weight f4 [32, 180]
-6.2478843 -1.5033784 2.8412535 1.412805 -1.0572287 2.3914008 3.344949 2.0707254
-1.8139323 -8.258083 -11.774329 -1.8830141 0.3872761 1.419233 4.138519 1.9221805
0.15464655 1.7811142 -2.922328 -15.701729 -3.3223271 -0.59223616 1.5174156 -1.8341622
1.8561628 1.4040198 1.047003 1.6764963 -0.1372033 -6.6774526 -1.9521892 1.1557399
0.6503428 -1.768252 -0.74721247 0.24240091 -1.5459598 -0.040068194 0.302994 -1.9878254
-1.4950397 -1.397558 -0.9524152 -1.2889328 -1.1595409 -2.1555333 -1.7942541 0.54963946
0.2602708 -0.04630948 -0.70371675 -0.9851526 -0.29141262 -0.6223801 -0.30457917 0.2927846
0.03220656 0.77402914 -0.854352 -0.63593525 -1.850416 -0.39420408 -0.4145657 1.1308053
1.0769407 -0.48165843 -0.59671766 -1.1797508 -0.5572658 -0.30184853 -1.5225539 -2.2680497
0.034333784 -0.04044801 0.51758504 -0.57272655 -1.1310307 -0.6996082 -1.059275 -1.47244
-1.9169177 -0.503079 -0.7781347 -0.5339876 0.23679926 0.013002219 0.017508723 0.13389044
0.5434672 -0.51147276 -2.3713636 -0.7804086 0.327257 -0.5080976 -0.0650246 -1.0568454
0.15171354 -0.6702303 -0.9341359 -0.36374143 -1.5155715 -0.29620785 0.9568529 0.8471099
-0.7489282 0.41944575 -0.79167837 -0.96206677 -0.37932214 0.40772352 -2.1909075 -1.3814088
-1.436054 0.4609763 -0.24492599 -0.63008434 -0.1392252 -1.0932326 -0.48343173 -0.72686195
-1.3607836 0.13773403 -1.3120148 0.29068995 1.0142372 -0.011956542 -0.39101914 1.0008757
-0.5034129 -1.3558648 -2.167505 -0.7583199 -0.9710777 -1.812162 0.242535 -0.13165924
-0.12778784 -0.026519928 -0.07171591 0.36901498 -2.227973 -1.2008145 0.14455034 0.29334614
1.2316161 -0.7041743 -1.5309488 0.5436021 -0.6215288 -1.086464 -1.2059025 -1.2704211
0.18916184 -0.8375573 -0.64487314 -0.2837597 -0.38662657 0.40494105 0.76304924 1.7022594
-0.38354418 3.568827 0.53184533 -0.0426711 0.037772506 -0.28091308 -0.6583452 -1.0840763
1.9190407 -0.5395699 1.1091948 0.51747006 0.28847843 -1.7351778 0.9859388 1.4863985
0.035033945 -0.07866869 0.32448813 0.7195836 -1.5181437 -0.4436153 0.4485374 0.12090727
-1.834981 -2.163579 -2.551506 -3.2598581 -0.981406 2.5780275 -1.659896 -1.0141786
-0.8887828 0.39875144 -1.1002634 -2.1496944 -3.8162894 -5.1705356 -1.7545577 3.5052514
0.647013 -0.41941273 0.26107675 0.28707492 -0.3892939 -1.3145139 -2.2495313 -2.8256462
-1.3232355 2.5356388 0.8362562 0.30824807 0.37434357 -0.2072085 0.34394664 0.44477054
-0.25553903 -0.40052396 -0.69099253 0.22397566 0.17446132 0.73583627 -0.080257244 0.89602435
0.812119 1.206707 0.7567667 -0.44406763 -1.1481419 -0.85339123 -1.4205142 -2.9740477
-3.09063 -3.6300132 -4.1531696 -2.1588736 -2.2507396 -3.3623133 -3.670324 -2.4305575
-4.101265 -4.817926 -4.9445963 -3.8741333 -4.1502604 -2.937546 -4.593676 -4.7367754
-6.2154627 -3.5395586 -1.6028732 -2.4405491 -3.1134913 -2.2207496 -5.6588283 -4.749155
00000000: abee c7c0 b46e c0bf 19d7 3540 cbd6 b43f
00000010: 4553 87bf b60c 1940 a513 5640 c486 0440
00000020: ef2e e8bf 1c21 04c1 a763 3cc1 9b06 f1bf
00000030: 0e49 c63e 6da9 b53f bf6e 8440 030a f63f
00000040: aa5b 1e3e 8dfb e33f 6c07 3bc0 483a 7bc1
00000050: 02a1 54c0 ca9c 17bf ad3a c23f d4c5 eabf
00000060: be96 ed3f ecb6 b33f 3204 863f 6e97 d63f
00000070: 067f 0cbe b1ad d5c0 56e1 f9bf 49ef 933f
00000080: de7c 263f 1556 e2bf 5149 3fbf f237 783e
00000090: 03e2 c5bf 8c1e 24bd 0822 9b3e 1071 febf
000000a0: 765d bfbf 2ee3 b2bf 7cd1 73bf c0fb a4bf
000000b0: d66b 94bf 42f4 09c0 1eaa e5bf 2cb5 0c3f
000000c0: 3742 853e 02af 3dbd c826 34bf f632 7cbf
000000d0: 0934 95be 4d54 1fbf cdf1 9bbe dde7 953e
000000e0: 07eb 033d c626 463f d0b6 5abf a7cc 22bf
000000f0: 6eda ecbf 1ed5 c9be f541 d4be 3abe 903f
00000100: 31d9 893f ef9b f6be 7dc2 18bf 1302 97bf
00000110: f9a8 0ebf e48b 9abe 0ce3 c2bf ba27 11c0
00000120: 95a1 0c3d d0ac 25bd 7480 043f 359e 12bf
00000130: 9dc5 90bf 8619 33bf 5396 87bf ea78 bcbf
00000140: 8f5d f5bf c9c9 00bf d633 47bf 69b3 08bf
00000150: 817b 723e 4207 553c 746e 8f3c 931a 093e
00000160: ab20 0b3f e1ef 02bf 6cc4 17c0 dcc8 47bf
00000170: 3b8e a73e af12 02bf 9e2b 85bd b646 87bf
00000180: cb5a 1b3e 3794 2bbf 8823 6fbf 513c babe
00000190: 3ffe c1bf 8ea8 97be 50f4 743f 32dc 583f
000001a0: c2b9 3fbf 98c1 d63e 6fab 4abf 024a 76bf
000001b0: 8336 c2be 23c1 d03e d437 0cc0 01d2 b0bf
000001c0: 9ed0 b7bf 1605 ec3e e1cd 7abe 354d 21bf
000001d0: 0d91 0ebe 0cef 8bbf 5d84 f7be a013 3abf
000001e0: 282e aebf 260a 0d3e 1af0 a7bf 50d5 943e
000001f0: 86d2 813f 5fe5 43bc a933 c8be b21c 803f
00000200: abdf 00bf fa8c adbf 67b8 0ac0 4121 42bf
00000210: 8c98 78bf edf4 e7bf 185b 783e aed1 06be
00000220: d1da 02be 5240 d9bc cbdf 92bd 88ef bc3e
00000230: 1c97 0ec0 4ab4 99bf 0105 143e 7731 963e
00000240: 99a5 9d3f c444 34bf 21f6 c3bf 8229 0b3f
00000250: 831c 1fbf 4111 8bbf 035b 9abf 299d a2bf
00000260: a4b3 413e 286a 56bf 6816 25bf f448 91be
00000270: ebf3 c5be 6f54 cf3e 3257 433f a3e3 d93f
00000280: e75f c4be a967 6440 0427 083f e4c7 2ebd
00000290: 58b7 1a3d d7d3 8fbe 5089 28bf 03c3 8abf
000002a0: 20a3 f53f 4121 0abf 18fa 8d3f eb78 043f
000002b0: 72b3 933e 4e1a debf 7c66 7c3f 4e42 be3f
000002c0: c17f 0f3d 0d1d a1bd 4f23 a63e a136 383f
000002d0: 8852 c2bf 8b21 e3be b2a6 e53e 3b9e f73d
000002e0: a8e0 eabf 1478 0ac0 e04b 23c0 84a1 50c0
000002f0: 6c3d 7bbf 67fe 2440 7977 d4bf 9bd0 81bf
00000300: 4587 63bf 2629 cc3e 6ed5 8cbf 9894 09c0
00000310: 163e 74c0 0775 a5c0 5995 e0bf 0a56 6040
00000320: a5a2 253f 44bd d6be daab 853e 7cfb 923e
00000330: 8851 c7be fe41 a8bf 52f8 0fc0 63d7 34c0
00000340: c85f a9bf e847 2240 e314 563f b1d2 9d3e
00000350: f6a9 bf3e 772e 54be c619 b03e f7b8 e33e
00000360: 03d6 82be 7a11 cdbe e3e4 30bf e059 653e
00000370: fda5 323e c45f 3c3f e95d a4bd da61 653f
00000380: 08e7 4f3f 6075 9a3f 76bb 413f d55c e3be
00000390: 50f6 92bf d977 5abf 69d3 b5bf cc56 3ec0
000003a0: e2cc 45c0 2352 68c0 c4e6 84c0 fc2a 0ac0
000003b0: 1e0c 10c0 2430 57c0 97e6 6ac0 418e 1bc0
000003c0: 903d 83c0 732c 9ac0 223a 9ec0 cdf1 77c0
000003d0: efce 84c0 c100 3cc0 65ff 92c0 aa93 97c0
000003e0: 12e5 c6c0 2188 62c0 f32a cdbf f531 1cc0
000003f0: 7143 47c0 c320 0ec0 1f15 b5c0 14f9 97c0

actor.0.bias f4 [32]
-0.57230717 -5.481115 0.7789621 -1.6696299 0.29085675 1.2297759 -0.89505655 -1.206723
-3.2505515 0.09358832 -0.8808494 -0.7114254 -0.2616088 0.9893131 0.44379696 -0.2086945
-1.7717112 0.11612908 -1.0223125 -1.6362742 -1.5997909 -1.3649548 0.2846348 -2.4385638
-0.40905368 0.66409874 -1.1171379 -0.39446646 0.15019786 -1.4379123 0.021065049 -0.26826322
00000000: b982 12bf 4b65 afc0 0f6a 473f 6fb6 d5bf
00000010: 2deb 943e 4c69 9d3f 6d22 65bf e675 9abf
00000020: 0909 50c0 3cab bf3d 597f 61bf fa1f 36bf
00000030: 97f1 85be a043 7d3f 5b39 e33e 03b4 55be
00000040: 6fc7 e2bf 15d5 ed3d 23db 82bf 6f71 d1bf
00000050: f3c5 ccbf d7b6 aebf a7bb 913e 6e11 1cc0
00000060: 7c6f d1be 6002 2a3f 60fe 8ebf 82f7 c9be
00000070: 78cd 193e 830d b8bf 9c90 ac3c cc59 89be

actor.2.weight f4 [32, 32]
1.1250947 3.4164333 -0.98539716 1.9959785 3.3142796 -2.8245912 0.030316679 0.024160394
3.9490006 2.0955322 0.8233195 0.8548347 2.1480098 1.9986783 -4.30578 2.213374
3.9229975 1.4452692 1.3389994 2.9795644 3.9964623 -1.3785172 2.6799212 3.9373658
-2.3899229 2.6864238 3.185908 1.0882086 2.2399013 -0.9806221 -0.92379165 2.2476404
0.3668699 -0.5431359 0.21943393 0.83797604 -0.6384133 -0.66980577 0.75493526 1.018535
-0.32733166 0.19007151 -0.5171996 -0.5255188 0.29967025 0.26312795 0.36624607 0.0037188954
-0.6176867 0.038897943 -0.5331771 -0.10753848 0.4938143 0.972303 -1.2362456 -0.02962569
-0.11820149 -1.7495775 -0.40736565 -0.62995636 1.3834025 -0.6469801 2.2283132 -0.40626755
-1.9183129 2.1438591 1.1546681 2.127519 3.0970283 -0.01600476 -1.346361 -1.1792583
1.6565074 2.7602491 0.48496073 1.8043928 2.5319989 2.107336 -0.3255539 -5.053282
2.9880064 1.7980616 2.4940016 1.7612175 2.8406477 -1.421476 1.964946 1.656263
-0.7961143 2.70667 2.6151912 0.29354045 -0.67341775 -0.12644923 -1.4092646 1.9434981
-0.5422955 1.0175267 0.7501116 0.34452513 2.4743001 -0.5783097 -0.48734707 -0.31698883
0.86462456 2.3023376 -0.46884778 0.7788973 1.4406517 1.540342 0.37464273 0.5101954
1.3576497 1.7200762 -1.0225909 1.3821912 2.1613228 -1.6851823 1.1677728 1.6296492
-1.2335076 1.3948295 2.065287 0.5270531 -0.3742673 -0.3663693 -0.740511 0.33210447
-0.38150114 0.77987206 -1.2842567 0.668881 -1.0417563 -0.056140743 2.0569067 -0.042879287
-0.4301805 -0.99903506 0.63246876 0.90030074 -0.026414847 0.38526198 0.34039512 -1.1759392
0.110069394 -1.342692 -1.084787 0.84258246 0.93263704 0.73440397 -0.5227379 0.005756953
1.0311825 -0.69966924 -0.7550811 -0.12491645 1.25718 0.611719 1.4520097 -1.4317656
0.0032411264 2.732995 0.14743313 1.0500782 1.6353269 -1.5100151 0.70082355 1.0980196
3.1122816 1.3798953 0.9986977 0.6964051 1.7887241 1.5351098 -2.7471588 0.30903727
2.236005 3.4109006 -0.20823675 2.271956 2.63461 -0.002893599 1.4340066 3.277992
-2.5575051 0.9623244 1.332748 0.29132926 1.9505726 0.44554847 1.3163518 1.8419504
0.17087355 1.9662699 0.7648743 -0.18138397 1.2880362 -0.4033116 1.1637409 1.6546019
1.7717679 1.8520672 -0.7358731 0.36412746 2.4047558 1.5350772 -0.70958334 -2.4026477
1.6085323 0.71813154 -0.41868368 0.8936622 0.83114356 -1.1440927 0.027468443 1.629203
-1.6012927 2.076486 1.4980832 0.3212984 0.980106 -1.2597002 -1.4525477 -0.08848616
-2.1574626 0.93790066 -0.25268683 0.93992686 1.4729831 0.51276183 -0.71764725 -0.51068985
1.4122636 1.4031411 0.26121715 -0.7535056 0.94450074 2.0564125 -1.3810501 -1.7843148
1.4069649 1.993961 2.7282915 1.2514113 1.8098756 -3.474991 0.5886129 1.028688
-1.9223168 1.5548192 1.5177711 -0.24838214 -0.4549981 -1.8337116 -2.0084379 1.5113571
00000000: 1a03 903f d8a6 5a40 fd42 7cbf 397c ff3f
00000010: 281d 5440 1ac6 34c0 af5a f83c 05ec c53c
00000020: 6dbc 7c40 331d 0640 11c5 523f 72d6 5a3f
00000030: fe78 0940 b1d4 ff3f f3c8 89c0 eba7 0d40
00000040: 6412 7b40 95fe b83f 5564 ab3f 2fb1 3e40
00000050: 0ac6 7f40 4073 b0bf d483 2b40 cdfd 7b40
00000060: 7ff4 18c0 5eee 2b40 ebe5 4b40 6b4a 8b3f
00000070: 8b5a 0f40 0d0a 7bbf 9c7d 6cbf 57d9 0f40
00000080: 5fd6 bb3e f40a 0bbf 4ab3 603e 9985 563f
00000090: 0e6f 23bf 6478 2bbf 7043 413f 5b5f 823f
000000a0: 0498 a7be 1ba2 423e 3167 04bf 6688 06bf
000000b0: 616e 993e b5b8 863e 9b84 bb3e b6b8 733b
000000c0: b720 1ebf 7353 1f3d 4b7e 08bf 223d dcbd
000000d0: 3ad5 fc3e d9e8 783f 4c3d 9ebf 93b1 f2bc
000000e0: 9f13 f2bd 28f2 dfbf 3b92 d0be d244 21bf
000000f0: 5513 b13f 7da0 25bf af9c 0e40 4d02 d0be
00000100: 478b f5bf fd34 0940 2acc 933f 4529 0840
00000110: b635 4640 6a1c 83bc 8f55 acbf f0f1 96bf
00000120: 6f08 d43f eca7 3040 c64c f83e 58f6 e63f
00000130: 450c 2240 98de 0640 00af a6be 7cb4 a1c0
00000140: 7f3b 3f40 e226 e63f b99d 1f40 936f e13f
00000150: 2ccd 3540 edf2 b5bf 5a83 fb3f 6d00 d43f
00000160: 26ce 4bbf 153a 2d40 4b5f 2740 ef4a 963e
00000170: 1b65 2cbf e87b 01be c862 b4bf 8cc4 f83f
00000180: e1d3 0abf 513e 823f 5007 403f 9965 b03e
00000190: ef5a 1e40 1b0c 14bf 8e85 f9be 5c4c a2be
000001a0: 0958 5d3f 8059 1340 d10c f0be d065 473f
000001b0: 4667 b83f ed29 c53f 2cd1 bf3e 2a9c 023f
000001c0: 77c7 ad3f 752b dc3f 42e4 82bf a4eb b03f
000001d0: 1d53 0a40 0eb4 d7bf 9479 953f 5898 d03f
000001e0: 94e3 9dbf c689 b23f aa2d 0440 f4ec 063f
000001f0: f79f bfbe c294 bbbe 2192 3dbf 9909 aa3e
00000200: 1e54 c3be b2a5 473f 8662 a4bf c93b 2b3f
00000210: 4558 85bf d6f3 65bd 5ca4 0340 31a2 2fbd
00000220: 9e40 dcbe c3c0 7fbf 79e9 213f 1c7a 663f
00000230: f363 d8bc 0f41 c53e 4548 ae3e 2d85 96bf
00000240: 106c e13d 55dd abbf 4dda 8abf 7cb3 573f
00000250: 4dc1 6e3f e601 3c3f 27d2 05bf d2a4 bc3b
00000260: cafd 833f 861d 33bf ff4c 41bf 32d4 ffbd
00000270: 46eb a03f 9e99 1c3f 74db b93f 1844 b7bf
00000280: 1469 543b 64e9 2e40 b6f8 163e f668 863f
00000290: 6452 d13f 2d48 c1bf 2c69 333f e88b 8c3f
000002a0: 9f2f 4740 69a0 b03f a7aa 7f3f 9b47 323f
000002b0: e9f4 e43f 7a7e c43f 73d1 2fc0 223a 9e3e
000002c0: b51a 0f40 324c 5a40 043c 55be ba67 1140
000002d0: 739d 2840 89a2 3dbb 878d b73f 9fca 5140
000002e0: 2aae 23c0 e45a 763f 7d97 aa3f 1c29 953e
000002f0: 5dac f93f ee1e e43e 377e a83f 08c5 eb3f
00000300: 7af9 2e3e bbae fb3f cdce 433f b8bc 39be
00000310: 5fde a43f dc7e cebe 76f5 943f ffc9 d33f
00000320: 4ac9 e23f 8a10 ed3f 2e62 3cbf ea6e ba3e
00000330: 85e7 1940 697d c43f 41a7 35bf fbc4 19c0
00000340: 63e4 cd3f 78d7 373f b55d d6be 0cc7 643f
00000350: d3c5 543f a171 92bf 8005 e13c b989 d03f
00000360: 29f7 ccbf 26e5 0440 31c1 bf3f 3981 a43e
00000370: 3ae8 7a3f db3d a1bf 15ed b9bf 3b38 b5bd
00000380: de13 0ac0 421a 703f 2b60 81be 0c9f 703f
00000390: b68a bc3f 5c44 033f bbb7 37bf 92bc 02bf
000003a0: 0ec5 b43f 219a b33f 41be 853e bee5 40bf
000003b0: cdca 713f 439c 0340 40c6 b0bf 6d64 e4bf
000003c0: 6d17 b43f 1d3a ff3f 549c 2e40 3f2e a03f
000003d0: 01aa e73f 4166 5ec0 56af 163f 0cac 833f
000003e0: 7a0e f6bf 5104 c73f 5346 c23f e357 7ebe
000003f0: 83f5 e8be 10b7 eabf 3f8a 00c0 2674 c13f

actor.2.bias f4 [32]
-4.7075157 -0.82856464 -2.2169712 -0.34652376 0.23285425 -2.5431566 -1.1691172 -1.4670465
-2.8526552 -3.0260348 0.18731897 -3.7936823 0.5334022 -0.35607633 -0.31616846 -0.1766366
-1.1193138 -4.908612 -2.5292218 -2.1761267 -1.0775464 -4.303548 -0.4875224 -0.6029994
-0.50228524 0.62772787 -0.88160133 0.109960206 -1.8889229 -2.4842715 -1.7269399 -2.4460785
00000000: f8a3 96c0 d01c 54bf dbe2 0dc0 906b b1be
00000010: 5871 6e3e 14c3 22c0 a2a5 95bf 2ec8 bbbf
00000020: e791 36c0 8eaa 41c0 8bd0 3f3e b1cb 72c0
00000030: 0c8d 083f a34f b6be d5e0 a1be 3ae0 34be
00000040: ad45 8fbf 5913 9dc0 c5de 21c0 a945 0bc0
00000050: 0aed 89bf aab6 89c0 899c f9be 2b5e 1abf
00000060: c495 00bf c6b2 203f a0b0 61bf d132 e13d
00000070: 3ac8 f1bf 4efe 1ec0 5e0c ddbf 8d8c 1cc0

actor.4.weight f4 [32, 32]
3.720129 -0.25563923 2.3722355 0.053899698 -2.3786254 2.9004576 -1.1105373 2.1225207
1.468287 2.3890038 0.3694842 2.710014 0.64287513 0.29941198 0.8649772 -0.076958634
-2.2912889 3.6739602 0.6491575 2.3076158 1.7377131 2.5015695 -1.7231765 -0.13333313
-0.16748749 -1.7518182 -0.156101 -1.682684 2.5179741 1.2165027 1.209113 1.769845
0.3362829 0.2560803 1.2879857 1.322562 1.1768246 0.033384908 0.5743006 1.2948818
0.60940355 0.594353 0.70846635 0.8132747 0.740639 -1.2698425 1.1175749 0.042383976
1.0065395 0.37718162 1.4090335 0.38398328 -0.8238114 0.3303517 0.8469202 -1.8652637
-2.2290046 0.8939299 0.14961804 0.23316225 0.74765265 0.20830686 -0.6653071 0.6161231
-0.07644004 -0.37183088 -1.4413828 -0.86343586 -0.10978676 0.20000389 -1.3058449 -1.1624055
-1.1393096 -1.7865496 0.36581305 -2.554521 0.2053787 0.25920224 0.30991545 -1.2243003
-1.6338813 -0.029115623 -2.9401906 -1.13529 0.91951054 0.30742392 -0.25673184 1.835357
3.3424752 0.055461824 0.5970968 -1.0326552 -0.8612706 -1.8362749 1.8928006 0.08978322
1.2962078 0.30162326 2.2016134 1.4884061 -0.50846314 0.8122244 1.1606746 0.92704934
1.839349 1.6948436 -0.84221095 1.2532144 -0.11463715 -1.6066588 -3.0983562 -2.1216142
0.0022084536 1.602429 0.07206511 0.08042412 1.0989707 1.2168521 0.57726747 0.30830875
0.33233804 -0.019179694 -1.3319726 0.2759451 1.1654248 2.492773 2.8097515 1.3976012
1.5874995 -0.5517786 -0.18994035 0.89494157 -1.8153759 0.7383453 0.102311134 -0.07464826
1.1992292 0.92514676 -0.5426052 -0.21964715 0.73511326 0.6914891 0.57693005 -0.922848
-1.1843919 1.2330867 -1.4035934 -0.62882286 1.448879 0.959114 0.08116651 1.3841176
1.8126398 -0.22164938 -0.56530106 -0.39926118 0.19956735 1.0387374 2.039944 1.2488328
3.304563 0.11030875 2.4160485 0.92802805 -2.36918 3.5895798 0.9898575 3.0265577
2.6456368 2.3388731 -0.030881636 1.9142166 -0.661491 -0.42152274 0.35168332 -0.7738835
-0.16626708 3.0397701 1.1209033 1.6039264 1.9807553 2.8728342 0.10044276 -0.14530621
-0.11443089 0.3736097 -1.6627096 -0.33505794 1.8614085 2.5171669 0.71951574 1.5682623
0.4922568 -0.78912276 -0.65645653 0.14386833 0.24935746 0.7127463 -1.6017632 0.02121855
-0.03746856 -2.0197768 0.5807208 -0.40216514 0.30133176 -0.00039948567 0.30896622 -1.0228809
-3.0639884 0.5032794 -1.4639789 -0.6412098 2.6002858 0.7657852 -1.6494573 0.6245208
2.2229364 -1.4539931 1.4222959 1.4040027 -0.5234172 0.50933754 1.1964296 0.40029693
-0.13947156 -0.2501691 -0.68380135 -1.4010241 0.11166566 0.006001797 -0.48975033 0.1959386
1.4675012 0.13335037 -0.6684041 0.061357863 1.2512314 1.3136187 1.4842035 -0.1295497
-0.11445113 -0.40449226 -0.123022385 0.52083045 0.70278656 0.6674278 -2.3498857 0.15071352
0.86198634 0.47405013 -0.0034252258 -1.3826077 0.3852644 -0.049479954 0.6175469 0.06825233
00000000: 9816 6e40 25e3 82be b5d2 1740 eec5 5c3d
00000010: 663b 18c0 19a1 3940 1626 8ebf 61d7 0740
00000020: d4f0 bb3f 70e5 1840 082d bd3e df70 2d40
00000030: 7793 243f 874c 993e 256f 5d3f 7d9c 9dbd
00000040: 7aa4 12c0 2a22 6b40 302f 263f faaf 1340
00000050: 626d de3f b719 2040 0c91 dcbf 7b88 08be
00000060: d781 2bbe 943b e0bf f1d8 1fbe 3062 d7bf
00000070: 7d26 2140 5cb6 9b3f 37c4 9a3f 488a e23f
00000080: 462d ac3e f51c 833e b7dc a43f b649 a93f
00000090: 30a2 963f 9dbe 083d 5d05 133f b0be a53f
000000a0: df01 1c3f 8527 183f 0d5e 353f c532 503f
000000b0: 849a 3d3f 338a a2bf b20c 8f3f d29a 2d3d
000000c0: 49d6 803f f31d c13e 365b b43f 7599 c43e
000000d0: 4ee5 52bf dc23 a93e c3cf 583f f6c0 eebf
000000e0: 03a8 0ec0 97d8 643f 7935 193e 16c2 6e3e
000000f0: 2a66 3f3f 654e 553e 9151 2abf 3eba 1d3f
00000100: 988c 9cbd 9e60 bebe 3b7f b8bf 220a 5dbf
00000110: e1d7 e0bd d2cd 4c3e ed25 a7bf b4c9 94bf
00000120: e6d4 91bf a8ad e4bf d94b bb3e 467d 23c0
00000130: cb4e 523e 28b6 843e 3dad 9e3e dfb5 9cbf
00000140: 0623 d1bf e383 eebc 152c 3cc0 2f51 91bf
00000150: 0b65 6b3f ab66 9d3e 5b72 83be faec ea3f
00000160: 1deb 5540 f02b 633d 56db 183f 0c2e 84bf
00000170: 3b7c 5cbf 0e0b ebbf 4a47 f23f 44e0 b73d
00000180: 23ea a53f 5d6e 9a3e 3ce7 0c40 1784 be3f
00000190: a42a 02bf f0ed 4f3f fc90 943f 1b53 6d3f
000001a0: ca6f eb3f a3f0 d83f 239b 57bf 5469 a03f
000001b0: e2c6 eabd ffa6 cdbf 784b 46c0 87c8 07c0
000001c0: b4bb 103b 651c cd3f df96 933d 67b5 a43d
000001d0: 12ab 8c3f cfc1 9b3f cdc7 133f a5da 9d3e
000001e0: 3628 aa3e bc1e 9dbc 147e aabf ad48 8d3e
000001f0: a42c 953f 9889 1f40 f8d2 3340 99e4 b23f
00000200: 2f33 cb3f 5d41 0dbf b97f 42be e41a 653f
00000210: 3d5e e8bf 3304 3d3f 8088 d13d 30e1 98bd
00000220: 5880 993f 6bd6 6c3f 2de8 0abf 2feb 60be
00000230: 6230 3c3f 6e05 313f b0b1 133f c43f 6cbf
00000240: 279a 97bf c9d5 9d3f f3a8 b3bf 89fa 20bf
00000250: de74 b93f 7f88 753f a13a a63d c42a b13f
00000260: 9504 e83f 0ef8 62be 92b7 10bf f66b ccbe
00000270: 625b 4c3e 59f5 843f 718e 0240 c1d9 9f3f
00000280: f67d 5340 8ee9 e13d 8aa0 1a40 3f93 6d3f
00000290: a5a0 17c0 adbb 6540 4d67 7d3f 1fb3 4140
000002a0: 1d52 2940 19b0 1540 7cfb fcbc 0d05 f53f
000002b0: 7957 29bf d4d1 d7be d60f b43e 3b1d 46bf
000002c0: eb41 2abe 988b 4240 c279 8f3f 764d cd3f
000002d0: 6489 fd3f 84dc 3740 efb4 cd3d 27cb 14be
000002e0: be5a eabd c549 bf3e abd3 d4bf b78c abbe
000002f0: a242 ee3f 4319 2140 2f32 383f d2bc c83f
00000300: 1509 fc3e f303 4abf 890d 28bf 3852 133e
00000310: 9057 7f3e 8b76 363f 9406 cdbf 86d2 ad3c
00000320: a278 19bd 0644 01c0 1eaa 143f 97e8 cdbe
00000330: 2848 9a3e 0f72 d1b9 d230 9e3e c3ed 82bf
00000340: 6318 44c0 ebd6 003f a963 bbbf 5326 24bf
00000350: 156b 2640 800a 443f 6b21 d3bf 98e0 1f3f
00000360: 9744 0e40 721c babf cb0d b63f 5cb6 b33f
00000370: abfe 05bf f263 023f 9b24 993f b8f3 cc3e
00000380: a2d1 0ebe 2a16 80be 9b0d 2fbf c254 b3bf
00000390: f7b0 e43d b9aa c43b 8ec0 fabe 21a4 483e
000003a0: 14d7 bb3f 008d 083e 881c 2bbf 6252 7b3d
000003b0: 5a28 a03f a824 a83f 61fa bd3f ada8 04be
000003c0: 5b65 eabd 9c19 cfbe 29f3 fbbd 2555 053f
000003d0: d2e9 333f 8cdc 2a3f 8764 16c0 a554 1a3e
000003e0: 23ab 5c3f b3b6 f23e c179 60bb 4af9 b0bf
000003f0: 6041 c53e 7eab 4abd 8e17 1e3f e1c7 8b3d

actor.4.bias f4 [32]
-4.2717433 -0.8426001 1.0365528 -0.51332754 -1.2228801 -4.5063243 -0.4684721 0.6021482
0.78709346 -0.55941546 -0.65407544 -4.1861415 -1.0693966 -3.904364 0.33962226 -5.1358695
-1.2590284 -3.281017 -4.7481575 0.31997347 -3.470963 -3.2177453 -3.6575124 0.52519745
-0.6154047 -2.702256 -3.977565 -5.65638 -0.97354925 -1.7722977 -4.0460463 -3.967897
00000000: 1fb2 88c0 a4b4 57bf c3ad 843f 6f69 03bf
00000010: 5687 9cbf cf33 90c0 93db efbe 6226 1a3f
00000020: f57e 493f da35 0fbf 7d71 27bf dff4 85c0
00000030: fde1 88bf 1ae1 79c0 f8e2 ad3e 0b59 a4c0
00000040: d827 a1bf 2ffc 51c0 e8f0 97c0 90d3 a33e
00000050: 4224 5ec0 8aef 4dc0 af14 6ac0 5773 063f
00000060: 2a8b 1dbf c3f1 2cc0 6d90 7ec0 1101 b5c0
00000070: 863a 79bf a7da e2bf 3679 81c0 06f2 7dc0

actor.6.weight f4 [4, 32]
-2.3590894 -0.6195748 4.229839 1.6029062 0.57407033 -3.7043736 1.9945744 3.6726403
3.4755867 1.4506834 2.5311756 0.5024138 1.4410317 -3.2662942 2.8325274 -2.5798202
0.3456916 0.65714604 -1.6950719 1.3175033 -0.05825316 -0.21334784 -2.0506582 4.6050982
-0.22233151 -0.42536148 -0.7483161 -1.7928116 -0.29273704 1.8149997 -0.5539832 -2.6379936
-2.2521813 -0.5590839 4.2275095 -0.14381202 -2.0965414 -4.7432866 1.2709306 2.8507154
2.9934707 1.4079243 1.603746 -1.3710171 1.8848898 -3.1467342 3.915541 -4.032401
0.3856879 -0.80206954 -1.9072167 1.9923903 -1.1311281 -1.0166312 -2.6520176 4.3534365
-0.7302723 -0.6838361 -1.2395368 -1.7444686 0.15597203 0.7523629 -1.0597767 -4.5852118
-4.408408 -0.42098135 4.0245457 0.84991103 -1.8330729 -4.2779365 1.1452444 3.0371552
3.0702386 1.0847497 2.1564226 -0.578214 -0.85477763 -3.0584707 3.465808 -3.4405026
-1.6189657 -0.757876 -4.0588536 1.9037365 -0.26795584 -0.34539735 -3.201018 4.6919074
-0.38048968 -2.1265595 -3.4330778 -3.0569963 -1.8518171 1.2969608 -1.6534269 -4.8490615
-1.6270354 0.60695416 3.582599 1.79808 -0.23486786 -1.0813851 1.4923896 3.344379
2.5320477 1.36867 3.8523908 1.8915876 1.9065155 0.33404246 4.8953485 -0.84431845
-0.93372375 1.346092 1.1095467 -2.4696536 1.92807 1.0022304 -1.6028361 4.2475314
1.4798304 -0.32682332 -0.04935253 1.0139196 0.43075424 2.724962 0.2841826 2.887432
00000000: 52fb 16c0 749c 1ebf d75a 8740 082c cd3f
00000010: 46f6 123f 7514 6dc0 374e ff3f 8a0c 6b40
00000020: 0370 5e40 feaf b93f c8fe 2140 319e 003f
00000030: ba73 b83f f70a 51c0 2148 3540 c61b 25c0
00000040: 7dfe b03e b93a 283f 1ef8 d8bf f3a3 a83f
00000050: de9a 6ebd db77 5abe fc3d 03c0 f75c 9340
00000060: dfaa 63be fbc8 d9be a591 3fbf da7a e5bf
00000070: a1e1 95be e951 e83f d8d1 0dbf e3d4 28c0
00000080: bd23 10c0 1f20 0fbf c247 8740 7543 13be
00000090: bc2d 06c0 01c9 97c0 dbad a23f 1f72 3640
000000a0: 0695 3f40 dd36 b43f 8d47 cd3f 7d7d afbf
000000b0: 1244 f13f 1864 49c0 3998 7a40 6e09 81c0
000000c0: e278 c53e 6e54 4dbf ad1f f4bf a506 ff3f
000000d0: cec8 90bf f920 82bf a8ba 29c0 5a4f 8b40
000000e0: 20f3 3abf e20f 2fbf 24a9 9ebf bf4a dfbf
000000f0: 22b7 1f3e db9a 403f c3a6 87bf 0eba 92c0
00000100: ae11 8dc0 de8a d7be 14c9 8040 c593 593f
00000110: 22a2 eabf dbe4 88c0 5e97 923f c060 4240
00000120: ca7e 4440 14d9 8a3f d402 0a40 d505 14bf
00000130: b5d2 5abf fcbd 43c0 cccf 5d40 3231 5cc0
00000140: 453a cfbf 2904 42bf 21e2 81c0 a3ad f33f
00000150: 8231 89be ecd7 b0be 7bdd 4cc0 1b24 9640
00000160: 8bcf c2be 8d19 08c0 8cb7 5bc0 d4a5 43c0
00000170: 5808 edbf d002 a63f 7ea3 d3bf 832b 9bc0
00000180: b242 d0bf 5961 1b3f 4d49 6540 7c27 e63f
00000190: 3381 70be d46a 8abf 9f06 bf3f 4e0a 5640
000001a0: 120d 2240 9430 af3f 928d 7640 8b1f f23f
000001b0: b308 f43f 9d07 ab3e b2a6 9c40 4125 58bf
000001c0: 8508 6fbf be4c ac3f a005 8e3f ce0e 1ec0
000001d0: ffca f63f 1649 803f bc29 cdbf c7eb 8740
000001e0: 156b bd3f 6355 a7be e125 4abd 1ec8 813f
000001f0: d28b dc3e c765 2e40 6280 913e b0cb 3840

actor.6.bias f4 [4]
4.1581306 6.1718025 5.0168605 5.841059
00000000: 680f 8540 687f c540 1f8a a040 f5e9 ba40

critic.0.weight f4 [32, 180]
-2.3718042 -3.567013 -4.0082865 -2.7164006 -1.6084349 -1.4998076 -0.5791098 0.32466117
2.0440555 3.4174724 -1.1177107 -2.3584774 -1.8704398 -1.6294588 -2.598132 -1.8629682
-0.89429766 1.4493564 1.6661088 2.2314887 -2.4839215 -1.9165456 -2.4945402 -1.6736007
0.23542164 0.57385427 2.2800417 1.9717708 2.593478 2.9433808 -3.7210293 -1.2355328
-1.9776852 -1.9249289 -2.7943792 -1.8746046 -1.5095208 -0.74957275 -1.7826734 -1.5119087
-25.833828 -33.105175 -26.76408 -23.139746 -25.530989 -28.815416 -25.382069 -22.98677
-30.32469 -32.808956 1.8047094 2.5893466 2.3581383 2.5526268 2.4168484 0.7513214
1.2971021 1.9353845 1.9480026 -0.44996363 1.1654627 3.703002 2.3471136 3.0482216
1.2556298 2.0488782 2.77046 2.297442 2.2852519 0.7465258 1.3602904 1.7409235
1.4189644 1.7580576 1.0577105 1.2552 0.4068562 1.3257822 1.526605 1.3704174
0.5028131 -0.08756885 0.60374105 1.8897877 -0.2824537 0.52309465 0.8803833 0.5021397
0.9239646 -0.45555195 0.3140167 0.81433135 0.008609084 0.9995744 0.6334469 0.78226453
-0.4678736 0.22500207 0.5910316 -0.4320775 0.7046842 0.77079856 0.07302055 1.3765842
0.1465875 0.6139321 0.80041736 0.8477644 -0.31676522 -0.28689423 0.20312934 0.35080218
-0.13748676 0.8023834 0.39324456 -0.06879949 1.1033546 0.41909236 -0.46364996 0.5225574
-0.3751197 0.8038278 0.2131105 0.63317245 0.029037384 -0.3783299 0.5175637 0.17161757
0.16021799 -0.65648556 0.7391143 0.20114055 0.66883534 -0.55609155 -0.6851127 0.24351607
0.119372614 -0.5394865 -1.2341503 -1.1629275 -0.398883 0.093173094 -0.04106874 -0.10024717
0.16540988 0.72133213 0.051809356 0.1999047 -0.18467891 -0.063791126 0.14273798 0.12044758
0.20194623 0.05652288 -1.2677665 0.8409221 1.0889107 0.32771102 0.19690049 0.76156443
-0.6137361 -1.7974651 -2.3862574 -1.8874785 -2.5722818 -2.432689 -2.3521304 -2.5743434
-2.4568443 -2.9428833 -2.104566 -3.228397 -2.8516593 -2.8905752 -2.9193907 -2.87245
0.55136406 1.3804634 1.4953454 1.2786707 0.49270594 -1.0632828 -0.49346247 -1.2544672
0.5326369 -0.18194652 -0.46520606 -0.07140393 -0.53102183 1.0989565 -1.494474 -1.3581649
-2.1487958 -1.4040235 -1.847785 -0.90632373 0.296129 -0.8744765 0.06880711 1.1779008
2.2091935 0.12865618 0.36492562 -0.30930758 -0.35074887 -0.5915291 -1.189604 -1.4250704
-1.8669801 -3.0684438 0.70409304 -1.0706173 -0.3671234 0.038576547 -2.3882442 -1.5742259
-0.5422283 -1.261678 -0.6510111 -1.2653753 -0.7844739 -1.4504335 0.27145255 -0.7524866
-1.2792976 -3.306807 -0.80081075 -1.5723959 -1.6672759 -0.14751834 -0.086133845 0.40079114
0.6463375 0.7567976 -3.1958475 1.0230117 -0.46377698 -0.89036924 -0.12944888 -0.23896381
0.008417535 1.6631635 2.9416451 -0.2250946 1.5164182 0.4692724 0.45616588 -1.2026494
0.26934618 1.3711097 -1.0553094 -0.9255655 0.7418169 -1.1188282 -0.67260194 1.3722373
00000000: a4cb 17c0 f149 64c0 e243 80c0 82d9 2dc0
00000010: 32e1 cdbf b2f9 bfbf 8a40 14bf fd39 a63e
00000020: ced1 0240 deb7 5a40 2511 8fbf 4bf1 16c0
00000030: 926a efbf 1b92 d0bf cb47 26c0 be75 eebf
00000040: b1f0 64bf 8384 b93f 0e43 d53f b6d0 0e40
00000050: 92f8 1ec0 5e51 f5bf 8ca6 1fc0 8c38 d6bf
00000060: 5f12 713e 1de8 123f 34ec 1140 fc62 fc3f
00000070: 8bfb 2540 5a60 3c40 5825 6ec0 f025 9ebf
00000080: ca24 fdbf 1264 f6bf 1cd7 32c0 0bf3 efbf
00000090: fa37 c1bf 00e4 3fbf a42e e4bf 3986 c1bf
000000a0: aeab cec1 b36b 04c2 d61c d6c1 331e b9c1
000000b0: 773f ccc1 f985 e6c1 7a0e cbc1 e8e4 b7c1
000000c0: f798 f2c1 5f3c 03c2 b800 e73f dbb7 2540
000000d0: bdeb 1640 3d5e 2340 a5ad 1a40 9956 403f
000000e0: 7107 a63f aeba f73f 2658 f93f a261 e6be
000000f0: e22d 953f fcfd 6c40 1c37 1640 1016 4340
00000100: 7ab8 a03f d220 0340 374f 3140 4a09 1340
00000110: 9141 1240 511c 3f3f ff1d ae3f 95d6 de3f
00000120: a0a0 b53f 0808 e13f 0f63 873f 65aa a03f
00000130: 754f d03e 3bb3 a93f cb67 c33f d669 af3f
00000140: 5cb8 003f 4c57 b3bd c68e 1a3f 90e4 f13f
00000150: c59d 90be 88e9 053f cd60 613f 3a8c 003f
00000160: f288 6c3f 1b3e e9be ccc6 a03e 0578 503f
00000170: 1e0d 0d3c 1ce4 7f3f 9329 223f 7d42 483f
00000180: 218d efbe f166 663e d94d 173f 4339 ddbe
00000190: 2f66 343f 0e53 453f cc8b 953d e933 b03f
000001a0: 091b 163e a72a 1d3f 27e8 4c3f 1607 593f
000001b0: 0d2f a2be cde3 92be 2301 503e 589c b33e
000001c0: 54c9 0cbe 0069 4d3f 5a57 c93e bfe6 8cbd
000001d0: b93a 8d3f 4693 d63e 8763 edbe 52c6 053f
000001e0: b00f c0be a9c7 4d3f a439 5a3e 9717 223f
000001f0: cfdf ed3c 75b4 c1be 0e7f 043f 84bc 2f3e
00000200: 2f10 243e 700f 28bf 9836 3d3f caf7 4d3e
00000210: cb38 2b3f 045c 0ebf 8c63 2fbf 475c 793e
00000220: a179 f43d ca1b 0abf a3f8 9dbf cfda 94bf
00000230: 643a ccbe 89d1 be3d b237 28bd 634e cdbd
00000240: 3561 293e 39a9 383f 0c36 543d d1b3 4c3e
00000250: 781c 3dbe eca4 82bd e829 123e 39ad f63d
00000260: feca 4e3e 8984 673d 2c46 a2bf ac46 573f
00000270: 6d61 8b3f bdc9 a73e 48a0 493e e3f5 423f
00000280: cf1d 1dbf 5613 e6bf 71b8 18c0 e598 f1bf
00000290: 44a0 24c0 2db1 1bc0 4e89 16c0 0bc2 24c0
000002a0: f03c 1dc0 3358 3cc0 36b1 06c0 0e9e 4ec0
000002b0: 9681 36c0 2fff 38c0 4cd7 3ac0 39d6 37c0
000002c0: 3226 0d3f 06b3 b03f 7a67 bf3f 7bab a33f
000002d0: f443 fc3e a719 88bf 1da7 fcbe 6292 a0bf
000002e0: e45a 083f 3050 3abe 7d2f eebe 393c 92bd
000002f0: 0cf1 07bf 9baa 8c3f ed4a bfbf 59d8 adbf
00000300: df85 09c0 0bb7 b3bf 3884 ecbf d504 68bf
00000310: 389e 973e b1dd 5fbf beea 8c3d 74c5 963f
00000320: 6d63 0d40 72be 033e 88d7 ba3e 905d 9ebe
00000330: 5b95 b3be 736e 17bf f244 98bf b568 b6bf
00000340: 34f9 eebf 6261 44c0 713f 343f fd09 89bf
00000350: 99f7 bbbe 7102 1e3d fed8 18c0 3c80 c9bf
00000360: 79cf 0abf aa7e a1bf aaa8 26bf d1f7 a1bf
00000370: 48d3 48bf cea7 b9bf d4fb 8a3e f6a2 40bf
00000380: 06c0 a3bf baa2 53c0 ef01 4dbf 4544 c9bf
00000390: 4c69 d5bf 0c0f 17be f166 b0bd 7f34 cd3e
000003a0: 6076 253f 7dbd 413f c488 4cc0 0cf2 823f
000003b0: 2d74 edbe 3def 63bf 3f8e 04be eeb2 74be
000003c0: b3e9 093c 8be2 d43f ea43 3c40 337f 66be
000003d0: fe19 c23f 7944 f03e 938e e93e 6af0 99bf
000003e0: bee7 893e 8680 af3f 6114 87bf dcf1 6cbf
000003f0: b6e7 3d3f c335 8fbf a42f 2cbf 79a5 af3f

critic.0.bias f4 [32]
-1.9552733 -1.6635349 -8.375727 -1.3390226 -7.4366703 -2.0661247 -1.7365084 -7.5267916
-2.0498095 -1.9931115 -1.0021635 -7.7767353 -0.69121486 -1.5801226 -4.510154 1.1123462
-4.3397965 -2.2095473 -4.5242434 -3.7761958 -12.745679 -2.1515238 0.54167795 -10.769665
-1.3014766 -6.14211 0.6301857 -1.7690544 -1.3402125 -0.59684986 2.7768135 -2.8646812
00000000: 6546 fabf b6ee d4bf fa02 06c1 1865 abbf
00000010: 34f9 edc0 633b 04c0 e845 debf 7adb f0c0
00000020: 1430 03c0 471e ffbf e546 80bf 04db f8c0
00000030: 75f3 30bf 7541 cabf 2e53 90c0 5c61 8e3f
00000040: 9ddf 8ac0 3969 0dc0 9ac6 90c0 31ad 71c0
00000050: 4dee 4bc1 91b2 09c0 68ab 0a3f 8c50 2cc1
00000060: c996 a6bf 2a8c c4c0 da53 213f 6070 e2bf
00000070: 158c abbf 27cb 18bf 50b7 3140 f056 37c0

critic.2.weight f4 [32, 32]
0.5161761 -1.8221077 0.6786836 1.3499414 1.0518477 -0.16752501 -0.84433013 0.09593011
6.0585237 2.2420177 -0.44014204 0.22756311 0.59760594 0.62991357 0.8537864 0.66899025
1.4732656 0.3075673 -1.9184393 2.3836238 0.31109297 -2.791023 0.12022457 0.015548945
0.15034723 0.88999605 0.89124835 -1.8154082 -0.35554016 0.025670443 0.0048574093 0.33492097
-1.4065108 0.60687727 2.7007706 3.9155076 1.9043634 -1.9348323 2.6898127 3.3981001
2.747841 1.1048379 1.9266099 2.6609092 3.4186018 2.9574103 1.0724218 -3.428686
2.9545488 1.8182467 -0.15355144 2.9805732 2.53161 1.7238966 0.08901278 2.9552665
2.197501 2.4334397 0.30876234 1.7002237 1.9241662 0.9446205 -3.5104313 1.6634083
-6.412254 2.9101334 4.4416847 3.8849645 4.9093595 -6.9346013 -0.9676924 3.85901
3.5768213 1.3497658 -0.19059262 3.8095882 2.388529 2.7223146 -0.9714768 -2.955847
2.3455718 1.5797422 0.74799615 4.635382 4.7105975 2.4827528 -3.0420496 3.0983434
1.0241824 5.458102 0.6136269 2.9281075 -4.852621 3.8983145 -7.008148 2.394861
-9.631342 3.7659223 4.821065 1.2880276 5.5809846 -1.1803497 -0.32541484 4.527037
3.095696 -2.2306004 3.8812351 5.3454423 8.09466 -1.9808865 6.7195263 -5.481891
2.677691 3.5414944 -5.1144586 6.525665 5.2941904 2.8221784 -2.533884 4.611572
1.8601946 5.404981 -1.376698 1.3728689 8.02146 2.8015072 -6.6692376 5.0044193
-5.4307046 4.346507 4.454925 6.655563 4.956817 -5.680109 -1.0248336 4.9681354
5.8143206 1.08248 0.14842594 4.334701 3.1570137 0.5505921 2.1024609 -7.1849666
3.994469 2.4724402 1.2351053 6.9158773 3.8786297 2.9129689 -2.9361382 4.150888
2.0342314 5.0987854 0.65524966 1.2590054 -1.7427248 2.5631807 -5.8478217 4.0260305
0.23158748 -1.4613378 1.2965077 1.908334 -0.7296358 0.43431622 -0.032350138 -0.42955503
-0.69520605 -0.35251594 0.028702058 -0.21907969 1.758431 0.24280044 0.4261505 -0.7483233
0.34873584 1.0171584 0.65882164 0.80065006 -0.45162076 1.586359 0.49973443 -0.099479355
1.576513 -0.8016478 0.34925434 0.22442816 0.1474054 -0.23178403 -0.51447713 0.15309493
-1.8692255 -2.4820197 2.39654 -0.03840891 2.8512433 1.2214236 2.1419303 1.8676963
-5.045578 -4.5474944 1.8926481 2.3697336 -7.7314744 -0.75546235 0.23706362 2.6681306
1.1710182 -3.1915996 0.8965743 0.74496156 2.5017247 -0.091580436 2.4895566 1.3506318
-0.5294125 1.4278773 -0.8739434 -2.3220458 0.71416324 -3.2064402 0.5541404 -0.27310354
0.3568609 -0.5779167 1.3551028 -0.2180243 0.5233197 -3.5951097 -1.5226599 1.2266203
1.2105118 0.43083218 -0.24868429 0.7592777 -1.9993961 0.24322994 0.083631374 0.13569476
1.7112398 0.51307607 -3.437914 2.435576 1.5009474 -0.8140677 0.36689365 0.99456203
0.5352392 3.7121344 0.32974118 -0.18296279 -0.14123033 0.77384406 0.017963253 1.7331513
00000000: 1e24 043f d33a e9bf 35be 2d3f e1ca ac3f
00000010: f2a2 863f ad8b 2bbe 0526 58bf 0177 c43d
00000020: 6ddf c140 387d 0f40 4c5a e1be 4e06 693e
00000030: b4fc 183f 0442 213f bf91 5a3f f242 2b3f
00000040: f893 bc3f 7679 9d3e 6b8f f5bf 4b8d 1840
00000050: 9447 9f3e 1fa0 32c0 4d38 f63d 01c1 7e3c
00000060: a0f4 193e c8d6 633f da28 643f 4c5f e8bf
00000070: 5c09 b6be d24a d23c e72a 9f3b c37a ab3e
00000080: 8c08 b4bf 4f5c 1b3f 6dd9 2c40 ad97 7a40
00000090: 2ec2 f33f 96a8 f7bf e425 2c40 797a 5940
000000a0: a0dc 2f40 546b 8d3f 279b f63f 564c 2a40
000000b0: 5fca 5a40 3646 3d40 1e45 893f 976f 5bc0
000000c0: 5417 3d40 4fbc e83f 973c 1dbe b6c1 3e40
000000d0: e605 2240 a5a8 dc3f 554c b63d 1623 3d40
000000e0: dba3 0c40 7abd 1b40 1916 9e3e eea0 d93f
000000f0: 144b f63f a6d2 713f e8aa 60c0 90ea d43f
00000100: 2f31 cdc0 a03f 3a40 4822 8e40 42a3 7840
00000110: 7919 9d40 41e8 ddc0 b0ba 77bf 05fa 7640
00000120: a4ea 6440 20c5 ac3f b62a 43be 4bd0 7340
00000130: a9dd 1840 673a 2e40 b4b2 78bf 992c 3dc0
00000140: d91d 1640 fe34 ca3f ad7c 3f3f 0d55 9440
00000150: 37bd 9640 6ce5 1e40 f1b0 42c0 424b 4640
00000160: 6918 833f c6a8 ae40 a716 1d3f 1d66 3b40
00000170: ac48 9bc0 fc7d 7940 c042 e0c0 6745 1940
00000180: fa19 1ac1 df04 7140 2a46 9a40 17de a43f
00000190: 6d97 b240 b315 97bf c69c a6be 7ddd 9040
000001a0: e21f 4640 28c2 0ec0 2866 7840 dd0d ab40
000001b0: ba83 0141 b08d fdbf 5c06 d740 a76b afc0
000001c0: 4a5f 2b40 d8a7 6240 a5a9 a3c0 3fd2 d040
000001d0: 026a a940 929e 3440 282b 22c0 ff91 9340
000001e0: db1a ee3f 9bf5 ac40 a437 b0bf 2bba af3f
000001f0: e657 0041 e54b 3340 656a d5c0 3424 a040
00000200: 55c8 adc0 9616 8b40 bf8e 8e40 5ffa d440
00000210: 3f9e 9e40 74c3 b5c0 bf2d 83bf f7fa 9e40
00000220: ea0e ba40 b48e 8a3f f8fc 173e dfb5 8a40
00000230: 830c 4a40 9bf3 0c3f b88e 0640 3feb e5c0
00000240: 61a5 7f40 763c 1e40 ee17 9e3f de4e dd40
00000250: 783b 7840 156e 3a40 b0e9 3bc0 13d4 8440
00000260: d930 0240 4029 a340 71be 273f 1727 a13f
00000270: 9b11 dfbf 270b 2440 5b21 bbc0 3ed5 8040
00000280: 4525 6d3e 1e0d bbbf f7f3 a53f 4a44 f43f
00000290: 69c9 3abf b25e de3e 9481 04bd a3ee dbbe
000002a0: 06f9 31bf f87c b4be 9420 eb3c 6d56 60be
000002b0: 4414 e13f aea0 783e 6630 da3e 1e92 3fbf
000002c0: 818d b23e 3f32 823f 89a8 283f 67f7 4c3f
000002d0: d63a e7be d00d cb3f 31dd ff3e d5bb cbbd
000002e0: 2ecb c93f ca38 4dbf 77d1 b23e 7fd0 653e
000002f0: 71f1 163e cb58 6dbe c6b4 03bf ebc4 1c3e
00000300: c842 efbf 69d9 1ec0 e960 1940 a952 1dbd
00000310: c57a 3640 9c57 9c3f 6315 0940 ac10 ef3f
00000320: 6075 a1c0 1385 91c0 4b42 f23f b7a9 1740
00000330: 3d68 f7c0 fb65 41bf cec0 723e a7c2 2a40
00000340: ede3 953f 2b43 4cc0 e585 653f cdb5 3e3f
00000350: 421c 2040 868e bbbd e554 1f40 81e1 ac3f
00000360: 9487 07bf afc4 b63f c1ba 5fbf 669c 14c0
00000370: 67d3 363f 5136 4dc0 25dc 0d3f 3ad4 8bbe
00000380: 79b6 b63e 59f2 13bf 0274 ad3f c341 5fbe
00000390: 48f8 053f 4716 66c0 85e6 c2bf e501 9d3f
000003a0: 0df2 9a3f 0996 dc3e 18a7 7ebe 0660 423f
000003b0: 36ec ffbf 4511 793e ed46 ab3d 91f3 0a3e
000003c0: e809 db3f f458 033f c806 5cc0 7ae0 1b40
000003d0: 0b1f c03f be66 50bf 7cd9 bb3e 9e9b 7e3f
000003e0: 7005 093f 9c93 6d40 d6d3 a83e 995a 3bbe
000003f0: af9e 10be a51a 463f ac27 933c e7d7 dd3f

critic.2.bias f4 [32]
-0.7116043 -2.709565 -2.314621 -5.322744 -2.4716322 0.18146342 -6.1531754 1.4408574
-4.8599715 -9.802057 -7.887992 -4.0068507 -3.2481434 -1.2507799 -8.547303 -4.7808437
-3.6191633 2.104481 2.3194537 -4.8824735 -1.1893148 -5.3141246 -6.682694 -6.1368284
-1.9296201 -7.7389693 -4.598931 -5.5144506 -0.40015683 -3.9848413 -5.8397727 -5.6928725
00000000: b32b 36bf 8369 2dc0 c022 14c0 eb53 aac0
00000010: 392f 1ec0 8cd1 393e d0e6 c4c0 046e b83f
00000020: e384 9bc0 3ad5 1cc1 6e6a fcc0 1f38 80c0
00000030: 95e1 4fc0 8e19 a0bf c1c1 08c1 acfc 98c0
00000040: 5fa0 67c0 d1af 0640 ee71 1440 393d 9cc0
00000050: 783b 98bf 4f0d aac0 a1d8 d5c0 e660 c4c0
00000060: cbfd f6bf a3a5 f7c0 712a 93c0 6176 b0c0
00000070: 5be1 ccbe a407 7fc0 6bdf bac0 032c b6c0

critic.4.weight f4 [32, 32]
-1.4685363 0.71692157 -0.0026610643 0.1198996 0.18920328 0.115795135 -0.70465845 -0.46529922
0.9286511 0.8301071 -0.071913555 0.011899475 -0.31738925 0.48445407 -0.024160013 0.56492794
-0.47238237 -0.32071158 0.2197498 1.6081622 0.4391042 0.50279695 0.15369666 0.77381283
0.45284766 0.43246493 -0.5190193 -0.037695237 -0.18812102 0.86913353 0.31776735 -0.76216656
-0.11438665 -0.33683753 0.15537557 -1.0468659 -0.5334084 -0.014759403 0.6444195 -0.36270428
0.12376542 0.28092232 -0.70457464 0.83762753 -0.09191049 -0.4440926 -0.75740516 0.32108045
-0.13510786 1.8675523 -0.20245376 0.10497015 -0.7762929 -0.2874984 -0.62066984 0.09663757
-0.16140513 0.60940546 -1.2423555 0.6179307 0.54539526 -0.3913887 0.08761839 0.077517055
0.6982903 1.1845183 0.8618251 -0.2991281 0.09611266 -0.008581073 -0.3398895 -0.06765227
-0.8473369 1.0256187 1.6713395 0.361216 -0.9260765 0.105985336 -0.4926871 0.87472993
0.4088084 0.58407384 -0.06077151 2.0934308 -2.027264 -0.3935538 -0.37921056 0.061181035
-0.029478863 0.2721408 -0.22871947 -0.124686316 -0.32866576 -1.1996671 0.117043406 1.0951976
-0.8990945 -0.74501115 -0.8126195 0.5082656 -0.20082441 -0.4041766 -0.4674607 0.19189496
0.66437584 -0.3672224 0.8871553 0.48997167 -0.19760549 0.29982713 0.4307135 0.12066171
-0.20660357 0.15459017 -0.20682153 0.63029194 -1.1588484 0.28038067 0.37239182 -0.10741007
-0.06415212 0.6385961 0.47393444 0.9412634 -0.45227772 0.1727864 -0.60176027 -0.7331775
-0.16001596 10.160473 7.1341724 9.507915 11.452028 1.9229425 1.3858215 -0.78521085
5.7768564 10.121407 11.462506 2.9283564 0.83360565 6.7918925 9.23034 1.5066806
3.64497 2.287693 -6.4624457 7.7427235 2.5933857 4.708908 7.387691 10.6182575
3.3219068 8.5312605 11.01297 3.5092752 2.128231 1.9118959 11.802784 9.317385
0.38086197 -0.14877038 0.9768079 0.63222426 0.6889804 -0.06263289 -0.74757785 0.25637236
-0.55270505 0.7557625 0.18929352 0.6289356 0.27398944 -0.15445419 -0.44563943 -1.7630814
0.056435734 -0.62491685 -0.11533163 0.5653975 0.4729513 0.5067983 0.5644698 0.1033302
-0.0044054347 -0.05514584 -0.0045590405 -0.071419686 0.8007356 1.2698461 0.43641025 0.6286906
0.15946506 1.2311001 -0.5243171 0.8284933 1.0409447 0.53585285 0.23833066 0.21527888
-0.03929979 1.0211697 -0.27131665 -0.30186033 0.254958 0.08804999 -0.5814526 0.31988916
-0.94849414 -0.03697569 -0.5963562 1.0673952 -0.74403656 0.60884315 0.08398082 -0.36261266
-0.23354189 0.19811587 -0.17594695 1.3873731 -0.26109546 0.13784951 0.056862973 -0.08011183
-0.10510889 -1.542675 0.1101262 -0.35401618 -0.042384572 -0.017547222 -0.2107587 -0.44127685
0.6591582 0.31107903 -0.5415713 0.96776956 0.122066766 0.14839241 -0.21544142 0.1949128
0.018717352 0.32258117 0.107806325 1.205824 -0.0681678 0.121196784 0.22020853 0.5614657
0.24129447 0.4965363 -0.58137923 0.22443995 0.3293535 0.32680088 0.42747948 0.91050196
00000000: fff8 bbbf 2c88 373f 4065 2ebb ec8d f53d
00000010: 81be 413e 0026 ed3d 7f64 34bf b33b eebe
00000020: 14bc 6d3f e681 543f 6a47 93bd 04f6 423c
00000030: d880 a2be 5d0a f83e 38eb c5bc 1e9f 103f
00000040: 1adc f1be 4f34 a4be 1706 613e 42d8 cd3f
00000050: 44d2 e03e 4db7 003f a862 1d3e 9918 463f
00000060: a6db e73e 0b6c dd3e 73de 04bf 5266 1abd
00000070: cca2 40be 897f 5e3f 67b2 a23e 591d 43bf
00000080: 8c43 eabd f875 acbe c61a 1f3e b4ff 85bf
00000090: 748d 08bf 6cd1 71bc adf8 243f 60b4 b9be
000000a0: b978 fd3d 0dd5 8f3e 015f 34bf c26e 563f
000000b0: 913b bcbd 1b60 e3be 4ee5 41bf a864 a43e
000000c0: b759 0abe f40b ef3f 0a50 4fbe 97fa d63d
000000d0: 22bb 46bf fe32 93be 38e4 1ebf ebe9 c53d
000000e0: 6347 25be ff01 1c3f 8105 9fbf b530 1e3f
000000f0: 069f 0b3f 1a64 c8be 4571 b33d 43c1 9e3d
00000100: 27c3 323f 4c9e 973f 92a0 5c3f 5127 99be
00000110: b7d6 c43d a197 0cbc ff05 aebe 468d 8abd
00000120: 12eb 58bf 7947 833f 74ee d53f 4ef1 b83e
00000130: 5913 6dbf d70e d93d 7c41 fcbe 4dee 5f3f
00000140: 564f d13e dd85 153f 8ceb 78bd c5fa 0540
00000150: b2be 01c0 e27f c9be e327 c2be f798 7a3d
00000160: a87d f1bc 0a56 8b3e 7035 6abe 8a5b ffbd
00000170: e146 a8be b18e 99bf 74b4 ef3d 6f2f 8c3f
00000180: 0f2b 66bf 0db9 3ebf d507 50bf b21d 023f
00000190: eaa4 4dbe 3cf0 cebe 0257 efbe 1d80 443e
000001a0: 8914 2a3f 9304 bcbe 9c1c 633f 91dd fa3e
000001b0: 1859 4abe f182 993e 7b86 dc3e 7d1d f73d
000001c0: e38f 53be e34c 1e3e 06c9 53be d05a 213f
000001d0: 2555 94bf 0e8e 8f3e 24aa be3e d0f9 dbbd
000001e0: 3062 83bd 097b 233f 89a7 f23e a3f6 703f
000001f0: f290 e7be ebee 303e f60c 1abf 85b1 3bbf
00000200: 39db 23be 4c91 2241 244b e440 6b20 1841
00000210: 823b 3741 fb22 f63f 9962 b13f 9403 49bf
00000220: 02dc b840 48f1 2141 6d66 3741 316a 3b40
00000230: 2e67 553f 2f57 d940 79af 1341 e9da c03f
00000240: 3047 6940 9069 1240 5bcc cec0 64c4 f740
00000250: 08fa 2540 60af 9640 f767 ec40 62e4 2941
00000260: 1f9a 5440 0b80 0841 2035 3041 f797 6040
00000270: f034 0840 01b9 f43f 34d8 3c41 0214 1541
00000280: 5700 c33e 4357 18be 1510 7a3f 73d9 213f
00000290: 0561 303f ac45 80bd 4361 3fbf 3d43 833e
000002a0: 147e 0dbf a779 413f 29d6 413e ec01 213f
000002b0: 5848 8c3e 3d29 1ebe da2a e4be a7ac e1bf
000002c0: 2829 673d 8dfa 1fbf fd32 ecbd e4bd 103f
000002d0: ac26 f23e 89bd 013f 1881 103f c99e d33d
000002e0: 775b 90bb 9be0 61bd 0164 95bb 7c44 92bd
000002f0: 02fd 4c3f 518a a23f 2a71 df3e def1 203f
00000300: cf4a 233e b094 9d3f a539 06bf 2318 543f
00000310: ad3d 853f a72d 093f f40c 743e 1172 5c3e
00000320: d1f8 20bd b0b5 823f 04ea 8abe 708d 9abe
00000330: db89 823e 8e53 b43d 14da 14bf 83c8 a33e
00000340: 83d0 72bf d273 17bd cdaa 18bf 68a0 883f
00000350: 2e79 3ebf 25dd 1b3f 23fe ab3d 5ea8 b9be
00000360: 9b25 6fbe e3de 4a3e 702b 34be 7195 b13f
00000370: 4eae 85be 6c28 0d3e 26e9 683d ac11 a4bd
00000380: 5443 d7bd 6076 c5bf d889 e13d 9c41 b5be
00000390: 729b 2dbd 31bf 8fbc 21d1 57be 0aef e1be
000003a0: 97be 283f c045 9f3e 6ba4 0abf bfbf 773f
000003b0: 24fe f93d 2ef4 173e ad9c 5cbe 3997 473e
000003c0: 2255 993c 5c29 a53e 90c9 dc3d 7158 9a3f
000003d0: 8f9b 8bbd 0536 f83d 587e 613e 37bc 0f3f
000003e0: e615 773e 023a fe3e 45d5 14bf 96d3 653e
000003f0: 06a1 a83e 7252 a73e 97de da3e a816 693f

critic.4.bias f4 [32]
3.6218762 0.54717773 0.44401595 2.6792572 -13.979306 1.5864314 2.870766 3.1554399
0.9370965 0.80028975 3.5100527 -1.0624664 3.9068854 3.298065 2.979654 5.0888205
3.4251502 3.8975391 0.00043219372 4.0022936 1.5991478 0.15456031 2.5159032 2.0508103
1.7092236 4.2667656 4.872203 0.29273808 3.7801232 2.5254097 0.47050306 5.226158
00000000: d2cc 6740 d713 0c3f 0f56 e33e f378 2b40
00000010: 3dab 5fc1 2f10 cb3f a1ba 3740 baf2 4940
00000020: 8ee5 6f3f cadf 4c3f b4a4 6040 e6fe 87bf
00000030: 690a 7a40 7f13 5340 a7b2 3e40 9ed7 a240
00000040: a935 5b40 4871 7940 0f98 e239 ca12 8040
00000050: e0b0 cc3f 0f45 1e3e 8f04 2140 7a40 0340
00000060: d7c7 da3f 5889 8840 16e9 9b40 c4e1 953e
00000070: 8aed 7140 50a0 2140 c7e5 f03e b03c a740

critic.6.weight f4 [1, 32]
0.07613754 -0.16017231 0.019215563 -0.012299765 0.4856759 0.15085171 -0.045606744 -0.014665551
0.015454137 0.008165863 0.024131153 -0.28828445 0.14650594 0.103925735 0.01858918 0.2070401
0.04804445 0.013214119 -0.18337035 0.16203822 0.02778309 0.13380872 0.015494395 -0.017053086
0.013422072 0.14017458 0.06821837 0.011210862 0.049046848 0.018385906 -0.007726118 0.04407015
00000000: 00ee 9b3d 3604 24be f569 9d3c f484 49bc
00000010: 83aa f83e df78 1a3e 23ce 3abd c747 70bc
00000020: 5933 7d3c 1dca 053c b2ae c53c 059a 93be
00000030: a705 163e 04d7 d43d 5648 983c 5202 543e
00000040: 42ca 443d 0880 583c 70c5 3bbe 59ed 253e
00000050: 5d99 e33c 2705 093e 34dc 7d3c eab2 8bbc
00000060: 40e8 5b3c ed89 0f3e 13b6 8b3d c3ad 373c
00000070: 59e5 483d 0a9e 963c 602b fdbb e782 343d
