models/tetris_ppo_final_20251025_112352.pth/model.ckpt-1.pth (torch, 70113 bytes, 15 tensors)

actor.0.weight f4 [32, 180]
000000 ac 06 37 3e ff ce a8 3e 92 93 37 3d fc 47 11 bf
       0.17873639 0.32970425 0.04481847 -0.56750464
000010 4d 4d 16 be 45 2f 44 3e e1 d9 1c be b5 3c d1 bd
       -0.14677925 0.19158657 -0.15317489 -0.10216657
000020 d1 01 81 bd 2c 72 44 3e 2f f7 04 3e fb 64 b4 3e
       -0.062991746 0.19184178 0.12984918 0.35233292
000030 33 e1 01 be 63 cf 22 be ee ca 50 be 30 ed 41 be
       -0.12683563 -0.15899424 -0.20389912 -0.18938136
000040 34 33 0c bc ea a0 9b bd 81 da 92 3c 6c 07 7a 3e
       -0.00855713 -0.07599051 0.017926456 0.24416894
000050 07 06 84 3c 59 a6 cf 3d 12 ab 36 be 31 7c d6 bb
       0.016116155 0.1013915 -0.17838696 -0.0065455665
000060 3f 83 d2 3c 8c 37 68 3e 9d 3d 0e be 49 54 23 bd
       0.025697349 0.2267744 -0.13890691 -0.039875302
000070 71 24 a7 bd 82 67 27 3d c3 e3 b9 3d 69 82 53 3e
       -0.081612475 0.040870197 0.09076645 0.20655216
000080 c1 2f ad bd f6 09 80 be e3 f6 a0 3d a9 c2 93 bd
       -0.08456374 -0.250076 0.0785959 -0.07214863
000090 f7 54 5b be cb a2 45 bb 12 25 b2 bd 11 ac 4b bd
       -0.2141913 -0.0030156847 -0.08698477 -0.049724642
0000a0 11 1b 3a be b5 69 64 3d 5a 96 99 3d 49 04 fd 3d
       -0.18174388 0.055764873 0.074993804 0.12354333
0000b0 80 cd 50 3d be 44 b6 3d 01 2a 5e bd 34 27 04 3e
       0.05097723 0.0889983 -0.054239277 0.1290558
0000c0 dd e6 be bd 77 9f 1e 3e 1f 4f a2 3c bd f1 94 3c
       -0.093213774 0.15490519 0.019813119 0.018181676
0000d0 9c c0 99 bc 78 ad 93 bd 5e 05 39 b9 35 84 c8 bc
       -0.018768601 -0.07210821 -0.00017644974 -0.024477104
0000e0 86 3d 74 bd 7e 64 d5 3d 73 c6 6f 3c a3 11 d5 3d
       -0.059628986 0.10419558 0.014634716 0.104037546
0000f0 60 99 d3 3b 26 d3 8e 3d f2 25 0f 3e 03 f3 d5 bd
       0.0064574927 0.06973867 0.13979319 -0.104467414
000100 7c e4 15 be 8d 48 d8 bd 0c c8 e0 bd b3 cc 89 be
       -0.14637941 -0.10560713 -0.10975656 -0.26913986
000110 38 b5 65 bd 7f 6a 62 bc a5 6c a4 bd 63 9f 00 3d
       -0.056081027 -0.013819336 -0.08028535 0.031402003
000120 c9 35 c3 bd ba e7 c7 3d 5b 03 f8 3a e0 7c e2 bc
       -0.09531743 0.09760995 0.0018921898 -0.027647436
000130 ee 6b 4e be dd a7 9e be 0f 8f f0 3d ec 36 e7 bc
       -0.2015836 -0.30987445 0.11746036 -0.028224431
000140 8c dd ea bd 74 6e c1 3b 4f 9d 83 bd 8b a8 40 be
       -0.11468038 0.0059030596 -0.064264886 -0.18814294
000150 7b d1 20 be 78 0b 4c 3d 69 e5 72 be c4 76 9d be
       -0.1570491 0.049815625 -0.23720326 -0.30754673
000160 4b e2 54 bd 89 ed d6 3d 40 11 1f 3e a9 6d 1d 3b
       -0.051973622 0.10494525 0.15533924 0.0024021661
000170 fe 30 7b 3d d4 72 b4 3d e2 de c3 bd 45 1c 0f 3e
       0.06132602 0.08810964 -0.09563996 0.13975628
000180 62 97 4b 3d 8c 96 91 3d 46 1f a5 bc 7d d5 2a 3d
       0.049704917 0.07108793 -0.020156514 0.041707505
000190 3b 34 da bd 09 e5 7c bd ab 1c 3d 3d fd 28 89 3e
       -0.106544934 -0.061741862 0.046169918 0.26789084
0001a0 c6 02 21 bc 33 e8 11 bd 30 39 a0 3e 14 9f cc bd
       -0.009827321 -0.035621833 0.3129363 -0.09991279
0001b0 10 a8 7b bd 98 58 bc bd 97 f4 d2 3d f3 ab 30 be
       -0.061439574 -0.091965854 0.10300558 -0.17253093
0001c0 3f 0b b4 3d 3e 05 1b bd a2 c2 5e 3e 65 c6 4d 3e
       0.087912075 -0.037846796 0.21753934 0.20095213
0001d0 c6 e3 20 bd e7 da 17 3d 42 2d a9 3b f5 09 2a 3e
       -0.03927972 0.037073996 0.005162866 0.16605361
0001e0 04 0f bd be 08 ae 9f 3c a2 5b 8d ba 08 b8 6f be
       -0.3692552 0.019492164 -0.0010784755 -0.23410046
0001f0 ab d8 2b 3e 85 a1 cf 3c 32 72 b0 bc 2e b0 f6 3d
       0.16781871 0.025345573 -0.021538828 0.12045322
000200 25 5b ad bd 62 17 2c 3e 3e 4d 14 be 30 e3 13 3e
       -0.0846465 0.16805795 -0.1448259 0.14442134
000210 cf c7 40 be fe a9 a0 bd 36 33 1a 3e 3b ad e3 3e
       -0.18826221 -0.078449234 0.15058598 0.44468102
000220 d1 d1 97 3e db ed 5e 3e eb 81 5d bd 97 4f a2 3c
       0.29652265 0.21770422 -0.054078978 0.019813342
000230 2c 55 63 3b 9b 62 3a be f6 40 99 bd e0 6a 94 3e
       0.0034688218 -0.18201678 -0.074830934 0.2898779
000240 39 82 84 3e d6 27 00 3d 47 0b a8 3c a3 67 18 be
       0.25880602 0.03128799 0.02051319 -0.14883284
000250 18 c4 a5 bd 62 58 fa bd 81 c7 df 3b cf 6e 1d be
       -0.080940425 -0.12223889 0.0068292026 -0.15374301
000260 87 8c a0 be 5b 73 bf 3d 2e a2 18 3e 0d db 95 3d
       -0.31357214 0.09348174 0.14905617 0.07317171
000270 c2 07 d0 3d b9 81 de 3d a9 de f8 3d c8 88 85 3d
       0.1015773 0.108645864 0.12151844 0.065202296
000280 df 35 36 be 41 b0 8c 3e 00 dc ab 3d b4 0a a7 3d
       -0.17793988 0.2747822 0.08391571 0.08156338
000290 cc c6 6a bd a2 28 b7 3b 2d 7d 4f be 91 16 27 3c
       -0.057318494 0.0055895606 -0.20262595 0.010198251
0002a0 c0 68 27 3e df 8c ad 3d 9a 56 67 3e dc b7 54 be
       0.16348553 0.08474135 0.2259163 -0.20773262
0002b0 1e d4 59 3d 1e ba 89 be 2b 2a c4 3b 9e 99 89 3e
       0.053180806 -0.2689981 0.005986472 0.26875013
0002c0 ee df 9c 3d 66 f8 02 3e b0 a6 27 be f4 0d e2 bd
       0.07659899 0.12790069 -0.1637218 -0.110378176
0002d0 03 25 64 be f7 31 79 be 6f a6 0d 3e 12 82 13 be
       -0.22279744 -0.24335466 0.1383302 -0.14405087
0002e0 11 67 0d be 82 35 28 bd 0e 6e ed 3d 8f 76 d0 3b
       -0.13808848 -0.041066654 0.11593257 0.0063617895
0002f0 96 2f 76 3d 7c 48 59 be 54 20 22 be 9c bd e0 bd
       0.060103975 -0.21219057 -0.15832645 -0.10973665
000300 57 64 89 bc 3b 02 d8 bd 51 bd 31 3e 69 d2 17 3e
       -0.016771479 -0.105473004 0.17357375 0.14826359
000310 e8 b8 3d 3e d7 f9 7a 3e b2 28 14 be fb b8 33 be
       0.18527567 0.24509369 -0.14468649 -0.17551033
000320 57 01 0d 3d 84 46 99 ba d3 9f da 3d f5 6a 7b bb
       0.034425106 -0.0011693989 0.10675015 -0.0038363312
000330 bc 06 36 be 95 bd 55 3e f4 43 b2 bd 5e e1 8f bd
       -0.17776006 0.20873101 -0.08704367 -0.07025407
000340 c3 0f 06 be b6 48 80 3d 70 f8 fd 3d 44 db 24 3e
       -0.1309195 0.062638685 0.12400901 0.16099268
000350 5b c5 97 3c 85 6c d6 3c ab e9 45 be 2a d2 f2 bd
       0.018526724 0.026174793 -0.19327419 -0.11856492
000360 ca eb e6 bd 82 b1 1a be ba 31 29 bc 6d 9e 69 3d
       -0.11275442 -0.15106776 -0.010326797 0.057035852
000370 68 c3 4d be fd 47 84 be a2 e8 05 be cc 25 38 3d
       -0.20094073 -0.25836173 -0.13077024 0.04495792
000380 61 f4 2a be 96 bd 74 be 1b 91 1e bd 48 90 3e be
       -0.16694786 -0.23900446 -0.038712602 -0.18609726
000390 0b 36 32 3d ec 8f c8 bc ed 7b 25 3d 76 91 4c bd
       0.04350857 -0.02448269 0.040401388 -0.04994341
0003a0 b2 e5 e8 3d 64 27 7a 3c 57 28 b8 3d f1 e8 a6 3d
       0.11371936 0.0152681805 0.08992069 0.08149899
0003b0 08 e1 b8 bd 28 52 de bd d3 06 a4 3d ca 7a 1d 3e
       -0.09027296 -0.10855514 0.08009114 0.15378872
0003c0 66 18 81 3d a7 52 f3 bc eb 76 a9 bd 2e d3 5c 3d
       0.06303482 -0.029702498 -0.08274635 0.053912334
0003d0 ad 70 07 be 08 1d 0c be 70 b0 ef 3d 08 35 0a 3e
       -0.13226576 -0.1368295 0.11703575 0.13496792
0003e0 7c 71 8c bd e4 f7 20 bd 39 01 21 3c b2 62 43 3e
       -0.06857583 -0.039298907 0.009826952 0.19080618
0003f0 1c bb bf 3d 2e 11 88 3d 42 fa 89 3d 46 09 7d 3e
       0.0936186 0.06643902 0.06737186 0.24710569

actor.0.bias f4 [32]
000000 58 74 99 3d 5f fb 08 3e af b4 55 3c 8b 48 ad 3c
       0.07492894 0.1337714 0.013043567 0.021152755
000010 b2 82 41 bd f2 3b 83 3d 0c c9 d5 3d bc 0e d8 3d
       -0.04724378 0.06407918 0.10438737 0.10549685
000020 e1 76 89 3d 32 63 ab bd 66 b1 a2 3d 50 5d 58 bd
       0.067121275 -0.083685294 0.07943992 -0.052823365
000030 19 10 fc 3d 0b ae c4 3d 86 70 33 bc 48 d5 da 3d
       0.12307758 0.096035086 -0.010952121 0.106852114
000040 ca 30 13 3e 1a c9 0d bc c3 6e 4c 3a ba b0 ee bc
       0.1437408 -0.008653903 0.0007798487 -0.029137004
000050 ed 22 95 3d 50 e8 19 bd 68 2a 16 3e 8c c1 a8 bd
       0.07282052 -0.037575066 0.14664614 -0.08240041
000060 b2 c9 0b 3e 50 a8 29 3d ae 9b 95 bd 88 26 83 3c
       0.1365116 0.04142028 -0.07305084 0.016009584
000070 45 fb ab bd db df 18 3e bf e7 de bd 57 bd 23 bd
       -0.08397535 0.14929144 -0.10884046 -0.03997549

actor.2.weight f4 [32, 32]
000000 42 96 7d be a2 5d a5 3e c7 6c e2 bc 0e 44 1a bd
       -0.2476435 0.32298 -0.02763976 -0.03766256
000010 85 1a 06 3e 09 14 a5 be 91 1b 89 3d c9 f8 3d 3e
       0.13096054 -0.32241848 0.06694711 0.18551935
000020 27 46 93 3d 1d af 31 3e c2 8d dd 3d a7 f1 8f 3d
       0.07191115 0.17351957 0.10818054 0.070285134
000030 c9 4f 8a be 85 cd 81 be e0 21 8c be 69 d3 17 be
       -0.27013996 -0.2535211 -0.27369595 -0.1482674
000040 00 ac a1 be 8e 62 3a be 44 5f 13 be e6 1c 2f bc
       -0.31576538 -0.18201658 -0.1439181 -0.010688042
000050 f9 6d ed be fd ef 79 bc 74 97 9b be 10 4f 12 3e
       -0.46372965 -0.015254972 -0.30388987 0.14287972
000060 8f 38 63 3e 9f 59 a5 3d 27 78 15 be 9f c5 8f 3d
       0.22189544 0.080737345 -0.14596616 0.07020115
000070 2f dc b2 bc 1e 46 6c bd 77 eb c3 3d db 1e 1f 3e
       -0.021833507 -0.057684056 0.09566396 0.15539114
000080 3a 66 2e 3e 88 f2 a5 3e f6 4d b9 3e 62 f2 03 be
       0.17031184 0.324116 0.36192292 -0.1288543
000090 a3 fe 9d 3d ab 92 80 be 5c 13 98 3d a6 6e 00 be
       0.07714584 -0.251119 0.074255675 -0.12542209
0000a0 08 f6 59 be 24 8d e9 3d 25 35 7d 3e ff ff 93 be
       -0.2128526 0.114038736 0.24727304 -0.28906247
0000b0 e9 81 ce bc 90 0f 9a 3e d6 be 8f 3e be d1 dc b8
       -0.02520843 0.30089998 0.28075284 -0.00010529485
0000c0 b7 28 d7 be 82 ea 9a 3e 9c f0 67 be 8c f4 55 3d
       -0.4202325 0.3025704 -0.22650379 0.05223517
0000d0 46 89 5b be 37 b0 81 3d ed 7f ff 3d 2f 95 e9 3d
       -0.21439084 0.063324384 0.12475572 0.11405408
0000e0 3f 99 55 be 22 83 57 be dd f1 86 3e 2f 8d 5b 3d
       -0.2085924 -0.21046117 0.26356402 0.05360144
0000f0 12 9f 5d be 0c 86 a3 3e a5 a7 24 bd d7 43 eb 3e
       -0.21642712 0.31938207 -0.04019894 0.45950195
000100 87 34 07 be 19 1d 9d be ea 32 27 be a4 c1 fa 3c
       -0.13203631 -0.30686262 -0.16328016 0.030609913
000110 e4 ea d8 3d f6 3f c1 3e f3 f8 8e 3d b7 6b 2a be
       0.10591677 0.3774411 0.06981077 -0.16642652
000120 32 6d c1 ba 32 af 46 be f9 bc 45 be 3f 59 17 3e
       -0.0014757274 -0.19402769 -0.19310369 0.14780138
000130 72 38 96 3d bb a6 cf be a7 72 0c be b3 09 1e be
       0.07334985 -0.40556893 -0.13715611 -0.15433387
000140 05 69 81 be 72 80 5a 3e 3e f5 b0 bd a5 01 4a 3d
       -0.25275436 0.2133806 -0.08640526 0.049317975
000150 be 45 09 be 97 52 54 be 0e 82 2e be 66 1a 9c be
       -0.13405511 -0.2073463 -0.170418 -0.3048889
000160 4a d3 2e be 4f 74 9f bd 91 e5 93 bd 87 20 78 be
       -0.17072788 -0.07785856 -0.07221521 -0.24231158
000170 2d c1 db 3d d0 35 46 be 19 28 a7 be 55 88 31 3e
       0.10730205 -0.19356465 -0.3264778 0.17337163
000180 43 33 5c be 98 f4 80 3d dc 55 bb be f1 a3 d2 3d
       -0.2150393 0.062966526 -0.36588943 0.102851756
000190 02 d6 e9 bd 2f fa 9c 3d 3e 0b d5 3d 90 48 8a 3e
       -0.11417772 0.07664906 0.10402535 0.27008486
0001a0 43 78 44 3c be 63 a1 3e ec 02 02 bd 7b 6a 1c 3e
       0.011991563 0.3152141 -0.031741068 0.15274994
0001b0 ab 99 58 3e 56 14 05 be aa 63 e1 bd 6d 40 04 3d
       0.2115237 -0.12996039 -0.110053375 0.032288004
0001c0 bb 7c d2 3e 89 84 76 be 43 48 26 be 49 d1 d8 3e
       0.41110787 -0.24073996 -0.16238503 0.42347172
0001d0 4f 52 85 3d 12 57 29 3d 00 1a 82 be 28 b7 72 be
       0.0650984 0.041342802 -0.2541046 -0.23702681
0001e0 fc 19 a1 3e d9 7d 04 3e 5f 1f 11 3e 6c 8c 9a be
       0.31465137 0.12938632 0.14172123 -0.30185258
0001f0 82 71 43 3e d4 44 d8 3e 71 fe 80 3e c7 c6 8e 3e
       0.19086269 0.42240012 0.25194123 0.2788603
000200 cd a3 97 3e 15 c1 e4 3e ce 66 fa be 1e 74 94 3e
       0.29617158 0.4467856 -0.4890656 0.2899484
000210 35 49 fe bd a5 bd 8f 3c d6 5e ac be 34 f9 b5 3e
       -0.12416307 0.017546484 -0.33666104 0.3554169
000220 73 18 c0 3e 6e dd ef 3d 5d 38 a1 3e 12 35 ca 3e
       0.37518653 0.11712156 0.31488314 0.39493614
000230 86 b7 02 3f b1 7e 97 be 7f 06 d7 bd 19 f8 db 3e
       0.51061285 -0.29588845 -0.10499286 0.4296272
000240 f2 79 ef 3e dc 93 9b bc 52 ee fc bd bc cb 43 3d
       0.46772724 -0.018991403 -0.123501435 0.047801718
000250 9a e7 2e bd 5c 95 56 3d d8 84 1c 3e f9 76 b5 be
       -0.04270134 0.052388534 0.15285051 -0.3544233
000260 db 19 b2 3e d0 48 49 3e db 81 a4 bc 03 c7 f6 be
       0.3478535 0.19656682 -0.020081451 -0.4819871
000270 05 9f ad 3e db 1d 0a 3e 93 16 d4 be d1 d6 94 3e
       0.33910385 0.13487951 -0.41423473 0.29070142
000280 d0 16 86 be 71 5a c2 bd ad 15 3c be e4 c6 86 3e
       -0.2618928 -0.094899066 -0.18367644 0.26323617
000290 b3 3a 28 be a7 ea 08 3e 70 60 8b be ae c7 b3 bd
       -0.16428642 0.13370763 -0.27222013 -0.0877832
0002a0 ab 4d 81 3e 9f e0 e9 3d 33 80 a9 3d fc 12 72 be
       0.25254568 0.11419796 0.08276405 -0.23640054
0002b0 0a 6e d9 3c cf 92 6f bc ee 1c 18 be 4e 6c 80 be
       0.026541729 -0.014622404 -0.14854786 -0.2508263
0002c0 eb 3a 7e be d4 dd b9 be 06 5f dc be c8 9e 75 be
       -0.24827163 -0.36302054 -0.43041247 -0.23986351
0002d0 c3 09 9f 3e ee 26 6e be 49 72 d8 bc b4 05 9d 3d
       0.31062135 -0.23257038 -0.026421683 0.076671034
0002e0 d5 6a 2d bd de ed 89 3d 12 bc 8f 3d 3c f8 7d 3e
       -0.04233821 0.06734823 0.070182934 0.24801725
0002f0 30 77 2f 3e 9e 57 fc 3d 93 fc f2 bd 05 5c 50 be
       0.1713531 0.12321399 -0.11864581 -0.20347603
000300 6c fc aa be 00 86 08 3d 91 73 ff be 73 89 c3 3d
       -0.33395708 0.033330917 -0.49892858 0.09547701
000310 35 4b 80 bd 79 a1 e3 3c 8f d9 fc be fe 98 81 be
       -0.062643446 0.027786957 -0.49384734 -0.25312036
000320 f2 78 8e 3d 70 11 65 be e9 4e a2 3e 73 c6 94 bc
       0.06956662 -0.22369933 0.3170083 -0.018161034
000330 8b 1d ae 3e 91 84 89 3d eb 94 c8 be 8e e9 87 3d
       0.34006914 0.06714738 -0.39176115 0.06636344
000340 59 0b 2d 3e 9c 0c 09 bd 54 51 e9 be c2 74 ab be
       0.1689886 -0.03345929 -0.4556986 -0.33487517
000350 67 00 56 3e 52 e9 75 be 3c 75 49 be d4 2a 38 3e
       0.20898591 -0.24014786 -0.19673628 0.17985088
000360 2e 9c 81 3e d7 95 c6 3e 3e c3 e1 bd c7 ef 3b 3e
       0.25314468 0.38786194 -0.110235676 0.18353187
000370 f3 1b 6b be 16 c9 b7 3e eb 5d 27 be 63 a2 53 bc
       -0.2295988 0.35895604 -0.1634442 -0.012917134
000380 56 79 18 be 86 d1 23 be 47 5b d0 bd 0e aa 85 be
       -0.14890036 -0.15997896 -0.1017366 -0.26106304
000390 7f 86 a9 3e 42 6a 02 3e 46 95 5f 3e 1e a7 50 3e
       0.33110425 0.12735847 0.21834287 0.2037625
0003a0 f3 7e b0 bd ec 95 56 be 70 5f 1c 3e 56 2d a9 be
       -0.08617964 -0.20955628 0.15270782 -0.330424
0003b0 2d ff a3 3e a1 6f e3 bd 33 62 8c 3c 97 d2 2b be
       0.3203062 -0.11105276 0.017136669 -0.16779552
0003c0 96 08 3d 3e 8e 03 d8 3d 5b 3c af be 6d f4 5f 3e
       0.18460307 0.10547553 -0.34225735 0.21870585
0003d0 aa 18 f8 3d 78 80 85 be 46 45 67 bc b2 5d 3c 3e
       0.12114079 -0.26074576 -0.014115637 0.18395117
0003e0 a7 43 b4 3e 90 af 49 be a2 b8 79 3e 39 1a f6 bd
       0.35207865 -0.19695878 0.24386838 -0.1201672
0003f0 b0 74 8d be db d4 8a 3e a5 08 2b be 4f 97 df 3d
       -0.27628088 0.2711552 -0.16702516 0.10917532

actor.2.bias f4 [32]
000000 a7 f1 1e be a1 6d bc 3c f8 b0 be bd 1d 75 a6 3d
       -0.1552187 0.023001494 -0.09311098 0.08127806
000010 a5 08 cf 3d b2 f1 1e bd 3a 37 53 3c 6d 7b d5 3d
       0.10109071 -0.038804717 0.012891585 0.10423932
000020 9c 08 0e 3e 28 84 7f 3d 32 b6 44 3d 2e 35 32 3d
       0.13870472 0.062381893 0.048025317 0.043507747
000030 f6 d2 e9 3d 48 bd 02 3d 63 fc dd 3d 0a ef 2f 3e
       0.11417191 0.031918794 0.108391546 0.1718103
000040 27 ea 07 3d f3 b1 a8 3d b4 f3 1c bd 7f 7a 7d 3d
       0.03318229 0.08237066 -0.03831835 0.0618844
000050 1c fa 0a 3d 46 bf 03 3e e3 ee 48 3e d7 bb ba bc
       0.03392993 0.12865934 0.19622378 -0.022794647
000060 08 82 d1 3d d2 60 d2 3d c4 91 41 3d 62 1d 7b 3d
       0.102298796 0.10272373 0.047258154 0.06130732
000070 77 8d ce bd 52 52 9d 3c c9 67 b3 3d 51 cc 1e 3d
       -0.10085576 0.019204292 0.0876003 0.03876907

actor.4.weight f4 [32, 32]
000000 43 52 a8 bd d5 b4 b9 bd cf 63 c8 3e 6b 33 82 be
       -0.08218815 -0.09067694 0.39138648 -0.25429854
000010 88 aa 17 3e 47 53 fa 3d 8c 62 22 3e ab 65 b9 3e
       0.14811146 0.12222915 0.15857905 0.3621038
000020 fc 0f b9 3e 33 5f 28 ba 98 f7 7c 3e 9c bd f4 3d
       0.36145008 -0.0006422877 0.24703825 0.119502276
000030 f2 9e b2 3d d3 1a b0 3e e3 6c fe bd 63 e4 be bc
       0.08721723 0.34395465 -0.12423112 -0.023302263
000040 6c 6e a1 3e 63 c3 95 3e b8 b0 b2 3e 4f 46 44 bd
       0.31529558 0.2925063 0.3490045 -0.047918614
000050 7a 2f 82 bd e3 c1 aa bd 42 d4 bc 3e c0 24 3e 3d
       -0.06356712 -0.08337762 0.3688069 0.046421766
000060 e2 75 9b 3c 1c 45 28 3e 6d 6a 3a be dd b2 92 3e
       0.01897711 0.16432613 -0.1820466 0.28652087
000070 e9 08 86 be 19 3c be bd 51 7d 84 3e 91 8f 4c 3e
       -0.26178673 -0.092888065 0.2587686 0.19976641
000080 b7 52 60 be b6 02 10 3e 8b 3c fc bd 05 c0 00 3c
       -0.21906553 0.14063534 -0.12316235 0.007858281
000090 b9 63 8a 3e b9 dd 2e bd ca 66 3a bd 77 47 b2 be
       0.27029207 -0.04269192 -0.045508184 -0.34820148
0000a0 06 28 e1 3c 9f 43 6e 3e 93 7b 7c be a8 71 3c be
       0.027484905 0.23267983 -0.24656515 -0.18402731
0000b0 d6 8f 42 be 3e 32 de 3d b2 07 a1 3e ab 98 a8 be
       -0.19000182 0.10849427 0.31451184 -0.32928976
0000c0 12 e6 7e 3e 08 ec ae 3e da e4 8e 3e 56 a6 46 be
       0.24892452 0.34164453 0.27908975 -0.1939939
0000d0 c0 58 4e 3d 97 bf 90 3c d5 6b e3 bc 4a 6e 1f be
       0.050377607 0.017669482 -0.02776138 -0.15569416
0000e0 1c dc 81 bd 67 39 6a be 3a f2 5f be 94 1f 0d be
       -0.06340811 -0.2287346 -0.21869746 -0.13781577
0000f0 89 85 b2 bd 73 2c 35 be b1 c0 87 be c4 a4 36 bd
       -0.08716876 -0.17692737 -0.265142 -0.044590726
000100 0a d0 42 3d 34 37 77 bd 1d ce 81 bd 21 ad ac bd
       0.047561683 -0.06035538 -0.06338141 -0.08431459
000110 a5 f1 c9 3c 8f 28 df bd 3c b0 87 3e a0 cf 4d 3e
       0.024651358 -0.10896408 0.26501644 0.20098734
000120 68 de 1c 3e 30 48 6c be c1 9b 1c 3e 8a 47 a3 3d
       0.15319216 -0.23074412 0.1529379 0.07972629
000130 a7 1f e5 bd 33 9a 86 3e 03 4f e1 bb d0 40 42 3e
       -0.11187678 0.2628952 -0.006875874 0.18970037
000140 95 41 66 3e ef e2 7c 3e 75 12 6f 3e 18 45 24 3e
       0.22485955 0.24695943 0.23346885 0.16041982
000150 16 40 93 be 0a 9b 2b 3e 0a 53 8a 3e 89 78 a7 3d
       -0.2875983 0.16758361 0.2701648 0.08177287
000160 2f f5 18 be 0d 44 b9 bd 2b 72 40 be 06 2c 63 3e
       -0.1493728 -0.09046183 -0.18793552 0.22184762
000170 e8 11 2c be 52 35 7f 3e ab 48 29 be 8d 27 e6 3d
       -0.16803706 0.24922684 -0.16531627 0.112380125
000180 3e 05 66 bd da 9c 8e 3e 3b 29 84 3c 86 97 e6 3c
       -0.056157343 0.27854043 0.016132941 0.028148424
000190 7e dc 23 be 0d ae 57 be 20 22 c0 be e3 f1 7b 3d
       -0.1600208 -0.21062489 -0.37526035 0.061509978
0001a0 a0 ac 4b 3e 8d 93 8c be 53 27 83 3d a7 2d 8e 3e
       0.1989007 -0.27456322 0.06403985 0.27769205
0001b0 10 df 2c 3e ea 4f cc 3d ca 4c 7c bd 28 c3 b0 bd
       0.16881967 0.0997618 -0.06159667 -0.08630973
0001c0 41 a1 47 bd 76 41 ea bd b6 1e be 3d ce d6 50 3e
       -0.048737768 -0.11438267 0.092832014 0.20394441
0001d0 02 b5 23 be 5d e7 f2 3e 41 40 08 be 01 30 d5 bd
       -0.15987018 0.4744214 -0.13305761 -0.10409547
0001e0 69 1f a0 3d b5 11 b5 3e 33 1d dc bd 14 d1 20 bf
       0.07818491 0.35365072 -0.10747757 -0.6281903
0001f0 60 0a 89 3e 97 80 b9 bd 17 a6 64 be a1 31 82 3d
       0.26765728 -0.0905773 -0.22328983 0.06357122
000200 f0 6f da bd 3f f0 d6 3e 06 e4 81 bd 80 a9 97 bd
       -0.10665882 0.41980168 -0.0634232 -0.074053764
000210 49 35 25 be 8a bd 9d be f4 e8 be bd cb 7b b5 3d
       -0.16133608 -0.3080867 -0.09321776 0.08861502
000220 ae 3c 84 3e a5 be 73 3e f2 1e 18 3e 06 af e8 bd
       0.25827545 0.23803194 0.14855555 -0.11361508
000230 53 b1 8c 3d a8 0d 5f 3e 81 80 8e 3e 0c 22 fa be
       0.068697594 0.21782553 0.27832416 -0.488541
000240 6f 74 71 bd 98 a1 c8 bd 25 09 c6 3e 69 9e 55 be
       -0.05894893 -0.097964466 0.38678852 -0.2086121
000250 5d 8e 0a 3e 3d d9 d8 bd a0 19 48 bc dc 98 74 3e
       0.1353087 -0.1058831 -0.012213141 0.23886436
000260 50 79 01 3d b9 ea d8 3e 3b bb ec 3d ba 9c ad bc
       0.031609833 0.4236658 0.11559149 -0.021192897
000270 ca 34 eb bd 3d 8a 7a be 67 d9 1e bd 03 e8 1d be
       -0.11484678 -0.24466796 -0.03878155 -0.15420537
000280 13 64 72 3e 34 89 93 bd ea 50 fb bd 59 c5 25 3e
       0.23670988 -0.07203904 -0.122712925 0.16188563
000290 55 cb ad bd e1 db 10 3e 1b 33 16 be a7 f4 dc bd
       -0.08486048 0.14146377 -0.14667933 -0.10788851
0002a0 53 c3 9b be cf 9d f4 bd c6 27 99 3d 03 81 33 3e
       -0.30422458 -0.11944162 0.07478289 0.17529683
0002b0 b1 3d bf be 41 a1 3f 3e c6 2f 22 3e 84 43 2a be
       -0.37351754 0.18713857 0.15838537 -0.16627318
0002c0 74 de 7f be 89 73 cd 3c dc fc 58 3d d9 1a a6 3e
       -0.24987203 0.025079506 0.05297552 0.32442358
0002d0 25 67 82 be d4 22 0b be 34 6d b2 bd a5 2a 14 be
       -0.25469318 -0.13587505 -0.08712235 -0.14469393
0002e0 49 fc 9c 3d b4 90 1e be 21 6d b7 3d c7 71 86 3e
       0.07665307 -0.15484887 0.089563616 0.2625868
0002f0 54 c1 e9 3d 04 81 a8 bd c3 d9 96 3d fc f5 86 3d
       0.114138275 -0.08227733 0.073657535 0.065898865
000300 7b 6a 5a 3e 50 79 a3 bd da 0e 99 3c 09 76 c9 bd
       0.21329682 -0.07982123 0.01868384 -0.098369665
000310 5a 27 48 3d 88 f2 b6 ba 01 d6 53 be 34 64 0c be
       0.048865654 -0.0013957778 -0.20687105 -0.137101
000320 0a 80 85 bd 68 72 06 3e ba a6 1f 3d 6b cf 07 be
       -0.06518562 0.1312958 0.038977362 -0.13262717
000330 a7 99 2a 3d e5 16 52 bd 9c c9 d7 bc ba 0e 7d 3e
       0.04165044 -0.051291365 -0.026341252 0.24712649
000340 1a f7 74 be 66 57 7d bd 89 dc 3f be ac b0 a3 be
       -0.23922387 -0.061850928 -0.18736471 -0.31970727
000350 b4 4f 0a 3e 79 65 95 be 7f a5 38 3e 14 10 f0 3b
       0.13506967 -0.2917898 0.18031882 0.0073261354
000360 44 7e 3f be e2 04 dc 3d a6 4f 90 bc 61 07 84 be
       -0.1870051 0.10743119 -0.017616104 -0.2578688
000370 5c c1 87 be 9a b6 0d be 9a 1e 04 3e a4 b3 9e be
       -0.2651471 -0.13839188 0.12902299 -0.3099643
000380 eb 83 20 be aa 9e 6d bd e1 1f 1f be 1f cc 8b 3e
       -0.15675323 -0.058012642 -0.15539505 0.2730417
000390 51 d6 b3 3d 12 b7 a1 bc 64 05 f1 3c f0 09 91 3e
       0.08781112 -0.019740615 0.029421516 0.28327894
0003a0 de 45 bd bc 72 e7 f6 bd 97 02 cb 3e 3c b2 30 3e
       -0.023104604 -0.120558634 0.39650413 0.17255491
0003b0 1c c6 c2 bc 47 d0 c8 3b a4 1b 2b be 27 64 33 3c
       -0.023776107 0.006128344 -0.16709763 0.010949171
0003c0 8e 95 a2 3e 71 40 7d 3e 19 a3 15 3e 21 13 b4 3b
       0.31754726 0.24731614 0.14612998 0.0054954444
0003d0 b9 e5 c5 be d0 38 8e 3e 1d 7c 64 3e aa c8 11 3f
       -0.38651827 0.2777772 0.2231297 0.56946814
0003e0 ef 99 87 be 29 20 95 3d 5f f4 d6 bd 33 14 cd 3d
       -0.2648463 0.07281525 -0.10495829 0.10013618
0003f0 9b 66 3c be a0 f4 8c be 6d 31 73 3e 46 42 29 bc
       -0.18398516 -0.27530384 0.23749323 -0.010330742

actor.4.bias f4 [32]
000000 03 06 9c 3d d0 b5 b0 bd d2 60 e0 3d 46 d7 92 3d
       0.07618334 -0.08628428 0.10955967 0.071699664
000010 3a 6d 54 3d 65 2e 9c bd 68 59 e0 bd 6a 9b c5 3d
       0.05186198 -0.076260366 -0.10954553 0.096487835
000020 52 a6 b9 3c 22 a7 9f bd 4c 4a 32 3e 25 2c fa 3d
       0.022662316 -0.0779555 0.17411155 0.12215451
000030 e7 17 cd bd 05 bd 57 3e f4 61 e0 bd 09 f9 08 be
       -0.10014325 0.21068199 -0.10956183 -0.1337625
000040 da 85 d4 3d e0 e7 12 3e c0 ce e4 3d 3c 04 a5 3d
       0.10377093 0.14346266 0.11172247 0.08057448
000050 df de 4e 3d 22 43 01 be e9 60 1b bc a2 f7 64 3d
       0.050505515 -0.12623265 -0.009483554 0.055900224
000060 5a c3 8d 3d 94 6f bd 3b 94 18 1b 3e e8 ad ec 3d
       0.06922026 0.0057811234 0.15146095 0.115566075
000070 00 a7 82 bd 3a 5c 8c bd 90 ea 09 3e 10 b7 1d 3e
       -0.06379509 -0.06853528 0.13468385 0.15401864

actor.6.weight f4 [4, 32]
000000 7d 52 b7 bd 53 69 1f be 0d d2 52 be c2 44 77 3e
       -0.0895128 -0.15567522 -0.2058794 0.24147323
000010 d0 2f dc 3e 35 37 7d be 89 82 33 3e 5f 7a 77 3e
       0.43005228 -0.24728091 0.17530264 0.24167775
000020 3e e2 a8 3e 05 5c 52 3d eb c3 4e bc 6e cc 81 be
       0.3298511 0.051357288 -0.012619953 -0.2535128
000030 fb fb 11 3e e6 bc d8 bd 4f df 74 3e 44 13 1c 3d
       0.14256279 -0.105829045 0.2391331 0.03810431
000040 a0 ba 8e 3e 19 40 bc 3e d7 f0 4b 3d 89 77 9a 3e
       0.2787676 0.36767653 0.04979023 0.30169323
000050 b3 d0 67 3d be 95 bf bd ff b8 41 3e 14 e9 9b be
       0.056595515 -0.09354733 0.18918227 -0.30451262
000060 91 8a 27 3e c6 07 96 3e c5 2b 26 3c 2f f4 9a 3e
       0.16361453 0.29302806 0.010142271 0.30264422
000070 7c 86 c1 3e 68 fd 97 be b2 70 4d bc e0 1e 9e be
       0.37797916 -0.2968552 -0.012539076 -0.3088293
000080 94 15 de bd cb a1 e3 bd 63 43 1e be 43 70 02 bf
       -0.108439595 -0.11114844 -0.15455393 -0.5095255
000090 c1 e9 f3 be 67 50 7a 3e 51 98 35 3e 13 9f a3 3e
       -0.47639278 0.24444734 0.17733885 0.31957301
0000a0 0a df c5 3e 26 64 2c 3e f7 5c 9e 3e d3 6f c2 3d
       0.38646728 0.16835079 0.30930302 0.09493985
0000b0 da c4 99 3e 7c d0 07 3d e2 12 ee bb d7 ab 49 bd
       0.30032998 0.03315781 -0.0072654346 -0.049236145
0000c0 8e 42 01 3f e4 b6 08 bf 08 b6 47 3e 58 2b 1c bf
       0.5049218 -0.5340407 0.19503033 -0.6100364
0000d0 3e 47 fa bd 78 ea bf be ed e7 73 be b7 5f bb 3d
       -0.122206196 -0.37483573 -0.23818941 0.091491155
0000e0 88 80 8b 3c 82 a2 52 be e8 05 49 3e 52 4b 8b 3e
       0.017029062 -0.20569804 0.1963116 0.27205902
0000f0 54 7d 60 be e5 18 d4 ba 39 58 bb 3e 12 a1 c3 3e
       -0.21922809 -0.0016181736 0.36590746 0.38208824
000100 37 fb e5 be 24 8f 85 bc 07 9d e5 be 20 ca 33 3e
       -0.44918224 -0.016303606 -0.44846365 0.17557573
000110 7d 67 34 3e 2b aa f2 3e 72 32 e9 bb f1 b1 ae bd
       0.17617603 0.47395453 -0.0071166093 -0.085300334
000120 0b 7e 5e 3e ff c0 7f 3e 7a 5a 99 3d 4b 32 b9 3e
       0.21727769 0.24975966 0.0748796 0.36171183
000130 a0 d9 b0 3e 32 bf 0a bf 36 bf 81 3e 6e 3e d7 bd
       0.34541035 -0.5419799 0.25341195 -0.105099544
000140 c7 88 1f be 28 ed 39 3e 92 56 f1 be 26 18 a7 3e
       -0.1557952 0.18156874 -0.4713636 0.3263561
000150 c6 a0 b3 3d 05 9b 4c 3e 93 69 b0 3e d7 85 cc 3e
       0.087708995 0.1998101 0.34455547 0.39945862
000160 7d 49 b9 be cf d7 d0 3d 89 dd 07 bf 00 35 70 3c
       -0.3618888 0.10197412 -0.5307241 0.014661074
000170 4e bc 07 bf 71 49 db 3e a1 57 0b bf ba d2 f2 be
       -0.53021705 0.4282947 -0.54430586 -0.47426397
000180 15 cf e1 be c2 e5 4e be b4 f8 ba be e8 77 ce 3e
       -0.44103304 -0.20204833 -0.3651787 0.40325856
000190 75 1c 11 3d 23 2d bc be f4 2f 9b 3e ea 91 6c be
       0.03542753 -0.36753187 0.30310023 -0.23102537
0001a0 cd 5d e6 be 39 96 1a be 29 8d 0e 3f fe 4d e2 3e
       -0.4499344 -0.15096368 0.55684143 0.44200128
0001b0 04 49 7d bd 57 47 01 3f 78 50 1d bd 81 11 7b 3d
       -0.06183721 0.5049948 -0.03840682 0.06129599
0001c0 9a 2a a3 be 9f 08 43 be a6 5e 36 3e d5 19 a5 bd
       -0.3186844 -0.19046257 0.17809543 -0.08061568
0001d0 8a f3 fe be 75 de 9e be 0b 11 2b 3e 3d 0c 52 3e
       -0.4979518 -0.31029096 0.1670572 0.20512481
0001e0 bd a4 bc be 95 b4 7b be 19 0a 81 be 1d 78 1b 3c
       -0.36844435 -0.24580605 -0.25203016 0.009489086
0001f0 69 83 9d 3e 50 69 54 3e df ab 5b 3e d2 e3 95 bc
       0.3076432 0.20743299 0.21452282 -0.01829711

actor.6.bias f4 [4]
000000 a9 77 80 3d e7 b0 bc 3d 8d c0 d3 bd 57 c7 07 bc
       0.06272823 0.09213429 -0.103394605 -0.008287272

critic.0.weight f4 [32, 180]
000000 97 d2 b4 3d a7 aa 37 be 16 e4 86 be 96 3b 60 3d
       0.08829229 -0.17936192 -0.2634589 0.054744326
000010 84 26 b4 3b 93 4d 8f 3d f9 61 5c bd 83 95 6c 3d
       0.0054977555 0.06997218 -0.05380437 0.057759773
000020 15 b1 04 3e 3e ab 61 3e 7b d2 61 be 09 9c 58 3d
       0.12958176 0.2203798 -0.22052948 0.05288318
000030 7c c5 e0 bd 51 64 44 3d 9c 5e 9e bd 34 a9 13 3d
       -0.10975167 0.04794723 -0.07732889 0.036050037
000040 c2 a3 9b 3d a0 52 2b 3d c7 3f 45 bb cd 36 ed bc
       0.07599594 0.041826844 -0.0030097829 -0.028956795
000050 e9 df c0 bd cb c4 6a bd 71 61 92 3d 96 ad 05 be
       -0.094177075 -0.057316583 0.07147492 -0.13054499
000060 23 02 e8 3c f5 aa e9 3d a8 47 2c 3e 58 9a cc bd
       0.028321331 0.114095606 0.1682421 -0.09990376
000070 4d af 96 bd 84 d7 0b be dd 05 12 3e d6 ee cc bd
       -0.07357655 -0.13656431 0.14260049 -0.10006492
000080 a0 4f af bc 8f 69 ec bd a2 d7 41 bb 36 cd 50 3d
       -0.021400273 -0.11543571 -0.002957799 0.050976954
000090 0d 06 67 3d 30 7d ee 3c 74 35 e3 bd 64 7f 3c 3c
       0.056402255 0.029112428 -0.1109418 0.011504982
0000a0 b6 ef 86 3d e8 b5 8a bd a1 8f 36 bd 69 15 0a 3c
       0.0658869 -0.06772977 -0.04457057 0.008427956
0000b0 25 48 82 3d f9 1c 25 bc 4b 26 1f 3d 09 66 46 3b
       0.06361417 -0.010077708 0.03885488 0.003027322
0000c0 db d9 16 be c4 6a ca 3d a1 a5 1d 3b ee a2 40 bd
       -0.14731543 0.09883645 0.0024055021 -0.04703038
0000d0 37 b3 c5 bd bc 3f 33 3e f5 d0 57 3c 0d 72 6d bc
       -0.09653323 0.17504781 0.013172378 -0.014492524
0000e0 9d 11 01 be a4 7e 8d 3d d4 b9 ab bd 03 d5 a4 3d
       -0.12604375 0.069089204 -0.08385053 0.08048441
0000f0 1e 89 29 bd c6 fa ac 3c 51 1e 1c 3e c2 eb c0 bb
       -0.04139053 0.021115672 0.1524594 -0.0058874795
000100 44 06 fa 3d 88 42 9e 3d 55 e7 e1 bd e9 8c b4 bd
       0.12208226 0.077275336 -0.11030451 -0.08815939
000110 33 89 a0 3a c1 ab f0 bd 5f d3 09 3c 24 06 48 3e
       0.001224792 -0.117515095 0.008412211 0.19533592
000120 54 34 01 be fd 98 11 3d b1 6b e1 3d 30 0e c6 bd
       -0.12617618 0.03554629 0.11006869 -0.09670675
000130 c1 2c 5d bc 89 45 a7 3d fd e0 c1 3d 81 3a 44 3d
       -0.01349944 0.0816756 0.09466741 0.047907356
000140 6b 5f 85 3d b2 c9 9b bc 11 c4 c4 bd 2b 80 e6 3d
       0.0651234 -0.019017074 -0.09607709 0.11254915
000150 37 31 62 bb e4 59 2b bd b5 8e 27 bc bc 9a e2 bd
       -0.0034514198 -0.041833773 -0.010226895 -0.110646695
000160 05 d1 78 bc c4 9e 3f 3e eb 7d ad bd 28 69 24 bd
       -0.015186553 0.18712908 -0.084712826 -0.040139347
000170 7d 2a 92 3d 99 8b 93 bd f6 f5 cb 3b 29 97 89 3d
       0.0713701 -0.072043605 0.006224389 0.06718285
000180 40 84 0a bd 52 7d a9 3d 72 53 61 3d a9 bd 1d be
       -0.03381753 0.08275856 0.05501122 -0.15404381
000190 79 90 dd 3c 4d c2 6a be 95 e9 c0 bd 74 19 09 be
       0.027046429 -0.22925682 -0.09419552 -0.13388616
0001a0 28 40 94 3c 99 a1 85 bc 55 10 8a bd 8e bf 2c bd
       0.018096998 -0.016312407 -0.06741396 -0.04217487
0001b0 f1 5f 18 3d b5 44 b2 3d a0 04 f2 bd f6 cb 8b be
       0.03720087 0.08704511 -0.118172884 -0.27304047
0001c0 b3 c3 56 3c 70 6e 35 3d bc d9 ff 3c 41 6c ee 3b
       0.013108182 0.044294775 0.031231754 0.0072760885
0001d0 d6 9e da 3c c5 4c 19 3c 00 8e c4 3d 0b f1 1c 3e
       0.026687067 0.009356682 0.09597397 0.15326326
0001e0 00 19 ed bd 3a db 2c be 86 73 5b bd f5 18 f1 3b
       -0.11577034 -0.16880503 -0.05357697 0.0073577114
0001f0 be 6d 42 3e 6d 36 5d 3d dc 3a dc 3d 13 f5 10 3d
       0.18987176 0.054006983 0.10753414 0.03538997
000200 b7 b6 99 bb e6 4e bd 3c 56 0e 42 be 57 c9 53 3d
       -0.0046909708 0.02310891 -0.18950781 0.051705685
000210 f8 48 53 3c 59 cd f6 3d 50 9a 08 be 33 f3 71 be
       0.012895815 0.12050886 -0.13340116 -0.2362793
000220 93 a0 69 bd 57 14 8e bd 83 8c 75 be 37 d9 aa bc
       -0.0570379 -0.06937473 -0.23979382 -0.02085553
000230 7d 3d 0c be 0c 43 9a 3d 91 5c e8 bd 97 dc c1 3d
       -0.13695331 0.075323194 -0.11345781 0.09465902
000240 63 91 e3 bd 32 b2 53 be 30 8f f7 3d 9d a1 89 bd
       -0.11111715 -0.20673445 0.12087858 -0.067202784
000250 ac fa 15 be 4f 21 d8 3c 59 d0 4b be 7c 42 2d be
       -0.14646405 0.02638307 -0.19903697 -0.16919893
000260 49 d2 40 be 76 bf 96 be 9c f3 36 be 0f cc 41 be
       -0.18830217 -0.29442948 -0.17866367 -0.18925498
000270 d0 5e 90 3d 08 30 01 3e 3b 02 63 be 24 ce 02 bd
       0.07049334 0.12615979 -0.2216882 -0.031934872
000280 74 31 5c 3e 2c 5a 2f bd 39 e8 0e be 5f ef 81 3d
       0.2150324 -0.042810604 -0.13955773 0.063444845
000290 19 3d c2 3c 89 c7 b0 3d 24 e1 a1 3c cd 63 43 3d
       0.023710774 0.08631808 0.019760676 0.0477026
0002a0 2e 9d 50 3d 51 bc 9c bd eb 07 ce ba b2 ab ae bb
       0.05093115 -0.07653106 -0.0015718912 -0.0053305263
0002b0 23 95 0a 3c 89 1f 98 bd 2d 58 36 3d 38 24 13 3e
       0.0084584085 -0.0742789 0.044517685 0.14369285
0002c0 25 94 25 3e 88 9f 11 3e 2a 31 15 bd ae ac d9 3d
       0.16169794 0.14221013 -0.03642384 0.10628639
0002d0 b7 d0 65 3e 04 90 4f 3d 9d ce 2a 3e a4 35 c1 bd
       0.224429 0.050674453 0.16680379 -0.09434059
0002e0 4c 70 68 bd 97 e5 d3 bb d8 5f 4f 3e 70 ec 6a 3e
       -0.05674772 -0.006466578 0.20251405 0.22941756
0002f0 db d8 36 3e b2 8a 1b bd fc e9 5d 3e c2 f7 5d 3e
       0.17856161 -0.037974067 0.21671289 0.21676543
000300 d3 e2 ad 3d ac 5d d8 3d 9c 73 09 3e 2f 76 76 bd
       0.08490529 0.105647415 0.13423008 -0.060171302
000310 de 38 e7 3c ae 3e 1e 3e f7 29 20 3e 70 a6 da 3d
       0.028225359 0.15453598 0.15641008 0.10676277
000320 e1 89 11 3e b3 7b 3c 3d 72 17 88 bd c2 b8 f6 bd
       0.14212753 0.046016406 -0.06645097 -0.120469585
000330 92 02 de 3d 2f c5 1d be 1b e8 24 bd 58 9a fe bd
       0.10840334 -0.15407251 -0.040260416 -0.124317825
000340 92 e5 4d bd f5 a7 b9 3d e1 dd ac bd 37 65 3d bd
       -0.050267763 0.090652384 -0.084407575 -0.046239104
000350 61 b5 80 bd ed 74 3d 3d b8 2e 40 3d ce 1e d0 3d
       -0.06284595 0.046254087 0.046919554 0.101621255
000360 cf 2f dc 3d f8 f5 8e bd fa e9 05 bc 1b 41 34 3d
       0.10751306 -0.069805086 -0.00817346 0.044007402
000370 5b bc 4e bd 2d 00 91 bd 53 90 10 3d 5a bc a3 bd
       -0.0504726 -0.07080112 0.03529389 -0.079949096
000380 06 0f 20 bc c2 83 ab bd 3a 76 db bb a0 b5 df bd
       -0.009769207 -0.0837474 -0.0066974433 -0.10923314
000390 ce 93 20 ba cd db c4 bd c3 3e d0 bd 00 5b 3c 3d
       -0.000612554 -0.09612236 -0.10168221 0.045985222
0003a0 56 70 1d 3d de bc c3 bc 64 45 92 bd fe c6 7b bb
       0.03843721 -0.02389377 -0.071421415 -0.003841817
0003b0 33 10 4c be ab a9 3c 3d b6 2d e1 3d e3 55 9c bd
       -0.19928055 0.046060245 0.10995047 -0.07633569
0003c0 0f 1a 7c be 15 95 d3 bd f2 b2 61 be bf 11 1e 3b
       -0.24619316 -0.103311695 -0.22040918 0.0024119464
0003d0 3f e3 49 be dd 20 5e be ef ce 3c be 4b 07 22 be
       -0.19715594 -0.21692224 -0.18438314 -0.15823095
0003e0 98 88 b2 bd fd a0 69 be c7 4e 3b be 67 89 61 3d
       -0.087174594 -0.22815318 -0.1829177 0.055062678
0003f0 66 b2 a1 3d 1b 28 32 be 4a 4c 83 be 4e a6 19 be
       0.07895355 -0.17398112 -0.2564414 -0.15004846

critic.0.bias f4 [32]
000000 fb 88 d7 3c 82 4c 0c 3e b2 26 bd 3d 12 a9 db 3c
       0.026310435 0.1370106 0.09235896 0.026814017
000010 73 d4 bb bc 4d 21 ab 3d 1d 53 1a be d2 ab 8d bd
       -0.022928452 0.08355961 -0.15070768 -0.06917538
000020 b1 a3 3f bd 96 72 d6 3b de 4c 01 3d fd 13 18 3c
       -0.046786968 0.0065444214 0.031567447 0.009282109
000030 82 89 51 3d 92 9a 2d 3e 75 f9 85 3c 47 77 d7 3d
       0.05115653 0.16953495 0.016354302 0.10520797
000040 47 a9 2c be d7 64 21 bd ae 4b b5 3d 18 be b8 3d
       -0.16861449 -0.03940281 0.088523254 0.090206325
000050 04 9e 91 bc 71 0b ed 3c 48 07 23 3c 07 35 bd bd
       -0.017775543 0.02893612 0.009950466 -0.0923863
000060 22 7a ce bb fd ab 23 be 38 48 d0 3c 4f b2 5c bd
       -0.0063011805 -0.15983577 0.025425062 -0.053880986
000070 02 78 aa bc 27 10 a5 3d 39 97 9f 3d 0e 63 ad bd
       -0.020809177 0.080597214 0.07792515 -0.08466159

critic.2.weight f4 [32, 32]
000000 66 91 09 be cd 4c 9c 3c a1 6c ab be 7b 8f d4 3d
       -0.13434371 0.01907959 -0.33481315 0.10378929
000010 e9 59 a7 bd 20 dd 99 be 5b d3 1a be 2d 9c 84 be
       -0.08171446 -0.30051517 -0.15119688 -0.25900403
000020 70 b7 13 be 52 87 88 be 8a 42 92 3e 38 be 90 3d
       -0.14425445 -0.2666574 0.2856639 0.07067531
000030 8f b6 4f 3e 18 45 a5 3e 64 6f fb bd 2c 91 04 be
       0.20284484 0.32279277 -0.122771055 -0.12946004
000040 67 d3 3b bd 5c 95 a6 be a7 94 78 3d a0 5f 36 bc
       -0.045855906 -0.32535827 0.06068864 -0.011131197
000050 d1 d7 40 3e 00 7a 72 bd da 6b 2f bd cc 5b b9 3e
       0.18832327 -0.05919838 -0.042827465 0.36202848
000060 ee 7e c6 bc c5 88 84 3e 93 49 12 be aa e0 2f bd
       -0.024230447 0.25885597 -0.14285879 -0.042938866
000070 51 eb ff bc 22 66 e0 3c 30 2a b4 3e 63 9b 15 3e
       -0.031240137 0.02739245 0.35188437 0.14610057
000080 81 76 2b 3e a5 5b 41 3d 63 3a 19 3d be c7 54 3e
       0.16744424 0.04720654 0.037409198 0.2077932
000090 4c 01 8f 3e ed c5 55 3e 10 4a 20 be 3d ce aa be
       0.27930677 0.20876284 -0.15653253 -0.33360472
0000a0 62 2c cc 3e 35 c3 86 bc 07 fa cb 3d 94 62 39 3c
       0.3987761 -0.016450504 0.09959798 0.011315007
0000b0 13 4e 3d 3e 06 04 66 3e e3 19 39 3e 6e c6 d7 3c
       0.18486814 0.22462472 0.18076281 0.026339736
0000c0 ca 05 3a 3e f8 b8 e5 be 84 ff c7 3e a7 d5 1c be
       0.18166271 -0.44867682 0.3906213 -0.15315877
0000d0 28 51 1b 3e a1 d7 06 be 10 3a 40 3e ea 61 35 bd
       0.15167677 -0.13168193 0.18772149 -0.04428283
0000e0 8e b9 06 bd 56 92 43 be 55 e4 52 bd f5 bb 28 be
       -0.032891802 -0.19098791 -0.051487286 -0.1647795
0000f0 a6 a7 e5 3d 36 9a 7a be 7e cb db 3e fe b1 e7 bd
       0.11213617 -0.2447289 0.4292869 -0.11313246
000100 e3 be b6 3e 91 7f 0c 3d 2b 82 e0 bc 1d ce ac bd
       0.3569251 0.034301344 -0.027405819 -0.084377505
000110 38 8b 30 3d bd 93 6c bd 96 85 ec 3d 47 42 cc 3e
       0.04310152 -0.05775808 0.11548917 0.39894316
000120 a5 98 a5 bd d6 b6 63 be 4e 08 0c 3d ff 34 b6 bd
       -0.08085755 -0.22237715 0.034187607 -0.08896827
000130 70 c8 75 3d 0f 86 bb be 30 68 ce bd d2 18 c9 3c
       0.060005605 -0.36625716 -0.10078466 0.024547968
000140 aa 84 75 3e 81 7f 7c be d9 e6 17 bd de f2 33 3e
       0.23976389 -0.24658014 -0.037085388 0.17573115
000150 79 85 2d 3e 47 7e a0 3e 3d 30 9a 3d 5a 9f 5d be
       0.16945447 0.31346342 0.07528732 -0.21642819
000160 a8 e3 36 be 1f 23 e6 bd 32 f3 55 3c f7 b8 12 be
       -0.17860281 -0.112371676 0.013058471 -0.14328371
000170 6f ef f8 3e a1 17 27 be 3f 65 80 3d d0 e3 1a 3a
       0.48620173 -0.16317607 0.06269311 0.00059085805
000180 88 b0 27 bd f4 84 f6 3c 63 d3 12 3e 96 3d 47 3e
       -0.040939838 0.030092694 0.1433845 0.19457087
000190 e1 36 5d be 46 ee b5 bd dd e6 f6 3d ea 8a 17 3d
       -0.21602966 -0.08883338 0.120557524 0.036997713
0001a0 12 86 06 3d 93 c1 64 be 0f 47 78 3e 56 2c 7a bd
       0.032842703 -0.22339468 0.24245857 -0.06107744
0001b0 11 e7 5a 3a 61 91 b5 bc bb 64 40 be fb 0f d0 bd
       0.00083504716 -0.022164049 -0.18788426 -0.10159298
0001c0 a2 67 8c be 6e e5 0e bd 42 db 02 3e b7 44 fa bd
       -0.27422816 -0.03488677 0.12778953 -0.122201376
0001d0 92 d2 8e be 1a d4 c7 3c 55 11 bb 3d 4d 45 b6 be
       -0.27895027 0.02439313 0.09134165 -0.35599747
0001e0 8c 13 dd bd 09 d3 c8 bd 24 b0 9e be 29 b0 35 3e
       -0.10794744 -0.09805877 -0.3099376 0.17742981
0001f0 a9 0a 65 3e fd 14 96 be a8 6b 29 3e 08 75 6d be
       0.22367348 -0.29312888 0.16544974 -0.23189175
000200 51 6c 98 3e 28 52 63 bc 97 97 8b 3d 59 8e 9d b8
       0.2977014 -0.013874568 0.06816023 -7.512858e-05
000210 8f fb 89 3e c9 3c 69 be 68 8f 13 3e ad 3a e8 3c
       0.26949736 -0.22777094 0.14410174 0.028348291
000220 8e 45 5e be b9 d9 9d 3c 42 ee cb 3e e8 76 d6 bc
       -0.2170622 0.019268857 0.39830214 -0.026179746
000230 07 5c 8e bc e2 6c 54 be c9 b4 96 3b bc e0 b2 3e
       -0.017377866 -0.2074466 0.004599188 0.34937084
000240 99 e0 0e be 15 f0 97 bd d8 b1 4f be d1 6e 99 3e
       -0.13952865 -0.07418839 -0.20282686 0.2996736
000250 4d d1 e1 3d c8 21 54 3e 04 ae 51 3b 5c 5f 6a be
       0.11026249 0.20716012 0.003199459 -0.22887939
000260 b8 3e 3b bd fd f3 86 3a 4a 37 42 3e 97 67 16 3d
       -0.04571411 0.0010296103 0.18966404 0.036719885
000270 19 3f d1 3e c0 58 69 3d 35 3d 98 bd bf 23 0b 3c
       0.40868452 0.056969404 -0.07433549 0.008492409
000280 c6 98 88 3c bf 67 97 be ea a2 99 bd cd 47 d0 bd
       0.01667441 -0.2957134 -0.075017765 -0.10169945
000290 56 d5 b9 bd a2 cb a3 3d b5 ba 51 bc 2a b8 0e be
       -0.09073894 0.07997824 -0.012800862 -0.1393744
0002a0 96 6d bf bd 4d 47 ee 3d 9b b6 0e 3e da cf b3 3b
       -0.09347074 0.11634693 0.13936846 0.0054874243
0002b0 f3 ce cb 3d 2c 4f a6 3d 8c 63 da 3d a6 39 65 be
       0.09951582 0.081205696 0.10663518 -0.22385272
0002c0 65 c7 9a 3d 1a fd 59 bd 8a 98 09 3e 9c 54 3f be
       0.07557563 -0.053219892 0.13437095 -0.1868462
0002d0 57 57 6d be 70 ee 18 bc 48 bb be 3d db 40 08 be
       -0.23177849 -0.009334192 0.09313065 -0.1330599
0002e0 8b 01 f3 bd e5 bd 03 be 52 2d a1 3e cf 7e 34 3d
       -0.11865529 -0.12865408 0.3147989 0.044066247
0002f0 48 50 b0 3c 9c bf 7c be a2 ce 98 3e e5 8f a9 3d
       0.021522656 -0.24682468 0.29845148 0.08279399
000300 b2 7c 6d 3b 99 01 b1 3b db a1 52 3e da 55 c0 bd
       0.0036237654 0.005401802 0.20569555 -0.09391375
000310 80 3c d4 bc 65 b1 4d 3d 3d 01 44 be fc 02 16 be
       -0.025907755 0.050218005 -0.19141097 -0.14649576
000320 4e ae 34 be 93 f4 1d be 09 07 cd bc 80 4f 1d be
       -0.17644617 -0.15425329 -0.025027769 -0.15362358
000330 84 0d 54 bd 6a 1c ca 3e 7b 42 f7 bc 59 13 9c be
       -0.051770702 0.39474803 -0.030183068 -0.3048351
000340 06 40 48 be 86 39 00 bd 6e 90 31 3e 5e 31 cd 3d
       -0.19555673 -0.03130486 0.17340252 0.10019182
000350 5a 14 a9 3d 94 2d 82 3e fd aa af 3d bb 6d b8 be
       0.08255835 0.25425398 0.08577535 -0.36021218
000360 3a 93 08 bd d2 bc cd be a9 4b e3 bd 36 85 f9 bd
       -0.03334353 -0.4018312 -0.110984154 -0.12183611
000370 58 f6 20 be 71 20 34 3d df 7d 43 3c 97 58 09 3d
       -0.15718973 0.04397625 0.0119318655 0.03353175
000380 8a 82 ca 3d e4 92 16 be 04 fb ae be a6 e0 af be
       0.098881796 -0.14704472 -0.34175885 -0.3435108
000390 4a 44 9e 3e 39 44 4f be a4 64 b8 3d 06 fd 41 bd
       0.30911475 -0.20240869 0.09003571 -0.047360443
0003a0 fb 8d a3 3e 3c 56 da bd 69 df 4b 3e ff 16 1a be
       0.3194426 -0.10660979 0.19909443 -0.15047835
0003b0 8b 62 02 bd 10 06 98 3e 3a 72 c0 bd 02 91 2e bd
       -0.03183226 0.29692125 -0.09396787 -0.04261876
0003c0 41 40 35 3e 82 38 09 bd ae 51 82 3d 45 74 98 bd
       0.17700292 -0.033501156 0.063632354 -0.07444052
0003d0 80 f5 e6 bd f4 4e d7 be f1 56 56 3e ef 8c 14 3d
       -0.11277294 -0.42052424 0.20931603 0.036267217
0003e0 be f7 57 be ea f0 a6 3d e9 21 a1 3e 97 4e 41 3e
       -0.210906 0.081514195 0.31471184 0.18877636
0003f0 83 2c 9f 3e 1d f7 29 3d b1 48 e7 bc 03 01 78 3e
       0.31088647 0.04149543 -0.028232904 0.24219136

critic.2.bias f4 [32]
000000 25 65 9e b8 88 4b f1 3d 6c 8f ee 3c 72 8b d1 bc
       -7.552867e-05 0.117819846 0.029121123 -0.025579188
000010 de 60 07 3d 5e c0 20 be 7a 5c d8 3b e0 0b 0a be
       0.033051364 -0.15698382 0.006602821 -0.13481092
000020 ca 38 38 bd b3 70 16 bc ae c8 fa 3c d1 05 4d bd
       -0.044976033 -0.009182143 0.03061327 -0.050054375
000030 60 32 8b bc aa 56 14 bc bf f8 83 3b f5 52 82 bd
       -0.016991794 -0.009053865 0.0040274556 -0.06363479
000040 f4 6f 53 be 55 1c 62 3e bc f4 ac 3d 79 e6 6e 3d
       -0.20648175 0.2208112 0.08445117 0.058325265
000050 bc 43 fe bc 86 7d 26 3d 2e 46 be 3c f6 e7 38 bd
       -0.031038158 0.040647052 0.023226824 -0.04514309
000060 cf 0c af 3c 14 9b 0d bd 09 6b a1 bc f3 b8 c6 3c
       0.021368412 -0.034571722 -0.019704359 0.024258113
000070 78 8b 94 bd 52 2f 28 3e e0 10 fd 3d f4 2c 25 be
       -0.07253164 0.16424301 0.12356734 -0.1613043

critic.4.weight f4 [32, 32]
000000 8e b5 a2 bd 74 8d 1c be 5a a1 41 be 6e 6c 78 3d
       -0.07944785 -0.15288335 -0.18909207 0.06065028
000010 16 2e c0 3d 73 8f 25 3e f8 35 81 3e 28 cc ca 3c
       0.0938379 0.16168003 0.25236487 0.024755552
000020 97 26 1c be cd 1d 91 be be 0d 6d 3a 92 0f d8 3d
       -0.15249096 -0.2834305 0.000904288 0.10549845
000030 ca 32 e5 bd 8a 7c 6d 3e ad 55 46 3e 18 71 fa 3d
       -0.11191328 0.23192039 0.1936862 0.12228602
000040 91 e7 d2 3d 39 c4 9f be c3 6d 89 3e c4 1a 2e 3e
       0.10298074 -0.31204394 0.26841554 0.17002398
000050 76 ba 41 bd a1 15 bf 3e 40 e6 8b bc 99 98 a0 3d
       -0.047296964 0.3732119 -0.017077565 0.07841606
000060 4e bd 4f be d6 0c ce 3d d1 a2 4a 3e 7e 30 9a 3e
       -0.20287058 0.10061042 0.19788672 0.30115122
000070 75 06 94 bd d0 1e 98 3c 9f 28 85 be 1e 8d 94 3d
       -0.07227794 0.01856938 -0.26007554 0.072534785
000080 cd 62 b0 3d 1f 86 85 3e d8 15 54 be cb 30 9d 3d
       0.08612595 0.2607889 -0.20711458 0.07675322
000090 87 72 09 3e f6 2a 52 3e 2d 3e 36 3d 71 2e 98 3e
       0.13422595 0.20524201 0.04449289 0.29722932
0000a0 ae 80 6d 3e 6a 15 65 3e e0 d1 4b 3e ce 44 a7 3e
       0.23193619 0.2237145 0.1990428 0.3266968
0000b0 18 3b 5d bd 50 e9 44 bd 06 61 83 be d3 62 89 3e
       -0.054011434 -0.048074067 -0.2565996 0.2683321
0000c0 21 52 3b 3d 2d 6a 96 be c3 34 70 be 71 69 fc bd
       0.04573262 -0.2937788 -0.23457627 -0.12324799
0000d0 9d 8e 59 be 66 35 cc 3a 66 c2 49 bd 65 a2 19 3e
       -0.21245809 0.0015579879 -0.04925766 0.15003355
0000e0 7d c7 25 be 5a 21 e9 bc 15 02 8c 3d 26 9c 2a 3e
       -0.1618938 -0.028458286 0.068363346 0.16661128
0000f0 0c 0f 88 3e 45 d5 d2 3e 35 d2 74 3e 11 2c f7 3d
       0.2657398 0.41178337 0.23908313 0.12068952
000100 eb f3 ac 3e e1 dc 92 bd 46 47 2b bd 4e 0c 54 3d
       0.33779845 -0.071710356 -0.04181602 0.051769547
000110 c8 c3 74 3d 75 0c 86 be 8f 3e 37 3d 16 7e 9a 3e
       0.059757024 -0.2618138 0.044737395 0.3017432
000120 16 d3 1a be 14 1d bc be 7f 14 ae be fe 54 4b bc
       -0.15119585 -0.36740935 -0.34000012 -0.0124104
000130 a1 30 93 3e 09 77 f6 bd ab 39 43 3e 82 72 3e 3e
       0.28748038 -0.12034423 0.19064967 0.18598369
000140 93 8c 0d 3e dc 6b b5 be e8 33 a9 3e 83 d3 94 3e
       0.13823156 -0.35433853 0.33047414 0.2906762
000150 14 d7 bc bd c7 b4 82 be 85 38 42 be b4 3e 68 3d
       -0.092207104 -0.25528547 -0.18966873 0.056700423
000160 6e 55 26 3e 50 53 40 3e 50 cd 7e 3e 07 47 7f 3e
       0.16243526 0.18781781 0.24883008 0.24929439
000170 7b 73 a6 3d 8e 6f 00 3a b0 33 de be 2b e5 42 3e
       0.08127495 0.00048994354 -0.4339881 0.19032733
000180 33 08 2f 3e 73 7a 83 bd 66 b1 21 be fd 68 f0 3d
       0.17092972 -0.0641984 -0.15790328 0.11738775
000190 2b f8 9a be aa 8c e0 bd f2 de cc 3d 5e d9 91 be
       -0.30267462 -0.109643295 0.10003461 -0.2848615
0001a0 8d f4 31 3e 24 a3 af bd ff af 9f 3e 92 f2 b3 bc
       0.17378445 -0.085760385 0.31188962 -0.021966252
0001b0 c8 f2 a8 be 21 e4 40 bd 9f 9d bd 3e 10 d6 8a 3e
       -0.32997727 -0.04709256 0.37034318 0.27116442
0001c0 25 f3 20 3e 7c 33 db 3c 53 f9 81 be 37 63 92 3c
       0.15717752 0.026757948 -0.25385532 0.017869575
0001d0 48 b4 86 bd f5 27 09 bd f0 5c 30 3e c4 fe 97 3c
       -0.06577355 -0.03348537 0.17222953 0.018554099
0001e0 d0 39 73 3d d4 46 22 be 8c 5e bb bd c2 65 e2 3d
       0.059381306 -0.15847331 -0.09148893 0.11054565
0001f0 e6 c7 26 be a0 59 e6 bd 23 40 8b be 91 04 f5 3c
       -0.16287193 -0.11247563 -0.2719737 0.029909404
000200 60 18 d5 3c 95 6a f2 bd ca aa 8f be 3e 35 04 be
       0.0260126 -0.11836735 -0.2805999 -0.12910935
000210 da a8 f6 be be df 01 be f9 1c b1 ba 0a b7 77 3e
       -0.481757 -0.12683007 -0.0013512663 0.24190918
000220 20 08 93 be 67 76 9d 3e 4f 4f ab bd fc 50 a0 3e
       -0.28717136 0.30754396 -0.08364736 0.31311786
000230 13 db 49 be a1 8b 8b 3e 86 56 87 bd 4d 57 ac 3e
       -0.19712476 0.27254966 -0.066083 0.33660355
000240 da 0e d0 3d c4 46 83 bd ff db cd bd a5 8f 0c be
       0.10159083 -0.06409982 -0.100517265 -0.13726671
000250 db b4 8e 3d 17 46 85 3e dd a3 57 bd 8c a0 13 bd
       0.06968089 0.26030037 -0.052646507 -0.03604178
000260 49 82 14 bd 49 25 59 3e c5 e1 22 be a4 50 6e 3e
       -0.036257062 0.2120563 -0.15906437 0.2327295
000270 73 2e 3e 3e 1a 0a 5c be 12 22 b2 3d 14 41 97 bd
       0.18572406 -0.21488228 0.08697905 -0.073854595
000280 dc ce 3d be 4f 10 03 bf 39 2e 80 be 81 e0 0e 3c
       -0.18535942 -0.5119676 -0.25035265 0.008720518
000290 e7 a5 42 bd fa fb ce bd 41 1c e9 be 8c 4c 4e be
       -0.047521498 -0.101066545 -0.4552937 -0.20146388
0002a0 0d 3a ef bd 51 6e 42 be 9c bf 9a 3e 9b 5e 93 3e
       -0.11680994 -0.18987395 0.3022431 0.28783116
0002b0 ed 04 75 3e c3 df 98 3e b3 cc 02 be 27 2e 45 bd
       0.2392766 0.29858217 -0.12773399 -0.048139717
0002c0 16 1a e7 bd 81 91 b2 3e 09 49 13 3e e5 25 83 3e
       -0.112842724 0.34876636 0.1438333 0.2561485
0002d0 a3 55 a4 3e 0f 89 51 3e 00 8d df 3d e6 a4 ec bd
       0.32096586 0.2046244 0.109155655 -0.115548894
0002e0 0d bb 29 be 31 69 6f 3e c8 8d 98 3d c9 49 87 3d
       -0.1657526 0.23379971 0.074489176 0.0660587
0002f0 54 f6 97 bd c2 ca 9e bc e0 9f 96 3e 88 0c f1 bd
       -0.0742003 -0.019383792 0.2941885 -0.11769968
000300 f5 94 a6 3e 80 6b 07 3c ea 8d 95 3e 42 7f 3f be
       0.3253552 0.008265376 0.29209834 -0.18700889
000310 9f 1b 4e be 4e 30 3a 3e a4 17 4c be 53 68 12 3e
       -0.20127724 0.1818249 -0.19930893 0.14297609
000320 c4 e1 e8 bd e2 29 6b 3e b2 b4 37 3e 10 6d b3 be
       -0.113711864 0.22965196 0.17940024 -0.35044146
000330 e2 7d 89 bc ab 3c aa be 9b 8f b1 be d2 8e 9b be
       -0.016783658 -0.3324941 -0.34679875 -0.303824
000340 b7 ca a3 bd 4d b5 68 be 4a 0b d8 be 2f 70 5c 3d
       -0.07997649 -0.22725411 -0.42196113 0.053817924
000350 6c f0 a4 be 08 19 d4 bc c6 85 db bd fe c3 d7 3d
       -0.32214677 -0.025890842 -0.10718875 0.105354294
000360 dc 53 7c 3e c0 68 98 be ae 8a 60 3d 40 a3 e0 bd
       0.24641365 -0.29767418 0.054819755 -0.109686375
000370 f9 0f 42 be 26 b3 f4 bc 37 62 04 be 77 72 ce bd
       -0.18951406 -0.02987058 -0.12928091 -0.10080426
000380 4b b6 dc bc 95 68 47 3c 68 60 07 3e d8 ea ef 3d
       -0.026942393 0.01217093 0.1322037 0.11714715
000390 6e c6 30 be d8 f3 35 3d 5e 52 eb 3d 57 c1 4c be
       -0.17263195 0.044422 0.1149032 -0.19995628
0003a0 93 23 9e be 8f ab 93 be 44 ae d4 3c 63 00 dc 3c
       -0.30886516 -0.28841826 0.025962003 0.026855653
0003b0 45 65 23 3e f8 1f a7 be 14 ab 65 3e fe 26 1b be
       0.159566 -0.32641578 0.22428542 -0.15151593
0003c0 dd ff 3b be b3 6d e2 be 62 31 d6 3d af 3b b9 be
       -0.18359323 -0.4422432 0.10458638 -0.36178347
0003d0 6f fd d5 3d 58 ef 99 be e3 bd 98 be 41 76 22 be
       0.10448729 -0.30065417 -0.29832372 -0.15865423
0003e0 3b d4 4c be 4e 36 aa bd a4 94 6e be 99 6b 86 bd
       -0.20002834 -0.08311139 -0.2329889 -0.065634914
0003f0 f5 7c 83 3d ca 8f 21 3e 98 df 0f bd 3b 09 41 3d
       0.06420318 0.15777507 -0.035125345 0.047127943
