model/tetris_ppo_interrupted_20251029_170629.pth/model.ckpt-1.pth (torch, 70369 bytes, 15 tensors)

actor.0.weight f4 [32, 181]
000000 e3 c1 f9 bd af eb 42 bd 53 37 11 3e 38 49 11 3d
       -0.12195184 -0.047588047 0.14181261 0.035470217
000010 04 a9 81 bb 27 41 9d 3d 91 34 a7 bd aa 30 8d bd
       -0.003956916 0.076784424 -0.08164323 -0.068940476
000020 33 36 ff 3d 27 6a 22 be 28 46 24 3e 8e f2 4c bd
       0.124615096 -0.15860806 0.16042387 -0.050036006
000030 8a bb a8 3d 4b 4c 0b be a6 ae 02 bd ec 17 a3 bd
       0.08238895 -0.13603322 -0.03190484 -0.07963547
000040 9a ac 21 be c7 12 fa bd 0e 5c 04 be 12 64 e6 bd
       -0.15788499 -0.12210613 -0.12925741 -0.11249556
000050 30 7e 17 3d 1c 96 58 3d f3 e0 68 be 8a d6 cb bd
       0.036985576 0.05287753 -0.22742061 -0.099530295
000060 3e 8b c0 bd 0a 37 9d bc 20 28 42 be e6 39 24 bd
       -0.09401558 -0.019191284 -0.18960619 -0.04009428
000070 43 be a4 3d 97 b6 24 be 73 2f 2b bd c5 a9 06 be
       0.08044102 -0.16085277 -0.041793298 -0.131507
000080 b0 e6 04 3e 94 f9 cc 3d f1 be 32 bd 75 46 1f 3e
       0.12978625 0.10008541 -0.043639127 0.15554221
000090 8c cb 08 3d b1 b9 13 bd 95 c3 9c bd db f9 65 bd
       0.033397242 -0.03606576 -0.07654492 -0.056146484
0000a0 5e 59 26 be 0c 84 73 3d 39 2c bb bd 8b 2d 82 3c
       -0.16245028 0.0594521 -0.09139294 0.015890857
0000b0 9c ef 2c 3e 8a 23 96 bd 0b 5f c8 3d 6d d2 55 3d
       0.16888279 -0.07330997 0.09783753 0.05220263
0000c0 40 18 a7 bc 4c 8a 71 3d fb 4c 6f 3c 84 1a d0 bd
       -0.020397305 0.05896978 0.014605756 -0.101613075
0000d0 e7 d0 b6 bb 12 1a 2a bd 6c 7a 63 3d 55 be b3 bd
       -0.0055791023 -0.04152877 0.055536672 -0.08776537
0000e0 42 98 0e bb 7a 05 21 be de af 92 bd d8 c4 70 3d
       -0.0021758233 -0.15724745 -0.0716245 0.058781475
0000f0 61 a2 24 be 8b 79 a6 bc 11 94 00 3d d5 bd 50 3d
       -0.16077568 -0.020321628 0.031391207 0.050962288
000100 f4 49 89 3d 2f 72 6c 3d 48 9c 87 3d d3 89 cd bd
       0.067035586 0.05772608 0.06621605 -0.100360535
000110 c2 42 90 3d 50 60 73 3d 61 4b 15 3e 2b 9b 74 bd
       0.07043983 0.059418023 0.14579536 -0.059718292
000120 2c cc 9c bd 00 e6 b9 3d c3 66 0e be 2d e9 fd bd
       -0.0765613 0.09077072 -0.13906388 -0.123979904
000130 29 02 5f 3d 1a b1 26 be 3a 31 d5 3b 7a 0c 8d bc
       0.05444542 -0.16278496 0.0065061124 -0.017217863
000140 5a 39 e9 3b 07 2b 89 3c 6f e6 a6 bd 57 ee 05 3e
       0.0071174325 0.01674415 -0.081494205 0.130792
000150 a6 02 e3 39 cb 96 cb 3d 1e 23 a1 3d ad e0 ad 3b
       0.00043298787 0.09940871 0.07868026 0.0053063245
000160 01 dc e6 bb a6 97 30 3d 20 ba b5 bd 7d 4e 96 bc
       -0.0070452695 0.043113373 -0.08873391 -0.018347973
000170 dc 5c ce bd 80 dc 02 be f5 21 98 3d 31 2f 09 be
       -0.10076305 -0.12779427 0.07428352 -0.13396908
000180 56 27 17 be 04 a2 06 bc 7b 87 b0 3d 54 57 56 bd
       -0.14761099 -0.0082173385 0.08619591 -0.052329376
000190 4b 75 f2 3b 8c 06 d6 3c 25 b1 1f be af d3 37 3d
       0.0073992363 0.026126169 -0.15594919 0.04487961
0001a0 fd 35 28 3e 78 4b 25 3e 40 a1 0e be 47 a8 3b 3d
       0.16426845 0.1614207 -0.139287 0.04581478
0001b0 67 cc db bd d6 78 44 bd d3 69 b0 3d 41 1c ec 3c
       -0.10732346 -0.0479668 0.08613934 0.028822066
0001c0 28 9c c5 bd 35 0c 98 3d 67 67 46 bd c7 fa 73 3d
       -0.09648925 0.07424203 -0.048438456 0.05956533
0001d0 b7 61 9e 3c b9 86 06 3c d4 9f 66 bd 05 1e ed 3b
       0.019333703 0.008210831 -0.056304768 0.0072362446
0001e0 81 ad 12 be 7d 64 79 3d 69 0f ba 39 55 f4 01 3e
       -0.14323999 0.06088685 0.00035488166 0.12690862
0001f0 79 62 af 3d 15 81 07 3e 7a 82 b9 3d e6 62 97 3d
       0.08563704 0.13232835 0.090580896 0.0739191
000200 22 11 e1 bd 81 98 3a 3d 4c 76 34 3e 5f 72 bc bb
       -0.10989596 0.045555595 0.17623252 -0.005750939
000210 c0 92 37 3e c4 a9 04 be 4d ae 97 bc 01 94 fd bd
       0.17927074 -0.12955385 -0.01851573 -0.12381745
000220 31 23 0c 3e a1 df 2a bd 7c 76 eb 3c 9e 5f 20 3e
       0.136853 -0.041717175 0.028743021 0.15661475
000230 8c 97 00 3e 9a 81 82 3d eb ec 78 3c 18 3a ab 3d
       0.1255781 0.06372376 0.015193204 0.0836069
000240 d6 d8 a6 bc e4 b3 61 bd 8c 75 00 3d d0 72 ce 3d
       -0.020367067 -0.055103198 0.0313621 0.100804925
000250 4d 9f 9b 3d d4 2e d9 3d fc a4 85 3d 79 c0 47 3e
       0.075987436 0.10604635 0.06525609 0.19507016
000260 8e e4 9c 3d 17 4c 9d 3c 6b 47 96 bb 61 f5 68 3b
       0.07660781 0.019201322 -0.0045861504 0.0035546648
000270 ce 1d e0 3d e5 03 1a be b5 61 93 3d cc f6 2d 3c
       0.10943185 -0.15040548 0.071963705 0.010617923
000280 fd 6d 15 3e 7b fe 96 3d 16 e8 ed 3d 24 b1 82 bc
       0.14592738 0.07372757 0.116165325 -0.015953608
000290 7e 51 29 bc b6 2c da bd 83 80 8f bd 54 25 53 3d
       -0.010334371 -0.10653059 -0.070069335 0.05154927
0002a0 aa f1 8d 3d a0 3c 5c 3e ac 6f 29 be 41 f2 21 be
       0.069308594 0.21507502 -0.16546506 -0.15815069
0002b0 92 fb 9d bd b4 3e 0d be 23 d8 09 bd a5 06 56 3e
       -0.07713999 -0.1379345 -0.03365339 0.20900972
0002c0 23 06 86 3d dc 1c 71 3c 20 67 a3 3d ec ec 00 be
       0.06544139 0.014716353 0.07978654 -0.12590379
0002d0 ab 73 06 bc 09 b6 e0 3d d9 a3 3a be b1 a9 00 be
       -0.008206288 0.109722205 -0.18226565 -0.12564732
0002e0 94 13 66 bd bf e5 38 3d be 4d 8e 3d fc df 0c 3e
       -0.056171015 0.045140978 0.06948422 0.13757318
0002f0 9f 97 cd 3c 96 da 27 3e 79 35 9c 3d be 4b b4 3d
       0.025096713 0.16391978 0.076273866 0.08803509
000300 fd b7 2d 3d 96 bf d1 3d 0a 81 12 3e 21 f3 1f 3e
       0.042411793 0.1024162 0.14307037 0.1562009
000310 31 73 fe 3d e7 9b 11 39 69 0a f8 3d d1 bc 42 3e
       0.12424315 0.00013886356 0.121113606 0.1901734
000320 ef 23 2a 3d 15 d0 a5 bd be f7 cc bd a6 02 84 3d
       0.041538175 -0.08096329 -0.100081906 0.06445818
000330 a9 d6 c5 bd 74 50 f7 bc 8b 37 98 bd 33 c3 da bd
       -0.09660084 -0.03018973 -0.07432469 -0.106817625
000340 6b 74 93 bd 21 f0 8b bd ab 2e 29 be 77 5f 34 3d
       -0.07199939 -0.0683291 -0.16521709 0.044036355
000350 8e 71 1b 3c bf ec d3 3c 38 e4 cf bd 4a 20 18 be
       0.009487523 0.025869725 -0.10150951 -0.14856067
000360 c5 31 cf 3d be 23 25 3e 3d 04 92 bd d1 d1 25 bb
       0.10116915 0.16126916 -0.07129715 -0.0025302062
000370 4f 32 a0 bd 34 40 22 be ee da c6 bd f7 23 75 3d
       -0.078220956 -0.15844804 -0.09709726 0.059848752
000380 bc d7 29 bc 54 76 55 be 04 c6 b4 3d 52 47 08 3e
       -0.0103663765 -0.2084592 0.08826831 0.13308457
000390 5c d9 df bd 35 93 b6 bc 3d ce 9c bd b8 9b 4f 3e
       -0.1093013 -0.02228699 -0.07656524 0.20274246
0003a0 ee 38 9e bd 71 db 55 3c 79 3b 93 3d 34 5f 5b bc
       -0.07725702 0.013052807 0.07189078 -0.013389397
0003b0 33 ed 20 bd 87 3d 57 bd 80 1f 9e 3d 8e 03 8b 3d
       -0.03928871 -0.05254891 0.07720852 0.067877874
0003c0 76 26 22 be 23 07 4e 3d 44 21 ca 3d 65 08 b6 bd
       -0.15834984 0.050299775 0.09869626 -0.0888832
0003d0 ec 51 93 bd 3a 84 ff 3d ee 37 37 be f5 87 9a bd
       -0.0719336 0.12476392 -0.17892429 -0.07545463
0003e0 82 7c 8c 3c 65 f9 70 bd 97 23 c7 bd 92 d7 95 3d
       0.017149214 -0.05883159 -0.09723585 0.073165074
0003f0 95 b2 74 3c 06 1a 87 bd 00 4a 11 be 36 20 b5 3d
       0.014935155 -0.065967605 -0.14188385 0.088440344

actor.0.bias f4 [32]
000000 6e 18 7b 3d 7b 86 82 3d ad f4 02 bd af 40 d7 3c
       0.061302595 0.06373306 -0.031971622 0.02627596
000010 ce 19 c4 3c ca f7 3b bd be 26 dd 3c d3 b6 eb 3b
       0.023938086 -0.045890607 0.026996013 0.007193425
000020 b7 66 3a 3d bd 2f ad bb b1 88 91 bc 76 f4 e7 3c
       0.045508113 -0.005285232 -0.017765375 0.02831481
000030 54 f2 b4 3c 37 8d a5 3d c9 d4 61 3b fe 01 9d 3d
       0.022088207 0.08083575 0.0034459105 0.076663956
000040 97 0d 5d bc c0 1d 10 3d 46 a8 8b 3b 8c 49 fe 3c
       -0.01349201 0.03518462 0.004262003 0.03104093
000050 b6 c9 37 3c dd 32 8a 3d d2 b1 94 3c 20 47 da bc
       0.011217525 0.06747983 0.018151198 -0.026645243
000060 84 19 88 3d 4f c8 2c 3c 79 29 47 3d f7 92 fd 3a
       0.06645492 0.010545804 0.048623536 0.0019346167
000070 c3 df 2a bd 0d f8 bc 3c 3b cf 4b bd 90 fa 35 bd
       -0.041717302 0.023067499 -0.049758177 -0.04442841

actor.2.weight f4 [32, 32]
000000 08 e2 9a bb 1b 6f 60 3e 16 7d 5d be 4c 93 38 3e
       -0.004726652 0.21917383 -0.21629748 0.1802494
000010 2c be f4 bd d0 18 80 3e 38 ea 05 3c 29 07 a6 bd
       -0.11950335 0.2501893 0.008173518 -0.081068344
000020 5c 51 83 bd 9f e6 b5 bd 39 2e 5d be 54 67 aa 3d
       -0.064120024 -0.08881878 -0.21599664 0.083204895
000030 fd f6 ff bc 98 13 9c be 5b cb cc 3d 5f 17 86 bd
       -0.031245703 -0.304837 0.099997245 -0.065474264
000040 b0 d7 bf 3c c8 70 68 3e 65 1e 65 be 53 ef 05 3d
       0.023418278 0.22699273 -0.22374876 0.03269894
000050 70 1b cc 3d 5e bd 81 bd b5 94 8b bd e8 00 1e be
       0.09966171 -0.06334947 -0.06815473 -0.15430033
000060 02 d7 ae 3c 92 fe 20 3e 23 b8 86 be 7d f3 80 3e
       0.021342758 0.15722111 -0.2631236 0.25185767
000070 c8 27 8f bd 33 2b c6 bd 25 ee e2 3d dc 9f 74 3e
       -0.069900095 -0.09676208 0.11080579 0.23889107
000080 9c 95 4e bd 31 bb 22 bd b5 35 18 be 73 f1 04 3d
       -0.050435647 -0.0397293 -0.14864238 0.032456826
000090 4b 03 4e 3e 60 2e b1 3d b4 e5 2b be 9c 40 c2 3c
       0.20118444 0.086514235 -0.16786844 0.023712449
0000a0 8a 46 0a 3e 95 c7 6f be 28 ed e6 bd 08 b3 0e 3e
       0.13503471 -0.23415978 -0.11275703 0.13935483
0000b0 c6 71 6b 3e 00 37 77 3e 2d db 08 3e c7 77 23 3d
       0.2299262 0.24142075 0.13364859 0.03990915
0000c0 53 4a a0 3e ad aa 03 bd f0 99 ad 3e 55 3f ae 3e
       0.31306705 -0.03214519 0.33906507 0.34032694
0000d0 f3 7c 05 be fc f8 2a bd 5e 06 c5 bd 53 51 ec bd
       -0.13035946 -0.041741356 -0.09620355 -0.11538949
0000e0 d5 dc fa 3d fc 68 31 3e 31 e8 d6 3d d6 50 a9 3e
       0.122491516 0.17325205 0.10493506 0.33069485
0000f0 55 ef 84 bd 28 23 41 be 29 7b a8 3d fa 73 74 bd
       -0.064909615 -0.18861067 0.08226616 -0.059680916
000100 b4 6e d9 bd b0 35 7f be 48 be 11 3e 09 a3 96 bc
       -0.10616818 -0.24922824 0.14232743 -0.018388288
000110 58 bc 69 be af 8c 90 be 2f 29 6d be 1d ac b8 bd
       -0.22825754 -0.28232333 -0.23160242 -0.09017203
000120 2f fa 72 be 50 6e 9a be 1b d6 d9 bd 0b 5a e3 bc
       -0.2372825 -0.30162287 -0.106365405 -0.027752897
000130 57 1b 91 be 6d 7e 56 3e a1 e0 dd bc fe 95 c9 3d
       -0.2834117 0.20946665 -0.02708465 0.09843062
000140 0b fc 9d be 02 9d 2c be ac 78 78 3e 41 d8 81 be
       -0.30856356 -0.16856769 0.24264783 -0.253603
000150 84 66 22 3e 04 8e 19 3e e8 0b f0 3c d5 ee 86 3c
       0.15859419 0.14995581 0.029302552 0.016471306
000160 32 b0 2f 3e d4 34 db bd be 7f f2 3c 3b 65 73 be
       0.17157057 -0.107034355 0.029601928 -0.23769085
000170 32 1c 48 3e f3 6b d5 bd d1 d2 9c 3e 7e e5 7d 3e
       0.19542006 -0.1042098 0.3062959 0.24794576
000180 d5 98 82 be f2 f2 ba bd a6 ea ab be bd eb 93 bd
       -0.25507227 -0.091283694 -0.3357746 -0.07222698
000190 75 e8 25 3e f0 47 5f 3e b8 41 84 3c 5c c9 8e 3e
       0.16201957 0.21804786 0.016144618 0.27888
0001a0 f2 50 4c be 49 49 85 3e 26 e9 9d 3d 1e d6 84 3e
       -0.19952753 0.26032475 0.07710485 0.25944608
0001b0 57 ed 24 be 7d 2a 7c 3d 99 01 2a be b4 90 3c be
       -0.16106163 0.061563957 -0.16602172 -0.18414575
0001c0 8c 10 5e 3e 0e c2 64 3d 4d 34 3e bd 8d d4 6b 3c
       0.21686 0.055849127 -0.046436597 0.014393938
0001d0 61 aa a2 3d 8d 4e 87 be 3b 6f 02 3e 34 ce 61 be
       0.079426534 -0.26427117 0.12737744 -0.22051316
0001e0 12 eb 05 be a2 d8 92 3e 67 75 5e 3e ce d5 ea bb
       -0.13077953 0.28680903 0.21724473 -0.007166601
0001f0 d1 9e 39 bd d9 66 1d 3e 3a de 3c be c0 d5 2b be
       -0.045317475 0.15371265 -0.18444148 -0.16780758
000200 28 13 2f be ba 49 72 3e 4c 02 6c be da f1 4a 3e
       -0.17097151 0.23660937 -0.23047751 0.19818822
000210 eb 46 a9 3d 2a 8c 79 3e 07 31 09 3e 16 4b 4d 3e
       0.0826548 0.24369875 0.13397609 0.20048174
000220 32 d3 1d be a7 c2 1e bd 33 4f 95 bd f4 a8 05 be
       -0.15412596 -0.038759854 -0.07290497 -0.13052732
000230 2b 27 83 be 02 05 66 be 14 d4 27 bd 28 f4 32 3e
       -0.2561582 -0.22462848 -0.040973738 0.1747595
000240 4f 90 49 bd 2c a1 a9 3e 8b b4 be bd 80 31 e5 3d
       -0.04920989 0.33130777 -0.093117796 0.11191082
000250 7c 43 13 be 6c b8 72 3e f4 79 8b be e1 7f 8a 3d
       -0.14381212 0.23703164 -0.2724148 0.06762672
000260 11 3c c3 bd fe 01 f3 bd 10 4c 25 3e 93 83 95 3e
       -0.09532941 -0.11865614 0.16142297 0.29201946
000270 ce ef 29 be e4 38 92 be 97 c1 58 be 98 f5 8d be
       -0.16595384 -0.2855903 -0.21167599 -0.27726436
000280 d4 6e 52 3e 32 c2 c9 bc 89 cc 29 3d 15 a2 25 3e
       0.2055009 -0.024628732 0.041454826 0.1617511
000290 ea 81 e5 3d df 4b 7e 3e f6 11 06 3e be ab 50 be
       0.1120642 0.2483363 0.13092789 -0.20378014
0002a0 c6 d7 27 3e fd 90 85 be e0 87 87 be 59 0c 85 bd
       0.16390905 -0.2608718 -0.26470852 -0.06496496
0002b0 16 66 46 be 6c d0 50 be 92 16 ca bb f4 cf 2f be
       -0.1937488 -0.20392007 -0.0061672414 -0.17169172
0002c0 50 8f 09 3c 97 27 33 be d6 78 32 3e fc f7 ae 3d
       0.008395985 -0.17495571 0.17428908 0.08543393
0002d0 cd c7 9e 3e 98 67 28 be 94 ea a9 3c 2c 0f c6 3d
       0.3101181 -0.16445768 0.020741738 0.096708626
0002e0 ad 94 16 3e f5 7a e0 bd 31 e3 5c be b4 01 1b 3d
       0.14705153 -0.10960952 -0.21571042 0.03784342
0002f0 b3 1c 1e 3e 30 c2 b9 be 18 a1 ce bc cb bf 4a bd
       0.15440635 -0.36280966 -0.0252233 -0.049499314
000300 18 bc 8a 3e c9 06 6d be d1 1a ac be 5e 5c b1 bd
       0.2709663 -0.2314712 -0.3361421 -0.08660196
000310 e4 c5 b4 3e 13 8e 34 3d e5 0a b0 bd 21 a6 5a 3e
       0.3530723 0.044080805 -0.08595828 0.21352436
000320 51 86 90 3d 2c a8 16 3d 48 18 80 bd 64 85 0d bd
       0.07056869 0.036781475 -0.06254631 -0.03455104
000330 e4 cc 6a 3e 03 18 5f be cd ec 1f 3e d0 88 36 3e
       0.22929722 -0.21786503 0.15617676 0.17825627
000340 8b 2d 32 3e 55 94 e0 bd da bf 88 3e 62 8e 92 bd
       0.17400186 -0.10965792 0.2670887 -0.071560636
000350 3d c2 a2 3e f6 a2 f4 3c fe b3 ab bd 03 82 26 be
       0.31788817 0.029862862 -0.0838394 -0.16260533
000360 ff 02 92 bd 50 20 4e bd 09 76 e1 3c bc b3 a1 3e
       -0.07129478 -0.050323784 0.027522104 0.3158244
000370 cb 74 7e 3e 4f dd e6 bd 6a 62 7a 3e c0 3e 88 3e
       0.2484924 -0.1127268 0.24451604 0.26610374
000380 af ca 45 be 5c dc c7 3c 98 94 62 be 6f c5 12 3d
       -0.19315599 0.024397068 -0.22126997 0.03583282
000390 f7 08 cb bd 6e ca a7 3e 0c 18 f7 3b fb c0 b3 be
       -0.09913819 0.3277163 0.0075407084 -0.3510817
0003a0 53 f9 cd bc 18 55 8b be ab 91 8a 3e 81 6f c0 3d
       -0.025143301 -0.2721336 0.2706426 0.09396268
0003b0 1d 24 01 be 53 22 8a be d7 3d 33 be 8d 4d 65 3e
       -0.12611432 -0.26979312 -0.17504059 0.22392865
0003c0 c8 59 0c be 68 37 e9 3d a7 1a 57 be 6e 5c 83 be
       -0.13706124 0.11387521 -0.21006261 -0.25656456
0003d0 c5 50 be ba d9 0e 54 be 25 89 99 be 7f 3e 42 3d
       -0.0014519921 -0.20708789 -0.29987445 0.047422882
0003e0 97 29 03 be 7b 31 81 be 1e 9a f1 3d 75 ac 0a 3e
       -0.12808834 -0.25233063 0.11796974 0.1354235
0003f0 18 2e 94 bd be c8 5e bd 1d 25 52 be f9 9a fb 3d
       -0.07235354 -0.05439066 -0.2052197 0.12285418

actor.2.bias f4 [32]
000000 94 98 e2 bc 80 29 73 3d 56 57 50 3c 23 fb ac bb
       -0.027660646 0.05936575 0.012716135 -0.0052789613
000010 50 fe 85 3c e7 40 71 bd 32 53 d7 3c a9 14 2c 3c
       0.016356617 -0.058899786 0.026284788 0.010502973
000020 14 63 59 3d ea a3 93 3d 80 8d 96 3d 7f 98 87 3c
       0.053073004 0.072089985 0.07351208 0.016552208
000030 fd 0a a5 3d 91 52 9f 3d 8b 0f ad bc f0 db 9b bd
       0.080587365 0.0777942 -0.021125576 -0.07610309
000040 c0 4d e9 bc a5 0c b8 3c 8f 99 37 3c e6 03 f5 3c
       -0.028479457 0.022466967 0.011206045 0.029909085
000050 3d 6f d2 3c 90 9d fa 3c d2 e1 48 3c 28 97 44 3d
       0.025687808 0.03059271 0.012260871 0.047995716
000060 35 ad d5 3c d8 c0 94 bc 3b 79 02 3c 20 03 8d 3d
       0.026083568 -0.018158361 0.007963474 0.06885362
000070 2c 8c 68 bc f2 64 43 3d f7 3a 94 3d 84 aa 4f 3c
       -0.014193576 0.04770369 0.07237809 0.012674931

actor.4.weight f4 [32, 32]
000000 4c 72 08 3e 38 3a 97 be c1 c4 88 bd ce 5c 55 3e
       0.13324851 -0.29536605 -0.06678153 0.20836183
000010 59 ec 27 be a1 51 cf bd 54 b9 78 3d c1 ae 9a bd
       -0.16398753 -0.10122991 0.060723618 -0.07552863
000020 a1 96 1b 3e 73 a3 36 3e 6b 79 f0 bd 6f 7b 33 bc
       0.15194179 0.17835788 -0.11741909 -0.010954722
000030 40 af b4 3d c5 e5 43 be 2e 72 aa 3c ee 80 05 be
       0.08822489 -0.19130619 0.020806398 -0.13037464
000040 1d 09 7d be 98 40 8f be 62 c5 2c be fb f2 33 3e
       -0.24710508 -0.2797897 -0.1687217 0.17573158
000050 7e 12 1f be 76 44 53 be d0 89 76 be 91 33 31 3e
       -0.15534398 -0.20631585 -0.24076009 0.17304827
000060 a9 67 45 3e a5 d5 c1 3d bd 91 13 3e 68 a6 8e be
       0.19277824 0.094645776 0.14411063 -0.27861333
000070 c3 bb 8e 3d 42 34 cd bc aa ec 40 be 14 3d ba bd
       0.069694065 -0.025049333 -0.1884028 -0.09093681
000080 81 2a 3c 3d 0c 04 11 be 04 3e 89 3e 6e 94 76 3e
       0.045938972 -0.141617 0.26805127 0.24080059
000090 e5 5e dc bd 6e 03 0e be 60 d4 7f 3c 6b 6a 61 3e
       -0.10760287 -0.13868496 0.015614599 0.22013251
0000a0 1f cf c1 3b 68 27 8e 3e 7b 12 ad be 8b 17 a3 be
       0.0059145833 0.2776444 -0.33803162 -0.318539
0000b0 49 e3 5d be eb c3 26 3e 08 d3 a8 bc 8b 72 21 bc
       -0.21668734 0.16285674 -0.02060844 -0.009853969
0000c0 bf 69 de bc d7 11 f4 3d 9d f8 fd bd 6e 9d 5c 3c
       -0.027150033 0.11917465 -0.12400935 0.013465269
0000d0 4d bf f0 bd 64 6e 59 3d 94 7c 0f be 84 43 de bd
       -0.11755238 0.053083792 -0.14012367 -0.10852721
0000e0 67 99 19 be bd c1 5c 3d 29 96 54 be c3 22 06 3e
       -0.14999925 0.0538957 -0.20760407 0.13099198
0000f0 ff ad 2c 3e c2 0c d3 bd 83 b1 91 be cf fa 7f 3d
       0.16863249 -0.10305168 -0.28455743 0.06249505
000100 bb 44 8e bc a3 e3 12 3e c3 e9 08 bd 0b b7 8c 3e
       -0.017366758 0.14344649 -0.033426058 0.274834
000110 c6 a3 92 3d 51 1e a7 3d 38 ce 8c 3e e9 f3 76 ba
       0.071601436 0.08160079 0.27501082 -0.0009420501
000120 ef 11 a8 3e c7 b2 7d 3d 03 d3 52 be ec cb 6c be
       0.32826182 0.061938073 -0.20588307 -0.23124665
000130 31 ae b4 3d 36 b0 86 3e 38 39 fd 3c cd 44 91 3e
       0.08822287 0.26306313 0.030911073 0.28372803
000140 58 b6 e6 bc c3 ad f6 3d f6 0a 5c 3e c5 94 17 3d
       -0.02816312 0.12044861 0.21488556 0.037007112
000150 03 eb 8d 3e c0 d6 86 be 30 14 92 3d 31 26 9e bd
       0.27718362 -0.26335716 0.07132757 -0.07722128
000160 14 38 62 3e c3 21 33 bd ea 03 4d bc 14 e0 4d be
       0.22091705 -0.04373337 -0.01251314 -0.2010501
000170 3e cb 0c be d9 2f 75 3e c9 af dd bd a5 1f 13 3e
       -0.13749406 0.23944034 -0.10824544 0.1436754
000180 ec db 12 3e cd 6b d1 3d 7d 64 02 3e 2f a8 74 3e
       0.14341706 0.102256395 0.12733646 0.23892282
000190 4a 16 36 3e 5b b4 13 3e 9a 5a 7f 3e b4 2c 2b 3e
       0.1778194 0.14424269 0.24936906 0.16716272
0001a0 d6 17 d5 3d ed 65 b2 3d b1 2c 58 be c5 28 94 be
       0.10404937 0.08710847 -0.21110798 -0.28937355
0001b0 4b a2 d4 3d 11 7f 8a bd 7b 3e fc bd 17 9f d2 3d
       0.103825174 -0.06762517 -0.12316605 0.1028425
0001c0 09 56 0a be ee 70 b9 be 03 10 79 bc 61 90 fe bd
       -0.13509382 -0.3621897 -0.015201571 -0.12429882
0001d0 23 46 e8 3d e3 8e 93 be e4 d4 28 3e 9b 03 81 bc
       0.113415025 -0.2881995 0.16487461 -0.01574879
0001e0 90 31 a2 be e5 a7 c1 3c 38 39 a8 bd 3c b1 f7 3c
       -0.31678438 0.023639629 -0.082140386 0.03023588
0001f0 37 22 48 be a8 fa 4b be 40 20 4f be b9 f6 02 be
       -0.19544302 -0.19919837 -0.20227146 -0.1278943
000200 bb 0b 41 3e d9 a9 d3 bd 60 3b f9 3c 78 7a 71 be
       0.18852131 -0.1033513 0.03042382 -0.23581874
000210 98 1a 10 be 03 2c 7b 3e 4a 64 32 bd 22 c5 30 3e
       -0.14072645 0.24528508 -0.043552674 0.172627
000220 93 33 1a be 57 e5 27 3e fb 8a 97 be e7 ac 03 3e
       -0.15058737 0.1639608 -0.2959822 0.12858926
000230 cd ee aa bd 3d 99 73 3e 4e 36 20 be d8 ee 95 be
       -0.08346329 0.23788925 -0.15645716 -0.29283786
000240 73 39 97 bd 1b 0c 4f be 83 de 48 3e 2a 97 4c be
       -0.073840044 -0.20219462 0.19616131 -0.1997954
000250 9c 92 df bd 4c f2 51 be b5 66 04 be 46 36 0a 3e
       -0.109166354 -0.20502585 -0.12929805 0.13497266
000260 33 95 42 3e f0 09 c6 3c 13 6f 51 be 65 da b3 be
       0.19002227 0.02417466 -0.20452528 -0.3512756
000270 0d 22 24 be a6 a6 fd 3d fd 74 7c bd 84 1f 95 3e
       -0.16028614 0.12385301 -0.061635006 0.29125607
000280 ef c6 e0 bd 93 41 8c be 33 f4 9e 3e 01 19 a8 3d
       -0.109754436 -0.2739378 0.31045684 0.08207894
000290 d7 f9 a6 3d 4b 4b ea 3d f0 41 1e be 5e c8 f6 bd
       0.08153122 0.11440142 -0.1545484 -0.12049936
0002a0 e8 a4 ab 3c b4 a5 bb bd de 77 8f be 4b a1 a0 3e
       0.020952657 -0.09162465 -0.2802114 0.31373057
0002b0 bf db 67 3c 5b 3e 64 be f8 ef e9 3a 1d cd a3 be
       0.014151513 -0.22289412 0.0017848006 -0.31992427
0002c0 0c 22 dc bd 5a 0d 8f 3e cb 1f 94 bc 55 a7 86 3e
       -0.107486814 0.27939874 -0.018081566 0.2629954
0002d0 72 96 dc 3c 97 6f 60 bc 97 70 22 bc b7 80 30 3e
       0.026927207 -0.01369848 -0.009914539 0.17236601
0002e0 ec 34 75 bb 00 3f 92 3d 48 0d 79 be 64 3e 8f 3e
       -0.0037415577 0.071409225 -0.24321473 0.27977288
0002f0 a6 92 23 3e 68 95 0b 3e bc aa 28 be ef 0c 9d 3e
       0.1597391 0.13631213 -0.1647138 0.3067393
000300 1e 59 12 3e 87 bb 41 3e fb f1 81 3e 91 26 7e 3d
       0.14291808 0.18919192 0.2537993 0.0620485
000310 1e 7d 31 3e 46 76 24 be 8e 1e 5b 3d 67 15 da 3b
       0.17332885 -0.16060743 0.053495936 0.0066553834
000320 bf 41 76 3e 7a 07 d7 bd cf a6 86 3d ea 05 a5 3e
       0.24048518 -0.10499473 0.06574785 0.32231075
000330 a5 76 53 3e 91 57 af 3e 17 e4 44 be a7 a8 3c be
       0.20650728 0.34246495 -0.19227634 -0.18423711
000340 64 3f 5e be 8f 94 7f 3e db 57 4d be 37 cd f0 3d
       -0.21703869 0.24959014 -0.20053045 0.117578916
000350 93 a3 1d 3e e7 f2 63 be d1 b5 80 3e 50 86 83 bd
       0.1539443 -0.22260629 0.25138715 -0.064221025
000360 c7 dd 84 3d 9e 73 ce bd 0f 63 a3 bc 07 d5 87 3e
       0.06487613 -0.10080646 -0.019944696 0.26529714
000370 a8 4c a7 bd 12 1b 1b be d2 5a a2 3e fb 5a 85 be
       -0.08168918 -0.15147045 0.31709915 -0.26045975
000380 9f a2 81 bd da 3f a5 be d8 39 8a 3e 58 8c 3f 3e
       -0.06329846 -0.32275277 0.26997256 0.1870588
000390 ee ec 47 3e 60 ea 22 be c3 65 77 be 5c da 78 be
       0.19523975 -0.1590972 -0.24159913 -0.24302047
0003a0 8d a0 bd bd 73 d7 0b be 6c 68 40 be 4c cd 4b 3e
       -0.09259138 -0.13656406 -0.18789834 0.19902533
0003b0 3c 0f 7a bb 0c d0 d6 bd 3c 20 04 be 78 21 a4 bd
       -0.0038156053 -0.104889005 -0.12902921 -0.08014196
0003c0 6a 10 0f be 6e dd 44 be 26 57 9a 3e 40 cc 91 3e
       -0.13971105 -0.19225094 0.30144614 0.28476143
0003d0 74 83 ab be f6 b6 83 3e 59 a0 4a 3e 97 e8 92 3d
       -0.33498728 0.25725526 0.1978773 0.07173269
0003e0 c1 d8 a2 3d dd 14 86 be 38 8d 65 3e 45 6b 75 be
       0.07951499 -0.26187792 0.22417152 -0.23966701
0003f0 32 6d 8a 3d f3 86 60 be 4b af 96 bd a9 02 0a 3d
       0.067591086 -0.21926479 -0.07357653 0.033693943

actor.4.bias f4 [32]
000000 4e df e2 bc 23 17 49 bd aa b2 5d 3c d8 78 c9 bc
       -0.02769437 -0.04909433 0.013531366 -0.024593756
000010 21 04 2f bd c0 2c 96 3c 33 ac 81 3d ba d5 89 bc
       -0.042728547 0.018331885 0.063316725 -0.016825546
000020 b2 4d 30 3e d5 86 64 3d fe 69 38 3d 8f 7e 6b bc
       0.17217138 0.05579265 0.045022957 -0.014373436
000030 36 68 9c bc 21 cf 96 bc 5f 71 96 3d b9 82 36 3d
       -0.01909266 -0.018409314 0.073458426 0.04455826
000040 84 c0 53 3c c9 ae f5 bb e5 a8 f6 bc c4 6b 33 bd
       0.012924317 -0.0074976427 -0.030109832 -0.043803945
000050 74 61 83 bc 76 ad 78 3c b4 f2 a1 3d 90 97 8c 3c
       -0.01603768 0.015178075 0.0790762 0.017162114
000060 f1 a5 82 3d 9c ad 37 3d 3b a7 4b bd f6 f7 3d 3c
       0.06379307 0.0448433 -0.04972003 0.011594763
000070 9b ee d3 bc af 77 9d bc 37 d3 9a bc 2e 7d a5 3d
       -0.025870612 -0.019222109 -0.018899543 0.08080517

actor.6.weight f4 [4, 32]
000000 1f 3e cb be 47 f3 8c be 96 40 84 bc cd 27 86 be
       -0.39695832 -0.27529356 -0.016144078 -0.2620224
000010 a7 b0 5b be 93 ca 92 3d ca fd 59 3e 01 ec 38 3e
       -0.21454106 0.07167544 0.21288219 0.18058778
000020 a7 fd 14 3e 37 d4 88 bc a0 0c a4 ba 90 92 6c 3e
       0.14549886 -0.016702754 -0.001251597 0.23102784
000030 bb ab 72 3e a2 7f 80 3e 4d e0 c2 3e ee 76 fe bc
       0.23698322 0.25097376 0.38061753 -0.03106257
000040 9c 75 ce be cb 49 cc be b6 c6 2a 3e 7a 26 43 be
       -0.40324104 -0.3990005 0.16677365 -0.19057646
000050 a6 94 48 3e 8f 31 2a 3e a0 90 0f be d5 40 f6 3d
       0.19587955 0.16620468 -0.14020014 0.120240845
000060 94 69 8d 3c f3 14 5e 3e 6d dd 1c 3e 08 37 94 bd
       0.017262258 0.21687679 0.15318842 -0.07237059
000070 4d 1c 9a bd 5f 83 9d 3e b1 a5 0b 3d ca 94 ce 3d
       -0.07524929 0.3076429 0.034093563 0.10086973
000080 f8 de c3 be 54 d1 1d 3e 79 6b 74 be 02 a2 3a 3c
       -0.3825605 0.15411884 -0.23869123 0.011391165
000090 47 d4 8b be 4e 96 cb 3d 3f cc 88 3e 39 e4 38 3e
       -0.27310392 0.09940778 0.26718327 0.1805581
0000a0 fe f6 ee 3e 95 4c b0 3e 15 64 60 bc 57 66 83 be
       0.46672815 0.34433427 -0.013695736 -0.25664017
0000b0 5d 3a ac bd 22 4c 60 be 99 9e 22 3c a7 90 88 3e
       -0.084095694 -0.21904042 0.009925508 0.2667286
0000c0 a6 77 bd 3e 3d 36 6c be 42 2f 74 be cf ed 91 3e
       0.37005347 -0.23067565 -0.23846152 0.28501746
0000d0 75 59 0e 3e ea 76 ac be 53 e5 4b 3e 0a f5 8a 3b
       0.13901313 -0.33684474 0.19911699 0.0042406367
0000e0 c3 5b a6 3e 81 75 66 be 75 aa 99 bc 63 58 ae 3e
       0.32491884 -0.22505762 -0.018758038 0.3405181
0000f0 b4 3f c6 be 6f ac b6 be 5e 07 e1 3d 3e 7d c2 3e
       -0.38720477 -0.3567843 0.10987733 0.37986177
000100 05 56 59 3e 43 98 60 be a6 02 65 3e 2d 87 37 bd
       0.2122422 -0.21933083 0.22364292 -0.044806648
000110 62 66 bb be 26 1a 53 3e ea 06 4f be f9 a2 c2 be
       -0.3660155 0.20615444 -0.20217481 -0.38014963
000120 71 b2 47 3e 99 31 52 be 46 6d 51 be 89 fd a2 be
       0.19501664 -0.20526733 -0.20451841 -0.31834057
000130 c6 7c b5 3d 3d 8e 37 be 14 f1 bd 3e 5c bd 0d 3e
       0.08861689 -0.17925353 0.3709799 0.13841766
000140 e1 cb 08 3e 4a 71 ad be f1 83 ab be ed 3b f3 3d
       0.13359024 -0.33875495 -0.334991 0.11876664
000150 f1 ec ca 3c 82 7d 85 be 37 70 93 3e ae 17 b7 be
       0.024771186 -0.26072317 0.2879655 -0.35760254
000160 42 20 5d be 99 8c 83 3e 05 63 99 be 7f 95 81 3e
       -0.21594337 0.25693205 -0.29958358 0.2530937
000170 47 07 44 3e e2 05 98 be ae 8a 70 3e 56 e2 b6 3e
       0.19143401 -0.29691988 0.23490402 0.35719556
000180 28 9a 7b 3e 7e 82 c2 3e 7d fe 9c bd 11 39 da bd
       0.24570525 0.37990183 -0.07665727 -0.10655416
000190 75 9f 87 3e 8e 9f b0 bd 57 22 09 bf d6 70 9c 3e
       0.26488844 -0.08624183 -0.53568023 0.30554837
0001a0 18 a8 87 be a3 46 ae be 0a 0f 1a be 25 c8 6e be
       -0.26495433 -0.34038267 -0.150448 -0.23318537
0001b0 e3 c4 68 3e 1b be 96 3e 6f 38 f0 be ab 33 4f be
       0.22731356 0.29441914 -0.46918055 -0.20234554
0001c0 d3 7d d6 bd 96 e0 b1 3e 1e ec 63 3c fc c9 8d 3d
       -0.10473218 0.34741658 0.013911275 0.06923291
0001d0 4c 4a aa 3e 27 23 c6 be ab 12 04 bf e4 09 8e bd
       0.3325981 -0.38698694 -0.51590985 -0.0693548
0001e0 23 06 ab be 90 d1 d8 be 4f e9 55 3d e8 d9 f0 bd
       -0.3340312 -0.42347383 0.052224454 -0.11760312
0001f0 34 f4 a0 bd 73 57 02 be 97 eb c3 3e 00 55 d5 bd
       -0.07859078 -0.12728672 0.38265678 -0.10416603

actor.6.bias f4 [4]
000000 dd 2a b0 3c b0 a4 3c 3d fb 3e e5 3c 02 c4 d7 bd
       0.021504814 0.046055496 0.027984133 -0.105354324

critic.0.weight f4 [32, 181]
000000 9b cf 41 3e ac 86 2b 3e 49 ad 52 3e a0 a7 2d bd
       0.18926851 0.16750592 0.20573916 -0.042396188
000010 17 67 13 bd 63 1e 5a bd 2e a7 bf 3d a2 27 56 3b
       -0.035986986 -0.053251635 0.09358059 0.0032677432
000020 42 38 ca bd b9 85 e6 3c 06 54 fe 3d f5 dd 7b 3d
       -0.098740116 0.028139936 0.1241837 0.06149097
000030 6b 90 49 bc 1b 1c 1c 3e 75 7b dd 3d 95 4c e3 bc
       -0.012302498 0.15245096 0.10814563 -0.027746478
000040 39 ac 41 bd 3f f4 2f 3e 4a 6a 96 3d 54 ba 64 3d
       -0.047283385 0.17183016 0.07344492 0.05584176
000050 0a 07 62 3e 08 0a 25 3e ea 43 74 3e 03 91 fd 3d
       0.22072998 0.16117108 0.23854032 0.123811744
000060 6c a7 14 bd 8c cd 00 3e 26 b7 93 3e dc 5d b0 3c
       -0.03629248 0.1257841 0.2885067 0.02152913
000070 42 bb 5c 3d 28 d3 2e 3d 57 89 54 3d 87 e9 6d 3e
       0.05388952 0.042681843 0.05188879 0.23233615
000080 9b 0c 64 3e e0 8e 29 3d b7 84 c2 3b 1a 6d 04 bd
       0.22270434 0.04139602 0.005936231 -0.03233061
000090 7c 96 f8 bc df f6 f8 bd d0 5c 35 3e d5 7b 20 3e
       -0.030345194 -0.12156462 0.17711186 0.15672238
0000a0 a2 37 85 3c 47 3e fc 3d 15 46 d9 3c 9b fd 3e bd
       0.01626188 0.12316566 0.026522676 -0.046628576
0000b0 c3 cd d8 3d 2d a4 dd 3d 09 b2 c5 bb 00 39 6e 3d
       0.10586121 0.1082233 -0.0060331863 0.05815983
0000c0 1a ac 5c 3e 16 69 35 3e b7 71 26 bd 0c b1 54 bd
       0.21550027 0.17715868 -0.04063579 -0.051926658
0000d0 f2 eb 61 3e e5 41 5e 3e 63 1a 2d 3e 88 66 91 3d
       0.22062662 0.21704824 0.16904597 0.070996344
0000e0 b3 6e a9 bd 48 f5 0d 3e 3a a4 0a be 14 e1 4c 3e
       -0.08273067 0.13863099 -0.1353921 0.20007735
0000f0 de d1 31 3e cd e0 c8 3b 72 f9 9e bb 95 5e 3f 3e
       0.17365214 0.006130314 -0.0048515135 0.18688424
000100 18 bd ab 3d 78 a6 3c 3d ee 2c dd 3c a3 08 c3 bc
       0.08385676 0.046057194 0.026998963 -0.02380783
000110 93 0f f6 3d 40 c8 bf bd a4 c1 1d 3d 36 10 0d 3e
       0.12014689 -0.093643665 0.03851475 0.13775715
000120 11 38 2a 3e d2 df 50 3d 0b 54 c9 3c 39 71 0b 3b
       0.1662295 0.0509947 0.024576208 0.0021277203
000130 48 2c 2d 3d 0d 00 cb bc 5d f4 70 3d 06 f3 ef bd
       0.042278558 -0.024780298 0.058826793 -0.11716275
000140 33 5a 10 3d a1 ee 00 3d 0d dc d4 bc 3a 46 9e 3d
       0.03524227 0.031477574 -0.025983835 0.077282384
000150 a4 e8 b4 3d 0d 06 5c 3c 9e a5 84 bd f3 2c 02 3d
       0.08833435 0.013429177 -0.064769015 0.03178115
000160 a4 43 04 3d de d1 17 be b0 30 59 3d d1 cf 02 3e
       0.03229107 -0.14826152 0.053024948 0.12774588
000170 0f 88 6c 3c 94 9e 10 3e 67 7e ba 3d d0 a5 1d 3e
       0.014436736 0.14122993 0.091061406 0.15395284
000180 5a 92 bc 3d c5 14 25 3e 84 75 03 be 2b ce 90 bd
       0.09207602 0.16121204 -0.12837797 -0.070705734
000190 e8 2c b8 3d 51 44 ba ba 5d 12 f6 3d 94 82 48 3e
       0.0899294 -0.0014211034 0.12015221 0.19581062
0001a0 75 9d 02 3e 85 8d 35 3e b0 0a 81 3d 0a 06 22 be
       0.12755378 0.17729767 0.063008666 -0.15822616
0001b0 62 85 93 3c 52 83 f4 bc 15 de 27 3e c3 d4 43 3e
       0.018007938 -0.029847775 0.16393311 0.19124131
0001c0 10 ad 15 3e 1f 2f 20 bd 36 48 54 3e 5d 13 e3 bd
       0.146168 -0.03910744 0.20730671 -0.11087678
0001d0 9c b6 aa bb 8d 1a ac 3d 0a 62 06 be af b7 95 bd
       -0.005209757 0.08403502 -0.13123336 -0.073104255
0001e0 c7 79 22 bd 1f d5 20 bc 5f fe 6f 3c 4b 0e d8 3c
       -0.039666917 -0.009816437 0.014648049 0.026374003
0001f0 f6 ce 9a 3d fd fe 30 3e 70 5c 35 3e 74 16 15 3e
       0.07559006 0.1728477 0.17711043 0.14559346
000200 ef 5d 0f be 2b 8f 3c 3d 97 1e cc 3c 0b 8c 3a 3e
       -0.14000677 0.046034973 0.02491693 0.18217485
000210 bf cb 28 3e 5f 9f 64 bd b0 5a 34 3e 42 22 aa bc
       0.16483973 -0.05581605 0.1761272 -0.020768289
000220 df 71 2c 3d b8 55 aa bc 6e bb d1 bd b2 89 52 bd
       0.042100783 -0.020792827 -0.102408275 -0.051400848
000230 9b fa 41 3d 43 89 12 3e e6 52 1f bd 9c 19 94 bd
       0.047358137 0.14310174 -0.038897417 -0.07231447
000240 cb dd 31 bd b5 8e 1a bd 0a 62 e7 3b 4a b0 83 bd
       -0.04342441 -0.037733752 0.0070612477 -0.06430109
000250 45 0f bd 3c 49 bb 22 3e 99 57 e8 bb 92 93 17 3e
       0.02307857 0.15891756 -0.0070905206 0.14802387
000260 db fa 68 bd f7 50 f9 bd 7d 62 b3 3d f3 8c c2 3d
       -0.05687986 -0.12173646 0.087590195 0.0949954
000270 45 51 a4 bd 58 2d 0d be 95 f5 4f bd b2 41 34 bd
       -0.080233134 -0.13786829 -0.050771315 -0.044007964
000280 3c 27 e9 3d 88 40 3d 3d aa ae 17 3c 68 65 0d bd
       0.113844365 0.04620412 0.009257952 -0.034520537
000290 8a 60 d1 3d d2 65 9a 3d 07 10 4d 3d 0b 7b 29 bc
       0.102234915 0.07538952 0.050064113 -0.010344277
0002a0 23 e7 c5 3d 39 32 89 bd 19 5d 57 3c 35 0e 0a be
       0.096632265 -0.06699032 0.013144755 -0.13481982
0002b0 d9 f4 fe bd 03 75 e8 3d d3 97 80 3e 63 83 64 3d
       -0.12449045 0.11350443 0.25115833 0.055789363
0002c0 aa e0 7c 3b 8b ee a2 ba 69 09 34 3e a2 78 bb bb
       0.0038586059 -0.001243071 0.17581715 -0.0057211677
0002d0 6f 63 27 bd d3 65 b7 3c 31 75 1b 3e b2 c5 72 bc
       -0.04086631 0.02238742 0.15181424 -0.014817642
0002e0 d5 91 e8 3d d7 22 2a 3e 40 39 f9 bd a5 43 0c 3d
       0.1135594 0.16614853 -0.12169123 0.0342442
0002f0 3c f9 35 3e 1e cd c1 3d 16 2c b3 3d 49 8d fd 3d
       0.17770857 0.09462951 0.08748643 0.12380464
000300 20 28 01 3e 64 17 c5 3b 71 f3 08 3e ff c9 80 bd
       0.12612963 0.0060147513 0.13374116 -0.06288528
000310 62 23 7b 3c 4a c0 f9 3c 41 37 34 bc 3a 07 43 3e
       0.01532826 0.030487198 -0.010999502 0.19045725
000320 11 53 20 3d 74 43 ce bc 2f a2 c0 3d 13 6a d2 3c
       0.03914172 -0.025178649 0.09405934 0.025685346
000330 38 0e db 3d b8 66 09 bd 05 01 5b 3e 25 0a 71 3d
       0.106960714 -0.033545226 0.21387108 0.058847565
000340 e0 b7 42 3e c1 6b 43 3e b6 f7 86 bc 41 16 4c 3e
       0.19015455 0.19084074 -0.01647554 0.19930364
000350 70 00 4a bb 04 eb 56 3d 83 e4 c9 bd 6c 2e a8 bd
       -0.0030823015 0.052470222 -0.09858038 -0.08211979
000360 af 57 04 3e 8e 8d 95 bd 25 85 4f 3e 5e 60 99 bd
       0.12924074 -0.0730239 0.20265634 -0.07489084
000370 e6 bf 2b 3e d8 72 74 3d 57 f0 71 bb c0 29 3d 3e
       0.16772422 0.059679836 -0.0036916935 0.18472958
000380 c1 84 74 3e 4d f0 fc 3c 95 c4 93 3c 69 24 50 3e
       0.23878767 0.030876303 0.018038074 0.2032639
000390 8d 63 0b 3e f3 46 89 bd bf 08 9c 3d bc bd 12 3e
       0.13612194 -0.067029856 0.07618856 0.1433019
0003a0 80 70 14 3e 0d a4 34 bd 20 20 2e 3e b7 50 64 3d
       0.1449604 -0.044101764 0.17004442 0.05574104
0003b0 34 c3 52 3d e3 c5 df 3c 5c f6 02 bd 6b f5 34 bd
       0.05145569 0.02731604 -0.031973228 -0.04417936
0003c0 b5 08 82 bd 8a d9 22 3e 96 09 3d 3e 12 3c b7 3d
       -0.06349317 0.15903297 0.18460688 0.089470044
0003d0 51 d3 ab 3d fe 25 4d bd d6 99 fa 3d 19 71 82 3d
       0.08389915 -0.05008506 0.12236373 0.06369228
0003e0 ce 47 28 bd c4 f7 4a 3c 68 55 f2 bc 70 94 29 3e
       -0.041084103 0.0123881735 -0.02958174 0.1656053
0003f0 2b 20 95 bb 0d b1 50 3d 98 8e 3b 3c d0 7c 46 3e
       -0.004550954 0.0509501 0.011447571 0.1938355

critic.0.bias f4 [32]
000000 44 14 17 3e 12 09 20 3e 0b e2 1e 3e 4c 89 32 3c
       0.14753824 0.1562846 0.15515916 0.010896992
000010 59 5e 9b 3d 57 5e 95 bd c1 e7 93 bc 9e 77 56 bd
       0.07586355 -0.072933845 -0.018054845 -0.05236017
000020 3a 6b 08 3e 75 2a 0a 3e 54 ad 04 3d fd f3 12 3e
       0.13322154 0.13492759 0.03239186 0.14350887
000030 9d a0 15 3e 97 65 0b 3e 31 d9 4d bd df d1 17 3e
       0.1461205 0.13612972 -0.050255958 0.14826153
000040 a3 2c 10 3e 38 ae 0d 3e 34 0a 0b 3e d9 14 15 3e
       0.14079528 0.1383599 0.13578111 0.14558734
000050 42 ed 1b 3e 8a 95 03 3e a1 96 16 3e 5c f9 0a 3e
       0.15227225 0.12850013 0.14705898 0.13571686
000060 be 7d a4 3d e6 e7 25 3e bb 3d 1c 3e e5 bb 0d bd
       0.08031796 0.16201743 0.15257923 -0.03460302
000070 83 84 d0 3d f2 42 2a 3e 7f 2a 1d 3e bc 06 1a 3e
       0.101815246 0.166271 0.15348242 0.15041631

critic.2.weight f4 [32, 32]
000000 06 99 bd bd 29 9a 0b 3d 0d e3 a2 3d ef f9 66 be
       -0.092577025 0.034082565 0.07953463 -0.2255628
000010 72 6b 5f be b3 0a 23 3e 0f 3b 9e 3d 05 29 d2 bd
       -0.21818331 0.1592205 0.07726108 -0.1026173
000020 a2 35 6a 3e 1f b8 99 be ad 11 79 be bc c2 87 be
       0.22872022 -0.30023286 -0.24323149 -0.26515758
000030 1e 09 93 bc 71 e3 9d be b6 4c 8d 3d 01 82 7c 3e
       -0.017948683 -0.30837587 0.06899397 0.24658968
000040 9f f5 6f bc a1 ef 68 3d 13 61 5e bc 6d 25 7f be
       -0.014645963 0.056869153 -0.013572949 -0.2491662
000050 3a 12 15 3e f7 bc f8 bd dc b1 c3 be ef 2d c0 be
       0.14557734 -0.12145417 -0.38221633 -0.37535045
000060 dc 7e 43 be 6a c1 e9 bd db a9 92 be d4 04 90 be
       -0.19091362 -0.11413844 -0.28645214 -0.28128684
000070 b0 16 e4 bd 40 91 9e be 75 e8 23 bd 9b a2 12 be
       -0.1113714 -0.30970192 -0.04001661 -0.14319842
000080 bc a5 6e be 27 ed 87 3e 07 9d 8b be 26 f3 8c 3e
       -0.2330541 0.2654812 -0.2726824 0.27529258
000090 e6 2f 69 3e f0 29 10 be cc dd 69 3e 55 70 d2 bd
       0.22772178 -0.14078498 0.22838515 -0.10275332
0000a0 0d 78 12 be d1 4c b5 3d fd 06 62 be 4e fb c9 3d
       -0.14303608 0.08852542 -0.22072978 0.09862386
0000b0 6b ac 8a be b0 54 40 3e 25 26 39 be 41 8e 82 3e
       -0.2708467 0.18782306 -0.18080957 0.25499156
0000c0 08 d7 2a 3e 4c df 85 be 6e 59 a2 be f7 af d7 bb
       0.1668359 -0.26146924 -0.31708854 -0.006582256
0000d0 52 43 3f be f2 49 59 be 19 ea 47 3d cf fa c7 bd
       -0.18678024 -0.21219614 0.048807237 -0.09764635
0000e0 a9 91 9c bd f7 a3 91 be 34 bc 49 be 89 be 3f 3e
       -0.0764497 -0.28445408 -0.197007 0.18725027
0000f0 34 17 af bd 12 87 f7 bd 6c 12 6a bd 90 22 22 3e
       -0.085493475 -0.120863095 -0.057146475 0.15833497
000100 d1 3b 91 bd 1d a8 cf bd a1 f8 c4 3e 5f c5 02 be
       -0.07091487 -0.10139487 0.3847094 -0.12770604
000110 f4 28 3b bd 69 07 90 bd 36 bc e0 bb e0 2b ba bd
       -0.045693353 -0.070326634 -0.006858374 -0.090904
000120 0f db 5a 3d 82 6a 68 3d d6 c4 2b 3e 3e 05 57 be
       0.053431567 0.0567422 0.16774306 -0.20998093
000130 ff 3b c1 3e 2e 53 a6 3d 1d 2e 33 be 9c c4 8f 3e
       0.37741086 0.08121334 -0.1749806 0.2807969
000140 18 a6 63 be 71 02 5f 3e a6 e2 dc 3c 7a e7 bc 3d
       -0.22231328 0.21778275 0.026963543 0.09223838
000150 8c 59 d3 3e 06 f7 bc 3d 98 44 d0 3e 4b 51 4c 3e
       0.41279256 0.092268035 0.40677333 0.19952886
000160 7c 05 45 be 63 dc c3 3e ca 7f 1b 3e 75 92 29 be
       -0.19240373 0.3825408 0.15185466 -0.16559775
000170 48 bd 77 3e dd 9d c0 bd 04 e8 d5 3e 80 ff ae bd
       0.24193299 -0.0940511 0.41778576 -0.085448265
000180 8b c3 9d 3e c8 01 a7 3e 7a 94 dc 3e 0c d9 26 3d
       0.3081325 0.32618546 0.4308203 0.040734336
000190 da 44 52 3e dc 7a 7d 3e 69 6d bc bd 27 1a 2a be
       0.20534077 0.24753898 -0.09200556 -0.16611539
0001a0 21 a6 84 bd 66 ff bc 3e 7d 4e 72 3e 10 a3 df bc
       -0.06476999 0.36913604 0.23662753 -0.027299434
0001b0 e9 7d c0 3e 00 12 61 be 73 52 4a bc bb 83 81 3d
       0.37596062 -0.21979523 -0.012348759 0.06323954
0001c0 fb e1 7a 3e f1 8f aa 3e b2 c6 b6 3d 28 0a 77 bc
       0.24500267 0.33312944 0.08924617 -0.015078105
0001d0 7c e9 9f 3e 03 ca c5 3e 5a 98 42 3d 04 2d aa 3e
       0.31232822 0.38630685 0.047508575 0.3323747
0001e0 fb 41 ef bd b3 f5 52 3e 64 7a f6 3d c0 a9 a5 bd
       -0.11682507 0.2060154 0.12035063 -0.08089018
0001f0 58 4e 4c be a0 a4 18 3c 4a 82 12 3e b8 bd a6 3e
       -0.19951761 0.009316593 0.14307514 0.3256662
000200 c4 5a 2d be f8 5b a2 3d 09 c2 b9 3e 0e ee 7c be
       -0.16929156 0.07927698 0.3628085 -0.24700186
000210 d0 d2 60 3e 5b 94 66 bc ed f9 0d bd ea 5d 36 3b
       0.21955419 -0.014073457 -0.034662176 0.0027826973
000220 6d f9 ba 3e 0a c8 d6 bd ee 52 5a 3e da 07 80 3d
       0.36518422 -0.10487373 0.21320698 0.062514976
000230 8d 6a 97 3e 37 6b 0e 3e 55 68 09 be 3e 60 8e 3e
       0.2957348 0.13908087 -0.13418706 0.27807802
000240 e6 3a 7c 39 ef 66 04 3e 77 ee 1b be 70 d4 98 38
       0.00024054534 0.12929891 -0.15227686 7.2874944e-05
000250 03 d3 3b bd 50 5f 54 bd bb 64 9c 3e be 64 ee 3e
       -0.045855533 -0.05184871 0.305456 0.46561235
000260 7e a8 ee bd f0 b2 0a bd 15 1f 91 bd 27 40 37 3e
       -0.11653231 -0.033862054 -0.070860066 0.17895566
000270 88 6d 47 bc 62 07 e1 3d 31 55 20 3e 61 3b ee 3c
       -0.01217211 0.10987736 0.15657498 0.029081048
000280 04 8f 98 3e 44 4d c7 3e 85 e8 51 3e 1d 4f b9 3c
       0.29796612 0.38926136 0.20498855 0.022620732
000290 b5 0b 97 3e 1e 16 05 be 8c dd 43 3e 8d de a2 bd
       0.2950112 -0.12996718 0.19127482 -0.079526044
0002a0 82 8f 93 3e 6a 05 65 bd df e5 ac b9 41 6f 78 bd
       0.28820425 -0.055913366 -0.00032977664 -0.060652975
0002b0 8a c2 af 3d 68 c8 83 3e 7b 2a 8d be 20 74 bc 3e
       0.08582027 0.25738835 -0.27571473 0.36807346
0002c0 07 08 a2 bd 2b 49 be bc aa a7 0c 3e 10 45 ba 3e
       -0.07911687 -0.023228249 0.13735834 0.36380816
0002d0 f4 df 49 bd 5d fa 00 be b3 6a 46 bd 1b fb 49 3e
       -0.049285844 -0.12595506 -0.0484416 0.19724695
0002e0 f6 d3 7f bd 91 de 6a 3e 83 44 8b bb 2c 54 05 bd
       -0.062458 0.22936465 -0.0042501106 -0.032550976
0002f0 9c 0e 47 3d 45 e3 03 bd c4 16 9b 3e b5 8b 3b 3e
       0.048597917 -0.032199163 0.30290806 0.18315013
000300 75 a5 5e 3d 9b f8 d3 3e 1c 3f a0 3e 5c 45 ef bd
       0.05435701 0.41400608 0.3129815 -0.11683151
000310 7a 46 82 3e 36 6d 88 be dd 8f 5c be 16 87 76 3e
       0.25444394 -0.2664582 -0.21539254 0.24074969
000320 f3 65 87 bd 4d d3 3a be 17 ad a1 3e 5e 52 9d 3d
       -0.06611242 -0.18244667 0.3157737 0.07681726
000330 4f ed a9 3e 16 95 dc bd 14 e4 04 3d dd 5e 89 3e
       0.33188865 -0.107706234 0.032444075 0.26830187
000340 6a e8 89 3e b8 13 02 3e e1 3d 2e 3d 22 62 37 3e
       0.2693513 0.12702835 0.04253948 0.17908528
000350 4b 6e 6a 3e 6a d4 61 3e f6 94 cd bd 14 ad 21 3e
       0.22893636 0.22053686 -0.10038178 0.1578868
000360 84 05 7c 3e 42 3f 0e 3d cf ef 19 be 51 6f 80 3e
       0.24611479 0.034728296 -0.15032886 0.25084928
000370 dc ed dc bd 6e 84 c1 3e 5c 34 05 be 0a 64 a4 3e
       -0.107875556 0.37796348 -0.13008255 0.32107574
000380 e7 ef 92 bd bd 9b f6 3d 6f 98 90 bd 74 2c 2e be
       -0.07174664 0.120414235 -0.070603244 -0.17009145
000390 dd fe 92 3d 30 50 51 3e 4a a0 8a 3d e4 68 60 be
       0.071775176 0.20440745 0.06768854 -0.21915013
0003a0 ad d7 88 bd 74 55 d9 3c 41 2a 8b 3e 3e 75 9d 3e
       -0.06681762 0.026530005 0.27180675 0.3075351
0003b0 6a 7f 61 3e 0e 28 33 be fa 31 ae bd 0c 41 a8 3e
       0.22021261 -0.17495748 -0.08505626 0.32862127
0003c0 f7 f7 e5 3d b8 fc ac 3e 29 e1 7a 3e c4 76 2a 3e
       0.11228936 0.3378656 0.24499954 0.16646868
0003d0 83 87 0d 3e 67 0f 89 3c a4 9b 60 3e a4 c1 72 bd
       0.13821225 0.016730977 0.21934372 -0.0592667
0003e0 c0 b9 0d 3d 89 02 5e 3e b7 c6 d2 3c 90 ed 90 be
       0.034600973 0.21680655 0.02572952 -0.28306246
0003f0 44 68 34 be 70 d8 40 3e 8b ae cc 3e 56 cf b1 3e
       -0.17617899 0.18832564 0.39976916 0.34728497

critic.2.bias f4 [32]
000000 82 2c 87 bd 9b 6e 77 bc 60 19 ea 3d 28 61 d9 3d
       -0.06600286 -0.015102054 0.11430621 0.10614234
000010 c1 87 08 3e 78 10 ed 3d 7e 17 20 3e 09 78 00 3e
       0.13333036 0.11575407 0.15633962 0.1254579
000020 58 7d a3 bd 77 a5 b2 3d 5c 77 48 3d 58 60 a5 bd
       -0.07982892 0.08722966 0.048941955 -0.08075017
000030 5a 1e b5 3d c4 72 b9 3d 75 8e e6 3d 48 92 7a bc
       0.0884368 0.09055093 0.1125764 -0.015293665
000040 8b 63 cd 3d 65 69 f3 3d 22 b2 a4 3d af 63 b8 bc
       0.10028752 0.11885337 0.08041789 -0.02250847
000050 f7 46 ce 3d a1 46 bb 3d f4 dd 8f 3d d0 1e b3 bd
       0.10072129 0.09144331 0.07024756 -0.087461114
000060 9a 9f 25 bc ee a0 76 bc 8c 86 12 3e f0 92 2f bd
       -0.010108853 -0.015053017 0.14309138 -0.04286474
000070 db c5 1d 3b 1b 9f 05 3e 0f 9c db bc 53 cf ae 3d
       0.002407423 0.13048975 -0.026807813 0.08535638

critic.4.weight f4 [32, 32]
000000 bc 16 f7 3d cd 11 9f bc 17 44 b9 3e 13 e1 7c 3e
       0.12064883 -0.019417668 0.3618476 0.24695234
000010 7d 3b 21 3e 61 f1 8f 3c f4 a3 17 be f9 3d d7 3e
       0.15745349 0.017571153 -0.14808637 0.4203947
000020 9c 56 82 bd 57 03 96 3e 08 11 f8 bd b2 b9 c5 be
       -0.06364176 0.29299423 -0.121126235 -0.38618237
000030 34 9e ea 3e 1c 89 a8 bd 1b 6e 07 be 08 2e 26 3e
       0.45823824 -0.082292765 -0.13225596 0.16228497
000040 74 a8 a6 bd 9e c1 5f 3e 2f 9e 0c be 21 06 21 be
       -0.08137599 0.21851203 -0.13732217 -0.15724994
000050 28 da b6 3e 99 79 5d bd a9 61 07 be 50 59 78 be
       0.35713315 -0.054071043 -0.13220848 -0.2425282
000060 f8 be 3f 3e 6a 9d 82 3c bb 5b 31 3e 9a 4e be bd
       0.18725193 0.015944201 0.17320149 -0.09292336
000070 b9 19 1b bd 72 56 ee 3e 44 6f 00 3e 86 06 ff bd
       -0.037866328 0.46550328 0.12542444 -0.12452416
000080 2d a0 6a be 7e 2a 42 be 1b 36 03 3e 6e 89 24 3e
       -0.22912665 -0.18961522 0.12813608 0.1606805
000090 3a ea 1a bd 2e e4 a6 be 43 be 57 3e 5c 2c 25 3d
       -0.037821032 -0.32595962 0.21068673 0.040325508
0000a0 02 71 34 3e 60 e9 56 3c d1 8f 72 be ae 1b ed bd
       0.17621234 0.013117164 -0.23687674 -0.11577545
0000b0 70 bd 88 be 06 e9 16 bc d4 f7 64 be 0f 40 11 3d
       -0.2670703 -0.009210831 -0.22360164 0.03546148
0000c0 39 49 61 be 94 4f 10 3e 05 73 3c 3e de f1 35 3e
       -0.22000588 0.14092857 0.18403251 0.17768046
0000d0 08 e3 31 be 1d a3 11 bd 33 06 7d be c2 8e 17 be
       -0.17371762 -0.035555948 -0.24709396 -0.14800552
0000e0 65 47 2d 3e 0b 6b 80 3d f7 37 e2 ba 6e f4 35 bd
       0.16921766 0.06270417 -0.001725911 -0.04442256
0000f0 2a 55 ab bd c3 f1 28 3e 0a 26 9c bc 73 60 04 3d
       -0.08365853 0.16498475 -0.019061107 0.032318544
000100 b5 c1 3e be c5 dc 38 3e 6c f6 31 3e 2a d5 b6 3d
       -0.18628581 0.18052967 0.17379159 0.089273766
000110 45 18 a4 bb 65 3a db 3d 64 e8 76 3d a8 6a 51 3e
       -0.005007776 0.10704497 0.06028022 0.20450842
000120 cd dd 7f be b2 f8 89 3e ec 67 92 3e b3 e1 1f 3d
       -0.24986954 0.26947552 0.2859491 0.039033603
000130 4f 7e 4c 3e 48 bb 83 3e 27 80 84 bd f1 de 6a 3e
       0.19970058 0.25728822 -0.064697556 0.22936608
000140 7d da 83 be 45 f2 24 be 85 15 8a 3e a9 20 81 bd
       -0.2575263 -0.16108043 0.26969543 -0.063050576
000150 eb 35 25 be e3 12 54 be f8 82 60 be e3 d8 ca bc
       -0.1613385 -0.2071033 -0.2192496 -0.024761623
000160 56 72 4f 3d c2 e8 8e be ed 38 17 3d f3 57 47 3e
       0.05064615 -0.27911955 0.036919523 0.19467144
000170 1d fc 12 bb 5f 57 76 3e e8 56 8c 3e c1 33 5f be
       -0.0022428103 0.24056767 0.27410054 -0.21797086
000180 2b de 66 3e 7b a7 79 be ca 02 a9 3d 4f fb 64 3e
       0.22545688 -0.24380295 0.08252485 0.22361492
000190 71 35 82 bd 82 89 b1 bd 04 f4 ba 3d 42 10 ca 3e
       -0.063578494 -0.08668806 0.091285735 0.3946553
0001a0 75 9f 36 be 3c 34 9f 3e 36 b2 6d 3e 33 89 9c be
       -0.17834266 0.3109454 0.23212513 -0.30573425
0001b0 77 43 0e be 47 3c 2e 3d 99 1e d2 3e 59 bf 56 be
       -0.13892923 0.042537954 0.4103897 -0.20971431
0001c0 f0 53 72 3e 62 c7 17 3e 47 01 cd bd 76 27 4e be
       0.23664832 0.14822152 -0.10010009 -0.2013224
0001d0 e1 d5 be 3e 85 45 a1 3e 23 32 bc 3e 76 b6 4c bd
       0.37272552 0.31498352 0.36757 -0.049978696
0001e0 77 10 08 3e 81 69 a1 bd 73 dd d4 bd e7 2a 25 3d
       0.13287531 -0.078814514 -0.103938006 0.040324118
0001f0 91 23 c7 3d 3a 44 69 3d e5 61 76 3d 66 1a d0 bc
       0.09723581 0.05694983 0.060151953 -0.025403213
000200 b0 7f 1a 3e c7 80 be bd e1 02 95 be 77 ba 4b be
       0.15087771 -0.09301906 -0.2910376 -0.1989535
000210 e9 65 0c be 93 61 82 bc 14 e2 3c 3e b1 64 66 3e
       -0.1371075 -0.015915668 0.18445617 0.22499348
000220 6a 1b 43 be f6 e2 4f 3e 2d c7 7b bc b1 43 3f be
       -0.19053426 0.20301422 -0.015367311 -0.18678166
000230 a5 60 84 be 2f f2 2b be f6 67 13 be 50 9c 74 be
       -0.25854984 -0.16791604 -0.14395127 -0.23887753
000240 5a 2b f4 bd ce 9e 31 3e 24 00 90 3b 51 e1 6c be
       -0.11922331 0.17345735 0.004394548 -0.23132826
000250 6c 8d 67 be 45 dc 48 3e 7f b7 a9 bc 5e 4c 0c be
       -0.22612542 0.19615276 -0.02071738 -0.13701007
000260 21 72 8c be c8 43 09 3e f6 14 09 3e 32 d4 05 3e
       -0.27430823 0.13404763 0.13386902 0.13069227
000270 c5 70 0f 3e 8a 8b 1d 3e c3 45 c7 bd ab 0a 98 be
       0.14007862 0.15385261 -0.09730103 -0.2969564
000280 47 c7 0c 3e 56 fc ab 3d 17 cb a8 be cc 5b 61 be
       0.13747893 0.08397739 -0.32967445 -0.22007674
000290 67 5d 0b be fe 99 b3 be 43 75 ab be af 95 4e 3e
       -0.13609849 -0.35078424 -0.334879 0.20174287
0002a0 83 a5 95 3e 0c e8 af be 90 eb 23 3e bd 40 bd bd
       0.29227838 -0.34356725 0.16007829 -0.092408635
0002b0 76 59 9f bd 63 a3 9e be d7 44 92 bd 11 ac c4 bc
       -0.07780735 -0.3098403 -0.071420364 -0.024007829
0002c0 f4 b6 37 be d7 c6 cf be 14 80 9d 3d 99 0d 91 be
       -0.17940885 -0.4058139 0.076904446 -0.28330687
0002d0 27 6c af be 67 a9 c2 be e0 4d 28 be 15 07 70 be
       -0.342622 -0.3801987 -0.16435957 -0.23440202
0002e0 de 10 92 3d 5c 63 31 bd fc 67 23 be 3c d0 98 3d
       0.071321234 -0.043307647 -0.15957636 0.074615926
0002f0 18 82 12 3e 07 40 1f bc c0 de a4 bc 51 5e 6d be
       0.1430744 -0.009719855 -0.020125747 -0.2318051
000300 1d 90 14 be ce ce 98 3e c4 43 d9 3e 7a aa a4 3e
       -0.145081 0.2984528 0.42434514 0.32161313
000310 76 0a d7 3e 09 03 51 3e 79 7e 93 3e a2 7d 98 3c
       0.4200017 0.20411314 0.28807428 0.018614594
000320 88 c6 54 3d 8d 1c 10 be ab c9 e6 bd 58 08 71 be
       0.051947147 -0.14073391 -0.11268934 -0.23538339
000330 21 c2 47 3e 42 17 94 3e ec c5 ca 3d 8e 3c 18 be
       0.19507648 0.28923994 0.09901032 -0.1486685
000340 8d 53 c0 3d 8d 75 22 3e 01 e7 7b 3d 1f 52 70 be
       0.09390936 0.15865155 0.0614996 -0.23468827
000350 d2 c7 ac 3e 19 8f c5 3d ff de 98 3d 2f ae 89 3d
       0.337462 0.09646434 0.07464408 0.06722676
000360 b6 5a 86 be b1 46 af be 5e e7 94 3d ab 9c 7d be
       -0.26241082 -0.3423362 0.07270692 -0.24766795
000370 f8 83 8a 3e 95 dc b1 3e db 50 07 be b2 e8 4d 3d
       0.2705381 0.34738603 -0.13214438 0.050270744
000380 8e fc 2c be c0 88 04 be 76 5d e9 3d 24 06 7a 3c
       -0.16893217 -0.12942791 0.113947794 0.015260253
000390 c7 19 c1 3d 29 04 9a 3e 94 1b 47 3d 15 03 86 3e
       0.09428745 0.300813 0.048610285 0.26174226
0003a0 a8 3d de bd 8a 28 9c 3c ed 58 20 3e fe 46 22 3c
       -0.10851604 0.0190623 0.15658922 0.009904621
0003b0 53 83 c6 3e 64 72 a6 3e df 4c db 3e e6 de d7 bd
       0.38772067 0.32509148 0.42832085 -0.105405614
0003c0 75 f0 73 3e 7f 3a 16 3e ca f1 28 3e ca 4a ab 3d
       0.23822196 0.14670752 0.16498485 0.08363874
0003d0 53 e6 2e be bd 1a 9a 3e 4c 89 95 3e d1 e5 a4 be
       -0.17080049 0.30098525 0.29206312 -0.32206586
0003e0 d1 4e 8d 3e b3 33 02 be 24 77 2c 3e ee a0 a6 3e
       0.27599195 -0.12715034 0.16842324 0.32544655
0003f0 20 37 8a be bd 84 b1 bd 94 63 37 3c ea ff b9 3e
       -0.26995182 -0.08667896 0.011193175 0.3632806
