models/tetris_ppo_interrupted_20251029_173640.pth/model.ckpt-1.pth (torch, 70369 bytes, 15 tensors)

actor.0.weight f4 [32, 181]
000000 58 64 bb 3f 53 4d a8 3e 3c 4a 42 c0 14 00 59 bf
       1.4639997 0.32871494 -3.035781 -0.84765744
000010 fc 7e 1a bf 69 e0 4f 3e 1e 42 83 be 64 ac ef bf
       -0.6035001 0.2030045 -0.2563638 -1.8724484
000020 13 1f f3 bc d9 98 f9 3f 09 3e 04 40 7f ac 04 40
       -0.029677903 1.949977 2.0662863 2.0730283
000030 be 01 65 bf 28 f9 33 c0 41 35 76 bf 76 2c 51 bf
       -0.89455783 -2.8120823 -0.9617501 -0.81708467
000040 80 20 12 c0 a8 d3 a8 3e b1 4e c4 3f bf 11 5c 3f
       -2.2832336 0.3297398 1.5336515 0.8596458
000050 71 a8 e3 3d ce 55 9a 3e e7 2b 47 3e c1 9a 93 ba
       0.11116112 0.3014359 0.19450341 -0.001126133
000060 23 ed 91 bd 0e 3f 09 be b4 fa 12 bd 0c 14 70 3f
       -0.07125308 -0.1340296 -0.03588362 0.9378059
000070 29 e9 90 3d d4 6c e3 3d eb 90 a6 3d fe 4a bb 3d
       0.07075722 0.11104742 0.0813311 0.09145163
000080 d0 03 7d 3e 0c 53 24 be d8 ac da be 62 34 25 bf
       0.24708486 -0.16047305 -0.42709994 -0.64533055
000090 06 2c 1c bd f1 db 4a 3e f5 3b 07 be 9d 6f 8b bd
       -0.03812792 0.19810463 -0.13206466 -0.06808398
0000a0 ea ad bf bd 2e a6 91 3e be 0f 22 3e ad da 11 bf
       -0.09359343 0.28447098 0.15826318 -0.569743
0000b0 51 79 fe be 6e e9 e5 be 5c ba 58 bb 43 23 d8 3e
       -0.49701932 -0.44904655 -0.0033070063 0.42214403
0000c0 7b 02 5e be 14 95 95 be b2 c5 df be 6d 4a 0f bf
       -0.21680634 -0.292153 -0.43705517 -0.5597294
0000d0 e9 17 57 bf e6 be 81 be f3 a4 2d bf e6 7f 03 be
       -0.8402086 -0.25340956 -0.6782982 -0.12841758
0000e0 09 7a 63 be 3e db 32 bf 1d 50 84 bf 92 38 54 bf
       -0.22214521 -0.6986579 -1.0336949 -0.8289882
0000f0 72 13 1b bf ee b3 d6 bd 50 90 8b bc 82 02 6f be
       -0.60576546 -0.104835376 -0.017036587 -0.233408
000100 d9 be 87 bf c2 01 ff be a1 c6 2d bf e8 65 6d bf
       -1.0605117 -0.4980603 -0.6788121 -0.9273362
000110 98 22 ad be 9f 96 84 be 8f 93 5f be 4b d1 53 bf
       -0.33815455 -0.25896165 -0.21833633 -0.8274123
000120 cf 0f 9e bf 0c 71 be be fc 39 7c bd d8 00 10 bf
       -1.2348574 -0.37195623 -0.061578736 -0.5625129
000130 12 51 f9 be f5 a2 55 bf d3 c8 51 be 0e 14 e1 be
       -0.48694664 -0.8345178 -0.20486765 -0.43960613
000140 df 6e 6b bd a6 0d 65 bf e8 bb 81 bf fe 7e 12 bf
       -0.05747878 -0.8947395 -1.013547 -0.57225025
000150 1c fe 17 be 37 e4 79 3e b0 8d d6 3e 98 d7 be bd
       -0.14843029 0.24403463 0.41904974 -0.09318465
000160 8e fa c1 be 5d 46 cf be a3 4d cd be 0d 74 b1 bf
       -0.3788647 -0.4048337 -0.40098295 -1.3863541
000170 10 56 21 bf f6 b1 f1 be d1 08 88 be 55 83 3f bf
       -0.63021946 -0.47206086 -0.26569226 -0.7480977
000180 e2 24 80 bf a3 e4 14 bf f8 7b f5 be 10 08 c0 be
       -1.0011256 -0.5816137 -0.47946143 -0.3750615
000190 9b d2 67 bf 73 21 84 be d7 9e 6b 3d 2b c3 b7 be
       -0.90555733 -0.2580677 0.05752453 -0.3589109
0001a0 74 35 87 bd f2 0a ae be c2 1d 65 bf 56 82 33 3e
       -0.06601992 -0.33992726 -0.8949853 0.17530188
0001b0 1b 2d 3d 3e 84 33 25 bf e9 28 ba 3d 32 80 5e bf
       0.18474238 -0.6453173 0.09089834 -0.8691436
0001c0 59 0c 90 bf 8c d1 90 3e fb 0b 32 3f 72 b1 33 3f
       -1.1253768 0.28284872 0.6954953 0.70192635
0001d0 e8 26 c2 be 0a a9 63 bf 4a 43 2e bf b4 02 38 bf
       -0.37920308 -0.8892981 -0.68071425 -0.71879125
0001e0 0c 9c 62 bf 70 11 df be e6 cf dd bd b4 d9 20 3f
       -0.8851936 -0.4356799 -0.10830669 0.6283219
0001f0 6e e5 85 bc 92 fb a9 be ad 7e 48 3f 34 70 cf bb
       -0.016344752 -0.33199745 0.7831829 -0.0063305143
000200 61 f6 0c bf 2b de 65 be 88 4f 73 3e 55 62 2c bd
       -0.55063444 -0.22448032 0.23760808 -0.042085964
000210 68 18 5b 3e c6 e1 dc 3d 30 6c d5 be c3 22 07 bf
       0.21396029 0.1078525 -0.41684103 -0.5278742
000220 44 6d 86 be b0 be 04 bf d9 4e 08 bf 1d 9c c1 be
       -0.26255238 -0.51853466 -0.5324531 -0.37814417
000230 17 16 9a 3e 1c cb 97 3e c3 1c 07 be 79 89 1d be
       0.30094978 0.29647148 -0.13194565 -0.15384473
000240 a7 cf f2 bd 92 08 9a bd 54 1a 8a 3e 1c 40 68 3e
       -0.11856013 -0.07521166 0.26973212 0.22680706
000250 70 4a 20 3c 29 96 be bd fc d0 71 3e 1a 8a 9e 3e
       0.009783372 -0.093059845 0.23614877 0.30964738
000260 ea 95 2d 3e 27 01 13 bf e4 5f a0 be 45 76 c6 3e
       0.16951719 -0.57423633 -0.3132316 0.38762107
000270 9e bf cf 3d ec 1d 9b bd 67 b6 56 be 02 44 01 be
       0.1014397 -0.075740665 -0.20968018 -0.12623599
000280 3f 17 ed be c8 46 a0 3f 23 5d 67 3f 86 b3 30 bf
       -0.46306798 1.2521601 0.9037649 -0.6902393
000290 81 07 1e 3f ea 8d 82 bf 09 e6 18 3f a0 c1 17 bf
       0.617302 -1.0199559 0.59726006 -0.59279823
0002a0 48 be 03 bf 1d 23 7e bf 99 a8 f7 3d c8 88 b6 3f
       -0.5146222 -0.9927233 0.12092704 1.4260492
0002b0 20 f9 aa be bb ee 2c 3d 94 24 c9 bf 6a 66 0d 3f
       -0.33393192 0.04221986 -1.5714288 0.55234396
0002c0 fe 90 c4 be e1 19 91 3f 0e 65 18 bf e3 18 84 3e
       -0.3839187 1.1336023 -0.595292 0.25800237
0002d0 37 fa 7d 3f 28 d5 88 bf 4b a9 64 bf da 87 21 bf
       0.9920992 -1.069005 -0.8932082 -0.6309792
0002e0 b1 4c 1e c0 5f 09 22 c0 d6 1e 99 3f 5b 0b 53 40
       -2.4734309 -2.531822 1.1962535 3.297568
0002f0 87 d2 83 40 0a ca 4b 40 67 80 79 40 a6 4d 2d bf
       4.119449 3.1842065 3.898462 -0.6769661
000300 da a3 8b bf f2 8d f8 be 70 9a 0e c0 49 02 b9 bf
       -1.0909379 -0.48545796 -2.228176 -1.4453822
000310 2b 98 f9 be 52 96 17 bf 56 0b 71 40 74 1d aa 40
       -0.48748907 -0.59213746 3.766317 5.3160954
000320 79 1b 65 40 59 75 5f 3e 6a cb 69 bd db 78 b1 be
       3.5798018 0.21822108 -0.057078756 -0.34662518
000330 e5 5b a9 be d2 d6 a9 bd 0c 90 40 bf 20 0e a6 bf
       -0.33077922 -0.08292927 -0.752198 -1.2973061
000340 a9 48 f2 be 11 26 c4 3f 67 03 4e 3f 8a 92 47 bf
       -0.4732106 1.5324117 0.8047394 -0.77957976
000350 72 4f 6f bd a6 5e 57 3e e9 3b c9 bf 5e bc 8d be
       -0.058425374 0.210322 -1.5721408 -0.27682775
000360 4e 10 31 3f 85 60 46 3e 14 37 50 be a2 0a 15 3f
       0.69165504 0.19372757 -0.2033351 0.5821935
000370 7d aa 89 3e 55 80 91 be 10 b4 30 bf e8 e7 c1 be
       0.26887885 -0.28418222 -0.69024754 -0.37872243
000380 32 ad aa 3e b3 92 9f be f8 a7 97 bf 1d 82 18 bf
       0.33335263 -0.3116661 -1.1848135 -0.5957354
000390 3a 16 2a bf c6 ae 86 be 26 d6 1f 3e 48 43 8e bd
       -0.66440165 -0.26305217 0.15609035 -0.06946427
0003a0 c6 f0 b2 be bb ba 85 bc bc 0b e5 be cb 47 67 be
       -0.3494932 -0.016324392 -0.44735515 -0.2258598
0003b0 3c 48 b3 be fa 2d 70 be fb 66 fa 3e 6a e4 05 3f
       -0.35016048 -0.23455039 0.48906693 0.5230166
0003c0 45 46 5a 3f 1d 9e dc bf 69 39 a0 bf e3 a1 01 3e
       0.8526347 -1.7235752 -1.251752 0.12659411
0003d0 d4 a6 04 bf 3e 28 20 be f9 ae 8c be d2 16 80 3e
       -0.5181706 -0.15640351 -0.27477244 0.2501741
0003e0 62 05 84 3f eb e7 a2 3d 0d 73 36 3f 7c b3 84 bf
       1.0314143 0.07954391 0.71269304 -1.0367274
0003f0 cb ce 83 bf e4 0f 76 bf 02 b3 08 bd 92 d8 c2 3d
       -1.0297483 -0.96118 -0.03337384 0.09513964

actor.0.bias f4 [32]
000000 d6 51 25 3e ba a1 ca bd e1 dd 02 3e af b9 fd be
       0.16144499 -0.09894128 0.12779953 -0.49555728
000010 49 8b 3c 3e b6 22 0a 3c e6 5e c3 3c c4 18 30 3e
       0.18412508 0.008431127 0.023848962 0.17196947
000020 b9 10 c5 3e c6 6f 3a be fd 06 96 3e 47 38 10 3f
       0.3848932 -0.182067 0.29302207 0.5633587
000030 0b cb 83 bd 9e 48 35 bd 37 04 ab 3e a3 2d cf 3e
       -0.06435212 -0.044258706 0.33401653 0.40464506
000040 0c 53 d3 3e 82 58 07 3f 52 e0 59 3d 90 80 f8 ba
       0.41274297 0.5286943 0.053192444 -0.0018959213
000050 75 14 57 be 62 7b ce bd fa 03 f8 3e cd fc 1a 3f
       -0.21003897 -0.10082127 0.48440534 0.60541993
000060 3a 0f 1f 3e ba 61 52 be 2d c9 08 be 3e e0 52 3f
       0.15533152 -0.20545092 -0.13357992 0.82373416
000070 af d8 64 be 6a 15 d1 3d 73 07 16 3e 84 20 5e bd
       -0.22348283 0.102091625 0.14651279 -0.054230228

actor.2.weight f4 [32, 32]
000000 86 c5 48 bf f2 d2 98 3e 60 9a 72 3e b1 4a af 3e
       -0.78426397 0.29848439 0.23691702 0.34236673
000010 de d6 6e 3e 13 d5 83 bd db 4a 22 3e 6d f7 ce be
       0.23324153 -0.06437125 0.15848868 -0.40423146
000020 e7 9e b7 be c6 b9 15 3f 48 fa 25 bf c2 d9 1f bf
       -0.3586342 0.5848659 -0.64835024 -0.6244165
000030 53 51 c1 be 2c 8f 22 3f af 88 dc 3e 23 7b c5 bf
       -0.37757358 0.6349971 0.4307303 -1.5428203
000040 85 04 be bf 01 12 9c bf 81 0a 92 3d 90 41 5d bf
       -1.4845129 -1.2192994 0.0713091 -0.86428165
000050 89 fe 49 3e 51 bd 56 bf a3 f3 48 bf c7 3c 9b bd
       0.19726004 -0.83882624 -0.7849676 -0.07579952
000060 82 04 cf 3e 2b de 90 3e e4 8a da be 09 63 15 bf
       0.40433127 0.282945 -0.4268409 -0.5835424
000070 7b 0b 55 bf 94 81 ca 3e ed db ff 3e 3b 84 f7 3e
       -0.8322064 0.39551985 0.49972478 0.4834307
000080 24 37 9d 3f 9e 44 3b bf 62 c2 9b 3c ce e8 53 3e
       1.2282453 -0.73151577 0.019013587 0.20694277
000090 ef 6f 66 3f c1 0b 8b 3f e5 e5 4a bf 7b 42 8e 3f
       0.9001455 1.0862962 -0.7925704 1.1114038
0000a0 47 5d 81 3f cc 3f 7e bd 78 9b a2 3e 9b 54 e4 3c
       1.0106591 -0.06207256 0.31759238 0.027872374
0000b0 db c2 52 3f 76 9e 9b 3f b5 4e dd be 93 aa b3 3f
       0.82328576 1.2157733 -0.4322411 1.403643
0000c0 8d 19 8f bd 3d fd 43 bc fb bc 27 bf 48 0c d3 3d
       -0.06987295 -0.011962232 -0.65522736 0.10305077
0000d0 35 90 4c 3e e0 85 b1 bf 56 4b 86 3f d0 a7 c0 be
       0.19976886 -1.386898 1.0491741 -0.3762803
0000e0 1b ce c3 be bf 68 2b 3f b9 16 6d 3e 66 ee a4 3f
       -0.38243183 0.66956705 0.231532 1.2885253
0000f0 1f 06 ec 3f 87 34 d0 3e 65 b2 e2 bf 5e 3e 2a 3f
       1.8439368 0.40665075 -1.7710692 0.66501415
000100 4f 30 16 3f e1 b5 10 bf 33 a1 6b 3d e3 e1 f5 be
       0.58667463 -0.56527525 0.05752678 -0.480239
000110 0e f0 a6 3e 6d 97 9d bd 99 7c b0 be e2 ff d2 3d
       0.32605022 -0.07694898 -0.3447006 0.10302712
000120 d6 d2 bf 3e ba ae e6 3e a0 17 6a 3e 14 97 62 bf
       0.37465543 0.4505518 0.22860575 -0.88511777
000130 4c c8 64 3e d5 26 f5 3e 37 90 de be 98 21 83 3e
       0.22342032 0.4788119 -0.43469402 0.25611567
000140 7c 33 9f bf 15 3b e3 be 6b 28 71 be 13 af 24 bf
       -1.2437587 -0.44381014 -0.23550574 -0.6432964
000150 7b f0 c9 be e8 5b 6b 3d ee f7 be bd e1 d2 d1 3d
       -0.39441285 0.057460696 -0.093246326 0.102453
000160 dc 92 08 bf fc 57 00 3c 3a 98 b2 3d 5e 4f 44 bd
       -0.5334909 0.007833477 0.08720441 -0.047927253
000170 ec cc bc be 02 68 c6 be 48 80 0f bd e8 5b da 3d
       -0.36875093 -0.38751227 -0.035034448 0.10662061
000180 db f0 45 3e be 69 bc 3e 0b 24 31 3f 16 b3 a2 3d
       0.1933016 0.36799425 0.6919562 0.07944314
000190 05 99 e5 bd e5 56 1c bf 71 2f ab 3e 2c d6 8c bf
       -0.11210827 -0.6107009 0.33434632 -1.100286
0001a0 1d d1 53 3f d4 d3 a8 3e 6e 76 df be 1c 6f 21 3f
       0.82740957 0.32974112 -0.43645042 0.63060164
0001b0 ab c8 06 c0 d0 64 be 3e b2 be 25 be 66 0c 95 be
       -2.1059978 0.3718629 -0.16186026 -0.29111022
0001c0 d0 17 31 3e 09 f9 06 bf 7c 91 bc bd 25 9b b5 bf
       0.1729424 -0.5272375 -0.092074364 -1.4187971
0001d0 17 20 8f 3d b4 bb 0b be 68 db 03 bf df 72 cd 3e
       0.069885425 -0.13645822 -0.5150666 0.40126702
0001e0 cd ac 3e be c7 ec 7c 3e 7e 95 b9 3e ec 0c 2f be
       -0.18620606 0.24699698 0.36246866 -0.17094773
0001f0 32 51 b2 be 21 aa 0c bf 1a e4 26 3f 3d e2 bb 3f
       -0.34827572 -0.54947096 0.65191805 1.4678417
000200 29 05 c5 be 24 50 22 3f 14 29 17 3f 93 85 04 bf
       -0.384805 0.63403535 0.59047055 -0.5176632
000210 2d 0f 90 3f 19 31 a4 be 82 bb 10 3f 68 20 42 be
       1.1254631 -0.3206871 0.56536114 -0.18957675
000220 e8 e0 2f 3f 01 36 ff be e7 28 15 bf 08 15 7c 3f
       0.68702555 -0.4984589 -0.5826554 0.9846959
000230 8c a5 9c be cf 26 c1 bd 92 58 26 3f 06 78 1c 3f
       -0.30595052 -0.0943123 0.649789 0.6112064
000240 18 d1 12 3f 6d d9 17 bd 86 ab 8c bf b5 0c c9 be
       0.573503 -0.037072588 -1.0989845 -0.39267507
000250 c4 f2 72 bf 5d 19 9e 3e 65 aa 06 bf af 20 d4 3d
       -0.9490168 0.30878726 -0.5260375 0.103577964
000260 3f ab 95 bf 4a 1d 6c 3f 87 e9 10 be 63 fb 3d 3f
       -1.1692885 0.9223219 -0.14151584 0.7421171
000270 65 14 07 3f 64 bb c1 3e c7 17 fa be 95 df a4 be
       0.52765495 0.3783828 -0.48846266 -0.3220183
000280 95 48 e1 be 80 3f 69 be be 99 24 3a e5 0d 2b bf
       -0.44000688 -0.2277813 0.0006279013 -0.66818076
000290 07 84 98 3e 78 d0 ef be 82 da 3b 3f 28 04 4e bf
       0.2978823 -0.46838737 0.7338029 -0.8047509
0002a0 2d 14 26 bf a0 a9 3a 3f c6 19 6a bf a7 29 90 3d
       -0.64874536 0.7291508 -0.9144558 0.070391946
0002b0 96 ff 60 be 7c 5d 3a 3e f6 79 5c bd 1c 95 9d bf
       -0.21972498 0.18199724 -0.05382725 -1.231113
0002c0 4a a7 08 3e 83 64 cb be 4b 15 b2 bf e8 8e da be
       0.13345066 -0.39725122 -1.3912748 -0.42687154
0002d0 87 84 a6 bd 47 4d 25 be 9c fb 0d bf bd 72 73 3e
       -0.08130746 -0.1614276 -0.5546205 0.23774238
0002e0 9f 31 ae bf 9a e3 1b bf 2c 94 fc bd 62 a7 87 be
       -1.3608893 -0.6089417 -0.12332949 -0.2649489
0002f0 2a 17 59 bc 16 c6 98 be c9 0d 30 bf f5 9e 6c bf
       -0.013250152 -0.29838628 -0.68771034 -0.9243005
000300 a3 7f 56 3e ac be f9 be b5 bc d6 3c f8 9a 80 3e
       0.20947127 -0.48778284 0.02621303 0.25118232
000310 d9 17 dc 3e 30 4f 2c 3f c6 ad 33 3e 32 d7 46 be
       0.42986944 0.6730833 0.17546758 -0.19418028
000320 45 2c 1a 3e 4d 26 50 3f fb 46 8d be 51 24 be be
       0.1505595 0.8130844 -0.27593216 -0.37137082
000330 98 d3 6e bf f8 02 ed 3d d9 d9 4a be 8e 6b 06 3f
       -0.93291616 0.11572832 -0.19809665 0.52507865
000340 94 92 0c 3e c7 8f 6a bd b3 6e 89 be e5 21 9c bf
       0.1372779 -0.057266023 -0.2684227 -1.2197844
000350 7a da 92 3e 59 f5 58 be 88 0e 34 bf 74 a1 be be
       0.2868231 -0.21187343 -0.7033467 -0.37232554
000360 8a 48 98 bf 68 ff ee 3e 66 49 02 3f 5f 75 46 3e
       -1.1897137 0.46679235 0.5089325 0.19380711
000370 02 20 f9 3e b9 08 56 3e 73 bb 99 bf de ae ae 3d
       0.48657233 0.20901765 -1.201033 0.08529447
000380 a0 c9 40 3f fe 68 0d be 87 35 2d bf 94 54 8e be
       0.75307655 -0.13809583 -0.676598 -0.27798903
000390 24 14 fe 3e 1e c4 0a 3f 21 a6 12 bf 8f 3e 1b 3f
       0.4962474 0.542055 -0.5728474 0.6064233
0003a0 a0 e1 27 3f 44 4e e5 3e 44 11 05 3f 72 d7 00 bf
       0.6557865 0.44786274 0.5197947 -0.50328743
0003b0 cd 8c ac 3f 0d 45 d1 3f d8 7f cf be c9 56 f3 3f
       1.3480469 1.6349198 -0.40527225 1.901086
0003c0 ff b8 0a 3f ff 7e 42 bf 76 e0 42 bf dd 4c ab bf
       0.5418853 -0.7597503 -0.7612375 -1.3382832
0003d0 70 2f 40 3e 1a b9 8d bf 91 4d 40 3e aa 62 46 bf
       0.18768096 -1.1072114 0.18779589 -0.774943
0003e0 c9 5f 88 be 97 56 34 be 36 3d 99 bd f9 17 8a 3f
       -0.26635578 -0.17611156 -0.07482378 1.0788566
0003f0 c0 1d 8a 3f 7b 4e c5 3d 60 9f 87 bf 03 07 f9 be
       1.0790329 0.096341096 -1.0595512 -0.48638162

actor.2.bias f4 [32]
000000 9a 6c 31 bf 25 e4 61 bf 13 95 65 bf 9e ee 60 be
       -0.6930634 -0.88238746 -0.89680594 -0.21966025
000010 e1 35 11 3f 05 9e 99 3e bc 4a 0c bf 4d 03 3d bd
       0.5672284 0.30003372 -0.54801536 -0.046145726
000020 1b b1 f5 be ac 79 89 be ac c7 f3 3d d7 b4 3b bf
       -0.47986683 -0.2685064 0.11903319 -0.73322815
000030 70 de f4 be 11 e0 18 3f 48 ae 12 bf 2a 44 be be
       -0.47825956 0.597169 -0.5729718 -0.3716138
000040 ce a7 a7 be e9 81 08 bf 27 f4 86 be b9 08 66 be
       -0.32745212 -0.5332323 -0.26358148 -0.22464265
000050 07 1b 09 3d 85 83 bd be 68 90 cd bd 30 25 21 bf
       0.03347304 -0.37014404 -0.10037309 -0.6294737
000060 6c bc d5 3e 4b 5c 26 bf 0a 0e ab be d8 72 c8 bd
       0.41745317 -0.6498458 -0.33409148 -0.0978753
000070 41 07 9b 3e 1e d1 a1 be 7a 0c fe be 3c fc 11 3f
       0.30278972 -0.31604856 -0.49618894 0.57025504

actor.4.weight f4 [32, 32]
000000 7d 72 00 bf a9 d6 1b 3e bd 05 23 3f ae fa fb be
       -0.50174695 0.15218605 0.6368063 -0.4921469
000010 37 7f 8d bf 80 70 42 be f4 1d 25 bf cf 02 0e 3f
       -1.1054448 -0.18988228 -0.6449883 0.55473036
000020 9d 42 58 3d 0d 44 9c 3d cf 77 7c be a5 28 cd be
       0.052797902 0.07630167 -0.24655078 -0.40070072
000030 dc 09 ee 3d b8 ed 4a be ee 7e 45 bf 6f 76 bc 3e
       0.11622974 -0.19817245 -0.77146804 0.36809108
000040 32 8d 4b bf 57 da 11 3f d5 84 df bd 1d 57 f4 3e
       -0.7951232 0.56973785 -0.109140076 0.47722712
000050 24 76 31 be f9 35 b9 3c 73 ad 9d be 22 d8 99 3e
       -0.17330223 0.022608744 -0.30796394 0.3004771
000060 dd 85 ec bd d2 47 64 3e 09 6e 91 be 4c ba 27 bf
       -0.1154897 0.22293022 -0.28404263 -0.6551864
000070 6b 44 05 bf be 18 66 3e ea 63 9f bd db 36 f0 3b
       -0.5205752 0.22470376 -0.07782729 0.007330758
000080 22 32 03 bf 34 d2 bd 3d bc ae 77 3e c6 fe d0 bc
       -0.5124837 0.09268609 0.2418775 -0.02551211
000090 f2 4d ec bd b0 4f 93 be 12 d0 fe be b3 ea 93 bd
       -0.115383044 -0.28771734 -0.4976812 -0.072225
0000a0 b4 fa 21 bf 26 96 16 be 21 36 53 3e be 11 a5 bd
       -0.6327317 -0.14705715 0.20626117 -0.08060025
0000b0 f1 64 b0 3c de 66 b8 be 01 d4 3a bf 3a 7c 24 3e
       0.021532508 -0.3601598 -0.7297974 0.16063014
0000c0 a9 f7 85 bf 07 f1 60 be 46 fd 8e be a8 97 1f 3e
       -1.0466205 -0.21966945 -0.27927607 0.15585196
0000d0 ca 86 da be 20 27 e9 bd 98 b4 0a bf 08 38 04 3e
       -0.4268096 -0.113844156 -0.54181814 0.12911999
0000e0 5d 81 2d be 3a 21 c6 be 0c 42 b3 be 6a 16 ce 3d
       -0.1694388 -0.38697225 -0.35011327 0.10062869
0000f0 19 df 2b be a4 3c ea be fe e9 2e 3e cd 1e b1 be
       -0.16784324 -0.4574939 0.17081448 -0.34593812
000100 96 03 73 3f ca f5 5a 3e 4d 1e d7 3e 1f 1c 9f be
       0.94927347 0.21382824 0.42015305 -0.31076142
000110 96 61 ef be 76 18 e0 b9 d6 e6 b7 3e 99 66 cd be
       -0.4675414 -0.00042742834 0.359183 -0.40117338
000120 4a d2 0a 3d 9f 08 6a 3f 15 1a d3 bf 47 b1 b4 3e
       0.033891954 0.91419405 -1.6492335 0.35291502
000130 39 6a ca be 33 ce b6 be 7b 24 d6 be cb 24 81 3e
       -0.39534166 -0.35704193 -0.41824707 0.25223383
000140 80 f0 c2 3e ed be 55 3e f7 98 2f 3f 45 3d b2 bf
       0.38074112 0.20873614 0.6859278 -1.3924948
000150 a1 c0 8d 3d bd e0 c7 be 0a b0 44 3d 77 9f 0a 3f
       0.06921507 -0.3903865 0.048019446 0.54149574
000160 22 86 fc 3e 4f 84 fa 3e 81 91 51 bf 8d e3 4b bf
       0.49321085 0.48929068 -0.81862646 -0.7964409
000170 fe dd 59 bf a8 af 9a bd de 75 c1 be 96 24 51 be
       -0.8510436 -0.07553035 -0.37785238 -0.20424113
000180 de 9f a9 be c0 35 26 bf 50 25 ae 3e 80 50 e2 be
       -0.3312978 -0.64925766 0.34012842 -0.44202042
000190 1b a9 d8 be de 8d bb 3d 14 40 41 be 7a 7b 6a 3e
       -0.42316517 0.091579184 -0.188721 0.22898665
0001a0 86 90 0b be 62 00 52 be 82 55 fd be f3 78 69 3b
       -0.1362935 -0.20507959 -0.494793 0.003562507
0001b0 d7 65 6b bf 3a 27 4b be 5e 20 ac 3e b1 c0 8e 3e
       -0.9195227 -0.19839182 0.33618444 0.27881387
0001c0 1c 56 1d bf b8 e2 f8 3d 2d 96 94 bf e0 c8 1b bf
       -0.6145952 0.12152618 -1.160833 -0.60853386
0001d0 41 bb b0 3d 3b f3 b4 3e 40 5c 1f bf d5 82 b8 bd
       0.08629466 0.3534182 -0.6225014 -0.09009329
0001e0 e1 14 17 bf 13 30 12 3f 48 50 ee be 27 59 a9 3e
       -0.59016234 0.57104605 -0.46545625 0.3307583
0001f0 41 15 df be 6f 70 a1 3e 37 53 d4 bd 06 60 33 bf
       -0.43570903 0.31531093 -0.103674345 -0.70068395
000200 6d 35 02 be 19 9a b3 bb af db ae 3d fc 1f b4 be
       -0.12715693 -0.0054810164 0.08537995 -0.35180652
000210 fb 45 18 bf 27 ad 1c 3e 05 af 66 bf 26 72 a8 be
       -0.5948178 0.15300427 -0.9011081 -0.32899588
000220 43 7d f7 be 29 46 1a bf ec e3 e9 3d e2 1c 19 bf
       -0.48337755 -0.60263306 0.11420426 -0.59809697
000230 78 85 14 be a0 12 67 be 96 98 1a bf a8 91 22 3e
       -0.1450404 -0.22565699 -0.6038908 0.15875876
000240 b4 a1 0a bf aa 04 cb be 37 9a a8 be 59 93 ea 3e
       -0.5415299 -0.39651996 -0.32930157 0.45815542
000250 1d 93 84 3e a9 49 5d be 0a c7 88 bf 61 9b cd bd
       0.2589349 -0.2161013 -1.0685742 -0.10039402
000260 ea 03 99 be e2 57 bc be 55 d3 8b be 81 bd 87 bd
       -0.298858 -0.367858 -0.2730967 -0.06627942
000270 24 e1 ed 3c 26 54 6c be ba 46 47 3e e7 44 86 bd
       0.02903802 -0.23078975 0.19460574 -0.06556111
000280 68 6e 88 bf 46 9e a2 3e a6 7f a2 3e 46 31 a0 be
       -1.0658693 0.31761378 0.31738013 -0.31287593
000290 f4 10 ea be 18 2f e6 3d 60 5d d8 3e 6c 96 9a 3f
       -0.4571606 0.11239451 0.4225874 1.2077155
0002a0 b2 c9 ef 3e 70 77 03 3f 6f ed 83 bf 91 56 43 3f
       0.4683357 0.5135412 -1.0306834 0.76303965
0002b0 4b 62 a3 bd b2 58 8d bf b0 1c ad 3d 81 51 87 3e
       -0.07977732 -1.1042693 0.08452737 0.2642937
0002c0 f1 46 3d be 15 77 ab 3e 01 20 ee be e9 51 26 3f
       -0.18484093 0.3348929 -0.46508792 0.64968735
0002d0 8b 6c 34 bf 60 22 80 be 62 52 34 3f 9b d9 5f 3e
       -0.70478123 -0.25026226 0.70438206 0.21860354
0002e0 73 34 e5 3d ca 89 94 3d 17 fd 2c 3e dd 7d 91 be
       0.111916445 0.07252844 0.16893421 -0.2841634
0002f0 c3 51 e6 3e a1 ac 89 bf c8 83 c5 3e 59 8d 04 bf
       0.44984254 -1.0755807 0.38577104 -0.5177818
000300 bd b2 10 3e a7 86 c9 3e 90 2c f0 3e 92 bb 4c bf
       0.14130683 0.39360544 0.46908998 -0.7997371
000310 73 90 1d 3e fc 3f c0 3e 49 b7 0d 3f e9 ef 64 3f
       0.15387134 0.37548816 0.55357796 0.89428574
000320 f9 c0 25 3e 64 d4 01 bf 97 fb 25 bf 8d 28 a9 3e
       0.16186894 -0.5071471 -0.6483702 0.3303875
000330 49 ca 29 bf 1d 69 35 bf b9 ad 9c bd be 84 51 3f
       -0.6632429 -0.70863515 -0.076503225 0.81843174
000340 09 16 93 bf e5 e0 75 be 3e d5 0a bf af 3f 8c 3f
       -1.14911 -0.24011572 -0.5423163 1.0956935
000350 13 c5 58 3e 57 3a a6 be fa d5 7e bf 78 47 80 3d
       0.21168928 -0.32466385 -0.9954525 0.062636316
000360 2b 99 52 bf b6 ac 15 bd 83 2f 84 3f 38 97 56 bd
       -0.82264966 -0.036541663 1.0327 -0.052390307
000370 f1 dc eb 3d 26 99 39 bf c8 cb 86 bf 80 6b 1f be
       0.115167506 -0.7249931 -1.0530939 -0.15568352
000380 11 84 40 be 64 8f 88 be c8 20 a0 3f 10 06 c9 3e
       -0.1880038 -0.26671898 1.2510004 0.39262438
000390 ee f8 39 bf 88 47 b1 bd 9f 4b 27 bd 91 c9 d3 3d
       -0.7264546 -0.08656222 -0.040843602 0.1034118
0003a0 1c 31 2d 3d 3f 12 e5 be ec 63 6b 3e 6b 6a 8b 3d
       0.042283162 -0.44740483 0.22987336 0.06807407
0003b0 a9 11 fa 3d 03 d9 b8 bf 54 38 55 bf 75 87 68 3f
       0.122104 -1.4441227 -0.83289075 0.9083169
0003c0 0d 75 38 3e 3c ab 35 bd 56 ef 7d 3e b5 75 02 3e
       0.18013401 -0.044352755 0.2479833 0.12740214
0003d0 44 97 6c 3f 86 c9 7d be fe 21 a4 bf c2 63 15 3f
       0.92418313 -0.24783906 -1.2822874 0.58355343
0003e0 ea d1 43 3f 7e 36 d5 3e 07 2e 77 3f 6a 91 27 be
       0.7649218 0.41643137 0.9655461 -0.16364065
0003f0 88 81 b5 bd 70 0e e7 3e f1 0c 64 bf c7 e5 13 bf
       -0.08862597 0.45128202 -0.89082247 -0.5777249

actor.4.bias f4 [32]
000000 a5 5b 83 bf 15 82 38 bf ef 4f 24 bf fe 8c 94 bf
       -1.0262343 -0.7207349 -0.6418447 -1.1605527
000010 73 db 27 bf 54 9d 38 bf a8 6e 15 bf c0 18 8d bf
       -0.6556923 -0.72115064 -0.58371973 -1.1023178
000020 01 df 32 bf e4 e2 46 bf 9f f7 ed 3e eb 2d 2b be
       -0.69871527 -0.7768996 0.46477982 -0.16716735
000030 e3 9c 5d bf ec f2 bc be b8 d9 26 bf bb 33 5d 3e
       -0.86567515 -0.36904085 -0.6517596 0.21601765
000040 3e 26 25 bf 66 44 35 bf 2c 7d 92 bf fc 50 3d bf
       -0.6451148 -0.7080749 -1.144445 -0.739517
000050 ed c6 2e bf d6 fd e0 3d 2a e2 14 bf 44 8b 2e bf
       -0.68272287 0.10985915 -0.581576 -0.6818125
000060 47 e1 8f be fc b1 90 bf a2 62 95 3f 41 00 15 bf
       -0.2810156 -1.1304317 1.1670725 -0.5820351
000070 47 23 ff bd ed 0e aa bf 8d 94 10 bf 83 4e d4 3d
       -0.124579005 -1.3285805 -0.5647667 0.103665374

actor.6.weight f4 [4, 32]
000000 00 b0 fb bd 4f f8 28 bf ef cb c0 3e 3f 23 c6 be
       -0.12289429 -0.6600389 0.3765559 -0.38698766
000010 11 5f dc be cd ae d2 3e 5c b9 43 3e d7 34 f8 3c
       -0.4304128 0.41148987 0.19113678 0.030298634
000020 f9 c9 9c be ad 9e 33 3f e1 44 68 3f 0c a5 0a 3f
       -0.30622843 0.70163995 0.907301 0.5415809
000030 af f4 ac bd ee 24 ab 3e 17 f8 0c 3a a8 2a 91 3e
       -0.08445107 0.33426613 0.00053775444 0.28352857
000040 87 74 33 bf f9 6a 98 3e f4 7f 47 be 82 55 78 3f
       -0.7009968 0.29769114 -0.19482404 0.97005475
000050 2b 5d e7 be 7a 42 02 3f bf 0e d2 bd f7 f8 95 3e
       -0.4518827 0.50882685 -0.10256719 0.29291508
000060 eb ea 53 3f a7 e5 fa 3e a3 0a 60 3f f0 2c fd be
       0.8278033 0.49003336 0.8751623 -0.49448347
000070 52 26 51 be ab 1d a3 3e 78 ca ed 3e 42 07 be 3e
       -0.20424774 0.31858572 0.46443534 0.37114912
000080 4b 12 d5 3c fc 12 27 bf 5a 28 4a 3f b1 43 62 3e
       0.0260097 -0.6526334 0.7896782 0.22096135
000090 40 97 c3 be b6 ff 4e 3f df bc 19 3f 7f 72 7c be
       -0.38201332 0.80858934 0.6005382 -0.24653052
0000a0 43 7b 8b 3a 45 00 5a 3e 7b 35 1c 3f 40 db 71 3f
       0.0010641593 0.21289165 0.61019105 0.94475174
0000b0 ef 9d 33 3e 3d 79 02 3f 25 74 3e be 8e c7 15 3f
       0.17540716 0.50966245 -0.18598993 0.5850762
0000c0 b5 5d f9 be 84 31 45 3f 43 d3 ab 3c fb bb 37 be
       -0.48704305 0.7702868 0.02097476 -0.17942803
0000d0 34 d9 81 be 2a 5e 7b 3f 5e 7f c1 3e e4 c6 50 3f
       -0.25361025 0.9819056 0.37792486 0.81553483
0000e0 ae 75 36 3d 65 3a 2a 3f af 90 1b 3f 4a 53 8d be
       0.04454582 0.66495353 0.60767645 -0.27602607
0000f0 82 b7 15 be be 5c 2b bc 13 f8 6f 3f 18 a5 24 3f
       -0.14620784 -0.010459123 0.93737906 0.64314413
000100 94 c1 41 3f 07 42 5d 3f aa ee 4a 3e 92 a7 63 3f
       0.75686 0.86428875 0.19817606 0.88927567
000110 90 4d ae 3f c9 59 22 bf ee b0 9e 3e 00 72 07 3f
       1.361742 -0.6341825 0.30994362 0.52908325
000120 97 56 ce 3e 9a 9c 09 3d fb ef 58 3e 83 ab a0 3f
       0.40300438 0.033596613 0.21185295 1.2552341
000130 4a 15 89 3f 8a dd 2a 3f 22 96 43 3f e0 c6 01 bf
       1.0709622 0.6674429 0.7640096 -0.50694084
000140 3a 41 af 3f 92 ce 8d 3d 7d 41 42 3e 77 24 cb 3f
       1.369178 0.06924166 0.18970294 1.5870503
000150 92 9e ad 3f e0 9b 94 3f 39 99 11 3f e8 d7 06 3f
       1.3564017 1.1610069 0.56874424 0.52673197
000160 93 88 3f 3f 42 65 65 3f 9a 31 0a 3f 85 61 8c 3f
       0.7481777 0.8960763 0.53981936 1.0967261
000170 fc 04 ea 3e b8 cc 31 3f ed d2 2b 3f fe a0 fb 3e
       0.45706928 0.69453 0.6711872 0.49146265
000180 1b 75 71 3f 7d 90 8e 3f c9 71 5d 3f af 8a c0 3f
       0.94319314 1.1137844 0.8650175 1.5042323
000190 d1 3e a8 3f ca a5 a0 3f a1 fa 97 3e 98 0c 1e 3f
       1.314417 1.2550595 0.29683402 0.61737967
0001a0 c4 cd bd 3f 72 6f 84 3f b3 5c 25 3e f6 27 34 bf
       1.482842 1.034651 0.16148643 -0.70373476
0001b0 1a 68 97 3f 50 81 96 3f 5c dd 40 3f 59 58 d9 bf
       1.1828644 1.1758213 0.7533777 -1.6980087
0001c0 d4 5b 8f 3f a0 82 d9 3e cb 6f ef 3f 42 10 61 3e
       1.1199899 0.4248247 1.8705992 0.21978858
0001d0 98 8a ce 3f 0f 1b 15 3f 16 f3 5e 3f d5 a5 4e 3f
       1.6136045 0.58244413 0.8708967 0.8072179
0001e0 3e 8b a2 3f 02 0d e3 3f c4 92 c1 3c ee 9e e0 3f
       1.2698743 1.7738345 0.023629554 1.7548501
0001f0 b1 75 c8 3f 3f f2 1b 3f 36 01 57 3f c8 50 30 be
       1.5660917 0.60916513 0.8398622 -0.17218316

actor.6.bias f4 [4]
000000 3d f4 9b 3f 07 7c ce bc 96 45 0a 3f ad 13 4a bf
       1.2183911 -0.025205625 0.5401243 -0.7893627

critic.0.weight f4 [32, 181]
000000 bb cd 6b 3f e4 05 24 be 50 aa a2 be aa f2 bf be
       0.92110795 -0.16017872 -0.31770563 -0.37489825
000010 af 1b 24 bf 12 fe 24 bf cb 41 88 bc 22 ca d9 be
       -0.6410474 -0.6445018 -0.016632935 -0.42537028
000020 24 a2 46 be cd 6d e8 3e a7 e1 7b 3e 97 fa 8e be
       -0.19397789 0.4539627 0.24597798 -0.2792556
000030 7a ee fb 3e 4d 14 13 3d 0f be c2 3e 20 2e 87 be
       0.4920538 0.035908032 0.38035628 -0.26402378
000040 0a 16 7e 3e 25 88 f5 bd fa bf 08 be d6 b3 00 bf
       0.24813095 -0.11988858 -0.13354483 -0.5027441
000050 fc 7c 50 3d 31 ec aa ba d0 2d bb bd 0b a8 ce 3d
       0.050900444 -0.0013040361 -0.091395974 0.100906454
000060 ae af 4c be b2 2b cd be 70 b1 19 bd af f2 d0 bb
       -0.19988891 -0.400724 -0.037522733 -0.0063765864
000070 f2 e7 66 bd 9c f9 96 bd 8f 0c 1a bf 6a 48 11 bf
       -0.056373544 -0.07371828 -0.6017541 -0.5675112
000080 26 d6 98 be 9c 09 db be 9a c3 06 bd 02 6e 1f bf
       -0.29850882 -0.4278077 -0.032901384 -0.62277234
000090 f6 f9 82 bf 4d 0b a0 be 6c 9a 1b bf c1 9b ca bd
       -1.0232532 -0.31258622 -0.60782504 -0.09892989
0000a0 16 46 fe be 8f 7d 9f be 2f b0 06 bf 18 74 dc bf
       -0.49662846 -0.3115048 -0.52612585 -1.7222929
0000b0 15 1d cb bf 26 0f ec bf 22 85 dd bf ac 4d 2a bf
       -1.586825 -1.8442123 -1.7306254 -0.6652477
0000c0 74 68 9f bf 27 71 17 bf 88 0c 81 3f 61 e5 c0 be
       -1.2453752 -0.5915703 1.0081949 -0.37675002
0000d0 cc fb 01 bf 25 13 4f bf 0a 8a a0 bf 12 99 bc bf
       -0.50774837 -0.8088859 -1.2542126 -1.4734213
0000e0 49 2a 79 bf 9f c5 9d be b8 96 00 bf da 1e 21 3e
       -0.9733015 -0.30814835 -0.5022998 0.15734425
0000f0 0f 1d 23 bf b7 48 7d bf 9d 5f a5 bf 0c d0 65 c0
       -0.63716215 -0.9893908 -1.2919804 -3.5908232
000100 6e cb 23 bf 1e 4b ce 3f d9 f2 1e bf 3e 89 02 c0
       -0.63982284 1.6116674 -0.62089306 -2.0396266
000110 10 7b 41 c0 58 ea 08 c0 ea ad 18 3f 90 49 1f c0
       -3.0231361 -2.1393032 0.5964037 -2.488865
000120 97 f8 aa bf 52 a9 e0 3e 51 18 5c 3f 21 32 6c c0
       -1.3357114 0.4387918 0.85974604 -3.6905596
000130 8c 37 d5 3f 43 33 31 c0 20 7c f5 bf 40 13 43 bf
       1.6657577 -2.7687538 -1.9178505 -0.7620125
000140 9f 84 f0 3e 21 79 3e bf e1 df 94 bd 6a cf c7 bf
       0.46976182 -0.7440358 -0.07269264 -1.5610173
000150 33 a6 bc 3e 3e 62 7c bf 4f 46 cd be 26 04 04 3f
       0.3684555 -0.98587406 -0.40092704 0.5156883
000160 a3 36 08 c0 20 3a 6f 3f 9b 37 0b 3e a9 5c b0 3e
       -2.1283348 0.93448067 0.1359543 0.34445694
000170 e8 53 df be 4a bc 2d bf 04 bd f5 3e ba ed 0a 3f
       -0.43618703 -0.6786543 0.4799577 0.5426899
000180 aa c1 12 bf 28 10 c0 bf 9e f5 95 3e d6 a3 fa 3e
       -0.5732676 -1.500493 0.29288954 0.48953122
000190 ae a0 8e be e1 3f 49 3e b4 3e 32 3e 08 34 87 bf
       -0.27856964 0.19653274 0.17406732 -1.0562754
0001a0 22 ab 20 bf 82 de c0 bf 09 d1 b7 bf 7d da bf bf
       -0.6276113 -1.5067904 -1.4360667 -1.4988552
0001b0 8e 53 b4 3e 94 08 04 3e 77 dd 51 bd 77 10 cd 3b
       0.35219997 0.12893897 -0.051236596 0.0062580663
0001c0 d4 34 ba 3d 4c 80 d5 be 72 c4 49 bd f0 de 93 bf
       0.090921074 -0.41699445 -0.04925961 -1.155241
0001d0 86 f8 76 be d4 a7 fe be 1c cd 03 3e b7 a7 43 3f
       -0.24118242 -0.49737418 0.12871212 0.7642779
0001e0 61 75 3b be d4 1a 36 be c9 c0 00 bf db d5 91 be
       -0.18306495 -0.17783672 -0.50294167 -0.2848347
0001f0 fb a7 95 3e 11 68 95 3f 64 bb b7 be 11 ef 0e 3f
       0.2922972 1.1672384 -0.35885155 0.55833536
000200 2f 8d 4f be c7 d2 cf bf 45 06 c4 bf 61 2f b3 be
       -0.20268701 -1.6236199 -1.5314413 -0.34997085
000210 90 dd 35 bf 9f be d4 bd 8e 24 80 3e eb 9b 0a bf
       -0.710412 -0.103879206 0.2502789 -0.5414416
000220 63 13 6d 3e dd ad bb 3e 9e 96 28 bd f1 03 05 bf
       0.23151927 0.36656085 -0.041159265 -0.5195914
000230 9a bc 96 be 42 fc c4 be f0 57 0f be a7 22 38 3d
       -0.29440767 -0.38473707 -0.13998389 0.044954922
000240 e6 6e 96 be 96 13 00 bf 29 59 7d bf 31 6b bb bd
       -0.29381484 -0.50029886 -0.9896417 -0.091513045
000250 66 a0 cf 3c d6 a5 3a bf 49 52 1c bf a0 e0 03 be
       0.025345039 -0.72909296 -0.6106306 -0.12878656
000260 cb dd 34 be e3 c7 b6 3e 31 c8 38 bf 95 d9 23 bf
       -0.17662732 0.35699376 -0.7218047 -0.6400388
000270 d6 52 62 3f 26 f7 d7 bd b7 e2 83 bf 40 08 d4 be
       0.8840765 -0.10545187 -1.0303563 -0.41412544
000280 05 2f 3e 3d 3f 03 7a bf 9e 45 d3 be c7 65 df 3c
       0.04643156 -0.97661203 -0.4126405 0.02727021
000290 c3 83 9b bf 55 aa a9 3e 06 0d 21 3e b8 f9 13 3f
       -1.2149585 0.33137766 0.15727624 0.57802916
0002a0 a1 2c f0 bf 3d 0a 3c 3e 4e 2d 90 be af e0 56 bf
       -1.876362 0.1836328 -0.28159565 -0.8393659
0002b0 fd 56 47 bf 4f 14 7b bf ad b1 50 3e 34 68 f7 bc
       -0.7786711 -0.98077863 0.20380278 -0.030201055
0002c0 4d 97 00 3e 7c 84 51 bf d5 f4 47 3e d9 fd 00 be
       0.12557717 -0.8184278 0.1952699 -0.12596835
0002d0 a3 c1 30 bf 46 68 bd 3d fe eb 24 be 9f 9b 85 be
       -0.69045466 0.09248404 -0.16105649 -0.26095292
0002e0 c3 56 31 3f 1b 8f db be 7d 52 86 be 06 91 a1 bb
       0.6927301 -0.42882618 -0.2623481 -0.004930618
0002f0 8b 3d 87 3d 4b 3f d3 be 40 53 6f 3e 1d c8 25 bf
       0.06603535 -0.41259226 0.23371601 -0.64758474
000300 3c 6b 3a bf a4 13 81 bf 47 dd 1d bf 8a 49 90 bf
       -0.72819877 -1.0084119 -0.6166577 -1.1272442
000310 1f a8 b6 be 87 f3 de 3c 0d fe 0d 3f 61 62 ec 3e
       -0.3567514 0.027215732 0.55465776 0.46168807
000320 d7 3d c8 3e 11 98 72 3d 4b a1 33 3e d2 ed 14 3f
       0.3910968 0.059227053 0.17541997 0.58175385
000330 df 12 25 3f e3 05 e9 3e fb 6d da 3e 34 c9 55 be
       0.6448192 0.45512304 0.42662033 -0.20877534
000340 f0 9f d6 be 3c 3f 2c bf ec 49 46 be c7 92 ee be
       -0.41918898 -0.6728399 -0.19364136 -0.46596357
000350 2c c2 47 bd c9 8f c1 be 15 29 bb 3e 57 fc 91 3e
       -0.04876916 -0.37805012 0.3655478 0.28512833
000360 e6 14 0a 3d 53 24 f3 be 55 f4 96 bd 3f 00 d7 3e
       0.033711337 -0.4748865 -0.073708214 0.41992375
000370 0b 01 d8 bd dd c5 04 bf 48 78 4b bf 54 9b 5a bf
       -0.10547074 -0.51864415 -0.7948041 -0.8539326
000380 81 16 c1 3d cb 9d 06 bf d6 75 23 3f 6a dd 2e 3f
       0.094281204 -0.5258452 0.6385168 0.683066
000390 d8 07 d1 be a2 f7 1f 3f 52 52 3d 3e dd b5 03 bf
       -0.40826297 0.6248723 0.18488434 -0.51449376
0003a0 13 ce ab 3f 6d ef 23 bf ee 11 de bf b8 8d 9a 3e
       1.3422264 -0.6403721 -1.7349222 0.30186248
0003b0 cd e0 8c 3f 9b c5 cf 3f 3c 04 c5 3e 03 c8 33 bf
       1.1006104 1.6232179 0.38479793 -0.7022707
0003c0 14 0e 8d bf 10 34 1b bf 88 24 a7 3d f9 ef d6 be
       -1.1019921 -0.60626316 0.08161265 -0.4197996
0003d0 f2 2f 23 bf 36 0e f7 be 8a ad f9 be 61 76 b0 bd
       -0.63745034 -0.4825303 -0.48765212 -0.08616329
0003e0 c6 07 04 bf ed ec 96 be f1 2e 42 3d f2 9b 03 c0
       -0.5157436 -0.29477635 0.047408048 -2.0563931
0003f0 25 5c 09 c0 41 da 03 c0 4a 02 a8 bf 21 ab 38 bf
       -2.146249 -2.0601962 -1.3125699 -0.7213612

critic.0.bias f4 [32]
000000 25 db d4 3d 08 a9 06 bf bd cf 56 be af 71 34 3e
       0.10393361 -0.5260167 -0.20977683 0.17621492
000010 d7 11 6c 3d c2 c4 1a bf b3 cd 3d be a1 71 3b be
       0.0576342 -0.6045648 -0.185355 -0.18305065
000020 55 df d6 3b b7 85 73 be 2d 3f 85 3e ac 03 f3 bd
       0.006557385 -0.23781477 0.26024762 -0.11865935
000030 2c 3a de 3d da 44 c4 3e 29 4a 70 3e 41 55 de bd
       0.10850939 0.3833378 0.2346579 -0.10856105
000040 4b 4a 0a bd 86 b9 2a 3f 56 17 a1 3e e3 15 30 be
       -0.033762258 0.66689336 0.31463116 -0.17195849
000050 da ac 3e be a1 e3 c3 be e0 d9 25 be 70 d2 e6 be
       -0.18620625 -0.38259605 -0.16196394 -0.45082426
000060 12 08 f5 3e 8a 7d 63 be c5 77 cc be 09 34 c3 bd
       0.4785772 -0.22215858 -0.39935127 -0.09531409
000070 b6 91 a9 bb c6 ec 1e be 6a 1a 1f 3d ee bf bd 3e
       -0.005174841 -0.1552001 0.03884355 0.37060493

critic.2.weight f4 [32, 32]
000000 83 d8 c9 3e 46 67 4f be a1 34 aa bd cf 0f 1f 3f
       0.39422998 -0.2025424 -0.083108194 0.62133497
000010 71 53 f0 be 77 f7 3a bf fa a8 87 bd a3 c2 cb be
       -0.4693866 -0.7303385 -0.066240266 -0.39796934
000020 2f b9 74 bf 49 8a b3 3e d2 b3 93 3d b2 46 52 be
       -0.9559507 0.3506644 0.072120324 -0.2053478
000030 dd ae 95 be c8 9d 56 3e 44 c8 09 3f 74 3c 6d 3d
       -0.29234973 0.20958626 0.53821206 0.05791898
000040 f8 79 3f be 8d 51 e6 bc 1c ff 01 bf d5 bf c5 3e
       -0.18698871 -0.028115058 -0.5077989 0.3862292
000050 6e a7 af be 2b fe 28 3f 2a 3f 45 3e 56 02 31 3f
       -0.34307426 0.6601283 0.19262376 0.6914419
000060 2c d2 63 3e a9 e5 23 3f 05 70 ba 3e 31 09 ac be
       0.22248143 0.6402231 0.3641359 -0.33600762
000070 29 66 5d bf 6a 71 21 be 33 16 70 3e aa cd 8c be
       -0.8648401 -0.1576592 0.23445968 -0.2750066
000080 5b 52 2d 3f 75 28 cd be e4 e7 0a 3f f1 3f de 3f
       0.6770379 -0.4006993 0.54260087 1.7363263
000090 6f d5 92 bf 0c 46 7d 3f ca f2 ee 3e 12 1c 9c be
       -1.1471385 0.9893501 0.46669608 -0.30490166
0000a0 ac 0b be 3e aa 6a 37 3f 21 40 23 3f a6 fa 71 bd
       0.3711828 0.7164713 0.6376973 -0.059076928
0000b0 86 45 b7 3d e2 83 37 bf ed 93 85 3f bd d4 87 3f
       0.089488074 -0.7168561 1.0435768 1.0611798
0000c0 d2 ee f1 be 67 c5 8b bf f0 ed 4c 3f f7 69 65 3f
       -0.47252518 -1.0919617 0.80050564 0.89614815
0000d0 60 56 18 3e 96 46 92 3f fb c9 ae 3f 20 01 5d 3f
       0.148767 1.1427791 1.365539 0.8632984
0000e0 ff 6f 5e 3f a9 96 c4 3f 5c 7e 67 3f 04 b1 68 bf
       0.8688964 1.5358478 0.90427184 -0.90895104
0000f0 25 27 ef bd f2 cd 77 3f ea ad 8a 3f c2 f3 52 3f
       -0.11677388 0.9679862 1.0834324 0.82403195
000100 91 1f 9b 3f 2e 74 84 be bf ba 5d 3f 01 77 5a 3f
       1.2119008 -0.25869888 0.86613077 0.85337836
000110 f9 f4 6c bf 06 8a 7c 3f c5 e2 ab 3e b8 e5 1f be
       -0.925613 0.9864811 0.3357145 -0.15614974
000120 e9 24 6d bd bc b0 04 3f 4a da 3b 3f 0c 02 62 3e
       -0.05789653 0.51832175 0.7337996 0.22071093
000130 b7 7c 4f 3e 4e 40 0e bf 8b 5b 53 3f 14 30 36 3f
       0.20262419 -0.5556687 0.8256156 0.7116711
000140 c7 29 62 be aa a9 0d bf a4 07 d8 be 74 3c b7 3f
       -0.2208625 -0.5533701 -0.4219333 1.4315324
000150 f7 53 91 be f3 84 78 3f 1d f6 c9 3f ff 11 41 3f
       -0.28384373 0.97077864 1.5778233 0.75418085
000160 96 10 5e 3f 41 4c eb 3e a1 ad ad 3f 74 2d 13 bf
       0.8674406 0.45956615 1.3568612 -0.5749123
000170 67 88 08 be 81 57 be 3f b4 47 23 3f af a5 5b 3f
       -0.13333283 1.4870454 0.63781285 0.8579969
000180 c7 a8 49 3f e5 32 ad bf e1 40 b1 3e 60 10 36 3f
       0.7877316 -1.3531157 0.3461981 0.71118736
000190 cc 2a 3d bf 6c ee a1 bd e6 5c a8 be 6d a4 28 bf
       -0.7389343 -0.079068035 -0.32883376 -0.65875894
0001a0 39 60 bc bc 40 55 92 3e 85 0a 1b 3f 68 a5 eb 3e
       -0.022995101 0.28580666 0.60562927 0.46024632
0001b0 b4 0c 2f bf 8e da 8c bd 1e 03 28 3f 9d 9f a6 3e
       -0.6837876 -0.068776235 0.65629756 0.3254365
0001c0 02 a1 88 bc b5 61 59 be db dd 12 bf 36 ca 20 3f
       -0.016678337 -0.21228679 -0.57369775 0.6280855
0001d0 5a 8e 0a 3f 91 93 83 3e c1 08 cc 3e c4 52 0d bb
       0.5412346 0.25698522 0.3985043 -0.0021564225
0001e0 4d 99 36 3e 75 5d a4 3e e3 2c 9c 3e 88 13 a6 bf
       0.17831917 0.32102552 0.30502996 -1.297471
0001f0 27 1b ad bf 9a bc b1 3e eb d6 1b 3f 1d 01 eb 3e
       -1.3523911 0.34714204 0.60874814 0.45899287
000200 af bf 10 3e 1c f1 a0 3e 54 98 b8 be bd 25 78 3f
       0.14135621 0.31433952 -0.36053717 0.96932584
000210 7e d9 9e bf b4 68 98 3f f3 7f 10 3f 89 82 11 3f
       -1.2410123 1.1906953 0.56445235 0.56839806
000220 ac 4e 89 3f 09 09 26 3e 71 b0 07 3f 42 e7 9c 3e
       1.0727134 0.16214384 0.53003603 0.30645186
000230 0a a7 13 3f dd 4d d0 be de 7e 4f 3f 7d 25 c2 3e
       0.57676756 -0.40684405 0.8105296 0.37919226
000240 01 8b 82 3f 16 fc 67 bf e7 b0 82 bd 3e cc 05 3f
       1.0198671 -0.9061903 -0.06381398 0.52264774
000250 5c 9d 93 3d b2 26 14 3e 85 6f 7f 3f bc 1b 1b 3f
       0.07207748 0.14467886 0.9977954 0.60589194
000260 79 b1 74 3f c0 f4 b1 3f 5d 80 c4 bd aa f1 f5 3d
       0.955833 1.3902817 -0.09594796 0.120089844
000270 55 13 2d 3e d4 dd c0 3e 12 ab b7 be 10 15 e1 3e
       0.16901906 0.3766924 -0.35872704 0.43961382
000280 10 04 61 3e 29 44 ba be 62 5c 28 3f 98 13 87 3e
       0.21974206 -0.36380127 0.65765965 0.26382136
000290 50 05 bd 3d 7e d6 47 3f ea d3 3e 3f 90 af 20 bf
       0.09229529 0.78061664 0.74542105 -0.6276789
0002a0 17 c4 d6 3e 99 ca 80 3f ca b5 50 3e 6a fe 1d be
       0.4194648 1.0061828 0.20381847 -0.15429083
0002b0 5a f9 d8 be 5b b8 51 bf 39 4a 52 bf 09 53 fd 3e
       -0.4237774 -0.8192193 -0.82144505 0.49477413
0002c0 1a c1 d4 be ab 32 58 3d 2f a1 c3 3e db 3d f0 3c
       -0.41553575 0.052782696 0.3820891 0.02932637
0002d0 77 3e 26 bf 03 4d 5e 3b 3c 23 ca bd fd dd 82 3f
       -0.64939064 0.0033920414 -0.09870002 1.0223995
0002e0 bf a4 3d 3f d5 56 9e 3e 3d 51 0a 3f 3d 14 e7 bd
       0.7407951 0.30925623 0.5403021 -0.11283157
0002f0 35 9d 4e bf 5d f3 4b 3c 9c 60 04 be b4 8e 93 be
       -0.8070863 0.012448159 -0.12927479 -0.2881981
000300 15 d4 3c 3f ff c1 4a 3f f7 d8 d8 3e eb 17 aa 3f
       0.7376111 0.79202265 0.4235303 1.3288549
000310 60 2e a9 bd 26 25 07 3f 6e 76 50 3f 83 c9 21 3f
       -0.082607985 0.5279106 0.8143071 0.6319811
000320 c8 49 c8 3e fa fe 73 3e 60 14 0c be db 30 6e 3f
       0.3911879 0.23827735 -0.13679647 0.930433
000330 54 ee c7 3e 10 77 35 bd e3 2a f0 3e 1e e7 16 3f
       0.39049017 -0.044303 0.4690772 0.58946407
000340 a2 0c 58 3e a0 e9 53 bf 13 c5 22 3e 67 b9 3d 3f
       0.21098569 -0.8277836 0.1589549 0.74111027
000350 6a 88 00 bf 9c fd 38 3f a1 72 80 3f 47 ca 6d 3f
       -0.5020815 0.7226198 1.0034982 0.92886776
000360 cc 3e 87 3f b5 1c 74 3f 3a 89 87 3f 94 f5 c4 bd
       1.0566039 0.95356303 1.0588753 -0.09617153
000370 58 51 44 3e 2c 4c de 3f 27 c9 16 3f 00 2d 8d 3e
       0.19171655 1.7366996 0.58900684 0.27573395
000380 a8 5b bf 3e 0f 91 ba be 82 90 21 3d e2 2f a0 bf
       0.37374616 -0.36438796 0.039444454 -1.2514613
000390 d3 e5 11 3f 1d 68 b7 be 8e 7c 81 3f da 35 ee 3e
       0.5699131 -0.3582162 1.0116136 0.4652546
0003a0 82 73 ca 3e 61 15 4a bf cc 18 80 3e af dd 5b 3e
       0.3954125 -0.7893887 0.2501892 0.21471284
0003b0 de 98 96 3f 85 a1 20 be e8 87 a0 bf 6f 3a d5 3d
       1.1765401 -0.15686615 -1.2541475 0.10411536
0003c0 c0 04 1a bf 12 15 2f bf 1b 50 ee bf 84 c1 16 be
       -0.601635 -0.68391526 -1.8618196 -0.14722258
0003d0 8e 11 aa bd d3 4f a7 3e e9 ee 57 3f 85 01 ca 3e
       -0.083041295 0.3267809 0.8434892 0.39454284
0003e0 42 90 01 3f 89 86 9f 3e 11 ac 86 3e 25 cb 90 3c
       0.50610745 0.3115733 0.2630315 0.017674992
0003f0 4a fe f7 bd 69 f4 5c 3f e9 52 d0 bc db 9f 08 3f
       -0.12109049 0.8631044 -0.02543016 0.5336892

critic.2.bias f4 [32]
000000 d0 5a 93 be e3 ac b5 bf 1e 73 96 bf ed bc 86 be
       -0.28780222 -1.4193386 -1.1753881 -0.26316014
000010 d3 36 a6 bf a4 5b 4c bf fa c6 c0 bf 1a 8c 4c bf
       -1.2985481 -0.7982733 -1.5060723 -0.7990128
000020 7f fd 8f 3f 58 14 2e bf fb 2c b6 be 06 3f 8f bf
       1.1249236 -0.6799979 -0.35581192 -1.1191108
000030 0d ce f8 3d dd b0 56 3e 06 04 96 bf 57 51 cd be
       0.12148676 0.20965905 -1.1719978 -0.4010112
000040 3e e1 42 3f 4c 9b 62 bf 5f 61 40 bf f3 8b 97 bf
       0.7612494 -0.88518214 -0.75148576 -1.1839584
000050 06 14 bf be fa 67 0e bf 17 ce 3a bf 54 03 ab be
       -0.37319964 -0.55627406 -0.7297072 -0.33400977
000060 5d 2b c4 be bf 5d 14 bf 78 d6 9b bf f5 2c 64 be
       -0.38314334 -0.57955545 -1.2174826 -0.22282775
000070 e1 d9 1c bf 1a 2a 6b bf d1 2e c7 bf 6d 95 8d bf
       -0.61269957 -0.91861117 -1.5561162 -1.1061226

critic.4.weight f4 [32, 32]
000000 56 4c 82 bd ec df 3c be 68 6b ba 3e d2 30 0c be
       -0.06362216 -0.18444794 0.3641007 -0.13690498
000010 00 c9 8e 3e f2 f0 fb bc 44 12 83 bd 3e 68 d3 3f
       0.27887726 -0.03075454 -0.06399968 1.6516187
000020 db b5 6e 3e b7 ef 8d 3e 46 35 58 3f cd c5 7b 3e
       0.2331156 0.2772195 0.8445629 0.24587174
000030 94 a1 7a 3f c1 83 34 bf 76 42 d8 3e 1d 2a 81 3f
       0.979028 -0.7051354 0.42238206 1.0090977
000040 bb 20 0e 3f 02 df 9a 3e ab 6d 04 3e ed ae 00 3f
       0.5551869 0.30248266 0.1293246 0.50266916
000050 a2 32 75 3e 9c 4c 0c 3e 89 b6 df be 4b 65 78 3f
       0.23945096 0.13701099 -0.4369395 0.9702956
000060 42 f1 00 40 23 27 f3 bc 11 46 fc 3e 1c ca a9 3f
       2.0147252 -0.029681748 0.49272206 1.3264804
000070 65 57 04 3f 58 ec 69 3f ed 70 3c 3f 86 ed c2 3e
       0.51695853 0.91376257 0.7360981 0.3807184
000080 68 80 8d bf 3a 6e eb be c9 d9 08 bf d5 f1 37 bf
       -1.1054811 -0.45982534 -0.53457314 -0.7185338
000090 d4 00 bb be 50 f1 96 bf c3 d2 1e be 01 fb 38 bf
       -0.3652407 -1.1792393 -0.15510087 -0.72258
0000a0 6d 98 d0 be c3 a5 44 bf 7d 3e e1 be 94 19 0c bf
       -0.40741292 -0.7681543 -0.43992987 -0.5472653
0000b0 2f 28 43 bf 37 d4 fa 3e 46 f6 36 be 50 eb 0a bd
       -0.7623319 0.48990032 -0.17867383 -0.033915818
0000c0 62 89 62 be 73 65 40 be eb ec c4 bd 49 21 c8 3e
       -0.2212272 -0.187887 -0.09615501 0.39087895
0000d0 fd 8b 39 bf 76 6b d9 3e db 2e ae be 16 9b 57 bf
       -0.7247923 0.424648 -0.34020123 -0.8422102
0000e0 f2 e3 45 3e ab 94 b5 bd 9e 34 54 be 71 c6 39 bf
       0.19325235 -0.08866247 -0.20723197 -0.7256842
0000f0 62 0b 76 3c 66 c9 63 be c5 1e ac be 59 4f 81 3f
       0.015017362 -0.22244796 -0.33617225 1.010234
000100 7b 72 81 3f d7 68 86 3f 6e d7 ff bb 43 dd 0f bf
       1.0113062 1.0500745 -0.0078076636 -0.56196994
000110 44 18 e7 3e da ee a7 3d 6d 2c 76 3f e2 b6 4f 3e
       0.451357 0.08199854 0.9616154 0.20284608
000120 54 18 fa 3b 22 af b8 3e 2d 94 0e 3f 12 f4 35 3f
       0.0076322947 0.36071116 0.5569485 0.71075547
000130 b9 8f 32 3f 25 e8 11 be 35 8a 7e 3f 6c 18 56 3f
       0.69750553 -0.14248712 0.9942964 0.83631015
000140 ff b2 08 bd 55 ce 16 3f d2 8a 11 3f a1 ab 83 3f
       -0.03337383 0.5890859 0.5685245 1.0286752
000150 ed a1 0a 3f de c5 28 3f df b0 25 bf 6c 6a 59 3f
       0.5415333 0.6592692 -0.6472301 0.8492801
000160 b6 1a 3f 3e 96 f5 17 3f a2 56 c0 3f 11 d1 5c bd
       0.18662533 0.5935911 1.5026438 -0.05391032
000170 80 c0 89 be 21 6d 57 3f 4a 3b 6c 3f 3f c3 97 3e
       -0.26904678 0.8415089 0.9227797 0.29641148
000180 7f 43 9b 3d 7c 51 34 3f 72 37 dd 3e 3d 36 cd bc
       0.07581233 0.70436835 0.43206364 -0.025050277
000190 fc 85 01 3e 55 54 af bf 4b 94 17 3f a9 ed 01 3f
       0.12648767 -1.3697611 0.5921065 0.50753266
0001a0 52 72 a5 3f 36 0f bf 3e 72 9e 29 3f d5 1d 61 3f
       1.2925513 0.37316293 0.66257393 0.87936145
0001b0 af 53 a0 3e de c6 dd be 78 6a 7a 3f 81 17 5f 3f
       0.31313846 -0.43315786 0.9781871 0.8714524
0001c0 55 de bc bf 3c 0b 02 3f 0c 2b e9 3e 6d 1d c1 3e
       -1.475535 0.5079839 0.45540655 0.37717763
0001d0 4b f4 ce bd 99 64 83 3f 14 d8 bb 3f 8f 7c f6 3e
       -0.10105189 1.0265075 1.4675317 0.48141906
0001e0 72 91 5d 3e d4 ab 60 3f f3 6b ef 3e be 25 50 3f
       0.21637514 0.8776219 0.46762046 0.8130759
0001f0 14 69 44 bf 2d 7c 34 be 7a 6a c4 3e 63 0b 18 3f
       -0.76722836 -0.17625494 0.38362485 0.59392375
000200 78 58 96 be 89 9c 22 3f 48 aa 96 3d 94 8d 0a 3f
       -0.2936437 0.63520104 0.07356697 0.5412228
000210 c3 ab 87 3f f5 d6 81 bf 8c 48 4b 3f 6d 17 00 3e
       1.0599293 -1.0143725 0.7940757 0.12508936
000220 17 01 17 be 0d e2 90 bf c4 ac 49 3f 95 76 91 3e
       -0.1474651 -1.1318985 0.78779244 0.28410783
000230 90 8f c8 3d be da b6 3e 6b f6 78 3e d1 1b d1 3e
       0.097930074 0.35713762 0.24312751 0.40841535
000240 b4 c9 c9 bf 15 3b 0d 3d 51 44 39 3d e8 0a be 3f
       -1.576468 0.034480173 0.045231167 1.4847078
000250 3d 4f 30 bf 4c 49 96 3f 2f 7d 53 bf 9b cb 1f 3f
       -0.6887091 1.1741118 -0.8261289 0.6242005
000260 22 0b 72 3e b1 1a 63 be 16 9d 6b 3f d5 93 b0 3f
       0.2363706 -0.2217815 0.9203657 1.3795115
000270 e1 a1 c4 3e c0 6f e1 3e cf c1 49 be e0 ba 7c 3f
       0.38404754 0.4403057 -0.19702838 0.9872265
000280 ef ae 0d bf 24 d7 98 bf e5 1f 15 bf 43 9d 80 bf
       -0.5534505 -1.1940656 -0.5825179 -1.0047992
000290 bb b9 ad bf 4c 7a b0 be 17 46 01 bf 95 33 14 3e
       -1.3572305 -0.34468305 -0.50497574 0.14472802
0002a0 ca 8c 61 3e ba be 74 3f 89 90 e5 3e 1a 4f 96 bf
       0.22026363 0.95603526 0.44836834 -1.174289
0002b0 87 e3 06 bf 2a 32 d7 bd bf a2 8c bf f8 dc f6 be
       -0.5269093 -0.10507615 -1.0987166 -0.4821546
0002c0 6c 4a 04 3f 62 ae 15 bf 63 6f af be 80 26 a3 bf
       0.5167606 -0.5846921 -0.3426467 -1.2746124
0002d0 b4 8b 4f bf f9 50 4f bb a6 3f 3b 3e 26 6e 7d bf
       -0.81072545 -0.0031633957 0.18285999 -0.989962
0002e0 1c bf 63 3e fc 37 18 3e 41 08 57 bf 3c 56 1c be
       0.22240871 0.14865106 -0.8399697 -0.15267271
0002f0 73 0d 2b 3d 3f 45 b2 be 41 aa 06 bf 97 aa 39 bf
       0.041760873 -0.34818456 -0.52603537 -0.72525924
000300 43 66 23 3f f8 f7 80 be 22 33 13 3e 51 e8 8d bd
       0.63827914 -0.25189185 0.14374974 -0.069290765
000310 fe 55 99 3f ff c3 1e bd 44 d9 b0 3f 31 df a7 3d
       1.1979368 -0.038761135 1.3816304 0.08196867
000320 90 ca 39 3e 8b d7 93 3f 1b 9a 7e 3e 73 ed 28 3f
       0.18143678 1.1550153 0.24863474 0.6598732
000330 cb e8 97 bd 0c 6b 75 3d 5f 0a 80 3e cc a4 5c 3f
       -0.074174486 0.05991654 0.25007913 0.8618896
000340 84 37 c3 bd 53 e8 16 3f 73 eb e3 3e b6 86 61 3f
       -0.09532073 0.5894825 0.4451557 0.8809618
000350 92 8e 5a 3f fc 0c a9 3f 93 e5 e9 3e f2 61 ba be
       0.85373795 1.3207088 0.45682964 -0.3640285
000360 8f 96 9d 3e 26 77 33 3f b9 1f 39 3f 7f 77 8c be
       0.3077893 0.7010368 0.7231403 -0.27434918
000370 c2 bc 16 bd 31 46 fb 3e ef de 53 be 1d 1e 8b 3f
       -0.036801107 0.4907699 -0.20690511 1.0868565
000380 04 8f ae be 83 67 94 3e 9a 50 85 bd 62 ea ef be
       -0.34093487 0.28985223 -0.06509514 -0.46858507
000390 5e eb 3c 3f 5a 95 a7 be cd 56 6c be 80 1c 88 3e
       0.7379664 -0.32731134 -0.23079987 0.26584244
0003a0 83 c4 33 3e 58 c3 4f 3e 50 67 a3 be e9 0a 79 3e
       0.17555432 0.20289361 -0.3191476 0.24320568
0003b0 cc 7e 42 3f b6 e2 96 3f ba 6c 8b 3d a0 77 01 3f
       0.75974727 1.1787937 0.06807847 0.5057316
0003c0 35 61 8f bf eb e2 f2 be 2b 1e c6 3e 9d 4f ef 3e
       -1.120154 -0.4743875 0.3869489 0.46740428
0003d0 3f 0a b6 bd 11 87 b9 be 59 d9 1c 3f 21 09 06 be
       -0.08888673 -0.3623586 0.61269146 -0.1308942
0003e0 40 26 8f be 5a c2 d0 bd 87 c4 16 be d6 b8 be 3e
       -0.2795887 -0.101933196 -0.14723407 0.37250394
0003f0 0b 9f 8c be 60 05 17 3f 23 67 b3 3d cc 6c 0f 3d
       -0.2746509 0.58992577 0.08759906 0.035015866

critic.4.bias f4 [32]
000000 a9 48 04 3f d1 bb 5d bf 26 eb 98 3d cf d7 81 3e
       0.5167337 -0.8661471 0.07466726 0.2535996
000010 0a 30 a5 be 66 48 c0 3f 13 82 ac be fb e7 4e 3f
       -0.32263213 1.5022094 -0.3369299 0.80822724
000020 36 b6 63 bf be 28 40 3e 55 7f 52 bf d7 03 64 3f
       -0.88949907 0.18765542 -0.82225543 0.8906836
000030 1d 28 96 3f b1 e3 c8 3d 91 1a ca be 5e 47 b5 3f
       1.1730992 0.09809054 -0.39473394 1.4162405
000040 3d 0d 7b bf 22 b0 9d be 50 25 f4 3e 08 05 aa be
       -0.98067075 -0.3079844 0.47684717 -0.33206964
000050 22 d3 a4 3f dd aa 91 be d9 db e2 3e 82 69 ec be
       1.2876933 -0.2845067 0.44308355 -0.46174246
000060 eb c8 b4 3e 66 24 16 3d 73 28 40 be 52 67 6b bf
       0.35309538 0.036655806 -0.1876543 -0.9195453
000070 c8 dc 1e bf c4 f2 8c 3d c3 1a 84 3f 43 10 ca 3e
       -0.62055635 0.06882241 1.0320667 0.39465532
