models/model.ckpt-179395.pth (torch, 70479 bytes, 15 tensors)

actor.0.weight f4 [32, 181]
000000 c7 f7 bb 3f 78 5d 2d 3f da a9 2f c0 e2 f3 84 bf
       1.4684991 0.67720747 -2.744742 -1.0386927
000010 87 d1 3b bd 93 6a 31 3f a5 fd a1 be 00 c3 f9 bf
       -0.045854118 0.69303244 -0.31638828 -1.9512634
000020 7f db 90 ba 0e 73 03 40 6d 17 10 40 2b 2c 25 40
       -0.0011051743 2.0538974 2.2514298 2.5808208
000030 ed a7 02 bf 1e 6a 1f c0 d3 ef 21 bf 2e 3b 2c bf
       -0.51037484 -2.4908519 -0.6325657 -0.672778
000040 fb 75 1d c0 9d f5 38 3e 4d a8 b6 3f d1 16 24 3f
       -2.460326 0.18062444 1.4270111 0.64097315
000050 ef a8 81 3d 1f 5f c0 3e 9c c8 47 3e 01 b2 2f 3c
       0.0633105 0.37572572 0.1951012 0.010723592
000060 4e 20 fa 3d ba 1a 3c be 55 08 78 3d f2 75 58 3f
       0.12213193 -0.1836957 0.06055482 0.8455497
000070 e2 07 1f 3d 1b 9f ec 3d 55 98 d5 3c ef cb ba 3d
       0.038825877 0.115537845 0.026073614 0.091209285
000080 f2 19 a0 3d 7b 2f 30 be 64 6f 9c be 1a 46 d6 be
       0.07817449 -0.17205612 -0.30553734 -0.41850358
000090 ed 3c 1b bc 73 ab 83 3d f0 e4 e1 bd 16 2d 84 bd
       -0.009474975 0.06429186 -0.110299945 -0.06453912
0000a0 a0 fa e5 bc 4f d3 7c 3e 3d 6b ea bc cf f4 aa be
       -0.028073609 0.24689983 -0.028615588 -0.333899
0000b0 61 41 d0 be e5 03 c1 be e0 dd 0b be 51 6b 9a 3e
       -0.4067488 -0.37698284 -0.13658857 0.3016
0000c0 98 c2 a6 be 27 2d 99 be 5a 53 9a be 57 2e 9b be
       -0.32570338 -0.2991726 -0.30141717 -0.30308792
0000d0 d4 75 32 bf 64 c7 fa be 5b 56 47 bf e8 a6 5a be
       -0.6971104 -0.48980248 -0.77866143 -0.21352732
0000e0 1b 05 10 bf be 09 5e bf d6 26 91 bf a7 cf 76 bf
       -0.5625779 -0.86733615 -1.1339977 -0.964106
0000f0 23 15 86 bf f8 4a 73 be d5 73 55 3e 16 d0 34 bf
       -1.04752 -0.23759067 0.20844968 -0.70630014
000100 88 35 b6 bf 72 d2 47 bf 78 85 08 bf 2f a5 5d bf
       -1.4235086 -0.7805549 -0.5332866 -0.86580175
000110 9d 37 2d bf f1 8e b9 be 29 cd 0c bf 88 e9 81 bf
       -0.67662984 -0.36241868 -0.5500055 -1.0149393
000120 1a 57 ad bf 92 dd 3b be b6 4d 63 be 9f d3 2d bf
       -1.3542206 -0.18346241 -0.22197613 -0.67901033
000130 c0 59 ea be 9d cc 1e bf 8f cb 14 bf 82 b2 02 bf
       -0.457716 -0.62030965 -0.58123106 -0.5105363
000140 d7 d8 1a be d5 bf 9b bf 2a 5e 99 bf a0 5d 2b bf
       -0.1512178 -1.2167917 -1.1981862 -0.66939735
000150 78 fc 63 be 71 07 95 3e 48 fb 0b 3e 1b 9b 52 be
       -0.22264278 0.2910724 0.13670075 -0.2056698
000160 5b db f1 be b2 92 c5 be 3e 4b 07 bf c9 76 7f bf
       -0.47237667 -0.38588482 -0.52849185 -0.99790627
000170 41 2c 34 bf b4 f9 66 be 6b 0a 69 be 62 d4 ed be
       -0.70380026 -0.22556192 -0.2275788 -0.46451098
000180 9a 5a 22 bf 2b c2 db be 3d 8e 02 bf c2 33 b5 be
       -0.63419497 -0.42921576 -0.5099829 -0.3539105
000190 5a 5e 12 bf 10 38 40 3c dc 03 28 3b 43 70 b8 be
       -0.5717522 0.011732116 0.0025637066 -0.3602315
0001a0 83 8c 92 be 1b b0 81 be d1 ae 1b bf df e4 2f 3e
       -0.28622827 -0.2532967 -0.60813624 0.17177151
0001b0 67 a8 27 3c 83 f5 0d bf f5 0a 1d 3e a0 b2 2d bf
       0.010233021 -0.55452746 0.15336211 -0.67850685
0001c0 eb ad 69 bf e5 07 ac bd c0 79 91 3e 10 0f b2 3e
       -0.91281 -0.08399943 0.284132 0.34777117
0001d0 b2 7f 08 bf 94 9f 56 bf 7f 33 37 bf 19 7d 41 bf
       -0.5331985 -0.83837247 -0.7156295 -0.7558151
0001e0 f6 cb 6f bf 0c fa 02 bf aa ca 89 3d eb 6c 04 3f
       -0.93670595 -0.5116279 0.06728108 0.51728696
0001f0 f0 22 dc 3d b6 98 84 be f0 a9 c7 3e 7d 73 66 bd
       0.10748851 -0.2589776 0.3899684 -0.056262482
000200 cc f9 ee be ae 09 2e bd b0 07 48 3d cc 45 06 be
       -0.46674955 -0.0424897 0.048835456 -0.13112563
000210 94 46 a6 3e 82 be a6 3e a4 63 8d be 1a 87 c6 be
       0.32475722 0.3256722 -0.27615082 -0.3877495
000220 ef 62 b2 be 41 fc 0e bf fc f0 1b bf ea cc b3 be
       -0.34841105 -0.5585366 -0.6091459 -0.35117275
000230 bc c9 24 be af b2 e5 bd a1 89 c8 bd fe 21 3d be
       -0.1609258 -0.11215722 -0.09791876 -0.18469998
000240 ca 1f 4c 3e 1e 98 53 3e 91 4d f8 3d 8a 05 5f 3e
       0.19934002 0.20663497 0.121241696 0.21779457
000250 c7 5b 50 3e ab 8e 01 bd b8 9f cd bb 12 d2 b0 bd
       0.2034751 -0.0316302 -0.0062751435 -0.08633818
000260 a7 1c 22 3d 63 98 38 be d1 6d 2b 3d 5d c4 3c 3e
       0.039578106 -0.18026881 0.041852776 0.18434282
000270 c0 b7 37 3e cd a0 c9 3d c4 de da bd ff 00 c2 bd
       0.17941189 0.098451234 -0.106870204 -0.09472846
000280 9a 3f b5 be ee b7 c0 3e 56 a5 5a 3f a9 f7 1b be
       -0.35400087 0.37640327 0.8540853 -0.15231194
000290 6a a5 6a 3e 8d 63 62 bf a6 12 21 3f a3 a1 f2 be
       0.22914663 -0.8843315 0.6291908 -0.47388944
0002a0 91 7e 9f be 82 cd 46 bf a5 fa 8c be 76 8a 8e 3f
       -0.3115125 -0.7765733 -0.27534977 1.1136005
0002b0 de 2d 82 be 04 ae 68 3c eb 4a 8a bf e9 6e 3f 3f
       -0.2542562 0.014201645 -1.0804113 0.7477861
0002c0 b3 03 0e be d4 29 81 3f 22 f0 8a be 35 a6 a0 3d
       -0.13868599 1.009089 -0.27136332 0.078442015
0002d0 6b 92 a1 3e fa ea 98 3e 8a 99 98 be 1d 6a bb bf
       0.3155702 0.29866773 -0.2980464 -1.4641758
0002e0 94 80 d9 bf 4f a4 2b c0 24 67 18 3f 4e 23 4f 40
       -1.6992364 -2.6819036 0.5953238 3.2365298
0002f0 be d6 b3 40 53 86 03 40 29 68 b0 3f b2 6f ac be
       5.6199636 2.0550735 1.3781787 -0.33678967
000300 6c 97 86 bf 8d 23 a0 3d 8d 4c b4 bf 47 26 a0 bf
       -1.051496 0.07819281 -1.4085861 -1.2511681
000310 93 fd 7c bf 4f 4e 4f 3f 16 eb 86 40 45 d7 6d 40
       -0.98824424 0.80978864 4.216197 3.716264
000320 1d ff b1 3f fa fa 56 3e cc 25 51 be ec be 67 be
       1.3905979 0.20994177 -0.20424575 -0.22631425
000330 3c 8b bf be 0a 23 44 be d1 6c 28 bf c2 83 b8 bf
       -0.37410915 -0.19153991 -0.6579104 -1.4415209
000340 aa a9 e2 be 61 4e b9 3f 52 54 4d 3f 7f 0a 1e bf
       -0.44270068 1.4477044 0.8020679 -0.61734766
000350 66 2a 25 be 74 50 92 3e a6 35 e6 be 6c 8e 02 3e
       -0.16129455 0.28577006 -0.44962806 0.12749642
000360 dd 28 4b 3e ac a2 d6 3e 97 b1 ce 3e 4a 96 ee 3e
       0.19839807 0.41920984 0.40369865 0.46599036
000370 df 05 9a 3e 66 36 ec be 4f 86 4e bf 5b 4a f7 bd
       0.30082604 -0.46135253 -0.8067369 -0.12074729
000380 f8 fc 73 3f d0 a4 65 3f 82 c3 8f 3c 12 fb 69 3e
       0.95307875 0.8970461 0.01754928 0.22849682
000390 e7 2b cd bd 89 8c 61 3e bc f1 93 3e c6 6e 7d bf
       -0.10018139 0.22026266 0.28895366 -0.9899715
0003a0 78 a6 91 bf 06 dc ed be 4d d5 ed bd e2 1b 79 be
       -1.1378927 -0.46456927 -0.116129495 -0.24327043
0003b0 c4 fe 7f bf f3 74 ae be 84 94 e6 3e cd 1a 32 3f
       -0.99998116 -0.340736 0.45035183 0.69572145
0003c0 d8 d7 39 3f db ac 9b bf f4 27 9c bf 07 60 98 be
       0.72594976 -1.2162126 -1.2199693 -0.29760763
0003d0 99 e0 da be 33 d1 f6 3c c2 50 76 be ea da 8c be
       -0.4274948 0.03012905 -0.24054244 -0.27510768
0003e0 1a 37 30 3f dc a1 a3 3e 2a c8 20 3f 0d 06 42 bf
       0.6883408 0.31959426 0.62805426 -0.7579048
0003f0 d2 4d 49 bf 8a 19 1b bf 40 3c 3c 3e 9a bf 65 be
       -0.7863437 -0.60585845 0.18382359 -0.22436371

actor.0.bias f4 [32]
000000 dd 1e da 3e f8 bc d3 bd 70 f0 6b be 77 9d bd b6
       0.42601672 -0.10338777 -0.23040938 -5.6509703e-06
000010 a4 12 02 3e a1 6d 2a 3e c6 68 54 bd ce f9 a5 bd
       0.12702423 0.16643383 -0.051857732 -0.08104287
000020 19 bf 9d 3e 21 77 68 be 2a c4 03 3e c8 c3 d8 3e
       0.30809858 -0.22701694 0.128678 0.4233687
000030 e3 03 35 3e f5 9e e6 3e e6 84 32 3e cb a7 17 3e
       0.17677264 0.4504315 0.17433509 0.14810102
000040 4e 5d 5f 3e 9e 94 10 3f 54 83 48 bd 34 9c b1 3d
       0.21812937 0.5647677 -0.04895337 0.086723715
000050 aa 80 bf be fa 22 38 3c f3 68 df 3e 28 e5 bb 3e
       -0.3740285 0.011238808 0.43634757 0.3669827
000060 55 f7 3d 3e f2 28 78 bd a6 c1 9d bc f6 63 4a 3f
       0.18551381 -0.060585923 -0.019257378 0.7905878
000070 30 80 52 ba 92 76 e3 3e 82 50 d8 3d d8 f6 53 be
       -0.00080299657 0.444264 0.10562231 -0.20699632

actor.2.weight f4 [32, 32]
000000 24 91 a1 bf 75 d2 df 3e f3 6e 0d 3f 85 83 09 3f
       -1.2622418 0.43715253 0.5524742 0.5371631
000010 41 ba 08 3e af 7c b3 be 9b 44 72 3e 33 44 12 bf
       0.133523 -0.35056064 0.23658983 -0.57135314
000020 33 09 4c be be 4d cd bd 3f 3d 3c bf e0 20 cd be
       -0.19925384 -0.10024594 -0.73530954 -0.40064144
000030 13 a6 9a be 4c 80 9f 3e f5 07 6d 3f 4d 41 8c bf
       -0.3020483 0.3115257 0.92590266 -1.0957428
000040 7c 24 61 bf 90 4e 88 bf 7b 3b bd 3e d3 98 ff be
       -0.87946296 -1.0648975 0.36959442 -0.49921283
000050 71 a0 30 3f 72 41 c6 be c0 5c 17 bf 1d 1b 0f bb
       0.68994814 -0.38721806 -0.591259 -0.002183623
000060 5a 8d 4a 3f 9e a7 43 bd 32 31 1c bf ee d3 fb be
       0.79121935 -0.047767274 -0.61012566 -0.49185127
000070 6a e9 85 bf de 87 19 3d 35 af 3d 3f c1 b0 02 3e
       -1.0461857 0.03748309 0.7409547 0.12762739
000080 52 89 aa 3f 80 87 89 be 93 ff c7 3d ce 9f 7f be
       1.3323157 -0.2686119 0.09765544 -0.24963304
000090 aa 6d 18 3f ae 54 5c 3f 47 8f 23 bf a9 6e 8c 3f
       0.59542334 0.8606671 -0.638905 1.0971271
0000a0 bc b9 43 3f 80 23 2a be 72 af c5 3e 45 59 36 3f
       0.76455283 -0.16615105 0.38610417 0.71229964
0000b0 80 56 30 3f 00 16 9c 3f 2b f4 05 be eb 74 9b 3f
       0.6888199 1.2194214 -0.13081424 1.2145056
0000c0 6b 9e cc 3e de 82 27 3f ec d9 57 be eb bf c9 3c
       0.39964613 0.6543406 -0.21079224 0.024627646
0000d0 43 5e 1f be 40 b3 8d bf e3 ef 94 3f ae 39 a0 3e
       -0.15563302 -1.1070328 1.1635708 0.31294006
0000e0 fd ca 0b be 58 a1 7b 3e ac f3 4a 3e d3 30 97 3f
       -0.13651653 0.24573267 0.19819516 1.1811775
0000f0 ee d7 92 3f f8 dd e5 3e 86 a0 5d bf 3b 74 08 3f
       1.1472147 0.4489591 -0.86573064 0.53302354
000100 04 c9 04 3f bc 7f c1 be 20 b4 3c 3e 99 c8 a8 be
       0.51869226 -0.37792766 0.18428087 -0.32965544
000110 98 30 55 3e 64 40 79 bd b9 c6 92 bd 06 2e 0e 3d
       0.20819318 -0.060852423 -0.071668096 0.03471186
000120 49 ef 0e 3e 1b e2 8a 3e ea 67 3b 3c ef 76 13 be
       0.13958468 0.2712563 0.011438349 -0.14400838
000130 b9 0f da bd 22 22 ab 3e fd 21 d2 be d0 c5 35 3e
       -0.1064753 0.3342448 -0.41041556 0.1775124
000140 0d 29 4b bf fc 43 d3 be e2 05 95 3e e1 14 18 be
       -0.79359514 -0.41262805 0.2910605 -0.14851715
000150 64 bb 79 bd d5 57 9f bc 8d d9 b1 3d 3f 90 76 3e
       -0.060969725 -0.019451061 0.08684073 0.24078463
000160 70 21 52 be db 47 91 bc 37 73 3d be a6 c1 74 be
       -0.20520568 -0.017734459 -0.18500982 -0.23901996
000170 45 10 9a be f5 3a 81 be 9e 16 0b 3e 4d cf a7 3e
       -0.30090538 -0.25240293 0.13582847 0.32775345
000180 ab aa d5 3e 40 c9 02 3d 15 73 15 3f f3 1d 96 3e
       0.41731772 0.03193021 0.58378726 0.29319724
000190 78 a0 61 be 73 2b df be b1 ed 6f 3d 29 b3 75 bf
       -0.2203387 -0.43587837 0.05857629 -0.959765
0001a0 8b a6 4e 3e 53 1e 71 3e a0 99 c0 be fa 6a 11 3d
       0.20180719 0.23546724 -0.37617207 0.03550241
0001b0 6b ba fd bf 4f 12 db 3e 1c 35 b7 be 58 04 3c bf
       -1.9822515 0.42787406 -0.35782707 -0.7344413
0001c0 39 0d 12 bd b5 9d 27 bf 72 18 0f bd 12 c0 a1 bf
       -0.03565714 -0.65475017 -0.034935422 -1.263674
0001d0 0d 97 ec bd 1a 84 12 bf f7 3b f9 be 72 14 ff 3e
       -0.11552248 -0.5723282 -0.48678562 0.49820286
0001e0 aa 7e 32 be 9c 27 b4 3e e9 d2 81 be d7 ef f0 bd
       -0.17431131 0.3518647 -0.25356224 -0.11764496
0001f0 3d 32 3b 3d 06 3e f4 be ed 3d 0c 3f d9 a0 88 3f
       0.045702208 -0.4770357 0.5478199 1.0674087
000200 c6 e3 51 be 34 23 16 3f e9 b9 cb 3e 0f 40 a2 be
       -0.20497045 0.58647466 0.39790276 -0.31689498
000210 59 1f b9 3f 29 8a 08 3d f3 fe 7c 3e 1c 7a ed 3e
       1.4462692 0.033334885 0.2470663 0.46382225
000220 79 99 05 3f 4b dc dc be 5f 37 2c be 78 04 6e 3f
       0.52187306 -0.4313682 -0.16817997 0.9297557
000230 5f 2b 09 3e bb 42 b8 3e 0a ec ff 3e 54 e4 89 3e
       0.13395451 0.3598841 0.4998477 0.26932013
000240 cc a8 37 3e 4b e7 a9 bd a4 f7 d2 bf f8 51 c9 be
       0.17935485 -0.08296069 -1.6481824 -0.3932035
000250 d0 0d 89 bf 32 b7 48 3e ff 56 6e be 9d 00 ba 3e
       -1.070734 0.19601133 -0.23275374 0.36328593
000260 de ba af bf 59 21 16 3f 65 1b 84 3d 2f fe 5c 3f
       -1.3728902 0.58644634 0.064505376 0.86325353
000270 bf 71 5c 3f 0d 34 09 3f 78 7d 84 be b8 fe ad be
       0.8611106 0.5359505 -0.25876975 -0.33983397
000280 5a 47 41 bf 00 9e 72 3e 35 8b cc be 47 82 57 bf
       -0.754995 0.23693085 -0.39949957 -0.8418316
000290 57 f9 26 be 82 c0 33 bf 1e 17 6c 3f b1 f4 93 be
       -0.16306053 -0.7021562 0.92222774 -0.28897622
0002a0 fb b8 5e be d5 4e 48 3d e0 54 9c be 0d 8e 83 be
       -0.21750252 0.048903305 -0.30533504 -0.25694314
0002b0 21 0f 1c 3c f4 b7 8f bd 8d fc 01 3e 30 d2 b4 be
       0.009525091 -0.07017508 0.12693997 -0.3531661
0002c0 ec 97 c1 3e 4d 9c 85 be 69 5b 67 bf d3 20 0f be
       0.3781122 -0.2609581 -0.90373856 -0.13977365
0002d0 36 ad 75 be 52 5d 1f bd 90 e9 b7 be 15 94 17 3f
       -0.23991856 -0.038907357 -0.35920382 0.5921033
0002e0 16 c9 a0 bf d1 9e 0b bf c3 39 1c bf 04 83 a8 be
       -1.2561367 -0.5453921 -0.6102564 -0.32912457
0002f0 19 f7 31 be 55 18 dd be 48 70 99 bf 05 31 6b bf
       -0.17379417 -0.43182626 -1.198739 -0.9187167
000300 41 e9 8b be 27 ea be bd c5 bf 80 3e 2a 7b 85 bd
       -0.27326396 -0.09322005 0.2514631 -0.06517632
000310 2b 1a d6 3e 34 bb 26 3f c8 44 38 3e 47 cc 87 be
       0.4181684 0.651294 0.17994988 -0.2652304
000320 91 33 f5 3e 83 cd ac 3e 6b fd 55 bd 35 f4 1c 3d
       0.47890905 0.33750543 -0.05224363 0.03831883
000330 cd ca 1b bf 0c 37 2c 3d 15 05 33 3d cf ef 65 3f
       -0.60856324 0.042044684 0.04370602 0.89819044
000340 3f f4 ae bb 62 e0 83 3e 27 7e 34 bf 3f 82 ad bf
       -0.005339175 0.25757128 -0.70504993 -1.3555373
000350 8e 78 b5 3e 59 18 3f bd 48 84 5b be 8a cc 3e be
       0.35443538 -0.04665408 -0.2143718 -0.18632713
000360 47 f6 b1 bf 63 57 f2 3e 21 c1 28 3f a8 05 43 3e
       -1.3903283 0.47332296 0.6591969 0.19045126
000370 4b f8 56 3f d4 22 8e 3e 3a e3 6f bf a2 99 af 3e
       0.83972615 0.27760947 -0.93706095 0.342969
000380 8f 39 0c 3f 27 f1 88 be e6 56 20 bf 92 53 f7 be
       0.5477533 -0.26746485 -0.62632596 -0.48305947
000390 12 81 7c 3e 5d fb 82 3e f6 69 84 be fc 4c 67 3f
       0.24658611 0.255824 -0.25862092 0.90351844
0003a0 4c 37 21 3f 7c 4b 2d 3e 2a 16 63 3e 45 e3 69 be
       0.62975 0.16923326 0.22176424 -0.22840603
0003b0 43 19 7f 3f 84 10 63 3f 95 55 c2 bd 85 85 b7 3f
       0.9964792 0.88697076 -0.0948898 1.4337622
0003c0 94 35 27 3f 3d 77 c4 bd 1b d0 b8 be 29 83 5e bf
       0.6531613 -0.095930554 -0.36096272 -0.86918885
0003d0 9e c3 9c be 3c a8 db be 09 9d fc 3e ec 28 2f bf
       -0.30617994 -0.4290179 0.49338558 -0.68421817
0003e0 6c 58 45 be 03 b4 64 be c8 d1 c8 be 3b 82 64 3e
       -0.19272012 -0.22334294 -0.3922255 0.22315304
0003f0 1a f4 d4 3e 4a ff ae be 01 3e 80 bf 1d 08 2e be
       0.41592485 -0.34179145 -1.0018922 -0.16995282

actor.2.bias f4 [32]
000000 1c 15 a2 be 76 a9 c2 be 4c 01 0c bf ca ff d2 be
       -0.3165673 -0.38019913 -0.5468948 -0.41210777
000010 0d 14 86 3e 4e d5 28 3f ac da 9e be 9a 92 16 3e
       0.26187173 0.6595048 -0.31026208 0.14704362
000020 b1 c4 32 3d fe 7f b0 bd b1 45 23 3e 1c 37 04 bf
       0.04364461 -0.086181626 0.15944554 -0.5164659
000030 cd 2a 73 be 22 d0 82 3c 17 93 45 be 89 9b e0 bd
       -0.23746796 0.015968386 -0.19294392 -0.10967166
000040 35 cf bb be 6d 14 63 be 64 9e 8f be 62 86 26 be
       -0.36681524 -0.2217576 -0.2805053 -0.162622
000050 59 1f 9c 3c 88 f6 96 be e6 75 0e 3e 24 4e b0 be
       0.019057916 -0.29484963 0.13912162 -0.34434617
000060 ff a0 a4 3e cd 25 b6 be 78 58 8f be 34 eb e8 3d
       0.3215408 -0.35575715 -0.27997184 0.113729864
000070 47 be 58 3e e8 1a e2 bd f7 2a 17 3d d5 ac 6f 3f
       0.21166335 -0.11040288 0.03690621 0.93623096

actor.4.weight f4 [32, 32]
000000 4a f1 cc be f7 13 f3 3d f3 25 23 3f a3 1e 5c 3e
       -0.4002784 0.11869042 0.6372978 0.21496062
000010 32 ac 99 bf 35 39 04 bf 73 98 54 bf 63 b6 37 3f
       -1.2005675 -0.5164979 -0.8304512 0.71762675
000020 1a 4d cd bb 0d 51 b2 3d 73 60 62 be 66 cc e7 bd
       -0.0062652947 0.087068655 -0.22107105 -0.11318283
000030 4e 82 7b 3e 4a ba 43 bd ba 08 73 bf e9 ed cf 3e
       0.24561426 -0.04778508 -0.9493519 0.406112
000040 95 10 2c bf 7f d7 03 3f 92 23 cd 3e de e2 38 3f
       -0.672128 0.51500696 0.400662 0.7222117
000050 da 07 a1 be 70 53 a4 3e be a5 c9 be 1b eb c5 3d
       -0.31451303 0.32094908 -0.39384264 0.096639834
000060 d3 b9 54 be 4c 5d e0 3d 18 8a d0 3c 01 8f 3c bf
       -0.20774011 0.10955295 0.025456473 -0.73655707
000070 78 db de be 23 f9 b1 3c 21 81 75 3d f7 55 91 be
       -0.43526816 0.021725243 0.0599376 -0.28385898
000080 60 53 33 bf ab 27 32 be 22 1c 22 3e fe 9f 92 3d
       -0.70049095 -0.17397945 0.15831044 0.07159422
000090 4c 54 a4 be af 5f e2 be 5d bd 17 bf 06 c6 86 3b
       -0.32095563 -0.44213626 -0.5927332 0.0041129617
0000a0 89 05 07 bf ef 74 ac be 14 df 91 3d bb 95 ba bd
       -0.5274282 -0.33682963 0.07122627 -0.0911059
0000b0 65 c4 2f 3c ab 11 fd be b7 42 42 bf 1c 18 93 3e
       0.010727976 -0.49427542 -0.7588305 0.28729331
0000c0 34 c6 78 bf ed a9 10 bd 79 72 0a bf 81 39 ac 3e
       -0.97177434 -0.035318304 -0.5408092 0.33637622
0000d0 a4 05 f3 be 85 73 1b be cb 72 bb be a9 35 01 3d
       -0.4746524 -0.15180786 -0.36611018 0.031545315
0000e0 1a 37 37 be 6f 06 e5 be 64 fa 36 bd 40 15 57 be
       -0.17892113 -0.4473147 -0.044672385 -0.210042
0000f0 c0 65 be 3c 33 da db be 4c bc 8b 3d dc 12 c9 be
       0.023241878 -0.4293991 0.06823024 -0.392722
000100 56 8d 62 3f 01 7c 7b bc da 95 59 3d 43 5b 07 bc
       0.8849691 -0.015349389 0.053121425 -0.008261505
000110 50 8f 23 3f 7e 2e 13 3f c8 5d 76 3e 90 87 4a bf
       0.6389055 0.57492816 0.24059212 -0.791131
000120 d2 d7 c5 bc ed fa 06 3f c7 c0 cf bf 53 96 fd 3e
       -0.024150763 0.5272663 -1.6230706 0.4952875
000130 e0 64 e0 be 36 c8 41 be ca 7d 48 bf 1d e6 1e be
       -0.43826962 -0.1892403 -0.7831694 -0.15517469
000140 ab 15 96 3c 88 f3 cd bd 5a f2 0e 3f fd 8f 9c bf
       0.018320879 -0.100562155 0.5583855 -1.2231442
000150 bf 50 f3 3d 90 91 f1 be 56 e8 7c be 1f ee 16 3e
       0.118806355 -0.47181368 -0.24698004 0.14739273
000160 76 bd 03 3d d8 ec 19 3c e0 9d 48 bf 23 78 d7 be
       0.032163106 0.009394847 -0.783659 -0.42083845
000170 19 25 0d bf ad 37 07 bf dc 58 19 be 8a 76 37 be
       -0.5513473 -0.5281933 -0.14975303 -0.17916313
000180 d0 7a da be ba 73 39 bf ce 7b 2b 3e 44 10 8e be
       -0.42671824 -0.7244221 0.16746446 -0.27746785
000190 df 1e ea be ea aa 8c bd 61 bd 36 bf eb 62 8d be
       -0.45726678 -0.06868537 -0.7138272 -0.2761453
0001a0 5b 10 f7 be 34 f4 0e bf 91 dc 6b 3e 51 a9 c9 be
       -0.48254666 -0.55841374 0.23033358 -0.3938699
0001b0 49 0d 5a bf fa d1 bc bd 1d 13 5d 3d b9 d1 0e 3e
       -0.8517652 -0.09219737 0.053973306 0.1394719
0001c0 8f 07 5f bf f9 61 80 3e 26 87 5c bf 8d 1c 00 3d
       -0.8712091 0.25074747 -0.8614372 0.03127723
0001d0 18 d5 95 be 33 2b ef 3e 03 79 cf be e1 18 0e be
       -0.2926414 0.46712646 -0.40522012 -0.13876678
0001e0 39 b5 19 bf 89 d5 6a 3e 70 5e f8 bd e9 69 be bb
       -0.6004215 0.2293302 -0.121273875 -0.0058109653
0001f0 ae ee a8 3e c9 14 9e 3e bd e0 1b bf 5b 0c 04 bf
       0.32994598 0.30875233 -0.608898 -0.5158135
000200 0d ad a2 be 48 11 92 be d9 ca ec 3c 8f fe c2 bd
       -0.31772652 -0.2852881 0.028905319 -0.095212094
000210 fc a7 2e bf 1f a9 69 bc d5 ad 73 bf 7a 22 42 be
       -0.68225074 -0.014261513 -0.9518712 -0.18958464
000220 7c fa b0 be 23 14 41 bf 9f c9 40 bd 27 48 2a bf
       -0.34566104 -0.7542135 -0.04706728 -0.66516346
000230 c6 81 3b be 9b 0c 63 be a1 bc 0b bf 88 0b 89 3e
       -0.18311223 -0.22172777 -0.545847 0.2676661
000240 a8 0e 1e bf 2c 8d 8b be 0e ba db be 97 d5 09 3f
       -0.61741114 -0.27256143 -0.42915386 0.5384154
000250 c0 36 3f 3e bc 4e 18 be 72 60 36 bf 32 63 3c be
       0.18673229 -0.14873785 -0.71240914 -0.18397215
000260 d0 e5 ce be ff 69 d2 be c6 bc 7c be 2c e7 ab be
       -0.40409708 -0.41096494 -0.24681386 -0.33574808
000270 d1 5d ee 3d 30 a4 93 be 4d 4d c0 3d 1c e3 9e bd
       0.11638988 -0.28836203 0.09389744 -0.077581614
000280 7f 56 66 bf 42 ac 60 3f 5f b3 8b 3d 30 c5 a6 be
       -0.8997573 0.87762845 0.06821322 -0.32572317
000290 41 9e 90 3e eb 08 d1 be 71 9b af 3e 94 6a 74 3f
       0.28245738 -0.40827116 0.3429828 0.95475125
0002a0 79 d4 a6 3e 92 71 c7 3e f2 60 8c be 75 e5 30 3f
       0.3258398 0.38953835 -0.27417713 0.69100124
0002b0 0d 6c 6b bd 32 38 08 bf c7 ad 0b 3f 79 b5 fb 3d
       -0.057476092 -0.5321075 0.5456204 0.122904725
0002c0 e4 6e 15 bf 59 8b a5 3e ab d4 c6 3d 94 9d 9c 3f
       -0.5837233 0.32332876 0.09708532 1.2235589
0002d0 c5 50 4c bf ec 74 17 3f f2 65 2d 3f a4 10 b1 3d
       -0.79810745 0.59162784 0.6773368 0.08645752
0002e0 c2 9c 2b be fe 30 19 be b2 4a 61 3f 67 f9 ce 3e
       -0.16759017 -0.14960095 0.880046 0.40424654
0002f0 c0 48 21 3f 54 6e 4e bf d0 9f 12 3f fa b7 28 bf
       0.6300163 -0.806371 0.57275105 -0.65905726
000300 fe 5d 4c bd 1e b9 d2 3e 06 b8 b7 3d 2d 49 51 bf
       -0.049894325 0.41156858 0.089706466 -0.8175228
000310 11 39 58 3e 9a ad 7e bd 9b ef bd 3e 4c f5 92 3e
       0.21115519 -0.062177278 0.37096867 0.28702772
000320 13 85 81 3e 89 90 83 bf 61 a6 07 bf a0 9b 2a 3e
       0.2529684 -1.0278484 -0.5298825 0.16660929
000330 9f c4 0a bf 75 eb f9 be a0 ba 05 3f 39 d6 3e 3f
       -0.5420627 -0.48812452 0.5223789 0.7454563
000340 e1 4e 92 bf af 29 08 be c4 fa 93 bf d0 54 68 3f
       -1.1430322 -0.13297151 -1.1560903 0.90754414
000350 1e 5e 27 be b4 f8 f9 3d db 44 5b bf 79 62 8a be
       -0.16344497 0.122056395 -0.8565194 -0.27028254
000360 22 84 83 bf 04 7a 44 be 5c 74 26 3f 74 f1 f2 3e
       -1.0274699 -0.1918717 0.650213 0.4744984
000370 06 b9 89 3e e4 4a a1 be 8a 7f 8d bf 92 a0 15 bf
       0.26898974 -0.3150245 -1.1054547 -0.58448136
000380 81 cc 36 bf 91 e7 10 be 22 6c 3b 3f 75 6c 2c 3f
       -0.714058 -0.14150836 0.7321187 0.6735299
000390 95 cb f4 be 96 bb a6 be fa 9e 02 bf 0e 3f 65 be
       -0.4781157 -0.32564992 -0.5102383 -0.22387335
0003a0 32 d9 a4 3e a0 08 d2 be 5c 5e 54 3e a7 5b 0d 3e
       0.32196957 -0.41022205 0.2073912 0.13804494
0003b0 1a c3 8a 3d b8 84 56 bf 7e 66 32 be 05 a4 dc 3e
       0.06775494 -0.8379626 -0.1742191 0.43093887
0003c0 1b 3d 18 3d c2 15 bf bc c9 2a c5 3e 8c 46 24 3e
       0.03716765 -0.023325805 0.38509205 0.16042536
0003d0 e8 14 2a 3f c7 1d 40 be 8d a2 9a bf 64 97 a9 3e
       0.6643815 -0.18761359 -1.2080857 0.33123314
0003e0 eb b2 12 3f 7e ae b6 3d 53 90 b3 3e ac 93 ba 3b
       0.5730426 0.089200005 0.35071048 0.0056938734
0003f0 8d 83 27 bf 1a 50 81 3e 6e 81 09 bf ab 55 6b bf
       -0.65435106 0.25256425 -0.5371312 -0.91927594

actor.4.bias f4 [32]
000000 2c 3a 3b bf 0e cd 4b bf 98 43 44 3d 6a 29 45 bf
       -0.7313564 -0.79609764 0.047916025 -0.7701632
000010 54 10 40 bf f7 e3 ab be 3e 83 f7 be 34 3d 1f bf
       -0.75024915 -0.3357236 -0.48342317 -0.62202764
000020 e4 42 32 bf 9a aa dd be 78 e7 c0 3e 32 f9 b9 3d
       -0.69633317 -0.4329422 0.37676597 0.09080733
000030 12 80 f0 be 6b de 8b bd dd 12 ba be 7d 06 ea 3e
       -0.4697271 -0.06829532 -0.36342517 0.45708075
000040 8e 4e 2f bf 10 06 cc be ae 07 81 bf a2 2f fc be
       -0.6847924 -0.39848375 -1.0080469 -0.4925509
000050 67 01 49 bf ff 63 9f 3e 90 3a 3f be 08 49 99 be
       -0.78517765 0.31130978 -0.18674684 -0.2993853
000060 78 3e 03 be 4f f3 2b bf 45 9a af 3f 35 58 09 bf
       -0.12816799 -0.67168134 1.3718954 -0.5365022
000070 0e 31 5a 3e 94 38 1b bf 67 3d 0c be 16 61 23 3f
       0.21307775 -0.60633206 -0.13695298 0.63820016

actor.6.weight f4 [4, 32]
000000 9b 4b 4f be f4 12 33 bf e3 57 5c 3f e2 b5 ef be
       -0.20243685 -0.69950795 0.86071604 -0.46818453
000010 b8 9a 00 bf 53 97 a3 3e f7 68 0f bf d1 cf 3d be
       -0.5023608 0.3195139 -0.5601954 -0.18536307
000020 90 df b7 be 42 08 34 3f 32 b8 7a 3f 88 ad 03 3f
       -0.35912752 0.703251 0.9793731 0.5143666
000030 8f 79 b5 bd e7 33 a2 3d 59 b4 86 bd 7a 03 5a 3e
       -0.08861076 0.07920056 -0.06577367 0.21290389
000040 17 5a 2f bf f0 24 c2 3e 62 0f ea be 9a ee 90 3f
       -0.6849684 0.37918806 -0.4571486 1.1322815
000050 61 3a d9 be 34 3c 6f 3f f7 d1 95 3e a2 14 8b 3e
       -0.42427352 0.9345124 0.29261753 0.2716418
000060 3d 5e 31 3f 6e 5d 94 3e 25 2a 62 3f dc 97 dd be
       0.6928442 0.2897753 0.8834556 -0.43279922
000070 e2 34 69 be 5e 62 88 be 36 9c 8c 3e ee db 7d 3f
       -0.2277408 -0.26637548 0.2746293 0.9916371
000080 01 5a d9 3d 02 e9 db be a6 f1 c8 3e aa ee 5d 3e
       0.1061287 -0.42951208 0.39246863 0.21673074
000090 63 93 a5 be 5e db 26 3f 52 01 8c 3f 1e b8 3a be
       -0.3233901 0.6517848 1.0937903 -0.18234298
0000a0 a8 6d bf bd 4e e1 48 bd 45 ce ef 3e eb 61 60 3f
       -0.09347087 -0.049042992 0.4683706 0.8764941
0000b0 0f 8b f7 3d 2c 5c 45 3f 49 95 72 be c4 51 f2 3e
       0.1208707 0.7709377 -0.2368976 0.47328007
0000c0 88 f5 d8 be 70 22 b7 3e 22 97 3a 3e 8a 10 eb be
       -0.42374825 0.3576846 0.18221715 -0.45911056
0000d0 2c 76 fd bd 97 ca d0 3e c9 f0 a5 be d9 48 4a 3f
       -0.12376055 0.40779564 -0.32410267 0.79017407
0000e0 76 6a ad be 11 e8 93 3e 9f 0d df 3e e7 6c 91 be
       -0.33870286 0.2888799 0.4356508 -0.28403398
0000f0 dd 5e 5b be 6f 75 48 3e a4 d7 53 3f c1 d5 86 3d
       -0.21422906 0.19576047 0.82750916 0.06583739
000100 30 61 6c 3f ed cb 8b 3f 9a 07 91 be 02 4f af 3f
       0.92335796 1.0921608 -0.28326112 1.3695986
000110 e7 31 cc 3f 42 12 0e bf d7 27 10 3f d4 fd b0 3e
       1.5952729 -0.5549661 0.5631079 0.34568655
000120 b8 8d 51 3f 9a ab cd bd 3a 05 1f bd ac 07 e6 3e
       0.8185687 -0.10042496 -0.038823344 0.44927728
000130 9b 51 b6 3f 2c 38 84 3f 40 6b 6a 3f e8 d8 12 bf
       1.4243654 1.0329642 0.915699 -0.5736222
000140 9d 24 da 3f 5f 0a 35 3f 4c 17 67 3f 92 ff 9a 3f
       1.7042423 0.7071895 0.90269923 1.2109244
000150 59 fb cb 3f 89 ac 39 3f d3 a2 d9 3e 74 bd 5d 3e
       1.593608 0.7252889 0.42507038 0.21654302
000160 b5 e7 8f 3f b0 00 d2 3f bd cf f4 3e 95 e4 ab 3f
       1.1242586 1.640646 0.47814742 1.3429133
000170 46 20 aa 3e 25 d4 3f 3f e4 d1 2d 3f 26 c3 31 3e
       0.33227748 0.7493308 0.6789839 0.173596
000180 6d ad 4a 3f a3 87 70 3f cb 2f 5a 3f 1d 3e 20 3f
       0.79170877 0.93956965 0.85229176 0.6259478
000190 83 f5 91 3f 76 55 98 3f c4 9c 5c 3f 28 7a e7 3e
       1.1403049 1.1901081 0.86176705 0.45210385
0001a0 a3 13 70 3f 27 88 aa 3f 8c fc f5 bb 20 ed e7 be
       0.93779963 1.33228 -0.0075069126 -0.452981
0001b0 67 25 44 3f 63 2f 4d 3f 4e ad 0b 3f 96 c4 b2 bf
       0.7661957 0.8015043 0.54561317 -1.3966243
0001c0 85 8a 2a 3f 46 52 f1 3e 18 2d 8b 3f c2 bc 1e bd
       0.66617614 0.47133082 1.0873137 -0.038754232
0001d0 7a 20 9a 3f d7 53 8a 3e 7e 27 eb 3e ff 4e 05 3e
       1.2041161 0.2701709 0.45928568 0.13018416
0001e0 88 70 9a 3f 81 41 32 3f 62 81 08 3c e0 bb b1 3f
       1.2065592 0.696312 0.0083316285 1.388546
0001f0 5c 5e 8d 3f 31 96 f7 be 6c cc 33 3f ca c3 4f bf
       1.1044421 -0.48356774 0.702338 -0.81158125

actor.6.bias f4 [4]
000000 6f 70 70 3f 0f e6 c5 b9 a6 cc 2b 3d b6 3f 2d bf
       0.9392156 -0.00037746175 0.041943215 -0.6767534

critic.0.weight f4 [32, 181]
000000 d9 d1 78 3f 37 7b f3 bd eb 34 cf be 8b 98 14 bf
       0.971952 -0.11888736 -0.4047006 -0.5804526
000010 9b a8 29 bf 00 15 59 bf 4b 32 6a be 52 c4 f0 bd
       -0.66272897 -0.8479767 -0.22870748 -0.11756195
000020 e5 e2 b7 3e 4e 68 7b 3f da aa 36 3f 20 0c d1 3d
       0.35915294 0.9820603 0.7135445 0.10207391
000030 0a da ae 3e ac 1d 16 3d d6 b2 0a be a0 26 2d bd
       0.34150726 0.03664939 -0.13544783 -0.042273164
000040 a9 f0 70 3e 1f a8 1e bf 24 b8 2c bf 3a fc 67 bf
       0.23529305 -0.6197528 -0.67468476 -0.9061924
000050 3b 57 97 3d 7e 0d 17 3d ee 2b b1 bd db 5a e7 3d
       0.07389685 0.0368781 -0.08650957 0.11296626
000060 47 1d 23 be 8b 42 ba be a5 f3 64 b9 75 71 3b 3d
       -0.15929137 -0.36378893 -0.00021834539 0.045762498
000070 1a 97 29 bd d0 88 19 3c 71 c2 b4 be 38 23 e2 be
       -0.041403867 0.009370998 -0.35304597 -0.44167495
000080 01 5f a4 be f7 bc e5 be 0d fa 77 bd 15 2a 2a bf
       -0.32103732 -0.4487073 -0.0605412 -0.6647046
000090 58 ff 89 bf fe 7f b4 be 8d cb 01 bf 31 6d 2e 3d
       -1.078105 -0.352539 -0.5070122 0.0425846
0000a0 bc 97 bf be 29 33 a3 bd 49 9c a5 be 24 44 e2 bf
       -0.37420452 -0.079687424 -0.323458 -1.7677045
0000b0 59 ca ab bf 4e 0c fc bf 8a f2 cb bf 30 53 23 bf
       -1.3421127 -1.9691255 -1.5933392 -0.6379881
0000c0 40 61 9a bf f7 49 0a bf b6 c8 46 3f c2 2b aa bd
       -1.2060928 -0.5401911 0.7765001 -0.083091274
0000d0 c4 17 c1 bd 6e e4 62 bf c4 82 96 bf d2 5e 4e bf
       -0.09428361 -0.88629806 -1.1758657 -0.80613434
0000e0 40 cb 31 be 40 6e 0c bf a6 92 2a 3d 27 d2 19 3e
       -0.1736269 -0.5485573 0.04164376 0.15021573
0000f0 d6 f2 93 be 89 2c 2f bf 0d c8 72 bf 3a 9f 42 c0
       -0.28896207 -0.6842733 -0.94836503 -3.0409684
000100 91 46 81 bf a9 84 b5 3f 94 bd 0e be 9d 9d 6f bf
       -1.009966 1.418111 -0.13939506 -0.93599874
000110 98 0d 27 c0 28 7e 0d c0 ea 94 a2 3f 57 84 c6 bf
       -2.6102047 -2.210825 1.2701695 -1.5509137
000120 67 ae 80 be 04 4e 00 3f 26 bd 29 3e d0 c6 61 c0
       -0.25133058 0.5011904 0.1657606 -3.5277596
000130 c8 06 ca 3f 18 44 f2 bf 66 61 9e bf 4c 2c e6 be
       1.578332 -1.892703 -1.2373474 -0.4495567
000140 2a 6d 4f be bc 2f 67 be 14 29 35 be a9 af bf bf
       -0.20256487 -0.22576803 -0.17691451 -1.4975482
000150 9d 3d 1a 3f 2f eb 9d bd ba 36 1f 3e 8d 1a 0b 3f
       0.60250264 -0.07710873 0.1554822 0.5433739
000160 a4 0e ac bf fb f9 7b 3f b6 c8 cf be 08 13 d9 3d
       -1.3441968 0.98428315 -0.40582818 0.10599333
000170 ef 8b 6e bf 65 f0 08 bf e4 25 c0 3e 60 46 de 3e
       -0.9318227 -0.5349181 0.37528908 0.43413067
000180 0a 0a 49 be 5b d6 b2 bf a5 39 fa be 2f c9 8b be
       -0.19632736 -1.3971666 -0.48872104 -0.27301928
000190 32 75 f9 be c6 32 95 bd 56 23 bf 3e 82 18 69 bf
       -0.48722225 -0.07285075 0.37331647 -0.9105302
0001a0 4e a0 24 bd fe eb a0 bf 41 75 91 bf 85 29 46 bf
       -0.04019194 -1.2572019 -1.1363908 -0.77407104
0001b0 9d 3e 19 3f 6e 48 22 3f 3c 87 fe ba 71 4b 9b bd
       0.59861165 0.6339177 -0.0019418965 -0.07582749
0001c0 96 1c 1e be 10 5c c9 be 91 71 28 be 62 49 e9 be
       -0.15440592 -0.3932805 -0.16449572 -0.455638
0001d0 33 e9 88 3e af 5e 7a be 7e 94 c2 3e f7 e9 81 3f
       0.26740417 -0.24450181 0.38003916 1.0149525
0001e0 34 2e a2 be ce 24 3c 3d d1 78 bd 3e a7 05 10 bf
       -0.31675875 0.045933537 0.37006238 -0.56258625
0001f0 af 87 08 bf 4d 0c de 3e bb 5d 3f bf bc a7 2b 3e
       -0.53332037 0.4336876 -0.74752396 0.16763204
000200 19 46 db be 75 f8 b9 bf 71 83 6c bf 4d 91 78 3c
       -0.42826918 -1.4528948 -0.92388064 0.015171361
000210 31 b0 ed be c9 65 cd 3d 0e 24 18 be c0 b9 e7 be
       -0.46423486 0.100291796 -0.14857504 -0.45258904
000220 1b a6 81 3e 7c 31 a9 3e 72 60 3f 3f 9f 16 b4 3e
       0.2532204 0.33045566 0.7475654 0.3517351
000230 50 b5 e2 be f3 b2 0f bf fc 3f 3e bb b9 6d a4 3e
       -0.44278955 -0.5613243 -0.0029029837 0.32114962
000240 cd af 0c bf 8c d5 39 bf c6 ee 40 bf 14 50 1c bf
       -0.5495575 -0.7259147 -0.7536434 -0.6105969
000250 69 a1 a8 be a9 10 8d be eb 2a 3e bf 61 d4 85 be
       -0.32935646 -0.27551773 -0.7428424 -0.26138595
000260 18 87 97 3e 90 32 87 3e b3 5c 28 bf cc 1a ab be
       0.29595256 0.26405764 -0.6576645 -0.33418882
000270 70 ba 5a 3e 7e 9b 0f bf fa 2a 0e bf 58 84 5e be
       0.21360183 -0.5609664 -0.5553433 -0.21730173
000280 08 4c 82 be 49 42 d5 be ea a8 c1 3d 49 f0 2b be
       -0.25448632 -0.41652134 0.09456046 -0.1679088
000290 85 cf 64 bf d9 58 44 bc 33 13 bd be ba 31 e9 3d
       -0.8937915 -0.011984074 -0.3692871 0.11386438
0002a0 b4 41 72 bf 35 d3 e6 bc 06 94 7b bf 01 7a 76 bf
       -0.94631505 -0.028176883 -0.9827274 -0.96279913
0002b0 4a ad 82 bd a6 02 e8 be dc 41 92 be 40 b5 7b 3e
       -0.063807085 -0.4531452 -0.28565872 0.2458086
0002c0 a0 79 3c bd a4 ad 4b bf dd 10 be bd a6 f7 de bd
       -0.04601443 -0.7956183 -0.0928056 -0.10887079
0002d0 37 dc ba be 6c 98 95 be ca c7 a8 3e e2 d3 b0 3e
       -0.36496136 -0.2921785 0.32964927 0.34536654
0002e0 df f5 ca 3e 75 b2 a3 3e e8 65 88 3e a7 e8 c2 3e
       0.3964071 0.3197209 0.26640248 0.38068125
0002f0 22 7c ee 3e 3f 10 16 bf dd 1a 26 bf 31 fe 85 be
       0.4657908 -0.5861854 -0.6488474 -0.26170495
000300 fd e2 0e be 2c 4b 27 bf b3 f8 24 bf 53 6e 1c bf
       -0.13953777 -0.6534908 -0.64441985 -0.6110584
000310 76 9a fc be 4d a2 7e bd 28 0a 07 3e ab 96 c3 be
       -0.49336594 -0.0621665 0.13187468 -0.38200888
000320 00 ea d3 3e 13 1d 9b 3c 9b 78 e7 3e 79 44 27 3f
       0.41389465 0.018934762 0.45209202 0.65338856
000330 28 dc 1e 3f c9 68 e4 3e 7c 19 a1 3e b6 95 a8 3e
       0.6205468 0.44611195 0.31464756 0.3292672
000340 1f 38 09 3e c1 5d 8a bd 25 fe a6 3e 53 a8 35 bd
       0.13400315 -0.067561634 0.32615772 -0.04434998
000350 6c f0 2d 3e 85 7f 12 be 8a cb 99 3e bc f7 a6 3e
       0.16986245 -0.14306457 0.300381 0.3261088
000360 04 16 5e be 33 9c 26 be 83 dc 04 be cc 24 05 3f
       -0.21688086 -0.16270523 -0.12974744 0.5200927
000370 de 6c c7 3c 88 0c ea 3c 29 65 b9 be f1 92 80 be
       0.024343904 0.028570428 -0.36209992 -0.25112107
000380 5f 3c 82 be a1 1a b2 be c0 d8 57 3e 56 da 7d 3e
       -0.25436684 -0.3478594 0.21078777 0.2479032
000390 20 99 2c bd 39 8d 9e 3e b6 4b 07 be a6 d0 83 be
       -0.04213822 0.3096712 -0.13212475 -0.25745124
0003a0 49 9f 39 3f d3 60 7c bf 5a 96 3c bf bd 07 76 be
       0.72508675 -0.9858524 -0.7366692 -0.2402639
0003b0 af a9 73 be 36 32 ad 3f ea bd 2f be f7 a3 25 bf
       -0.23795198 1.3530948 -0.1716229 -0.64703315
0003c0 92 9f 70 bf e0 b5 76 bf 1b b9 f4 3d 21 ce 58 be
       -0.93993485 -0.9637127 0.119493686 -0.21172382
0003d0 21 98 9a be ea 4e 09 3f 10 9a ba 3e 02 40 e2 3e
       -0.3019419 0.5363604 0.36445665 0.4418946
0003e0 a5 81 f5 be 29 3f fb 3d 0c 95 a9 be 01 7f 2d bf
       -0.47950473 0.12267906 -0.33121526 -0.6777192
0003f0 4f 56 39 bf 73 47 dd bf 01 66 d9 bf 7f 83 b0 bf
       -0.7239732 -1.728743 -1.6984254 -1.379013

critic.0.bias f4 [32]
000000 71 84 e0 bd e6 46 94 be 1e 69 84 be d0 fd 4d 3e
       -0.10962761 -0.2896034 -0.25861448 0.20116353
000010 cd 29 d2 bd 21 51 86 be 91 95 95 bd 40 77 55 3e
       -0.10261879 -0.2623377 -0.07303918 0.20846272
000020 b0 c2 30 3e 0c e6 c1 3d ce fa 21 bd 8d 19 59 bd
       0.17261767 0.09467706 -0.039545827 -0.053002883
000030 8d 63 3a 3e 3a 51 b9 3d 4b 0d 9a 3d 1b 20 2b 3e
       0.18202038 0.09048696 0.07522067 0.16711466
000040 44 99 9f 3d f7 af 40 3e 10 5a 2d 3e e8 ad e1 bc
       0.07792905 0.18817125 0.16928887 -0.027548745
000050 c2 d5 37 3e b5 13 5c be 28 9f 90 be 25 fb 85 be
       0.17952636 -0.21491893 -0.28246427 -0.2616817
000060 b9 29 90 be cc a4 a4 3c 2f 03 3b be ad 09 81 bd
       -0.28156832 0.020098113 -0.18262933 -0.06300674
000070 e8 49 77 3e 3b a2 8c bd dc ca 32 be 70 10 5a bd
       0.24149287 -0.068668805 -0.17460197 -0.053238332

critic.2.weight f4 [32, 32]
000000 d6 45 e5 bd b4 89 8b 3d 32 eb d8 3d b5 cd 41 be
       -0.11194961 0.06813374 0.10591735 -0.18926127
000010 08 fa ff be e8 58 d2 be e8 59 2a be 5e 49 12 bf
       -0.49995446 -0.41083455 -0.16635859 -0.571432
000020 01 8b 44 bf 14 dc 00 3f 64 55 5d 3e 08 39 7a 3e
       -0.76774603 0.5033581 0.21614605 0.24435818
000030 f5 de 8d 3e 59 6c 48 3e 40 06 74 3e 10 27 71 3e
       0.27709165 0.19572581 0.23830509 0.23550057
000040 82 38 a2 3e 21 bc bd be f1 41 a0 bf 51 41 fb 3e
       0.31683737 -0.37057593 -1.2520124 0.4907327
000050 16 fc 53 bf 85 43 93 3e e2 ab 9b 3e 0d c0 3d 3f
       -0.8280653 0.2876245 0.30404574 0.7412117
000060 cd 97 ec 3e 9c 42 4c 3f 8c 13 a9 bb 9c 8d b8 3e
       0.46209565 0.7978914 -0.005159801 0.3604554
000070 27 69 71 3e 58 68 82 3d ea 8d 0a ba cc 46 6c be
       0.23575269 0.06367558 -0.0005285429 -0.23073882
000080 8e b9 ef 3d 57 80 40 be c8 93 c2 3c 44 40 7d 3f
       0.117053136 -0.18798958 0.023752108 0.98926187
000090 58 5b 5c bf 42 c6 d2 3e f4 5e 73 3e 61 39 de be
       -0.8607688 0.41166884 0.2376669 -0.43403152
0000a0 94 92 6d bd 54 14 76 3f 21 a7 56 3d 17 da 20 be
       -0.058001116 0.9612477 0.05240548 -0.15708195
0000b0 79 a5 ae 3b 1f b2 4a bf 0a 8e 1b 3f 4a 36 41 3f
       0.0053297845 -0.7917804 0.6076361 0.75473464
0000c0 15 23 31 be 49 b6 5c bf bd fe 94 3f 75 a6 2b 3f
       -0.17298539 -0.86215645 1.164024 0.6705087
0000d0 29 26 13 bf fb 0d 34 3f 0e 20 82 3f ea 49 18 3f
       -0.574801 0.7033383 1.0166032 0.59487784
0000e0 77 31 d9 3e 90 62 68 3f 9d 46 f1 3e 90 74 89 3d
       0.4242055 0.90775394 0.47124186 0.06711686
0000f0 28 b2 1e bf 01 8e 2f 3f 60 1e 88 3d 92 28 16 3f
       -0.61990595 0.68576056 0.066464186 0.58655655
000100 1e a8 c0 3e d9 4c f3 be 72 79 af 3d 65 72 0b bd
       0.37628263 -0.47519568 0.08568086 -0.034044642
000110 b1 46 0e bf 78 0b cd 3e ce 34 3e 3e bc 74 ba be
       -0.55576617 0.40047812 0.18574831 -0.36417186
000120 96 f3 47 3e b5 0b 0a 3f 75 0d d1 3e 84 6a 73 3e
       0.19526514 0.53924114 0.4083058 0.23771101
000130 2a e5 b2 3e a3 34 89 bc 24 52 88 3e aa 4a fb 3e
       0.34940463 -0.016748732 0.26625168 0.49080402
000140 3c 18 af 3e dc da 07 bf 83 17 17 3e d5 af 83 3f
       0.34198177 -0.5306833 0.14755063 1.0288035
000150 12 36 f7 be 14 63 74 3f ee 3e bb 3f 26 9b ca 3e
       -0.4828344 0.9546368 1.462858 0.39571494
000160 1c 5f 7e 3f e4 14 85 bd c7 b8 0e 3f 5d fd 77 bd
       0.99363875 -0.06498125 0.557507 -0.06054436
000170 f8 7a 1c 3f 1c 70 ae 3f 4d 1b ff 3e 85 f2 8d 3f
       0.61125135 1.3627963 0.49825516 1.1089636
000180 ea 3a 8c 3e 91 1a 82 bf b5 c8 8b be 6e 5a 31 bd
       0.27388698 -1.0164357 -0.27301565 -0.04329913
000190 ab e1 cf be 87 99 11 be 43 ff 0c bf c8 86 e6 bd
       -0.40601858 -0.14218722 -0.55077 -0.11256176
0001a0 37 a5 e9 3e ab 1f b4 3d a5 0a 9b 3e 5f c2 20 3f
       0.4563386 0.08795103 0.3028156 0.62796587
0001b0 18 af ec bd 0f 65 57 3e f8 4c 91 3f cd 8b bc 3e
       -0.11556834 0.21034645 1.1351614 0.3682541
0001c0 37 62 3b 3f e4 ee 79 bc af 15 01 be be df de 3e
       0.7319674 -0.01525471 -0.12605928 0.43530077
0001d0 b7 e2 98 3e a3 2d 5e 3d 5b d3 91 3e ef db 43 be
       0.2986047 0.05424274 0.28481564 -0.19126867
0001e0 d0 f8 9f 3e a2 c5 98 bd 68 f2 1a bf a1 aa 55 bf
       0.31244516 -0.074595705 -0.6052613 -0.83463484
0001f0 f1 6f 35 bf aa 31 3c 3e 60 45 b6 bc 3a da 31 3e
       -0.70873934 0.1837832 -0.022249877 0.17368403
000200 d4 cd e5 bc 2f 36 db bd f5 79 12 bf c7 b6 80 3f
       -0.028052248 -0.10703694 -0.5721734 1.0055779
000210 0c e0 72 bf 71 dd 19 3f d2 4e 26 3f 8f 5f 30 bd
       -0.9487312 0.6010352 0.6496402 -0.04305988
000220 2c 75 50 3f 94 06 0e 3d d7 7d c8 3e c3 03 9a 3e
       0.8142879 0.034674242 0.39158508 0.30080995
000230 62 d8 ee 3e b7 68 fe be a4 3c cd 3d 00 f7 b5 3d
       0.46649462 -0.49689266 0.10021332 0.08885002
000240 1d 58 3f 3f 52 c7 90 bf 58 76 9e 3e 65 a3 07 3f
       0.74743825 -1.1310828 0.30949664 0.52983695
000250 76 10 04 bf 07 0f 00 3e a1 89 65 3f 1d 5f 04 3f
       -0.5158762 0.12505732 0.8966313 0.5170763
000260 34 46 0c 3f 08 18 99 3f 9a 8e e7 3e 51 db 11 bf
       0.5479462 1.1960459 0.45225984 -0.56975275
000270 ae e3 95 3e ae a5 cd 3d c1 e7 0c 3e 8a ca 25 3f
       0.29275268 0.100413665 0.13760282 0.64762175
000280 e6 39 ef be 5d 6a b3 3e 4b cf 41 3f c2 89 fd 3d
       -0.4672386 0.35042086 0.7570693 0.12379791
000290 4c f0 16 bf ef a2 25 3f 22 87 23 3f cd 48 5e bf
       -0.58960414 0.6470174 0.6387807 -0.86829835
0002a0 a0 ae a1 3e 80 92 89 3f e5 b6 c6 bb 39 e0 b5 be
       0.3157854 1.0747833 -0.006064283 -0.3552263
0002b0 0d 93 47 3d 2c 39 77 bf b0 cb ec be f2 34 b2 3e
       0.048724223 -0.9657161 -0.4624915 0.3480602
0002c0 da e4 31 3e fa f5 e0 bd 29 b0 dc 3e c6 57 2c be
       0.17372456 -0.10984416 0.4310315 -0.16830358
0002d0 bc b1 27 bf 98 82 51 bd 4b 46 36 be b4 3a 48 3f
       -0.65505576 -0.051149935 -0.17800252 0.78214574
0002e0 e5 d5 a5 3f 37 64 ba 3e ff 5a 9f 3e 40 fa dc be
       1.29559 0.36404583 0.31124112 -0.43159676
0002f0 52 35 f8 be e0 a6 86 bd 7b 31 17 bd 15 ee 1d bf
       -0.4847818 -0.06574798 -0.036912423 -0.6169141
000300 6b 3f 6d 3e ec 4a 66 3f cf 60 8f 3c b4 cd 11 3f
       0.23168723 0.8995807 0.017502217 0.56954503
000310 65 c3 7c be 34 06 70 3e c8 e2 50 3f 91 45 07 be
       -0.24683912 0.23439866 0.8159604 -0.13210131
000320 fa 92 c8 3d 89 43 c7 3d 34 65 ed bc 8a 52 5c 3f
       0.097936586 0.09729678 -0.028978921 0.86063445
000330 94 33 e3 3c 0b c7 0d bf b4 fa 57 3f 9f cf 93 3e
       0.027734555 -0.5538184 0.8436692 0.2886934
000340 29 0b 2b 3f fb 04 6e bf 9f 05 d9 3e c3 57 1f 3f
       0.66813904 -0.9297635 0.423871 0.6224329
000350 d2 77 23 bf 6b ea 54 3f 10 c7 3e 3f 52 44 3e 3f
       -0.63854706 0.83170193 0.74522495 0.74323
000360 91 b8 62 3f 50 18 aa 3e 60 ce 64 3f eb 61 6b be
       0.88562876 0.33221674 0.89377403 -0.22986571
000370 ae 16 58 3c 39 a3 b9 3f 5d 0f 17 3f 30 90 58 3f
       0.013189001 1.4502937 0.5900782 0.8459501
000380 bc f7 c7 be bf 2f 0d bf 63 ad 80 be 40 c0 cd bf
       -0.39056194 -0.5515098 -0.25132284 -1.6074295
000390 b7 1f 6f 3e 9c b0 10 bf c1 78 4a 3f 80 05 ea bb
       0.23351942 -0.56519485 0.79090506 -0.007141769
0003a0 d2 6f 65 3e 40 27 37 bf 80 4a b2 3e 8a 90 a0 be
       0.22405937 -0.71544266 0.34822464 -0.31360275
0003b0 38 b3 1a 3f ee 1e 9f 3c bd 53 2c bf f2 76 ca bd
       0.60429716 0.019423928 -0.67315274 -0.09885968
0003c0 ed 2e 65 bf 1d 9d f7 bd 53 d1 97 bf 94 68 a8 be
       -0.8952473 -0.12090514 -1.1860756 -0.32892287
0003d0 ab 9f 9a 3e e7 05 1f 3e a8 80 02 3f ca 14 0f 3e
       0.30199942 0.15529595 0.50977564 0.13972774
0003e0 6f 32 51 3f c9 ba bf 3e 92 2f 60 3e 27 26 8b 3f
       0.8171758 0.37447193 0.21893147 1.0871018
0003f0 2e a3 41 bf 07 6f ee 3e 17 56 db be ea 59 a9 3e
       -0.7563962 0.46569082 -0.4283912 0.3307641

critic.2.bias f4 [32]
000000 35 ba c4 3d 43 c8 71 bf d0 00 4c bf 6e a7 3d 3d
       0.09605829 -0.944462 -0.7968874 0.04630225
000010 ae 3a a5 bf fe 9a 4e 3d cf e6 bb bf 40 49 26 be
       -1.2908533 0.05044078 -1.4679812 -0.1623888
000020 6b 9e 75 3f 2c de a0 be 44 d4 30 bd 86 92 16 bf
       0.9594485 -0.31419504 -0.043171182 -0.5881733
000030 80 3d 56 3f d3 bc cc 3c e9 25 46 bf e5 05 ed be
       0.8368759 0.024992382 -0.77401596 -0.4629356
000040 eb d9 7e 3f 85 76 32 bf 87 f8 59 3c 25 0a a3 bf
       0.99551266 -0.69712096 0.013303882 -1.2737471
000050 02 d6 95 be b0 4e af 3d 58 46 ac be 4c 52 88 be
       -0.29264838 0.0855993 -0.33647418 -0.26625288
000060 41 2d 17 3e da 16 1d bd ef 2a 06 bf 3d 2f 7d 3d
       0.14763357 -0.03835187 -0.5240926 0.061812628
000070 82 e6 1d be d4 92 43 bf 6b d8 8e bf 1c 5f 82 bf
       -0.15419963 -0.76395917 -1.1159796 -1.0185275

critic.4.weight f4 [32, 32]
000000 8c de 46 bf 18 c2 5a bf 65 f7 91 bc c6 85 2d 3e
       -0.7768333 -0.85452414 -0.017818162 0.16945562
000010 81 d9 1e bf 6c 75 83 be a8 c2 45 bf b0 51 54 3f
       -0.62050635 -0.25675523 -0.77250147 0.82937145
000020 c9 38 d7 3d 05 51 1e be df 0c 8c 3c c1 e4 a9 be
       0.10508878 -0.15460594 0.017095981 -0.33182338
000030 c3 f6 03 bb 59 1a 5b bd c9 be bd be a9 df 61 3d
       -0.0020136095 -0.053491924 -0.3705962 0.05514494
000040 27 b4 a8 3e 50 1e e2 be fb 06 3b be c5 73 39 bf
       0.32949945 -0.44163752 -0.18264382 -0.72442275
000050 07 66 11 bf a7 a6 27 bf e1 7d 93 bf 9f 00 e6 3d
       -0.56796306 -0.65488666 -1.152279 0.11230587
000060 d3 b3 61 3f e9 1b 83 bf 43 56 ef be cb df a5 3c
       0.88165015 -1.0242893 -0.467455 0.020248314
000070 5b 28 ee bc e1 d9 13 3e b2 c2 a7 ba c7 3d c0 be
       -0.029071977 0.14438583 -0.0012799113 -0.37547132
000080 65 98 61 3d cb a3 84 3d e8 2d d0 3d b1 23 bf bc
       0.055076975 0.064765535 0.10165006 -0.023332449
000090 f9 02 65 3d 72 f0 75 bf 52 a2 90 bd b4 cf bc be
       0.055911038 -0.96070015 -0.0706221 -0.36877215
0000a0 88 bd 8f bd ef d3 fb be db 33 fa 3e 76 aa e2 bd
       -0.07018572 -0.4918513 0.48867688 -0.11067669
0000b0 b2 2f 09 bf 17 cc ae bd 13 dc 91 3d 0c 01 9b 3e
       -0.535884 -0.08535021 0.07122054 0.30274236
0000c0 b0 b0 20 bf 3a 10 52 3e 77 64 84 be fb 1e 2b 3f
       -0.62769604 0.20514002 -0.258579 0.6684415
0000d0 1c 40 b7 be 8d bc b3 3e d8 59 2b be 4d 49 f6 be
       -0.357911 0.3510479 -0.16733491 -0.481028
0000e0 91 2e f5 3e 40 ff 26 3e 25 99 fc bb 61 2f 7e be
       0.4788709 0.16308308 -0.007708686 -0.24822761
0000f0 5b f3 30 be 20 fc 5e 3e a1 26 e6 bd f1 5c ad 3f
       -0.17280333 0.21775866 -0.11237837 1.3543988
000100 0b 9c a9 3e d5 99 09 3f e9 c8 09 bf 46 fc 0a bf
       0.33126864 0.53750354 -0.5382219 -0.5429119
000110 c0 dd 7b 3e 55 93 b6 bd 51 69 1c 3f eb e3 0e bf
       0.2459631 -0.0891482 0.610982 -0.55816525
000120 5b 73 c1 bd e7 16 a4 be 49 b5 91 3e dd 27 c4 bd
       -0.094458304 -0.32048723 0.28458622 -0.09577916
000130 1a 00 0d 3e 0e 80 a3 be 74 9e d2 3e 94 66 65 3e
       0.1376957 -0.31933635 0.41136515 0.22402412
000140 bf 05 a3 3e ea 9e bd 3e 90 0a ad 3e 0b 2b f2 3e
       0.3184032 0.37035304 0.3379712 0.47298464
000150 11 bb 77 3c c4 7c c8 3e 3b 3b ab be c5 d2 5a be
       0.015120284 0.3915769 -0.33443627 -0.21369465
000160 55 45 2e bf 8d f9 95 3e 03 d1 33 3f a2 2f 8d be
       -0.6807454 0.29291955 0.702408 -0.27575403
000170 a4 2a a9 bc 7d 7f 45 bd e8 3a 0c 3e f6 9f 08 3f
       -0.020650215 -0.048217285 0.13694346 0.5336908
000180 73 22 96 bf b7 87 8b be f7 63 0d 3e 44 00 af bf
       -1.1729263 -0.2725198 0.13807665 -1.3671956
000190 f3 de 50 be fd 49 91 bf 20 a8 43 bd 5c ee 33 be
       -0.20397548 -1.1350704 -0.04776776 -0.17571396
0001a0 f5 8a 31 3f 85 1d 09 be 26 da 55 3e 50 b1 6a 3e
       0.69352657 -0.13390167 0.20883998 0.22919202
0001b0 19 74 b8 3e e7 c0 d3 3e d8 ff 5f 3e 26 fc ae 3e
       0.36026075 0.4135811 0.2187494 0.3417675
0001c0 fc 2c 19 bf f6 74 7c be ac ee 51 3f 3e eb c1 bd
       -0.59834266 -0.24653992 0.8200481 -0.09468697
0001d0 20 a3 a6 3c ce 20 aa 3e 86 68 91 3f 4c 6b 03 bf
       0.020341456 0.33228153 1.1360023 -0.513356
0001e0 ae 9c 19 3e 7e 3e 65 3f 3b ac 9c 3d 6e 9e 2a 3f
       0.15001175 0.8954848 0.07650038 0.66647995
0001f0 aa b1 9d be 14 b7 58 bf a1 c9 d1 bd df 79 41 bd
       -0.3079961 -0.84654355 -0.10243536 -0.047235366
000200 cb e3 77 bf 2f 6a 2a 3f da 51 22 bf ca ca ea 3e
       -0.9683196 0.66568273 -0.63406146 0.4585784
000210 2d 32 8c 3f 0a 50 a1 bf 12 66 46 3f 70 1a 0f be
       1.0952812 -1.2602551 0.77499497 -0.13974929
000220 c6 25 95 bf 42 14 a4 bf 57 be 49 3f d8 b8 f6 bd
       -1.1652153 -1.2818682 0.7880606 -0.12046975
000230 64 17 06 bf f4 9f 7c 3e f5 8b 83 3e 39 ee f4 3d
       -0.5237944 0.24670392 0.25692716 0.119595
000240 3d 72 38 bf 4d 80 e4 3d 3a 42 96 3e 35 cd 9c 3f
       -0.72049314 0.11157284 0.29347402 1.2250124
000250 b4 23 50 bf a4 9e 3c 3f 5b aa b4 be 38 b5 0d 3f
       -0.8130448 0.73679566 -0.3528622 0.5535464
000260 eb a7 3e be d2 3e f8 be 2e 67 dc 3e 55 98 6c 3f
       -0.18618743 -0.48485428 0.4304747 0.9241994
000270 48 4d 3d 3f 45 c5 6c 3d d4 6a 9e be cb 08 37 3f
       0.73946047 0.05780532 -0.30940878 0.7149779
000280 69 d3 4b bf 05 93 8b bf 67 3f 17 bf 03 63 6d bd
       -0.7961946 -1.0904242 -0.5908112 -0.057955753
000290 97 93 a0 bf 5d 89 5d bf 7d 0a cd be 6d d8 3f 3f
       -1.2545041 -0.86537725 -0.40047064 0.74939615
0002a0 66 ae 6d bd a4 8a bd 3f ac 0f df 3e f0 a9 62 bf
       -0.058027647 1.4807935 0.43566644 -0.88540554
0002b0 3a 6f b9 be 27 94 0e bf d0 a5 75 bf 67 82 66 be
       -0.36217672 -0.5569481 -0.95956135 -0.22510682
0002c0 67 c5 01 3f f4 db 2d bf 5a 94 28 be 1e 30 84 bf
       0.5069184 -0.67913747 -0.16462842 -1.0327184
0002d0 eb 40 1d bf 30 ca 12 be cf bf 24 3f da cc 86 bf
       -0.6142718 -0.14334941 0.64355177 -1.0531266
0002e0 06 97 6f 3f 70 62 97 be 6e 62 3d bf 5a 66 9f 3e
       0.9358982 -0.2956729 -0.73978317 0.31132776
0002f0 19 cf ec 3e 22 97 d0 bd 2a 0b 3a bf 1f ad bf be
       0.46251753 -0.10185076 -0.72673285 -0.37436768
000300 57 9d 85 3e de 62 32 3e 62 f8 d9 3e 6e 81 b0 3e
       0.26096603 0.17420527 0.42572314 0.34473747
000310 fe c4 ae 3f bf f0 48 3e 12 c0 a3 3f 44 f2 31 3f
       1.3653867 0.19623087 1.279299 0.69510293
000320 13 db 0f 3c 6a 98 8c 3f 09 a6 67 3e 16 f6 25 3f
       0.008780259 1.0984013 0.22621931 0.6482862
000330 d4 d3 3d bf 45 03 e7 3e 88 5f 18 3f 95 e4 7f 3f
       -0.7415135 0.45119682 0.5952077 0.99958163
000340 25 b8 87 bf 27 d3 09 3f 6d 33 d5 3e b5 02 a7 3f
       -1.0603071 0.5383782 0.41640797 1.3047701
000350 5f 44 5b 3f e2 28 54 3f 13 25 3e 3e df 19 4f bf
       0.856512 0.8287488 0.1856883 -0.8089885
000360 2b 31 39 3d d2 3f 27 3e c7 40 59 3f 95 0c ef 3c
       0.045212906 0.1633294 0.8486447 0.029180804
000370 5a 87 25 be 99 8b 1a 3f 46 85 ca 3e b0 b6 aa 3f
       -0.16164914 0.6036926 0.39554805 1.3337002
000380 0e bc 20 be 6e 5e 64 3f af 63 b5 3e ae e7 60 bf
       -0.15696737 0.8920659 0.35427615 -0.87853515
000390 32 0d 60 3f 93 58 a9 be ce 86 fa 3e 20 39 16 3f
       0.87520134 -0.3307539 0.48930973 0.58680916
0003a0 c6 7c d5 3e 69 f2 54 3f fc 16 9b 3d 1f 91 06 3f
       0.41696757 0.8318239 0.07572743 0.5256519
0003b0 5e f0 c8 3e 5a 3b 43 3f 98 a2 16 3f 19 44 56 3f
       0.39245886 0.7626244 0.5884185 0.8369766
0003c0 8e 4b 86 bf 2d 93 81 3e 91 63 b1 3e 02 d1 95 3f
       -1.0491807 0.253076 0.34646276 1.1704409
0003d0 6e 88 8b bd a5 36 fc 3e ef 09 6e 3f 47 c6 ef 3b
       -0.06813131 0.4926044 0.9298391 0.0073173377
0003e0 77 e6 39 3e c9 c6 70 3e 74 d7 8f 3e 5c 2a 2e bd
       0.18154322 0.2351333 0.28094065 -0.042520866
0003f0 e3 be 6f 3e 2b d1 54 3f e7 65 3d 3f 36 96 ee 3e
       0.23412661 0.83131665 0.73983616 0.46598977

critic.4.bias f4 [32]
000000 91 48 58 3f 31 83 62 bf 34 36 c0 3d 81 cb 64 3f
       0.8448573 -0.8848143 0.093853384 0.8937302
000010 96 25 0a bf 81 85 95 3f 56 41 fe be f2 84 c5 3e
       -0.539636 1.1681367 -0.49659222 0.38577992
000020 2d 98 3f bf b2 74 45 3f af 21 6d bf 0a e7 97 3f
       -0.74841577 0.7713119 -0.9262952 1.1867383
000030 97 4a 82 3f 54 ae e3 3e ac ec 10 bf 62 52 7d 3f
       1.0179013 0.4446894 -0.5661113 0.9895383
000040 e0 4f 65 bf 1e a9 fc be d1 a9 d1 3e 39 a7 86 3d
       -0.89575005 -0.49347776 0.40949872 0.06574864
000050 94 5c cc 3f ac ce 13 bf ad 7e 3a 3f 53 46 72 bf
       1.5965753 -0.5773723 0.7284954 -0.94638556
000060 7f 1a 87 be 22 24 4f bf df b0 e3 be af b4 a7 bf
       -0.26387402 -0.8091451 -0.4447088 -1.3102015
000070 73 08 51 bf ca 1d 8e 3e be 97 1c 3f a2 c9 ce bd
       -0.8165352 0.27757102 0.6116904 -0.10097052
