models/model.ckpt-240601.pth (torch, 70223 bytes, 15 tensors)

actor.0.weight f4 [32, 180]
-6.589335 -1.7728984 4.429847 3.2521722 0.43549433 1.4744654 1.5399516 1.434329
-3.3700373 -7.562737 -12.971427 -1.55876 1.4807857 2.9273152 4.3787184 1.3042414
0.07808074 0.2729243 -3.0706592 -14.599411 -3.760873 -1.083609 1.6387568 -1.2441454
2.4294498 1.0074881 0.99214154 2.0449443 -0.24771428 -6.7886286 -2.005369 1.1195897
0.33005017 -1.1133342 0.09763186 0.09430235 -1.2245201 -0.29343402 -0.3535116 -2.0407116
-1.6895844 -0.8346792 -0.97175455 -0.73883843 -0.7968877 -1.7638491 -1.9901178 -0.230077
-0.68225145 -1.1427422 -0.38098073 -0.8519039 -0.25034595 -0.86845756 -1.0589409 -0.3529738
-0.97573906 0.823922 -1.7373592 -1.12586 -2.214639 -1.2547159 -1.5209166 2.1059344
0.22872601 -0.93540627 -0.18911968 0.15445305 0.101010285 -0.79854137 -1.4742061 -3.2239497
-1.3914223 0.27741334 -1.0412529 0.24435125 0.5299201 -0.7442314 -0.73329324 -0.17012668
-0.9602811 -0.57420284 -1.1914605 -1.2265395 0.5138315 0.25822002 -0.375928 -0.7556339
0.4394053 -0.7850183 0.28024796 -0.4819758 -0.84686303 -0.93863356 -0.03383919 -0.111761056
0.45022267 -0.59105515 0.12854159 0.85757166 -1.4745902 -1.6292291 -0.6599721 -0.15959674
0.020239366 0.5944138 -1.0516523 -0.7105123 -0.5338961 -0.35912755 -2.884337 -1.0899446
-0.97938615 -0.12904713 0.7688485 0.19759059 0.019359741 -0.5680826 0.5751348 -0.33095258
-2.1763024 -2.8003569 -2.0922172 -0.18957686 -0.030121954 0.74525106 -0.040066086 0.56762135
0.40749118 -0.45754197 -2.3018234 -0.95682365 -1.4467645 -1.825385 0.48698255 -0.31789017
0.29137498 0.074585 0.611943 0.43278334 -2.7527926 -0.9164348 -0.74830794 -0.5060212
0.38221496 -0.54313976 0.2787929 -0.09637059 0.6454466 -0.3856594 -1.5084949 -2.05369
-0.7019531 -1.1077569 -1.0388714 0.36259285 0.4662949 0.62663317 -0.4440319 0.36092746
-0.32499593 4.6352124 0.90541124 -0.3452033 -0.94340765 -0.03658699 -0.038305376 0.03746305
1.3811147 1.1615568 1.5717622 -0.3466867 0.52642083 -0.73512715 0.94967574 -0.011271012
0.48224446 0.21868555 0.8046384 1.3707753 -1.8530911 -0.2973183 0.33648896 0.012200249
-2.0222626 -2.0574486 -1.7987446 -3.2636752 -0.333459 1.8069966 -1.7671009 -0.6220543
-0.7198143 0.56511986 -1.3774117 -1.6888946 -2.6400423 -4.6299677 -1.1827242 2.8984523
0.54155344 -0.6075997 0.44841838 0.034900386 -0.22209488 -1.1675924 -2.0461872 -3.4636974
-1.2322701 2.2941802 0.61017835 0.20662422 0.26958504 -0.4307099 0.3006641 0.27697223
-0.32849583 -0.4484816 -0.39025372 0.29191947 0.14559574 0.5831408 0.14751919 0.71037847
0.60327065 1.3008003 1.0113417 0.033434823 -0.33517167 -0.38506937 -1.9086452 -4.425437
-3.2918012 -3.503945 -2.8414671 -2.5432725 -3.0876923 -4.2244754 -3.6931376 -2.0651042
-3.7397957 -5.671315 -4.1759033 -4.366458 -3.2600324 -3.0779672 -3.3065271 -4.1961417
-6.262738 -3.489657 -2.6751163 -2.05907 -2.3578343 -1.7770139 -3.9601712 -3.3505187
00000000: d5db d2c0 56ee e2bf 4ec1 8d40 9723 5040
00000010: 1df9 de3e 48bb bc3f 221d c53f 1898 b73f
00000020: b1ae 57c0 f101 f2c0 f78a 4fc1 7385 c7bf
00000030: 638a bd3f 2259 3b40 761e 8c40 62f1 a63f
00000040: cce8 9f3d bcbc 8b3e ae85 44c0 3097 69c1
00000050: 25b2 70c0 b3b3 8abf c8c2 d13f 2840 9fbf
00000060: 1b7c 1b40 5ff5 803f fdfc 7d3f 5ee0 0240
00000070: d0a8 7dbe 723c d9c0 f757 00c0 b74e 8f3f
00000080: 56fc a83e bc81 8ebf 36f3 c73d 9721 c13d
00000090: 13bd 9cbf fc3c 96be 79ff b4be 059b 02c0
000000a0: 4d44 d8bf 89ad 55bf e8c4 78bf 8424 3dbf
000000b0: d500 4cbf cfc5 e1bf 2ebc febf 4e99 6bbe
000000c0: 08a8 2ebf 6045 92bf e80f c3be 6016 5abf
000000d0: 582d 80be 3c53 5ebf 608b 87bf fbb8 b4be
000000e0: 09ca 79bf 8dec 523f c961 debf 2e1c 90bf
000000f0: a5bc 0dc0 889a a0bf 65ad c2bf a1c7 0640
00000100: 2737 6a3e c976 6fbf 97a8 41be f128 1e3e
00000110: 7bde ce3d 356d 4cbf c9b2 bcbf 3155 4ec0
00000120: 201a b2bf 1f09 8e3e c647 85bf 3737 7a3e
00000130: d8a8 073f f385 3ebf 1bb9 3bbf b035 2ebe
00000140: fbd4 75bf f5fe 12bf c781 98bf 3fff 9cbf
00000150: 768a 033f 6a35 843e a379 c0be 3971 41bf
00000160: bbf9 e03e f6f6 48bf a97c 8f3e 88c5 f6be
00000170: 04cc 58bf 4a4a 70bf f69a 0abd fbe2 e4bd
00000180: 9683 e63e 644f 17bf 68a0 033e d189 5b3f
00000190: 5fbf bcbf 948a d0bf eef3 28bf 546d 23be
000001a0: 07cd a53c 812b 183f 8b9c 86bf 22e4 35bf
000001b0: 6aad 08bf 91df b7be fa98 38c0 4e83 8bbf
000001c0: 0db9 7abf ee24 04be 41d3 443f 3055 4a3e
000001d0: 5298 9e3c dc6d 11bf 093c 133f 9e72 a9be
000001e0: 8a48 0bc0 0c39 33c0 e3e6 05c0 7020 42be
000001f0: 51c2 f6bc c6c8 3e3f 561c 24bd a24f 113f
00000200: afa2 d03e f142 eabe 1351 13c0 65f2 74bf
00000210: 942f b9bf 37a6 e9bf c755 f93e 80c2 a2be
00000220: 1a2f 953e 05c0 983d 4ca8 1c3f c795 dd3e
00000230: c12d 30c0 799b 6abf 1c91 3fbf 9b8a 01bf
00000240: aeb1 c33e 350b 0bbf f1bd 8e3e f25d c5bd
00000250: fd3b 253f 2675 c5be 5c16 c1bf a86f 03c0
00000260: 33b3 33bf faca 8dbf bdf9 84bf c5a5 b93e
00000270: 35be ee3e 086b 203f 2658 e3be 7ccb b83e
00000280: de65 a6be a953 9440 08c9 673f 7dbe b0be
00000290: 2a83 71bf 3ddc 15bd 19e6 1cbd db72 193d
000002a0: 5ec8 b03f e5ad 943f 812f c93f eb80 b1be
000002b0: 84c3 063f 4b31 3cbf f31d 733f 0daa 38bc
000002c0: bfe8 f63e 1bef 5f3e c8fc 4d3f 9175 af3f
000002d0: 1732 edbf 1b3a 98be 4848 ac3e 8ee3 473c
000002e0: c06c 01c0 3dad 03c0 433d e6bf 0ee0 50c0
000002f0: 23bb aabe aa4b e73f 5d30 e2bf f33e 1fbf
00000300: c045 38bf b2ab 103f 074f b0bf b32d d8bf
00000310: 74f6 28c0 b228 94c0 8263 97bf 3e80 3940
00000320: 3fa3 0a3f a78b 1bbf 1897 e53e b5f3 0e3d
00000330: d76c 63be ab73 95bf bbf4 02c0 38ad 5dc0
00000340: 07bb 9dbf d9d3 1240 a634 1c3f 4d95 533e
00000350: 0d07 8a3e 0286 dcbe a5f0 993e 4ecf 8d3e
00000360: 9b30 a8be 619f e5be 56cf c7be 7876 953e
00000370: 0d17 153e b748 153f 450f 173e 5ddb 353f
00000380: f26f 1a3f a080 a63f a573 813f f4f2 083d
00000390: 9f9b abbe d027 c5be 7c4e f4bf 2e9d 8dc0
000003a0: dfac 52c0 a340 60c0 99da 35c0 fac4 22c0
000003b0: c09c 45c0 e72e 87c0 5e5c 6cc0 ab2a 04c0
000003c0: d058 6fc0 6a7b b5c0 00a1 85c0 06ba 8bc0
000003d0: 5fa4 50c0 6afd 44c0 249e 53c0 cb46 86c0
000003e0: 5a68 c8c0 8a56 5fc0 1b35 2bc0 cec7 03c0
000003f0: c2e6 16c0 3175 e3bf 7273 7dc0 e66e 56c0

actor.0.bias f4 [32]
-0.17064114 -4.9395905 0.8476833 -1.5315119 0.5622947 1.0724627 -0.8724791 -0.63811034
-3.5796251 -0.25249067 -0.41608384 -0.9288123 -0.642459 0.8296378 0.23148616 -0.05395347
-2.0749664 -1.0828071 -0.42453447 -1.4229063 -1.3489845 -0.3247141 -0.45788047 -2.3143525
-0.7346666 0.2583642 -0.89550865 -0.20009644 -0.8321572 -1.0660855 0.003885996 -0.3174595
00000000: 8dbc 2ebe 2011 9ec0 c601 593f 9508 c4bf
00000010: 8cf2 0f3f 7546 893f ca5a 5fbf 335b 23bf
00000020: 9418 65c0 7546 81be f108 d5be a5c6 6dbf
00000030: 3178 24bf 2563 543f b50a 6d3e 50fe 5cbd
00000040: 40cc 04c0 6c99 8abf 955c d9be cb21 b6bf
00000050: 86ab acbf ed40 a6be 4f6f eabe 5a1e 14c0
00000060: 1c13 3cbf 5048 843e 0e40 65bf 15e6 4cbe
00000070: 4108 55bf 7d75 88bf 32ac 7e3b 0d8a a2be

actor.2.weight f4 [32, 32]
0.054095548 2.986875 -1.4152304 2.039589 2.282922 -1.6791879 0.3767728 -0.50894886
3.862226 2.7184422 0.84867543 1.6900622 2.0839884 0.006176406 -2.9786372 0.584794
3.8655624 2.2490487 -1.039121 3.2790954 4.0144215 -2.280333 3.543891 3.8565707
-1.5103565 2.3807173 3.7602174 1.4579818 2.1354897 -0.77870053 -1.5648445 3.3187678
0.15495859 -0.2207484 0.049856476 1.3906494 -1.0332814 -0.7654906 0.5811996 0.051888276
-0.001765179 -0.6332663 -1.5378532 -0.089234695 0.38416684 0.13398348 0.058521535 -1.6350658
-0.43353817 0.5265239 -1.1930435 0.84923 0.69183475 -0.22041847 -1.2472227 0.3689727
0.62675667 0.36146164 0.28164485 -0.17840394 0.7364587 -0.63223904 0.63685864 -2.0586772
-1.4224876 2.024898 1.3875529 2.516219 2.0933862 -1.1454265 -0.80328315 -3.334589
1.6026236 2.2038317 1.0250044 2.2382476 1.680112 0.8972469 -0.22701146 -3.3512156
2.7703397 1.7182541 0.824816 1.832252 3.0952816 -0.8731774 2.1071486 1.5874742
-0.41855738 2.5232666 2.1615293 1.3567891 -0.9299782 0.091407806 0.841192 3.1373434
-1.3339518 0.5846064 1.1797638 0.34368357 1.9116273 0.28758183 -0.5896567 -2.2228055
0.5338114 0.9190704 -0.17632295 -0.48379016 1.1207536 0.6190051 0.1436636 -1.7463943
0.90986496 1.0411139 -0.43794438 1.7450442 1.5966882 -2.8893144 0.7787505 1.2376856
-0.914079 0.6005432 1.2669678 -0.005696129 -1.7083206 0.41835314 -1.2918576 1.1170375
-0.432584 0.82912314 -1.6226239 0.5066097 -0.45409945 -0.7553071 1.9435669 -0.5183149
-0.5336224 -1.4342697 0.9199234 1.515025 0.7222277 0.5941638 0.42058638 -0.93666106
0.14381261 -1.68564 -0.5129606 0.7258445 1.1048635 -0.28622827 -1.3517783 -0.018488245
1.4377156 -2.1837301 -0.9700532 0.49452782 0.6990916 0.46557805 1.8232449 -0.07896832
-0.1846998 2.1901343 -0.06223015 1.0471352 2.2934244 -0.8505961 0.725397 0.12978111
2.6858525 0.7386683 1.745552 0.31746325 1.8085446 1.3669869 -2.949165 -0.07037665
1.9527185 2.909896 -1.6459419 2.117871 2.0524335 -0.41344342 0.79172754 2.665545
-2.0596902 0.21505593 1.7073035 2.2952664 0.81389743 -0.049122337 1.0398035 2.9128184
-0.9580342 1.027802 0.34010568 -0.8009562 1.4869612 0.5265423 0.24697636 0.052964907
0.8842625 0.68072456 -0.9409686 -0.53647333 2.1247137 0.6426368 0.09551912 -1.9526727
0.6054953 -0.14981928 -0.62894255 0.4120617 -0.2987193 -2.4639575 0.8200792 0.7349442
-1.6360487 -0.014201267 0.8658828 2.3150299 -0.5541402 -1.423586 0.32992098 0.4094978
-0.09270557 2.6232443 -0.8961091 1.1308416 2.1891968 -1.3863469 0.43725264 0.90669453
2.9912636 1.7143214 1.0109802 0.05272928 0.98406166 1.7213805 -0.20754766 -0.71524996
2.6699586 2.7762177 0.11423004 2.5227726 3.3045964 -2.6216433 1.5665956 2.6058972
-0.90146327 1.338217 2.3222091 0.16311994 0.58985513 -0.6225039 0.30722758 2.3669372
00000000: 4b93 5d3d f628 3f40 4526 b5bf a088 0240
00000010: 651b 1240 a1ef d6bf 5de8 c03e 794a 02bf
00000020: b62e 7740 f5fa 2d40 cb42 593f f553 d83f
00000030: 1160 0540 7363 ca3b fea1 3ec0 0fb5 153f
00000040: 6065 7740 6af0 0f40 eb01 85bf b3dc 5140
00000050: 2476 8040 faf0 11c0 1ccf 6240 0ed2 7640
00000060: 5d53 c1bf ac5d 1840 67a7 7040 269f ba3f
00000070: ddab 0840 eb58 47bf d34c c8bf b166 5440
00000080: 77ad 1e3e de0b 62be 4e36 4c3d cd00 b23f
00000090: 9142 84bf 31f7 43bf 7fc9 143f cd88 543d
000000a0: 945d e7ba be1d 22bf 60d8 c4bf aec0 b6bd
000000b0: 84b1 c43e f732 093e 47b4 6f3d d649 d1bf
000000c0: b7f8 ddbe 45ca 063f a6b5 98bf 2367 593f
000000d0: 151c 313f 61b5 61be fea4 9fbf fde9 bc3e
000000e0: 2073 203f 8011 b93e c133 903e 86af 36be
000000f0: 8f88 3c3f 6bda 21bf 2b09 233f 5ec1 03c0
00000100: 1314 b6bf ee97 0140 559b b13f bb09 2140
00000110: 0afa 0540 569d 92bf f7a3 4dbf e869 55c0
00000120: c522 cd3f 940b 0d40 5833 833f 733f 0f40
00000130: e90d d73f f9b1 653f b175 68be 517a 56c0
00000140: 3f4d 3140 c0ef db3f 2427 533f 3c87 ea3f
00000150: 1819 4640 8e88 5fbf 86db 0640 5b32 cb3f
00000160: 274d d6be 337d 2140 7f56 0a40 44ab ad3f
00000170: 0d13 6ebf 0434 bb3d 5c58 573f 3cca 4840
00000180: efbe aabf c4a8 153f 8002 973f 4bf7 af3e
00000190: 34b0 f43f ed3d 933e bef3 16bf 7242 0ec0
000001a0: dda7 083f 3348 6b3f 018e 34be 58b3 f7be
000001b0: db74 8f3f 1e77 1e3f 8d1c 133e d989 dfbf
000001c0: e9ec 683f 3843 853f 3f3a e0be 9c5d df3f
000001d0: 4760 cc3f 87ea 38c0 315c 473f 7b6c 9e3f
000001e0: 1501 6abf 33bd 193f 002c a23f 98a6 babb
000001f0: 40aa dabf 6232 d63e 975b a5bf 16fb 8e3f
00000200: a67b ddbe 6a41 543f 24b2 cfbf 2cb1 013f
00000210: b97f e8be ce5b 41bf cdc6 f83f 49b0 04bf
00000220: 7a9b 08bf 2696 b7bf 1a80 6b3f 57ec c13f
00000230: eae3 383f 1e1b 183f 1957 d73e 05c9 6fbf
00000240: 9d43 133e 0dc3 d7bf 6351 03bf f2d0 393f
00000250: 2b6c 8d3f 838c 92be 1207 adbf a974 97bc
00000260: 1107 b83f 3cc2 0bc0 6855 78bf c032 fd3e
00000270: abf7 323f 3f60 ee3e 1760 e93f 24ba a1bd
00000280: f221 3dbe 292b 0c40 0be5 7ebd 8708 863f
00000290: 77c7 1240 aac0 59bf 9eb3 393f 57e5 043e
000002a0: 02e5 2b40 5e19 3d3f 3f6e df3f 8b8a a23e
000002b0: 647e e73f 6df9 ae3f 1fbf 3cc0 a221 90bd
000002c0: aef2 f93f bc3b 3a40 39ae d2bf 338b 0740
000002d0: 125b 0340 dbae d3be a8ae 4a3f 4a98 2a40
000002e0: f7d1 03c0 9f37 5c3e ec88 da3f a5e5 1240
000002f0: 955b 503f 8134 49bd 4818 853f 9e6b 3a40
00000300: bb41 75bf 048f 833f 5522 ae3e 770b 4dbf
00000310: bf54 be3f 7acb 063f 5fe7 7c3e bbf1 583d
00000320: 075f 623f f743 2e3f 51e3 70bf 5156 09bf
00000330: 4ffb 0740 d883 243f 879f c33d 2ef1 f9bf
00000340: bd01 1b3f 3a6a 19be 6102 21bf c0f9 d23e
00000350: bcf1 98be 7bb1 1dc0 b6f0 513f 4e25 3c3f
00000360: 0b6a d1bf 6eac 68bc 7faa 5d3f 7329 1440
00000370: 22dc 0dbf 1138 b6bf 67eb a83e b2a9 d13e
00000380: 6bdc bdbd 3ce3 2740 6867 65bf 6bbf 903f
00000390: cd1b 0c40 d173 b1bf 94df df3e 221d 683f
000003a0: dd70 3f40 e26e db3f cd67 813f a8fa 573d
000003b0: 77eb 7b3f 3256 dc3f 6087 54be 9f1a 37bf
000003c0: 9ae0 2a40 8dad 3140 70f1 e93d 1b75 2140
000003d0: 827e 5340 01c9 27c0 3486 c83f 05c7 2640
000003e0: 4cc6 66bf b24a ab3f 139f 1440 ea08 273e
000003f0: bf00 173f 6a5c 1fbf ef4c 9d3e e67b 1740

actor.2.bias f4 [32]
-5.1704264 -1.5576187 -1.936133 -0.5110662 0.29798707 -2.548747 -0.07406558 -2.430476
-2.842983 -2.3428986 -0.66291994 -3.833233 -0.52654433 -0.7626548 -0.40348476 -0.7937663
-1.225005 -4.0718637 -1.8640658 -1.3273456 -2.5152602 -4.0321207 -0.82636935 -0.9743611
-0.44351745 0.9747477 -0.63103384 -0.32393605 -2.9356177 -2.1544511 -1.7519342 -3.5198357
00000000: 2274 a5c0 0d60 c7bf 35d3 f7bf 3cd5 02bf
00000010: c391 983e ac1e 23c0 b2af 97bd eb8c 1bc0
00000020: 6ff3 35c0 0df2 15c0 1fb5 29bf b153 75c0
00000030: 9ccb 06bf 583d 43bf 8e95 cebe 4534 4bbf
00000040: f7cc 9cbf b54c 82c0 b599 eebf 76e6 a9bf
00000050: 06fa 20c0 2207 81c0 f18c 53bf bb6f 79bf
00000060: b814 e3be 1189 793f 6f8b 21bf f2da a5be
00000070: 29e1 3bc0 87e2 09c0 613f e0bf fd44 61c0

actor.4.weight f4 [32, 32]
3.0574574 -0.14316799 1.7860835 0.31002024 -2.1759212 2.1998892 -1.5132071 1.4795564
1.6322095 1.6265838 0.31089061 2.1876602 0.37647578 -0.70413125 0.6842798 -0.7726958
-2.321084 3.0160449 0.38399222 1.7964767 1.6004007 1.919097 -0.16739151 -0.58961594
-0.027294593 -1.5613825 0.3284089 -0.6794895 2.4744158 0.3277395 -0.05379585 1.158494
3.7056842 1.9033829 2.9046478 1.7335719 0.3199857 3.352036 2.82401 2.9151783
2.0890224 2.5779216 -0.050551713 3.1164412 2.1286542 -1.0181112 0.88993394 -0.090364024
-0.42592528 3.517805 3.2548404 2.4309933 1.5391104 2.9428747 0.81772494 -0.4642578
-1.5768322 -0.3325653 1.4270351 -0.83531475 3.5057564 1.4599015 0.5737936 3.522649
0.47531223 -0.20181356 -0.3996342 -0.42087227 -0.4652636 0.7511568 -0.8240631 0.28040123
-0.049845338 -1.0237323 0.7298911 -1.7127663 0.19613245 -0.44964188 0.030080196 -1.9110006
-1.0101014 0.56626165 -2.277205 -0.45183334 1.192862 0.7952103 0.77402824 1.8800154
2.7399244 -1.0938869 0.6603109 -0.25551838 -0.1416624 -1.0660983 -0.21780498 0.8773931
0.8763015 -1.3827493 1.8147042 1.2614082 0.19052207 0.30735654 0.4860802 1.0678893
0.96368825 1.098877 0.5301903 0.76011705 -0.5820957 -0.83390754 -1.9720622 -1.0941211
-0.46302214 1.1771675 -0.09820678 -0.5683178 0.44344684 0.6302344 0.0073560094 -0.33020768
-0.15152498 0.64034885 -1.3205186 -0.61168534 0.9402458 2.947395 1.8019645 0.96557486
1.9225111 -1.0484614 0.05671215 0.8808075 -0.6775667 0.25183555 -0.036323413 0.30495107
0.78563607 0.5365381 0.38564914 0.116534874 1.5425565 0.04403865 1.0048871 -2.1994298
-0.69649017 1.5884957 -1.1304582 -0.1368655 1.7414756 1.0799186 -0.37172967 0.82370967
1.5037676 -1.96613 0.3803183 0.20976949 -0.039274927 0.8535115 1.2221508 1.2575219
4.4037256 0.11812865 2.6137795 1.2341259 -1.3196806 3.6911867 0.2895719 3.562392
2.878617 2.3910089 0.2321705 2.2385194 0.8187306 -1.0043343 1.1699418 -1.5650406
-0.86693144 4.036126 1.2422727 1.9030638 2.9468415 3.2090428 0.56179 0.6082044
-0.30712256 0.45140764 -0.8067599 1.4406451 3.3346028 2.2042668 0.8883054 2.6687236
0.23949502 -0.53777814 -0.007472615 0.39626396 1.1610212 0.2720033 -0.81888825 0.35331395
0.5147741 -1.6788394 0.67817336 0.53208053 0.71281576 -0.645934 0.07245968 -1.1265587
-1.4449966 0.39800084 -1.0802065 -0.44638044 2.1109188 0.72926617 -1.1406025 1.5466903
2.0591514 -0.6454543 0.33922914 0.656173 -0.72443175 1.0209942 1.3223795 0.3434129
-0.31489614 -0.813869 -0.7929889 -2.318358 -0.14075205 -0.13560529 -0.5341561 -0.21484888
1.0008497 -0.32740298 -0.25928906 -0.3324203 -0.035944097 -0.7881173 1.0069435 -1.5013628
-1.6416936 -0.5836476 -0.57231003 0.23590563 0.5603471 0.1817293 -3.1005962 -0.913877
-0.15610029 0.61648846 -0.7108334 -1.1930131 -0.39255205 -0.5547868 0.602512 -0.15650135
00000000: 62ad 4340 a19a 12be 629e e43f f9ba 9e3e
00000010: 4b42 0bc0 fcca 0c40 c5b0 c1bf 1b62 bd3f
00000020: 3eec d03f e633 d03f 0e2d 9f3e a002 0c40
00000030: 6fc1 c03e f241 34bf f62c 2f3f 64cf 45bf
00000040: a48c 14c0 e106 4140 a19a c43e f3f2 e53f
00000050: eed9 cc3f f8a4 f53f ae68 2bbe 12f1 16bf
00000060: e998 dfbc 62db c7bf 3625 a83e 06f3 2dbf
00000070: d45c 1e40 79cd a73e 0a59 5cbd 8849 943f
00000080: ee29 6d40 0da2 f33f c0e5 3940 afe5 dd3f
00000090: 2ad5 a33e c287 5640 94bc 3440 4892 3a40
000000a0: 8bb2 0540 abfc 2440 500f 4fbd c673 4740
000000b0: df3b 0840 7851 82bf b6d2 633f c610 b9bd
000000c0: e112 dabe b823 6140 4e4f 5040 6595 1b40
000000d0: 9201 c53f 0f58 3c40 6c56 513f 33b3 edbe
000000e0: a3d5 c9bf 0046 aabe 16a9 b63f 30d7 55bf
000000f0: 505e 6040 0dde ba3f 23e4 123f 1573 6140
00000100: 205c f33e 37a8 4ebe db9c ccbe 927c d7be
00000110: 0837 eebe d04b 403f cdf5 52bf c090 8f3e
00000120: a02a 4cbd a909 83bf 25da 3a3f ed3b dbbf
00000130: f2d6 483e 7637 e6be be6a f63c ab9b f4bf
00000140: 014b 81bf 86f6 103f babd 11c0 b356 e7be
00000150: b4af 983f e792 4b3f b726 463f 58a4 f03f
00000160: ec5a 2f40 7c04 8cbf 230a 293f 4ed3 82be
00000170: f30f 11be e975 88bf 4508 5fbe d69c 603f
00000180: 4c55 603f eefd b0bf 3a48 e83f d375 a13f
00000190: 3818 433e d65d 9d3e 81df f83e 99b0 883f
000001a0: 46b4 763f 00a8 8c3f 8dba 073f 0897 423f
000001b0: 3904 15bf f77a 55bf 896c fcbf 290c 8cbf
000001c0: 3d11 edbe 6dad 963f a320 c9bd 467d 11bf
000001d0: 770b e33e 0b57 213f ae0a f13b fb10 a9be
000001e0: 5d29 1bbe e7ed 233f c106 a9bf 6997 1cbf
000001f0: f3b3 703f 1fa2 3c40 c6a6 e63f ea2f 773f
00000200: d814 f63f fc33 86bf 004b 683d 9a7c 613f
00000210: 0375 2dbf 97f0 803e dcc7 14bd 8c22 9c3e
00000220: 721f 493f 905a 093f ce73 c53e d6a9 ee3d
00000230: 7e72 c53f df61 343d 24a0 803f 75c3 0cc0
00000240: 2e4d 32bf d453 cb3f dbb2 90bf 7826 0cbe
00000250: ace8 de3f c63a 8a3f 5a53 bebe a3de 523f
00000260: 757b c03f 26aa fbbf 15b9 c23e d0cd 563e
00000270: bfde 20bd bb7f 5a3f 706f 9c3f 7af6 a03f
00000280: 52eb 8c40 6fed f13d 2a48 2740 d6f7 9d3f
00000290: 4beb a8bf 673c 6c40 c542 943e 3bfe 6340
000002a0: 433b 3840 4a06 1940 1bbe 6d3e e743 0f40
000002b0: 5498 513f 078e 80bf a7c0 953f 4053 c8bf
000002c0: 38ef 5dbf f227 8140 cb02 9f3f 9897 f33f
000002d0: 0d99 3c40 f560 4d40 78d1 0f3f 49b3 1b3f
000002e0: 2b3f 9dbe e71e e73e d187 4ebf 0f67 b83f
000002f0: 226a 5540 b512 0d40 fc67 633f 5ecc 2a40
00000300: 2f3e 753e d4ab 09bf d7dc f4bb 1ce3 ca3e
00000310: 589c 943f 0444 8b3e a9a2 51bf 91e5 b43e
00000320: 3cc8 033f 36e4 d6bf c59c 2d3f 6e36 083f
00000330: 187b 363f ee5b 25bf be65 943d 1333 90bf
00000340: a6f5 b8bf c4c6 cb3e 3544 8abf fa8b e4be
00000350: 4b19 0740 30b1 3a3f 43ff 91bf f3f9 c53f
00000360: 23c9 0340 7e3c 25bf 71af ad3e f4fa 273f
00000370: 5c74 39bf f0af 823f bb43 a93f d1d3 af3e
00000380: 113a a1be b859 50bf 5201 4bbf fa5f 14c0
00000390: 4e21 10be 1ddc 0abe 74be 08bf 5801 5cbe
000003a0: d81b 803f 5da1 a7be 89c1 84be fe32 aabe
000003b0: 1e3a 13bd 0ec2 49bf 86e3 803f a82c c0bf
000003c0: 0423 d2bf ee69 15bf e982 12bf 3f91 713e
000003d0: e872 0f3f 3f17 3a3e 2b70 46c0 d8f3 69bf
000003e0: c1d8 1fbe 30d2 1d3f 2df9 35bf a7b4 98bf
000003f0: 95fc c8be 8206 0ebf 3a3e 1a3f e441 20be

actor.4.bias f4 [32]
-4.0133576 -3.7146413 0.1468471 -0.14092289 -2.0322056 -5.065315 -0.7491214 0.88221717
0.92323995 0.37839407 -1.6598078 -0.0767661 -2.8711948 -3.3309228 0.084543966 -4.663405
0.5755356 -4.5705013 -5.5951 0.38991407 -2.9920173 -2.7368646 -3.343683 1.3898956
-1.3948917 -3.6150968 -3.5658736 -6.020747 -1.1491617 -2.2749035 -3.6474633 -4.5956674
00000000: 6d6d 80c0 afbc 6dc0 165f 163e 174e 10be
00000010: a80f 02c0 0f17 a2c0 6cc6 3fbf fcd8 613f
00000020: 7459 6c3f debc c13e 9574 d4bf 8c37 9dbd
00000030: a8c1 37c0 d72d 55c0 6325 ad3d 9d3a 95c0
00000040: 4d56 133f 8c41 92c0 0f0b b3c0 d1a2 c73e
00000050: 367d 3fc0 ca28 2fc0 e7fe 55c0 19e8 b13f
00000060: d08b b2bf bf5d 67c0 4637 64c0 f6a9 c0c0
00000070: bb17 93bf 0598 11c0 0a70 69c0 b50f 93c0

actor.6.weight f4 [4, 32]
-3.5067275 -2.8020067 2.9734693 1.6700213 0.7444722 -3.6566556 0.7672259 2.472456
4.708819 2.0723355 0.3876427 2.6363065 0.2432927 -4.5716586 3.1679165 -2.7508407
1.2379742 -0.2832335 -2.9093502 1.6226728 -0.79304177 -1.0609189 -3.0450885 4.707745
-2.6455195 -1.5746074 -1.0526818 -2.2271419 -2.9711885 1.76948 -1.2505872 -2.5448928
-4.2781696 -2.730476 2.6434505 1.8541168 -2.4599938 -5.166924 0.382297 2.17119
4.2429233 2.098677 -0.22199532 2.7281013 1.4161242 -4.855135 2.2048805 -3.7654886
0.71333647 -2.0065932 -3.5735092 2.0916064 -0.6215093 -1.8578165 -3.5084631 4.649637
-1.9837145 -2.1285057 -2.0504043 -2.0692499 -1.5658935 1.6606487 -2.5534716 -5.755407
-4.1579394 -1.598213 2.9714382 0.84343714 -1.7260677 -4.769176 0.81708413 2.8680499
4.1761146 2.8612454 1.503614 3.045633 -0.6987305 -2.9650488 2.7616506 -3.405987
0.6733414 -0.76512474 -3.8601155 1.4900057 -0.016487442 -0.50913686 -3.2577248 4.6875854
-1.6645395 -2.2273037 -3.5074203 -3.290203 -1.8149166 1.0082488 -0.18433718 -4.870428
-3.143794 0.46006358 1.0173546 1.660625 -0.3443403 1.0659842 -1.7323823 1.968291
4.6545367 3.1945715 3.1535153 4.057713 3.2164106 -2.6061568 3.5698292 -0.79314905
-0.8627984 0.6989803 -0.8420637 -1.8157674 1.731354 -0.054981984 -2.456588 5.418392
-1.0355132 -0.70450443 -0.05914746 2.0638316 -1.2471136 1.7503337 0.06227049 3.524665
00000000: 396e 60c0 1454 33c0 524d 3e40 42c3 d53f
00000010: bb95 3e3f a506 6ac0 eb68 443f b83c 1e40
00000020: a5ae 9640 25a1 0440 1b79 c63e 3fb9 2840
00000030: b921 793e 074b 92c0 25bf 4a40 c60d 30c0
00000040: f075 9e3f fb03 91be cb32 3ac0 beb3 cf3f
00000050: c904 4bbf 31cc 87bf bbe2 42c0 d9a5 9640
00000060: 3150 29c0 bc8c c9bf 47be 86bf 7e89 0ec0
00000070: f427 3ec0 527e e23f 3e13 a0bf 86df 22c0
00000080: c4e6 88c0 1ec0 2ec0 4b2e 2940 b353 ed3f
00000090: 8a70 1dc0 7157 a5c0 6fbc c33e c7f4 0a40
000000a0: 07c6 8740 b950 0640 be52 63be 3699 2e40
000000b0: 8f43 b53f 445d 9bc0 c31c 0d40 c4fd 70c0
000000c0: 389d 363f 066c 00c0 60b4 64c0 e1dc 0540
000000d0: 3c1b 1fbf eecc edbf a98a 60c0 d4c9 9440
000000e0: 5bea fdbf 7039 08c0 d339 03c0 976e 04c0
000000f0: 336f c8bf 2390 d43f 146c 23c0 4b2c b8c0
00000100: d70d 85c0 3e92 ccbf 0b2c 3e40 7feb 573f
00000110: c9ef dcbf 179d 98c0 6d2c 513f 218e 3740
00000120: bba2 8540 a51e 3740 6c76 c03f a7eb 4240
00000130: 01e0 32bf 5cc3 3dc0 e2be 3040 b1fb 59c0
00000140: 1a60 2c3f 37df 43bf 220c 77c0 82b8 be3f
00000150: ac10 87bc cb56 02bf 907e 50c0 b300 9640
00000160: a10f d5bf 258c 0ec0 9379 60c0 b092 52c0
00000170: 304f e8bf 4c0e 813f e3c2 3cbe 8cda 9bc0
00000180: ec33 49c0 748d eb3e ad38 823f 5c8f d43f
00000190: 5f4d b0be 2c72 883f b4be ddbf f6f0 fb3f
000001a0: f7f1 9440 dc73 4c40 32d3 4940 c9d8 8140
000001b0: acd9 4d40 46cb 26c0 1578 6440 d10b 4bbf
000001c0: 5be0 5cbf 5ff0 323f 7d91 57bf 116b e8bf
000001d0: 029d dd3f ca34 61bd bd38 1dc0 7863 ad40
000001e0: b28b 84bf 675a 34bf 9b44 72bd d115 0440
000001f0: 6ba1 9fbf ef0a e03f 570f 7f3d 1d94 6140

actor.6.bias f4 [4]
4.619905 6.2736673 5.257077 5.8990254
00000000: 43d6 9340 e2c1 c840 fa39 a840 d1c4 bc40

critic.0.weight f4 [32, 180]
-0.10310303 -0.92034876 -1.4422498 -0.69149697 -0.49906716 -0.2477965 -0.15564269 -0.7560392
-0.13211945 2.2457156 -0.36833286 -0.7775081 -0.7332608 -1.2640507 -0.6727537 -0.07241941
0.23734517 -0.34633985 -1.0887631 -0.92021704 -0.6920876 -0.49932805 -0.13715696 0.33432573
1.7045845 1.5195272 2.115827 1.8050547 4.4072394 4.4435425 -5.0050964 -2.5834022
-2.9472752 -2.7953913 -4.89523 -4.1627884 -4.0733433 -3.4587312 -5.6419244 -5.016779
-28.944134 -35.498768 -30.891481 -24.472378 -27.686396 -32.659306 -28.148315 -26.600088
-32.64788 -34.568375 2.6407754 2.5754044 1.5638413 3.163038 1.4089756 1.3279576
-0.41155273 1.4936298 1.2257718 0.52024823 2.357441 4.7386193 3.8778365 4.2613387
2.77783 2.0271041 1.2461703 1.9272709 2.0437462 1.172787 2.435885 2.782309
3.0906286 2.684347 1.8043542 1.5626297 1.946229 1.5831759 1.3293154 0.18215515
1.190803 0.99404764 1.7571964 3.8338668 0.703831 0.76526684 1.2764455 1.5877663
1.2675335 0.57917607 1.6868536 1.420668 1.1028166 3.7466283 1.0079257 1.0940082
0.8957934 0.19670661 1.8777788 -0.26364893 0.7029499 0.4871665 0.6858397 2.5808914
0.15311536 0.6970165 0.77892363 0.9186478 0.47166792 -0.3884508 1.4404681 1.0258416
0.28339773 1.9915266 0.21156552 1.470747 0.5620262 0.44800666 0.93489707 -0.018071754
0.6671457 1.2907125 0.4654182 0.15176603 0.3003096 0.6424071 0.23456094 0.13725568
0.3554918 0.26989186 0.364323 1.552181 -0.12054795 1.0518585 1.210534 -0.02262766
-0.20987792 0.14408325 0.35152495 0.7520931 0.70300275 0.9143071 0.65009266 0.33647507
-0.07196797 0.14927283 -0.34225664 -1.0106077 1.6646003 0.024216048 0.096033506 0.16275515
0.37426245 -0.44770575 0.40539804 0.04614526 0.0067941006 0.31215632 0.33659002 0.91576296
0.0753554 -0.1643962 -1.3713965 -1.3389764 -1.292844 -1.2318344 -1.115206 -1.0597609
-0.7053587 -1.8504705 -1.8136737 -1.819537 -1.8908081 -1.8116 -1.6131854 -1.5040213
2.1292338 3.0411725 2.5901923 2.3593295 1.0986011 -0.013965075 0.068776794 -1.0167629
1.7095128 1.4060993 1.1092656 -0.23444165 -0.082740575 3.4712055 -2.2841299 -1.1174408
-1.7735784 -1.1091142 -1.4137005 -0.3190097 1.1174728 0.5565076 0.9425932 1.4608803
1.6480466 -0.29033396 0.9134537 -0.33361742 -1.3727765 -1.2195077 -1.5641972 -1.2537299
-1.3110455 -2.6470022 1.0727898 -0.34985405 -0.2210267 0.5218434 -2.62057 -1.7965167
-0.97653514 -1.4065541 -0.69600415 -1.2713768 0.38220823 0.41574097 1.2013552 0.43565407
-1.2722416 -2.929355 -0.6372155 -1.3741497 -0.8761842 0.7653254 -0.97981113 0.81157047
1.8888478 -2.4320157 -2.8212378 2.1027653 -0.9704529 1.7628675 2.0572424 1.3676072
1.0287589 2.823513 3.7093399 -1.7667507 1.3648812 0.76197845 2.5908897 1.3476827
2.3767679 0.9684517 -0.39667606 0.28319266 0.965678 -1.9056529 -1.4998544 0.49229163
00000000: ae27 d3bd fa9b 6bbf a49b b8bf f205 31bf
00000010: bb85 ffbe 5ebe 7dbe cc60 1fbe c98b 41bf
00000020: 524a 07be ceb9 0f40 2096 bcbe c50a 47bf
00000030: fbb6 3bbf 6acc a1bf 9639 2cbf a150 94bd
00000040: 9d0a 733e 7553 b1be 975c 8bbf 5893 6bbf
00000050: a72c 31bf eda7 ffbe e072 0cbe be2c ab3e
00000060: d32f da3f de7f c23f b669 0740 080c e73f
00000070: 1b08 8d40 8031 8e40 c029 a0c0 7656 25c0
00000080: 28a0 3cc0 b1e7 32c0 b9a5 9cc0 9035 85c0
00000090: d458 82c0 da5b 5dc0 a58a b4c0 7489 a0c0
000000a0: 968d e7c1 bdfe 0dc2 c121 f7c1 6ec7 c3c1
000000b0: bd7d ddc1 21a3 02c2 c02f e1c1 fbcc d4c1
000000c0: 6e97 02c2 0446 0ac2 7702 2940 6dd3 2440
000000d0: f42b c83f 376f 4a40 5059 b43f 84fa a93f
000000e0: 0ab7 d2be 432f bf3f 17e6 9c3f fd2e 053f
000000f0: 50e0 1640 c5a2 9740 792e 7840 e35c 8840
00000100: f7c7 3140 13bc 0140 8282 9f3f d0b0 f63f
00000110: bdcc 0240 e21d 963f 8ae5 1b40 5a11 3240
00000120: dccc 4540 57cc 2b40 14f5 e63f 4004 c83f
00000130: 081e f93f 82a5 ca3f 0227 aa3f e186 3a3e
00000140: 3c6c 983f e879 7e3f d0eb e03f 135e 7540
00000150: 452e 343f 87e8 433f 9162 a33f ed3b cb3f
00000160: 8a3e a23f e244 143f d2ea d73f 73d8 b53f
00000170: 1829 8d3f c2c8 6f40 b603 813f 7608 8c3f
00000180: b752 653f 756d 493e 0e5b f03f fefc 86be
00000190: 86f4 333f e36d f93e 3193 2f3f 532d 2540
000001a0: 46ca 1c3e ac6f 323f 8a67 473f 812c 6b3f
000001b0: 757e f13e 06e3 c6be 4261 b83f c74e 833f
000001c0: 8219 913e 58ea fe3f a2a4 583e 7041 bc3f
000001d0: f3e0 0f3f 2161 e53e 6a55 6f3f 370b 94bc
000001e0: 10ca 2a3f 1136 a53f 4b4b ee3e 8e68 1b3e
000001f0: 2ec2 993e cb74 243f be30 703e c18c 0c3e
00000200: 0503 b63e 442f 8a3e 8b88 ba3e dead c63f
00000210: d8e1 f6bd 4da3 863f c7f2 9a3f a45d b9bc
00000220: 3dea 56be 8f8a 133e 14fb b33e 2c89 403f
00000230: fdf7 333f 0810 6a3f 796c 263f 7646 ac3e
00000240: f163 93bd fada 183e 433c afbe 985b 81bf
00000250: 9f11 d53f bc60 c63c 37ad c43d 49a9 263e
00000260: 549f bf3e b039 e5be 5590 cf3e d002 3d3d
00000270: 0ca1 de3b f4d2 9f3e 8755 ac3e 716f 6a3f
00000280: ef53 9a3d 7a57 28be ec89 afbf 9463 abbf
00000290: ea7b a5bf c0ac 9dbf 12bf 8ebf 3fa6 87bf
000002a0: 6392 34bf 38dc ecbf 7626 e8bf 97e6 e8bf
000002b0: 0006 f2bf 82e2 e7bf dc7c cebf c583 c0bf
000002c0: 5e45 0840 92a2 4240 b6c5 2540 41ff 1640
000002d0: f69e 8c3f c5cd 64bc d9da 8c3d 4925 82bf
000002e0: 51d1 da3f 10fb b33f 6afc 8d3f 7911 70be
000002f0: e473 a9bd 3b28 5e40 2f2f 12c0 4d08 8fbf
00000300: 9e04 e3bf 74f7 8dbf 23f4 b4bf 3d55 a3be
00000310: 5909 8f3f 4877 0e3f ca4d 713f 20fe ba3f
00000320: 31f3 d23f a7a6 94be 1ad8 693f e7cf aabe
00000330: 24b7 afbf d418 9cbf 9d37 c8bf 397a a0bf
00000340: 57d0 a7bf 7c68 29c0 2d51 893f 1220 b3be
00000350: d354 62be 8797 053f 6bb7 27c0 42f4 e5bf
00000360: 35fe 79bf f709 b4bf 542d 32bf 7abc a2bf
00000370: ccb0 c33e 00dc d43e 02c6 993f 0d0e df3e
00000380: d0d8 a2bf 8d7a 3bc0 8e20 23bf 23e4 afbf
00000390: 9c4d 60bf 5eec 433f e7d4 7abf 15c3 4f3f
000003a0: c4c5 f13f 25a6 1bc0 298f 34c0 b593 0640
000003b0: 9a6f 78bf a4a5 e13f dca9 0340 c10d af3f
000003c0: 5fae 833f 70b4 3440 d365 6d40 e324 e2bf
000003d0: 6db4 ae3f 0511 433f 23d1 2540 de80 ac3f
000003e0: f71c 1840 73ec 773f 2019 cbbe a1fe 903e
000003f0: ac36 773f 6fec f3bf 3bfb bfbf a60d fc3e

critic.0.bias f4 [32]
1.2848682 -2.9045732 -10.186805 0.4607641 -8.671138 -2.030412 -3.640436 -9.710922
-1.6382909 -1.575147 -0.9818052 -11.546112 -1.282867 -1.586465 -6.717063 0.6924539
-7.7584624 -1.9364578 -0.89975804 -7.9395657 -13.852779 -1.0122308 2.0445328 -12.028275
-3.5344129 -10.376835 2.3623247 -0.4938708 -2.577694 -1.7015114 0.08381608 -2.6265986
00000000: 9076 a43f 87e4 39c0 27fd 22c1 46e9 eb3e
00000010: fbbc 0ac1 45f2 01c0 e7fc 68c0 f05f 1bc1
00000020: 84b3 d1bf 6b9e c9bf 9657 7bbf e0bc 38c1
00000030: fc34 a4bf 4911 cbbf 2ef2 d6c0 a944 313f
00000040: 5345 f8c0 d9dd f7bf 8b56 66bf ec10 fec0
00000050: fca4 5dc1 c790 81bf a0d9 0240 d073 40c1
00000060: d233 62c0 8407 26c1 5430 1740 a2dc fcbe
00000070: f0f8 24c0 20cb d9bf c4a7 ab3d 311a 28c0

critic.2.weight f4 [32, 32]
0.3949913 -1.4752799 0.59766716 -0.38890776 0.958802 -1.587699 0.9578474 0.12672271
0.17436089 -0.82200205 -0.24710587 0.20051569 1.198557 -0.498736 -0.33021373 0.3269804
1.1066642 0.46277532 -0.6274076 0.9040595 0.22929673 -0.10520438 0.42831084 -0.054744985
-0.049393635 0.50297487 0.03808616 -0.6515644 -0.85075957 -1.0313135 0.585529 1.203669
0.8236535 -1.9765384 2.2472937 0.99576193 1.5094594 1.725301 1.1593443 3.0185614
-1.6756557 0.27375314 1.2580638 2.4064217 -0.43219507 0.4381142 0.6843606 -1.1371486
2.5495265 -0.046602175 2.5610042 1.3598832 2.365147 0.47665602 -0.8580592 3.089756
1.448022 1.4112805 1.5560249 -0.7544488 -0.8296455 -0.53555745 -0.8655941 0.13645977
-2.8095803 4.5774274 1.6957934 0.4815642 2.0371547 0.04203617 1.2943112 1.2120063
1.0236405 -0.51242626 -6.3099866 1.2068474 4.834301 -3.9013624 2.142735 -1.7695299
0.18076572 0.1440596 -0.13979757 2.6298368 1.6935327 2.2032146 -0.40036362 0.06074961
2.223359 3.1439867 0.7053448 -1.0308344 1.0976864 3.7562594 0.90881395 0.07159382
-4.054366 0.4230412 2.6095018 -4.995935 3.6212702 3.0718358 -3.640712 2.5234656
-0.5978605 -1.3247955 7.3715625 3.4430666 2.8657 3.8082328 1.6098067 -1.6570177
-0.22043897 1.5446607 -1.8920147 2.9363558 3.6923318 -0.61630446 -2.191634 3.198143
0.7398778 2.989437 0.5137932 -0.54335773 2.0604026 0.61932445 -6.7931 4.2406273
-2.5777085 -0.11839735 2.5754626 2.4475682 2.4845788 3.1171358 -1.2421048 2.7875438
0.42104954 0.25839344 0.6188359 2.33368 1.8916973 1.1678746 1.8248569 -5.3014917
2.2058663 0.37934545 2.5034547 4.0655136 1.9012815 4.5687914 -1.2473158 2.173551
2.3527572 2.4226482 2.6054149 -0.74983466 0.2030939 -0.8484618 -1.2503077 1.9458892
0.54237807 -0.58653575 2.8172562 0.72100914 0.825307 2.6003182 2.3284564 0.9356242
1.546034 1.3355002 0.54405355 1.2675358 1.2017814 0.5788085 0.9819512 0.054268446
1.0051125 1.8206488 1.2590573 1.8172168 1.2360154 0.32404944 -0.5099712 1.4614222
2.530846 0.8218363 1.2339859 1.6715274 -0.1845541 1.4549364 -0.78074074 0.64212483
-0.5391702 -3.4372478 2.2978659 -0.9728275 2.6774058 -0.16781935 1.9783888 1.6113075
-4.0641503 -6.837353 -0.28785577 2.0052247 -6.2762814 -0.44007185 0.23466326 1.9423405
2.0238113 -4.2879333 -0.5616835 1.2986329 2.1103897 -0.82710725 2.1879156 0.8063654
0.6302811 1.6036218 -2.5688918 -3.7797577 -2.4809818 -2.854797 1.841494 -1.2826661
-2.473502 0.37487787 2.3623204 -1.156793 1.2081386 -3.9886034 1.2226768 1.6980404
1.6568809 -0.30018768 -2.5355487 1.7462801 1.9073671 -4.723729 0.71115804 -1.4752226
2.4427102 0.5726077 0.72573 1.8330086 2.310818 2.8071742 -1.3831058 1.7035812
0.4898324 3.1981807 -0.31668958 -3.17656 -1.0841367 -0.9336742 0.00837869 -0.15119569
00000000: 4d3c ca3e f9d5 bcbf b700 193f eb1e c7be
00000010: 0c74 753f b939 cbbf 7d35 753f 99c3 013e
00000020: a98b 323e ba6e 52bf 5209 7dbe fc53 4d3e
00000030: 516a 993f 535a ffbe c611 a9be fa69 a73e
00000040: 2ca7 8d3f e3f0 ec3e c99d 20bf 7270 673f
00000050: c3cc 6a3e 6575 d7bd 8f4b db3e 473c 60bd
00000060: fb50 4abd f6c2 003f 3c00 1c3d edcc 26bf
00000070: 61cb 59bf 1502 84bf 3be5 153f d311 9a3f
00000080: f5da 523f 36ff fcbf a9d3 0f40 41ea 7e3f
00000090: f735 c13f aad6 dc3f 6565 943f 1c30 4140
000000a0: e37b d6bf 5f29 8c3e 3c08 a13f d002 1a40
000000b0: ac48 ddbe 8150 e03e 4232 2f3f 168e 91bf
000000c0: 712b 2340 ece1 3ebd 7ee7 2340 a710 ae3f
000000d0: 925e 1740 420c f43e c5a9 5bbf 90be 4540
000000e0: c958 b93f d7a4 b43f d32b c73f 8e23 41bf
000000f0: a663 54bf 4b1a 09bf 9397 5dbf 1cbc 0b3e
00000100: 2ad0 33c0 497a 9240 c20f d93f 958f f63e
00000110: be60 0240 1e2e 2c3d fdab a53f 0623 9b3f
00000120: a706 833f 5e2e 03bf 69eb c9c0 fa79 9a3f
00000130: 98b2 9a40 ecaf 79c0 9222 0940 f57f e2bf
00000140: a61a 393e 5c84 133e 1827 0fbe 3f4f 2840
00000150: aec5 d83f 7801 0d40 76fc ccbe 95d4 783d
00000160: 844b 0e40 1437 4940 7a91 343f 62f2 83bf
00000170: fd80 8c3f 8e66 7040 08a8 683f c89f 923d
00000180: 5ebd 81c0 db98 d83e 1402 2740 b3de 9fc0
00000190: e4c2 6740 f598 4440 6d01 69c0 7680 2140
000001a0: 630d 19bf e692 a9bf d7e3 eb40 345b 5c40
000001b0: a167 3740 16ba 7340 250e ce3f 2819 d4bf
000001c0: c1ba 61be 71b7 c53f 8a2d f2bf 41ed 3b40
000001d0: 2a4f 6c40 21c6 1dbf bb43 0cc0 60ae 4c40
000001e0: a268 3d3f f052 3f40 f387 033f 7e19 0bbf
000001f0: a3dd 0340 0c8c 1e3f 1361 d9c0 38b3 8740
00000200: 2df9 24c0 4f7a f2bd 61d4 2440 f5a4 1c40
00000210: 5703 1f40 277f 4740 4afd 9ebf 1e67 3240
00000220: ce93 d73e 254c 843e 086c 1e3f 035b 1540
00000230: 2323 f23f ea7c 953f e994 e93f d2a5 a9c0
00000240: ea2c 0d40 9139 c23e 9a38 2040 b018 8240
00000250: 315d f33f 8a33 9240 0ba8 9fbf 761b 0b40
00000260: 9393 1640 ab0c 1b40 1ebf 2640 2af5 3fbf
00000270: d9f7 4f3e cb34 59bf 150a a0bf e612 f93f
00000280: 4ad9 0a3f 3527 16bf ed4d 3440 0e94 383f
00000290: 5247 533f 9d6b 2640 6e05 1540 1185 6f3f
000002a0: 71e4 c53f acf1 aa3f 1847 0b3f 9d3e a23f
000002b0: f9d3 993f cb2c 143f 2761 7b3f 9748 5e3d
000002c0: 87a7 803f 050b e93f ca28 a13f 8f9a e83f
000002d0: c135 9e3f cfe9 a53e 798d 02bf e20f bb3f
000002e0: 62f9 2140 dd63 523f 40f3 9d3f 9cf4 d53f
000002f0: c0fb 3cbe 5b3b ba3f a0de 47bf 4b62 243f
00000300: 0f07 0abf defb 5bc0 3c10 1340 390b 79bf
00000310: 9e5a 2b40 d6d8 2bbe d83b fd3f 533f ce3f
00000320: 850d 82c0 99cb dac0 d561 93be 9a55 0040
00000330: 4cd7 c8c0 1951 e1be 914b 703e 9d9e f83f
00000340: 2086 0140 c036 89c0 7dca 0fbf 9a39 a63f
00000350: a010 0740 4dbd 53bf cf06 0c40 f66d 4e3f
00000360: 1a5a 213f 7b43 cd3f b968 24c0 8de7 71c0
00000370: 68c8 1ec0 feb4 36c0 13b6 eb3f 672e a4bf
00000380: db4d 1ec0 feef bf3e 4230 1740 cb11 94bf
00000390: 49a4 9a3f 4745 7fc0 ac80 9c3f 6359 d93f
000003a0: ac14 d43f 33b2 99be 6e46 22c0 1b86 df3f
000003b0: 9b24 f43f ca28 97c0 740e 363f 18d4 bcbf
000003c0: 5d55 1c40 6b96 123f 71c9 393f 07a0 ea3f
000003d0: 71e4 1340 bea8 3340 9c09 b1bf f30e da3f
000003e0: 50cb fa3e feae 4c40 2325 a2be c24c 4bc0
000003f0: fec4 8abf 4605 6fbf c646 093c 0bd3 1abe

critic.2.bias f4 [32]
0.56982535 -4.343668 0.99193203 -4.8261228 -2.4583793 -1.5498232 -4.3941774 -0.37351146
-4.9253473 -9.2548685 -6.4466023 -4.3217235 -3.430438 -4.458602 -6.36056 -6.269267
-3.410682 -2.7350385 -4.1658444 -4.0944514 -3.3662927 -2.972507 -5.591878 -4.158758
-0.5083646 -5.0049486 -4.4326367 -4.78021 2.021447 -6.2071486 -5.8949895 -3.3915665
00000000: 13e0 113f 54ff 8ac0 42ef 7d3f 996f 9ac0
00000010: 1656 1dc0 9b60 c6bf 1a9d 8cc0 e53c bfbe
00000020: 729c 9dc0 f113 14c1 914a cec0 8f4b 8ac0
00000030: 4c8c 5bc0 deac 8ec0 b589 cbc0 d69d c8c0
00000040: 9d48 5ac0 df0a 2fc0 994e 85c0 bf05 83c0
00000050: 5771 57c0 8e3d 3ec0 aaf0 b2c0 8c14 85c0
00000060: 2f24 02bf 8a28 a0c0 29d8 8dc0 7bf7 98c0
00000070: 635f 0140 f6a0 c6c0 c1a3 bcc0 6d0f 59c0

critic.4.weight f4 [32, 32]
1.5096852 -0.00702751 0.45705807 0.17127989 0.03535087 -0.6258383 -0.5146288 0.45737436
-0.11634523 0.030258229 -0.4219677 0.32806185 0.6257189 -0.19819029 0.08510633 0.11351275
-0.74955237 0.29845396 2.5445347 0.7952729 -0.094974376 -0.05294295 0.81854963 0.69086134
-0.16877475 0.38527027 -0.6405665 -0.02761326 0.110561766 0.69841653 0.11699491 -0.71737444
0.69834876 0.4148737 0.50214946 -1.0175072 -1.0756663 -0.35822663 -2.1262112 -0.29149234
0.38138705 -0.17518732 -0.8019825 -0.06873595 0.07364709 0.29708079 -0.20029378 0.9833024
0.105021164 0.5128176 -0.2025309 -0.24883223 0.19896488 0.76893157 0.96957517 0.26754567
0.3124606 0.6450677 -0.6830294 -0.16772321 0.41891226 -0.059307277 0.5126197 0.47424662
-0.3126418 -0.26541787 0.76379865 -0.6062647 0.07127526 -0.07002944 0.73142517 0.7998683
-0.36565524 0.23916215 0.7703036 -0.87358344 0.2901236 -0.88770056 -0.64296603 -1.5133079
-0.12660179 -0.10088575 2.9064486 0.72870433 -0.21823499 -0.19652033 0.13860556 0.0743099
0.1703344 0.16792035 -0.7353339 -1.5640538 -0.41631433 -0.7949044 -1.0233085 0.91121113
-0.791177 0.7233908 2.5312757 0.6455663 1.64809 0.04984593 -0.42114228 2.4235377
1.8624517 -1.1029001 0.6331255 -0.2314942 2.241936 1.393145 1.4165072 1.9644262
-0.21123652 0.24604186 1.4545976 -1.6862423 2.0451665 2.3585835 2.6306865 1.2782514
1.4321688 2.1674201 1.5443621 2.2983842 -0.9287409 2.232812 0.28270108 0.0020513204
6.2865553 6.644228 3.0245852 5.9725804 9.126318 3.9961784 1.0891563 0.3725204
4.399538 7.499783 7.721782 1.2037967 7.948736 3.5927498 6.7967734 -2.66615
3.9103768 3.477459 3.387084 3.532423 -0.27529782 4.73759 8.200202 9.497441
4.060771 7.498054 8.921756 4.4891176 3.3877068 7.161736 6.0715013 6.175307
0.6233786 0.22831252 -0.56697303 -0.7112069 -0.024918457 -0.38644117 0.49053928 2.3073018
0.9349136 0.55482733 -0.5701241 0.85303634 0.10453644 1.3342625 -0.15881568 1.1904279
0.029135326 0.29786587 1.0319123 -0.1228135 1.2271533 0.8789366 1.4356633 -0.2046272
0.18530516 0.23359998 -0.38366267 1.3510783 0.7289527 0.82194823 0.2333446 0.27289417
-0.5762254 1.2593755 0.40934372 0.4662635 1.9475543 -0.27609926 -0.009316278 1.6801337
1.3757703 0.5200713 -0.7114458 0.39191392 1.947328 2.4059153 0.46409178 1.576491
-0.55454767 0.6035433 1.3015115 -0.79683995 1.1316797 1.9582744 1.3882424 0.92321604
0.93789786 1.7249048 0.5727283 2.3565218 -0.7380802 1.5334463 0.5530025 0.4342983
0.646482 -1.7581075 -0.56011844 0.22448957 -0.48158076 0.07441998 -0.61691046 0.54326195
0.85991293 -0.06175297 -0.47430867 0.56036216 0.5611243 1.0400325 -0.44093955 0.025258424
-0.9289062 0.123601176 -0.5387862 -0.26662475 0.35204923 0.15391387 0.6373575 0.026267048
0.57395005 -0.304328 -0.53322625 0.7067184 0.16452241 -0.7810816 1.8047674 0.7140667
00000000: 5d3d c13f 0747 e6bb 8403 ea3e ff63 2f3e
00000010: 13cc 103d f036 20bf b7be 03bf f92c ea3e
00000020: 6846 eebd 1be0 f73c 260c d8be b9f7 a73e
00000030: 1d2f 203f 65f2 4abe 3a4c ae3d 5f79 e83d
00000040: aae2 3fbf f5ce 983e a8d9 2240 0197 4b3f
00000050: ed81 c2bd b5da 58bd 788c 513f 4adc 303f
00000060: 4ad3 2cbe 2542 c53e 2bfc 23bf 3435 e2bc
00000070: 356e e23d 6dcb 323f 079b ef3d daa5 37bf
00000080: fcc6 323f 536a d43e de8c 003f ad3d 82bf
00000090: 6faf 89bf 7b69 b7be d813 08c0 7c3e 95be
000000a0: 2a45 c33e 4e64 33be ba4e 4dbf 6fc5 8cbd
000000b0: 49d4 963d f91a 983e d019 4dbe b5b9 7b3f
000000c0: 5615 d73d 0448 033f 4364 4fbe e0cd 7ebe
000000d0: 73bd 4b3e b3d8 443f 1436 783f bffb 883e
000000e0: d6fa 9f3e 2823 253f 04db 2ebf a2bf 2bbe
000000f0: ab7b d63e 30ec 72bd 0b3b 033f 74d0 f23e
00000100: 9612 a0be dae4 87be 4f88 433f 2a34 1bbf
00000110: c3f8 913d 986b 8fbd ae3e 3b3f 2bc4 4c3f
00000120: 2a37 bbbe ece6 743e 9e32 453f 2aa3 5fbf
00000130: 158b 943e 5840 63bf 6c99 24bf 13b4 c1bf
00000140: e6a3 01be 309d cebd 4103 3a40 5e8c 3a3f
00000150: fe78 5fbe a03c 49be 9eee 0d3e ca2f 983d
00000160: 246c 2e3e 50f3 2b3e d83e 3cbf ea32 c8bf
00000170: 2727 d5be db7e 4bbf c6fb 82bf 2245 693f
00000180: 938a 4abf 2430 393f 6c00 2240 d543 253f
00000190: 9df4 d23f 3f2b 4c3d f69f d7be 3e1b 1b40
000001a0: d164 ee3f d52b 8dbf 8314 223f d10c 6dbe
000001b0: e17b 0f40 9352 b23f 1c50 b53f 5172 fb3f
000001c0: 634e 58be 66f2 7b3e 4130 ba3f cad6 d7bf
000001d0: 02e4 0240 08f3 1640 2b5d 2840 be9d a33f
000001e0: 4f51 b73f 03b7 0a40 a8ad c53f ba18 1340
000001f0: f7c1 6dbf 64e6 0e40 32be 903e 726f 063b
00000200: 762b c940 849d d440 ce92 4140 611f bf40
00000210: 6605 1241 63c1 7f40 7969 8b3f feba be3e
00000220: 04c9 8c40 39fe ef40 d718 f740 0316 9a3f
00000230: 0c5c fe40 9def 6540 2b7f d940 34a2 2ac0
00000240: 9d43 7a40 b08e 5e40 fcc5 5840 3813 6240
00000250: d6f3 8cbe 569a 9740 0734 0341 85f5 1741
00000260: d6f1 8140 0ff0 ef40 83bf 0e41 daa6 8f40
00000270: 30d0 5840 f12c e540 bd49 c240 1d9c c540
00000280: bd95 1f3f c2ca 693e 2525 11bf a811 36bf
00000290: cb21 ccbc 9edb c5be f727 fb3e d5aa 1340
000002a0: 7f56 6f3f 2a09 0e3f a7f3 11bf 9760 5a3f
000002b0: 3317 d63d 1dc9 aa3f 94a0 22be f15f 983f
000002c0: 35ad ee3c e081 983e b415 843f a585 fbbd
000002d0: 5c13 9d3f fd01 613f d1c3 b73f cb89 51be
000002e0: a3c0 3d3e d534 6f3e 6f6f c4be 22f0 ac3f
000002f0: a59c 3a3f 336b 523f e3f1 6e3e c9b8 8b3e
00000300: 8283 13bf 3733 a13f 8095 d13e 17ba ee3e
00000310: 7649 f93f e25c 8dbe 4da3 18bc 9f0e d73f
00000320: 3e19 b03f 6523 053f 5021 36bf f1a8 c83e
00000330: 0b42 f93f 84fa 1940 709d ed3e 75ca c93f
00000340: d6f6 0dbf d081 1a3f ee97 a63f b4fd 4bbf
00000350: e1da 903f bca8 fa3f edb1 b13f e357 6c3f
00000360: 131a 703f aec9 dc3f 529e 123f 41d1 1640
00000370: d3f2 3cbf f847 c43f 9291 0d3f 595c de3e
00000380: d87f 253f ab09 e1bf ec63 0fbf 98e0 653e
00000390: c191 f6be 8169 983d d8ed 1dbf 3713 0b3f
000003a0: 4123 5c3f aff0 7cbd 96d8 f2be e573 0f3f
000003b0: d8a5 0f3f c91f 853f d4c2 e1be c1ea ce3c
000003c0: cccc 6dbf 9d22 fd3d e4ed 09bf 0a83 88be
000003d0: cc3f b43e 999b 1d3e dc29 233f fe2d d73c
000003e0: 64ee 123f e1d0 9bbe 8481 08bf 7feb 343f
000003f0: 9078 283e f7f4 47bf 9e02 e73f 13cd 363f

critic.4.bias f4 [32]
3.1991324 2.1344662 2.0822263 3.961496 -9.9261055 0.7024562 1.6643499 2.6573975
0.6756327 0.9734042 4.258188 0.7756692 1.4073747 2.5395553 1.8886943 2.4876497
3.2365203 2.2304542 2.02805 5.2904463 1.879916 -0.11159291 3.1303496 2.9925113
1.3841921 5.6273003 1.4108537 -0.09015921 2.2906375 2.9659345 1.0017258 5.967648
00000000: 96be 4c40 189b 0840 3243 0540 2789 7d40
00000010: 54d1 1ec1 2bd4 333f 6b09 d53f cd12 2a40
00000020: 44f6 2c3f 0531 793f 1343 8840 4292 463f
00000030: db24 b43f 1388 2240 bcc0 f13f a735 1f40
00000040: 2623 4f40 c3bf 0e40 92cb 0140 564b a940
00000050: 16a1 f03f d38a e4bd a657 4840 4e85 3f40
00000060: 352d b13f d812 b440 db96 b43f 64a5 b8bd
00000070: ce99 1240 dfd1 3d40 8d38 803f f9f6 be40

critic.6.weight f4 [1, 32]
-0.004584639 0.022868806 -0.05937672 0.6362005 -0.040833253 -0.037964616 0.42798486 -0.033148665
0.008195566 0.557684 0.012381623 -0.03424692 0.050514173 0.10391165 0.02598471 -0.05310115
-0.050989524 0.1041407 0.15997571 0.15300266 -0.011778223 -0.05104174 -0.16781929 -0.026307784
-0.0071291644 0.28582662 0.3988455 -0.11764095 0.9138226 -0.1780937 0.01730608 0.13180816
00000000: bd3a 96bb 5d57 bb3c 0135 73bd 09de 223f
00000010: c540 27bd c980 1bbd d520 db3e e5c6 07bd
00000020: b246 063c 61c4 0e3f 4adc 4a3c 8046 0cbd
00000030: f3e7 4e3d a2cf d43d e3dd d43c 9780 59bd
00000040: 64da 50bd b847 d53d acd0 233e bbac 1c3e
00000050: 73f9 40bc 2511 51bd d2d8 2bbe 6c83 d7bc
00000060: c49b e9bb de57 923e 7a35 cc3e bded f0bd
00000070: 47f0 693f 325e 36be 7bc5 8d3c b8f8 063e
