models/model.ckpt-262264.pth (torch, 70223 bytes, 15 tensors)

actor.0.weight f4 [32, 180]
000000 57 69 c6 c0 b7 5c fe bf d3 a5 cb 3f 93 a3 ff 3f
       -6.200359 -1.9872044 1.590998 1.9971794
000010 44 06 4e 3f a4 a0 13 40 f4 f4 17 40 0e a1 b8 3f
       0.8047831 2.3066797 2.3743258 1.442415
000020 d0 36 1e c0 1f 7e 0f c1 e2 08 36 c1 a1 81 3d c0
       -2.4720955 -8.968291 -11.377169 -2.961037
000030 3d 93 1e bf e6 14 ef 3f b9 d7 9f 40 11 c3 dc 3f
       -0.6194342 1.8678253 4.9950833 1.724703
000040 87 1b ae 3f 97 14 5c 3f 3f e2 97 c0 0b b8 84 c1
       1.3602151 0.8596892 -4.746368 -16.589865
000050 ef 94 3d c0 0a 30 f9 be d4 04 8c 3f 23 a1 1d c0
       -2.9622152 -0.48669463 1.0938973 -2.46296
000060 29 a6 d9 3f 27 fd fc be 30 5f 86 3f cb eb 09 40
       1.7003833 -0.4941189 1.0497799 2.1550167
000070 1e 4b 89 bc a3 c5 b4 c0 ed 34 ea bf c1 79 89 3f
       -0.016759451 -5.6491256 -1.8297402 1.0740281
000080 28 32 b3 3e 0f 22 8f bf 75 58 23 bf 87 1a 14 bd
       0.34999204 -1.1182269 -0.6380685 -0.03615811
000090 88 2c 37 bf d5 bd 15 bf 91 67 a9 3e a6 07 9b bf
       -0.71552324 -0.58492786 0.33086827 -1.2111709
0000a0 99 d3 c8 bf c1 b4 91 bf a8 cf 57 bf de 12 18 bf
       -1.5689574 -1.1383287 -0.84301233 -0.5940379
0000b0 8a f9 be bf 04 91 0c c0 5a 01 f7 bf 84 c7 9e 3f
       -1.4919903 -2.196351 -1.9297287 1.2404637
0000c0 d7 d7 db 3e 26 2d 1b be 00 b4 33 be fe ef ba bd
       0.4293811 -0.15153942 -0.17549133 -0.09127806
0000d0 b2 05 d7 bf 17 85 fc bd 65 7e 9d be 6e 53 6f bf
       -1.6798613 -0.123300724 -0.30760494 -0.9348668
0000e0 98 b8 22 be 54 0f a4 3d b1 cb eb bf 07 3e 97 bf
       -0.1589073 0.08010736 -1.8421537 -1.1815804
0000f0 75 8f 0f c0 b2 d7 b9 bf 1b 3b d1 bf 3d 4f 1f 40
       -2.243131 -1.451895 -1.6346163 2.4892113
000100 f4 1e 1d bf cb 34 40 bf d5 6b 12 3f 27 b7 0d 3f
       -0.61375356 -0.75080556 0.5719579 0.55357593
000110 d6 65 d7 bd 20 3f 99 bf 11 dd 28 c0 2d 16 02 c0
       -0.105174705 -1.1972389 -2.6384928 -2.0326035
000120 50 02 10 bf f1 c2 42 3f 5d e1 88 3d 56 39 68 be
       -0.5625353 0.76078707 0.0668361 -0.22678122
000130 e3 99 2b bf 61 98 ad be c0 67 cf bf c3 30 ef bf
       -0.6703169 -0.33905318 -1.6203537 -1.8686756
000140 17 4e dc bf 2c 0c e0 bf 3d cf f1 bf fd d5 8f bf
       -1.7211331 -1.7503715 -1.8891369 -1.1237179
000150 c2 60 f5 3e 55 ba 76 3f 2d 2e 45 3f cd c7 1e bf
       0.47925383 0.9637807 0.77023584 -0.6202362
000160 8d df a4 bf 67 61 cd bf 79 b1 26 c0 f5 f7 0f c0
       -1.2880722 -1.604535 -2.604582 -2.249509
000170 df e7 00 c0 62 26 6b bf e0 72 f5 be 90 f7 5b be
       -2.0141523 -0.9185544 -0.47939205 -0.21481156
000180 04 8d d2 bd 9d 5f 3b bf 5a 92 b9 bf c5 2f 5d bf
       -0.10280803 -0.7319277 -1.4497788 -0.86401016
000190 c3 bb 00 c0 b0 40 0d c0 1e 5f 74 bf 0f f3 e1 be
       -2.01146 -2.2070732 -0.9545764 -0.44130751
0001a0 91 39 5d bf 96 64 58 bd 31 ec 87 bf d0 22 86 bf
       -0.86415964 -0.0528303 -1.0618955 -1.0479374
0001b0 02 4a c8 be 3c 25 16 c0 73 5f d1 bf 9f 25 d3 bf
       -0.39118963 -2.3460226 -1.6357254 -1.6495856
0001c0 cd 62 19 c0 58 3e ab bf 1a 75 c2 be e6 75 7d bd
       -2.3966553 -1.3378401 -0.37979966 -0.061880015
0001d0 cd 19 92 be 24 59 69 bf ed 2c 0d 3f 8c 85 85 bf
       -0.2853531 -0.9115164 0.55146676 -1.043138
0001e0 4a 77 00 c0 3b cf 46 c0 70 a0 a4 bf 69 ce 34 bf
       -2.0072808 -3.1063983 -1.2861462 -0.70627457
0001f0 ae e6 11 be 59 28 87 bb 72 b1 ba bf 26 6a 40 3f
       -0.14248154 -0.004124683 -1.4585402 0.7516197
000200 36 46 bc bf f3 2a 0b c0 7f f9 c1 bf 41 b0 17 bf
       -1.4708927 -2.1744964 -1.5154265 -0.5925332
000210 5f d9 67 be 24 90 e7 be b2 05 a9 3d 39 07 41 be
       -0.22641514 -0.45227158 0.082530394 -0.18850411
000220 b5 b9 3d bf a1 aa 03 c0 95 84 45 bf d2 94 ec bf
       -0.7411149 -2.0572894 -0.7715543 -1.8482916
000230 fe f9 25 c0 cc 61 99 be 5b a5 0c 3f 70 40 f6 3d
       -2.5933833 -0.29957426 0.5493981 0.12024009
000240 cc 74 79 3e c5 d0 38 bf cb 9f 93 bf a9 f4 01 3e
       0.2436096 -0.7219356 -1.153314 0.12690987
000250 25 6c ea 3e 4d 71 ec 3e c6 d0 17 bf 08 15 4c bf
       0.45785633 0.46180192 -0.5930294 -0.7971959
000260 90 7f 65 3e a3 cf 62 be ca 05 62 bf 11 c8 2e be
       0.22411942 -0.2214952 -0.88290083 -0.17068507
000270 12 39 22 bf 74 86 5f bf c3 ef b3 bd f3 8c 06 be
       -0.6336833 -0.87314534 -0.08785965 -0.13139705
000280 e4 06 c2 bf f1 73 84 40 0b db e8 3d 64 d9 47 be
       -1.5158353 4.139153 0.11369904 -0.19516522
000290 1f 4c af bf 28 f1 ad be cf 93 99 bc 32 3f 8b 3f
       -1.3695105 -0.3397305 -0.018747238 1.0878661
0002a0 cd 9c 5f 3f c5 dd f1 be f1 fe a7 3f 8f aa b1 bf
       0.87348634 -0.4723951 1.3124677 -1.3880175
0002b0 d1 56 a7 bd 22 1a 6d bf d3 2f 7c 3e e9 14 03 3e
       -0.08170856 -0.92618 0.24627618 0.12800945
0002c0 bc 36 25 be e1 ed 4f 3f f4 ac d1 bf ff 7a 5a 3f
       -0.16134161 0.8122235 -1.6380906 0.8534393
0002d0 73 d4 07 c0 4a b1 d3 be 2e 2c 53 3d 39 73 a7 be
       -2.1223419 -0.41346198 0.051555805 -0.32705095
0002e0 41 5f e1 bf 14 56 d9 bf 35 38 97 bf 72 a8 46 c0
       -1.7607194 -1.6979394 -1.1814028 -3.104031
0002f0 86 8a 30 bf 7f 1a 09 40 ab c6 1d c0 5a 72 bc bf
       -0.6896137 2.1422422 -2.4652507 -1.4722397
000300 5c 78 a3 bf b7 b0 11 3d 24 08 e2 be 31 b5 3d bf
       -1.2771106 0.03556892 -0.44146836 -0.741046
000310 a7 05 25 c0 ab 0c 9e c0 ce 0c ad bf 9a 87 47 40
       -2.57847 -4.9390464 -1.3519533 3.1176515
000320 76 81 95 3e 06 7d 58 bf cb a8 84 3e 2c 48 6f 3e
       0.29200333 -0.8456577 0.2591003 0.23367375
000330 57 f1 5f be 72 f9 80 bf 19 c5 dc bf bf fe 25 c0
       -0.21869408 -1.0076125 -1.724765 -2.5936735
000340 ce f6 06 bf b9 be e2 3f 07 ba 1f 3f 3f ac ec 3d
       -0.52720344 1.7714454 0.6239323 0.11556291
000350 e9 5d 77 3e 27 89 b3 be bb 53 cd 3e cf 34 9f 3e
       0.24156918 -0.35065576 0.40102944 0.31094977
000360 16 fa 8b be 0b b1 9b be 61 cf ad be 8d cb b3 bd
       -0.27339238 -0.3040851 -0.3394728 -0.087790586
000370 af 6d 00 3e b6 68 4a 3f 77 8b a8 3c c3 db 30 3f
       0.12541841 0.79066026 0.020574315 0.6908533
000380 26 fc 85 3f 58 b5 66 3f 8b b6 44 3f 63 8f 59 be
       1.0467575 0.9012046 0.7684104 -0.21246104
000390 33 90 8e bf 1f 65 86 bf 3e 36 10 c0 b2 6e 16 c0
       -1.1137756 -1.049961 -2.2533107 -2.3505063
0003a0 5a 42 12 c0 e8 cd 4e c0 58 04 66 c0 26 41 0a c0
       -2.2852998 -3.2313175 -3.5940151 -2.1602263
0003b0 13 e8 1b c0 cd 49 74 c0 af 7e 95 c0 49 90 d8 bf
       -2.4360397 -3.8170044 -4.6717143 -1.6919032
0003c0 d0 ad 64 c0 2c 5b 8d c0 3c 01 87 c0 24 fd 92 c0
       -3.5731087 -4.4173794 -4.2189007 -4.593401
0003d0 4a f5 7b c0 38 af 35 c0 6d 17 4f c0 34 0f a1 c0
       -3.9368463 -2.8388195 -3.2358048 -5.033106
0003e0 19 93 cc c0 73 68 62 c0 ec 44 00 c0 71 07 56 c0
       -6.3929563 -3.537625 -2.0042067 -3.3442042
0003f0 54 6d 6c c0 5f c4 36 c0 bc ca 7f c0 60 a4 79 c0
       -3.6941729 -2.8557355 -3.996749 -3.9006577

actor.0.bias f4 [32]
000000 fb 7f 97 bf 4b 7f 8f c0 46 4c 98 3f 07 e7 77 bf
       -1.1835932 -4.4842887 1.1898277 -0.96836895
000010 ce 68 0b 3f 6f a1 d8 3e 74 5c d9 be 43 f0 b4 bd
       0.54456794 0.42310664 -0.4245335 -0.08834889
000020 01 14 5f c0 2e 7c 8f bf 01 a8 d0 be ff b6 b0 be
       -3.485596 -1.1209772 -0.40753177 -0.34514615
000030 b1 2e 43 bf 47 8f 80 3f aa 90 fc 3d ba 6d fe be
       -0.7624312 1.0043725 0.1233228 -0.4969309
000040 58 24 c4 bf e1 b8 13 3f c4 96 9b bf 08 ae 87 bf
       -1.5323591 0.5770398 -1.2155385 -1.0599985
000050 b7 e3 9d bf 5a 93 6f bf 04 d3 c2 3c 2b 5b 27 c0
       -1.2335118 -0.93584216 0.02378226 -2.6149395
000060 b7 ff 03 be ca ce 84 3f 09 e0 7f bf b3 b3 08 bf
       -0.12890516 1.0375607 -0.99951226 -0.533992
000070 43 9a 38 bf 1f 4e 6a bf 59 5d 48 be b2 bc 90 bd
       -0.72110385 -0.91525453 -0.1956686 -0.07067241

actor.2.weight f4 [32, 32]
000000 4a 5e 44 bf 99 94 1f 40 bd e6 37 bf d9 67 ce 3f
       -0.76706374 2.4934447 -0.71836454 1.6125442
000010 46 22 d8 3f 6d 59 e0 bf 8c 5b c6 be a3 70 0f 3f
       1.688546 -1.752729 -0.3874172 0.56031245
000020 a2 c9 41 40 29 56 00 40 92 f4 6a 3f 27 79 47 3e
       3.0279317 2.0052588 0.91779435 0.1947981
000030 3d 8b 18 40 3d 35 d6 3f 96 bb 45 c0 9f 2c 37 3f
       2.3834984 1.6734997 -3.0895743 0.7155246
000040 c2 27 61 40 3f d8 91 3f 1b e9 85 be aa 29 21 40
       3.5180516 1.1394118 -0.26154408 2.518168
000050 2d e6 56 40 52 13 93 bf aa 82 24 40 31 6c 45 40
       3.3577988 -1.1490271 2.570475 3.0847285
000060 78 e8 bf bf 10 cb 39 3f 8f b7 48 40 74 00 d6 3f
       -1.4992819 0.72575474 3.1362035 1.6718888
000070 c4 9f b3 3f 6b 22 31 3e 4a ea 81 bf e3 86 88 40
       1.4033132 0.17298286 -1.0149624 4.2664657
000080 73 62 d8 3f 30 02 fa be fc d9 4b 3f 93 4e 72 3f
       1.6905044 -0.48829794 0.7962949 0.94651145
000090 48 a3 a2 3d 25 c6 f6 be 77 22 1d 3f 4d 82 01 3e
       0.079413 -0.48198047 0.61380714 0.12647362
0000a0 31 58 b1 be 46 46 b1 bc 37 ee 9c bf d2 e7 62 3f
       -0.34637597 -0.021639954 -1.2260197 0.8863498
0000b0 97 27 e6 bd 71 d3 41 3e ee fa 1f bf 20 cb 6b 3e
       -0.1123802 0.18928315 -0.62492263 0.23026705
0000c0 2b 6f 2d bf c6 d0 c9 3e 6f da da be 22 40 23 3e
       -0.67747754 0.39417094 -0.42744777 0.15942433
0000d0 74 b8 c1 3e d1 92 74 3f 0d 23 08 bf 28 4f da 3d
       0.3783604 0.95536524 -0.53178483 0.10659629
0000e0 79 ae 38 3f 86 67 ab bf 48 6b 6f 3d c6 30 97 bf
       0.72141224 -1.3390968 0.05845192 -1.181176
0000f0 5a ad 29 3f e3 28 7b bf 76 4c 17 40 d5 fd 63 bf
       0.6628014 -0.98109263 2.3640418 -0.8905919
000100 40 73 2a c0 fd 08 dd 3f b3 f0 82 3f b9 b3 e1 3f
       -2.6632843 1.7268368 1.0229706 1.7632972
000110 d9 26 9c 3f af b1 46 bf df 0f b9 bf 9e c1 97 bf
       1.2199355 -0.77614874 -1.4457968 -1.1855962
000120 53 b8 a7 3f 1b 67 d8 3f 4a bf a6 3f c6 a2 c7 3d
       1.3103126 1.6906465 1.3027127 0.097478434
000130 c8 e4 06 40 64 ef 28 3f 9b d1 86 bf f1 f0 59 c0
       2.1077137 0.6599028 -1.0532717 -3.405331
000140 41 80 11 40 80 d6 ec 3f fd f9 8d 3f 21 20 cc 3f
       2.273453 1.850296 1.1091915 1.5947305
000150 17 01 2a 40 d7 26 8c bf 16 3d c7 3f b9 0a 94 3f
       2.6563165 -1.0949353 1.5565517 1.1565772
000160 29 a0 33 bf 3f 41 aa 3f b6 64 d2 3f 1a 1e be 3e
       -0.7016626 1.3301162 1.6436985 0.3713234
000170 e0 78 aa bf 7c 78 71 3f 4a 70 11 bf 90 6c 1f 40
       -1.3318138 0.9432447 -0.56811965 2.4910011
000180 3b 36 32 c0 89 c7 97 3e c5 72 97 3f ca d8 88 be
       -2.78456 0.2964442 1.18319 -0.26727897
000190 56 2d 3e 3f 3c 86 82 be f3 0e ef bf bc 09 03 bf
       0.7428793 -0.25493038 -1.8676437 -0.5118673
0001a0 3a e6 76 3e 96 1f 34 3f 09 1a cc 3d ee 6b 13 bf
       0.24111262 0.70360696 0.09965903 -0.5758656
0001b0 41 ea 38 3f c0 b2 88 3f f2 20 d5 be dc b0 3f bf
       0.72232443 1.067955 -0.41626698 -0.7487924
0001c0 ba 5b 29 3f da 5b cd 3f b6 3a b1 bf 3d a6 75 3f
       0.6615559 1.6043656 -1.3846042 0.95956784
0001d0 03 7c bc 3f 6c 24 0a c0 ca 2b 1f 3e fc d4 61 3f
       1.4725345 -2.158473 0.15544048 0.88215613
0001e0 d2 38 4f bf 29 de aa 3d 4a 8a aa 3f d5 d6 21 bf
       -0.80946076 0.08343155 1.3323452 -0.6321843
0001f0 57 85 ea bf ba ba b0 3d 37 d4 c3 bf 71 54 31 40
       -1.8321942 0.08629365 -1.5299138 2.770779
000200 64 0a 89 3f 18 28 77 3f 15 3d 08 c0 54 c8 a5 3f
       1.0706296 0.96545553 -2.1287282 1.295176
000210 29 48 9a bf 77 bb 07 bf 24 c4 0b 40 15 8e 77 be
       -1.2053272 -0.53020424 2.1838465 -0.24175294
000220 3c f4 a0 be 2c 08 4c bf ae 30 bc 3e 8b e1 0a 3f
       -0.31436336 -0.7969997 0.3675589 0.542504
000230 5b e4 32 3f 3d 99 85 bd 53 9f 11 bf 0d 3e dd bf
       0.6987969 -0.065233685 -0.56883734 -1.7284561
000240 64 7c 84 3e 71 f5 f9 bf 46 c7 26 3e e8 8a c8 3e
       0.25876153 -1.9528028 0.16286954 0.39168477
000250 2f 45 8c 3f 47 1f 48 3f 69 9c b7 be 0c ee 43 3d
       1.0958613 0.78172725 -0.3586152 0.04783444
000260 58 a7 17 3f 0e 9f 10 c0 7d 25 27 bf fb 25 b8 3d
       0.5923972 -2.259708 -0.6529158 0.08991619
000270 be 20 4b 3f 9d f6 67 3d 22 c2 32 40 2c 0e 21 c0
       0.79346836 0.056631673 2.793099 -2.51649
000280 7d ca ec bf c8 dd 1f 40 80 11 56 3f b3 87 80 3f
       -1.8499295 2.4979115 0.8362045 1.0041412
000290 6a be 05 3f 03 ec 9c bf 62 5e 22 3e ce d5 03 3f
       0.52243674 -1.2259525 0.15856317 0.51498115
0002a0 30 84 3f 40 8c 1f e1 3f c8 ec cd 3f 9c 00 2a 3e
       2.992443 1.7587752 1.6087885 0.16601795
0002b0 7b f5 32 40 cd fa da 3f c3 9f 0c c0 6c 5e bc be
       2.796233 1.7107788 -2.197251 -0.36790788
0002c0 c9 fa 29 40 8b 37 00 40 f3 b1 73 bf 01 f0 35 40
       2.6559317 2.00339 -0.95193404 2.8427737
0002d0 9c 0c 28 40 bf 58 10 3e de 3f 43 3f 39 63 42 40
       2.6257696 0.14096354 0.7626933 3.037306
0002e0 ae 0a 0e c0 b8 a3 2b 3f 9e bc 17 40 55 d7 e3 3f
       -2.2194018 0.6704669 2.3708873 1.7800089
0002f0 b2 63 8d 3e 3b 84 2f 3f a0 28 cf be eb 52 47 40
       0.27615124 0.6856114 -0.40460682 3.114436
000300 f9 c5 f6 bd 37 93 6f 3f 1a 2d fd 3f 7d 1a 1c bf
       -0.12049479 0.9358401 1.9779389 -0.6097792
000310 5d 8f 8d 3f f2 19 e1 3d 47 2a b6 3e 26 20 9d 3f
       1.1059376 0.10991277 0.3557913 1.2275436
000320 47 da 4c 3f e0 a2 9b 3f 51 5b 11 3f 4e 4f ee be
       0.80020565 1.215908 0.5677996 -0.4654488
000330 ec 24 29 40 9f 28 08 3f 19 18 25 be 19 e8 1f bf
       2.6428785 0.5318698 -0.16122474 -0.6246353
000340 11 ed 3c 3f a4 2f a7 3f cd 92 1e be 57 21 53 3e
       0.73799235 1.3061414 -0.15485688 0.20618187
000350 3b 88 19 bd cb e0 49 bf fe 77 e0 3e 1b cc 1f 3f
       -0.037483435 -0.7885863 0.43841547 0.62420815
000360 02 10 c7 bf 52 b0 40 bc 0a a6 b4 3f 06 02 5e 3f
       -1.555176 -0.011760788 1.4113171 0.8672184
000370 42 5d 0d 3f 10 ca ca bf b1 1b d5 bf cd 5a 03 be
       0.55220425 -1.5842915 -1.6649076 -0.12827606
000380 52 a7 18 bf e4 d9 c5 3f 28 a2 9e 3e 7a 27 89 3f
       -0.5963031 1.545712 0.3098309 1.0715172
000390 d4 ea 84 3f c5 60 10 bf 7f f2 7f 3d 85 9f 09 3f
       1.0384164 -0.5639766 0.06248712 0.5375903
0003a0 62 0e eb 3f 8b d4 81 3f ee 5e 80 3f 97 c1 31 c0
       1.8363764 1.0142988 1.002897 -2.7774408
0003b0 75 ec 9a 3f 68 f6 d9 3f c9 2e 81 be c9 db b2 bf
       1.2103411 1.7028322 -0.25231007 -1.3973323
0003c0 f5 ae da 3f 05 a0 68 3f 7f 33 a4 3f a4 46 ae 3f
       1.7084643 0.9086917 1.2828215 1.3615308
0003d0 87 da 12 40 32 6d d6 bf 27 29 3e 3f 41 9f b6 3f
       2.2945879 -1.6752074 0.74281543 1.426735
0003e0 5a 0d 42 bf 0b f6 44 bf 5c 02 bd 3f ce 1c 1e 3e
       -0.7580162 -0.7693793 1.4766345 0.15440676
0003f0 5d 20 fb 3e a4 eb 6e be 46 9f 02 bf 05 32 bd 3f
       0.4904813 -0.23332077 -0.5102428 1.478089

actor.2.bias f4 [32]
000000 de 0d 87 c0 db 11 cd be 55 0d b9 bf 2c 4b dd 3e
       -4.220443 -0.40052685 -1.4457194 0.43221414
000010 b7 c6 10 3f da 7f 5b c0 35 93 ea 3d d5 f4 aa bf
       0.56553215 -3.4296784 0.11453859 -1.3355967
000020 4a 77 2a c0 1c 1e ab bf fd 23 5a bd b4 80 57 c0
       -2.6635308 -1.3368564 -0.053256977 -3.3672304
000030 ca 31 93 3f d4 01 94 be 90 21 4a be 90 74 14 3e
       1.149957 -0.28907645 -0.19739366 0.1449759
000040 9a cc dd be ba 95 71 c0 95 e1 77 bf ca 0e 20 bf
       -0.4332016 -3.7747636 -0.96828586 -0.62522566
000050 0d 05 2c c0 db 9e 6f c0 a0 b5 b9 be fa af 46 bf
       -2.6878083 -3.7440708 -0.3627138 -0.7761227
000060 08 8e 4c bf 2b 54 9c 3f e6 46 b7 be 2e d3 31 3d
       -0.7990422 1.2213186 -0.3579628 0.043414287
000070 8a 4e a0 bf 1e 69 20 c0 6e 10 0d c0 de bb 2d c0
       -1.2523968 -2.5064158 -2.2041278 -2.7145915

actor.4.weight f4 [32, 32]
000000 41 60 7f 40 d8 98 83 bf 99 65 36 40 37 82 bb 3f
       3.9902499 -1.0281019 2.849951 1.4649113
000010 65 62 a4 bf 41 43 55 40 a7 bb b4 bf 64 b7 06 40
       -1.2842528 3.3322299 -1.4119767 2.1049433
000020 2a 6c 20 40 35 d5 0a 40 af e9 73 3f 00 e2 5c 40
       2.5066018 2.1692631 0.9527845 3.451294
000030 ef 0e 9f 3f 6a f7 cf be cd 6b 83 3f 93 cb 52 be
       1.2426432 -0.4061845 1.0267273 -0.2058547
000040 d1 37 09 c0 d6 b4 76 40 e0 1f 91 3e f9 d7 27 40
       -2.1440318 3.8547873 0.2834463 2.622557
000050 f2 56 09 40 f8 87 29 40 8b 75 e2 3d c2 e0 e5 bd
       2.1459317 2.6489239 0.11057576 -0.1122451
000060 d4 2c 47 3e 41 97 2f c0 b2 ff 80 3f cf 63 fe bf
       0.19450694 -2.7436068 1.0078032 -1.9874209
000070 a3 75 09 40 44 bb b5 3f ee 04 82 3f a0 4e f1 3f
       2.147805 1.4197774 1.0157754 1.885212
000080 00 d2 54 40 f6 9f ff be fd f6 70 40 63 d7 1d 40
       3.3253174 -0.49926728 3.765075 2.4662712
000090 1c 87 a2 3f 0c 2e 47 40 47 19 1f 40 41 2c 06 40
       1.2697482 3.1121855 2.4859178 2.096451
0000a0 22 43 06 40 fd eb c7 3f 75 21 64 3f ef a6 64 40
       2.0978475 1.5618893 0.8911355 3.5726888
0000b0 33 92 ad 3f ea d5 2c c0 8a 88 ce bd 17 37 60 bf
       1.3560241 -2.7005563 -0.100846365 -0.8758406
0000c0 43 d7 77 bf 33 17 55 40 2d d5 b4 3f 8d c9 2b 40
       -0.9681284 3.329541 1.4127556 2.6841767
0000d0 2c 6b b9 3f 03 aa 3e 40 31 7d 27 3f a6 57 5b c0
       1.4485831 2.9791267 0.654254 -3.4272246
0000e0 8b 4c f9 bf 02 75 e4 bf ce c1 d1 3f 09 e1 32 c0
       -1.9476484 -1.7848208 1.638727 -2.794985
0000f0 f3 2e f7 3f bb 8a e5 3f a5 16 d7 bd 88 1d 46 40
       1.9311203 1.7932962 -0.10502366 3.0955524
000100 a7 88 ed 3d c3 dd 1d 3f e1 b2 25 bf 2f d3 24 bf
       0.1159833 0.61666507 -0.6472607 -0.6438474
000110 75 48 a6 bf 32 8c 06 3f dc d3 18 bf a5 46 04 3f
       -1.2990862 0.5255767 -0.5969827 0.51670295
000120 36 36 3d bd 49 c7 26 bf 03 0c cc bd b7 91 d7 bf
       -0.046194278 -0.65147835 -0.099632286 -1.6841344
000130 dc 1a e3 3d 1e ae 04 bf 40 6b 39 be 88 3a 8d bf
       0.110891074 -0.5182818 -0.18107319 -1.1033487
000140 5f f1 e0 bf 70 a7 80 3e a9 e5 96 bf 1b 8a 8a be
       -1.7573661 0.25127745 -1.1788837 -0.2705849
000150 25 6e 7a 3f a6 60 6b 3f cf 84 5b 3f 45 76 0b 40
       0.9782432 0.9194435 0.85749525 2.1790936
000160 cb 4e 50 40 08 13 6e bf be 78 93 3f a9 2a 56 3e
       3.2548091 -0.9299779 1.1521223 0.20914711
000170 3b bd 7d be 4a 00 98 bf 32 5f 82 3f 1c a0 ae 3e
       -0.24779217 -1.1875088 1.0185301 0.3410653
000180 47 79 ee 3f 52 f1 7c 3e 81 b7 16 40 aa ce 09 40
       1.8630761 0.24701431 2.3549502 2.1532388
000190 ef 38 07 3e bf 2d ca 3f cc 2b e8 3f cd b3 e5 3f
       0.13205312 1.5795211 1.8138366 1.7945496
0001a0 1f 1d d9 3f 92 d7 69 3f 47 1f 9c 3f 87 27 e6 3f
       1.6962012 0.9134456 1.2197045 1.7980813
0001b0 d7 16 88 be bf 27 69 bf a9 ba eb bf 3e 19 97 bf
       -0.26579925 -0.9107627 -1.8416339 -1.1804578
0001c0 3a 55 98 bf a0 38 13 40 46 f5 7d be 98 d4 08 3f
       -1.1901009 2.300331 -0.24800596 0.5344939
0001d0 88 7b b8 3f 12 a2 ba 3f ff cd 82 3f 0d 31 37 bd
       1.4412699 1.458071 1.0219115 -0.044724513
0001e0 68 e9 22 bf fa 6f a9 bd 55 74 3a bf cb ee 81 bf
       -0.636374 -0.08273311 -0.7283376 -1.0150999
0001f0 06 7d ab 3f af 23 57 40 37 03 cc 3f 56 bb 0a 40
       1.3397529 3.361553 1.5938481 2.167684
000200 88 ed c0 3f 27 31 b4 bf 63 95 eb be a9 50 71 3f
       1.5072489 -1.40775 -0.4601241 0.942637
000210 27 81 fa bf 3d 0c f2 3e be 14 be 3e 50 de 8f 3d
       -1.9570664 0.47274962 0.371252 0.070248246
000220 dc ae 60 3f 33 16 2b 3f 8b 38 46 bf 58 41 41 be
       0.87766814 0.6683075 -0.7743003 -0.18872583
000230 ac ee a9 3e 4c 32 94 3f 2d ce b8 3e 5b 00 b1 bf
       0.33189905 1.1577849 0.360948 -1.3828233
000240 2f 65 6f bf 08 2e a0 3f 72 52 5a bf 96 bc b1 bd
       -0.9351377 1.2514048 -0.8528205 -0.08678548
000250 92 32 a3 3f bf bc dd 3e c2 5d 50 3f 49 0b 00 40
       1.2749808 0.43308064 0.81393063 2.0006888
000260 85 6d 7b 3f 98 46 58 bf 98 dd cc 3e 67 7b 2f bd
       0.9821399 -0.8448272 0.40012813 -0.042842295
000270 e6 d4 fe be a4 71 9e 3f 8a cf ae 3f 33 54 69 3f
       -0.49771804 1.237843 1.3657086 0.911441
000280 c8 d2 78 40 98 4a 9c bf eb a6 0b 40 7e 5c 15 40
       3.887865 -1.2210264 2.1820629 2.3337703
000290 f1 8f d7 bf f2 79 7d 40 db c5 a8 3f 0b c5 4c 40
       -1.6840802 3.960568 1.3185381 3.1995265
0002a0 ce 39 46 40 a3 0f 1b 40 94 81 94 3f b9 ca 19 40
       3.097278 2.4228294 1.1602044 2.4029982
0002b0 07 2f 44 3e 9a 59 9b bf 4b 00 82 3f c3 44 07 c0
       0.19158565 -1.2136719 1.015634 -2.113572
0002c0 36 32 08 3e 84 26 5e 40 d0 80 b6 be ea fc 1b 40
       0.13300404 3.4711008 -0.3564515 2.4373116
0002d0 ed 65 21 40 72 80 5a 40 1c 88 03 40 25 f3 ca 3e
       2.521846 3.4140897 2.0551825 0.3963863
0002e0 1a 9c 04 bf ba 87 bc 3d 1b f2 36 bf 17 36 00 3f
       -0.5180069 0.09205575 -0.71463174 0.50082535
0002f0 31 6d 15 40 78 42 79 40 57 50 b0 3f b4 a2 0b 40
       2.3347895 3.894682 1.3774518 2.1818056
000300 c3 7e 93 be 25 8e ca bf 51 72 19 bf 62 42 2e bf
       -0.2880765 -1.5824629 -0.5994006 -0.6807004
000310 d5 81 47 bf 1b 7f c3 3d bb da 81 bf 89 7d 41 bf
       -0.7793248 0.09545728 -1.0144876 -0.75582176
000320 26 60 74 bd 22 a7 10 c0 7b af b7 be 59 5b 32 3e
       -0.059662007 -2.260201 -0.35876068 0.17417659
000330 ed 21 69 bd 2d 7b e6 be 7d 56 c0 3d 60 8a df bf
       -0.05691712 -0.4501585 0.09391496 -1.7464104
000340 2e 6c 01 c0 c9 95 f7 bd fc fa d0 bf 1d 29 95 bf
       -2.0222278 -0.12089116 -1.6326594 -1.1653172
000350 b3 a9 d9 3f 96 6a 8f 3e f5 d5 03 c0 18 7c 5e 3f
       1.7004913 0.28011006 -2.059934 0.869081
000360 38 9f 1b 3e d8 66 95 bd a3 21 c8 3e 97 6f a4 3f
       0.15197456 -0.072950065 0.39088163 1.2846555
000370 f9 1e 73 bf 9e 1d 16 3f 71 8e 7b 3e a6 c1 01 be
       -0.94969136 0.5863894 0.24566056 -0.12671527
000380 48 8e 75 be 31 11 88 be eb b9 a1 bf cc a9 c3 bf
       -0.23980057 -0.26575616 -1.2634863 -1.5286193
000390 0e ab 93 bf f1 40 61 be 2f 9d cf be 27 37 7c be
       -1.1536577 -0.2199743 -0.4054961 -0.24630414
0003a0 7e 86 98 3f d8 ba 76 be 8c f2 af bf 52 f7 be bd
       1.1916044 -0.24094713 -1.3745894 -0.09324516
0003b0 6e 06 92 be 03 7c 56 3f 39 a3 0c 3f 5f 9a fb bf
       -0.2852053 0.83782977 0.5493656 -1.9656485
0003c0 f0 af a2 bf 7f 17 fb be d7 39 75 bf b6 08 33 3f
       -1.2709942 -0.49041364 -0.9579138 0.69935167
0003d0 05 68 34 3f 60 52 eb 3e fd fc 77 bf 63 3f 96 3e
       0.7047122 0.45961285 -0.96870404 0.29345235
0003e0 d1 05 12 3f ca ca 96 be e0 4b 54 be 36 b2 cc bf
       0.57040125 -0.2945159 -0.20732069 -1.5991886
0003f0 c7 63 49 bf 91 f3 6c 3e 84 8a 0c 40 ca 0f 18 be
       -0.78667873 0.23139788 2.1959543 -0.14849773

actor.4.bias f4 [32]
000000 d7 b2 a0 c0 b3 60 66 c0 ed 48 06 3e 81 9f e1 bf
       -5.021831 -3.599652 0.13113756 -1.7626802
000010 a5 62 d5 bf fd cf 9c c0 db e5 8c be b7 21 0b 3e
       -1.6670729 -4.900389 -0.27519116 0.1358708
000020 2a 3f 56 3f 3f b1 50 3f 2a 12 20 bf 81 d5 aa c0
       0.8369013 0.81520456 -0.62527716 -5.3385625
000030 96 2f 06 c0 70 98 89 c0 1c 02 39 3f ab c2 60 c0
       -2.0966544 -4.299858 0.72268844 -3.5118816
000040 72 e8 42 3e 72 0c b9 c0 07 ad a1 c0 0a f7 df 3f
       0.19033983 -5.782769 -5.0523715 1.7497265
000050 5a 5a 7d bf c3 7b 34 c0 ca f0 1a c0 f2 ca 19 40
       -0.9896599 -2.8200538 -2.4209466 2.4030118
000060 be 10 9c bf fe a2 5d c0 21 9a 8b c0 08 94 c5 c0
       -1.2192609 -3.4630733 -4.3625646 -6.17432
000070 aa 72 13 3e fe 84 59 bf 48 9a 52 c0 eb b3 a6 c0
       0.1439921 -0.84968555 -3.2906666 -5.2094626

actor.6.weight f4 [4, 32]
000000 56 84 55 c0 92 dc 47 c0 61 12 30 40 2a 8e 4b bf
       -3.3362021 -3.1228375 2.7511218 -0.795138
000010 0e 05 60 3e c7 01 6f c0 5d 6c 86 40 70 e0 3a 40
       0.21876928 -3.7344835 4.200728 2.9199486
000020 0a f2 06 40 e6 82 e5 3f e7 3b 13 40 15 5c 0c bf
       2.108523 1.7930572 2.3005311 -0.54828006
000030 e5 d2 17 3e 0d 55 a1 c0 c8 bc 03 40 bc df 71 c0
       0.14826544 -5.041632 2.0583973 -3.7792807
000040 e4 36 9b 3e 6a 03 13 bf 3a 35 fd bf d8 f3 dd 3f
       0.30315316 -0.57427084 -1.9781868 1.734004
000050 6d 4c 2d 40 61 f1 a6 bf 43 40 4c c0 f0 7e 77 40
       2.7077897 -1.3042413 -3.1914222 3.8671227
000060 52 b4 19 c0 4c b1 a9 bf 58 de 66 be ca 7a 0f c0
       -2.4016309 -1.3257232 -0.22545755 -2.2418694
000070 d8 38 0e c0 88 57 aa 3f fc 2f e6 bf 07 be cb bf
       -2.2222195 1.3307962 -1.7983394 -1.5917367
000080 0d 7c 53 c0 43 e9 b8 bf ee d8 f1 3f 97 a1 83 bf
       -3.3044465 -1.4446186 1.8894327 -1.0283688
000090 3e e5 ee bf ac 3c a3 c0 fd 66 1e 40 6e f2 08 40
       -1.8663709 -5.101156 2.475036 2.1397967
0000a0 d8 55 eb 3f bf 23 2c 40 3a 8d 22 40 6b 69 c3 bf
       1.8385572 2.6896818 2.5398698 -1.5266546
0000b0 45 57 0f bf 84 b7 61 c0 fb eb 3e 40 ef 1f 60 c0
       -0.5599254 -3.526826 2.983153 -3.501949
0000c0 e0 a5 21 3f 30 db ac bf d7 42 10 c0 64 1d e1 3f
       0.6314373 -1.3504391 -2.2540796 1.7587094
0000d0 8e e6 0f 40 de 2c 13 bf 12 3b 07 c0 d3 be 84 40
       2.248447 -0.57490337 -2.1129804 4.148294
0000e0 f4 37 9f bf ba 06 97 bf 16 31 fa bf c5 26 23 c0
       -1.243895 -1.1798928 -1.954623 -2.5492413
0000f0 bf 55 12 bf ee 9c 99 3f 1d 14 ae bf e5 86 ba c0
       -0.5716209 1.2001016 -1.3599888 -5.8289666
000100 0b 76 84 c0 d5 8b cd bf 85 5c e5 3f 43 ee f7 be
       -4.1394095 -1.6058298 1.791886 -0.48423967
000110 08 8f c2 bf 66 33 93 c0 1d 4e 2e 40 20 bd 11 40
       -1.51999 -4.600024 2.7235177 2.2771683
000120 0c bb c1 3f 82 8b 24 40 dc 37 0c 40 3e e1 1f bf
       1.5135207 2.571015 2.1909094 -0.6245307
000130 f8 74 33 3c bf 98 2c c0 36 42 05 40 dc 1a 44 c0
       0.0109531805 -2.696823 2.0821662 -3.0641394
000140 55 56 74 be 83 4a 28 bf 53 3d 7a c0 72 ae a7 3f
       -0.23861058 -0.65738696 -3.909993 1.3100111
000150 02 cd 28 40 ce 32 09 bf f8 21 42 c0 70 83 6f 40
       2.6375127 -0.53593147 -3.0333233 3.7423973
000160 c4 36 40 bf ff 10 eb bf b6 42 57 c0 25 9c 45 c0
       -0.75083566 -1.8364562 -3.3634467 -3.0876553
000170 79 ca fb bf 99 1a f8 3f 7d 88 a7 bf 1d b7 94 c0
       -1.9671165 1.9383117 -1.3088528 -4.6473527
000180 7c 7b 0b c0 ec 39 a1 be 7e 84 4d 3f 37 f6 89 be
       -2.179412 -0.31489503 0.8028029 -0.2694566
000190 9e 24 16 bd 78 5c 58 3e 62 d1 b0 40 41 b4 07 40
       -0.036656015 0.21129024 5.5255594 2.1203768
0001a0 c1 bc d4 3e 86 1f f6 3f 39 63 60 40 ea a0 a7 3f
       0.41550258 1.922837 3.506056 1.3095982
0001b0 48 7a 38 3f fd de eb bf 82 83 fd 3f d7 49 8e bf
       0.72061586 -1.8427426 1.9805758 -1.1116284
0001c0 41 29 89 bf 87 87 18 3f e3 c7 02 40 04 9d 51 c0
       -1.0715715 0.595818 2.04345 -3.2752085
0001d0 cc e5 7c 40 d0 85 1c 3f 0e d1 37 bd 8e d8 74 40
       3.9515257 0.6114168 -0.044877104 3.8257174
0001e0 a7 d9 10 bf 30 4a 0f 3e f9 de 15 3c 32 7b e0 3e
       -0.5658211 0.13993144 0.009147399 0.4384399
0001f0 78 52 c1 bf 47 f4 9e 3f 83 96 1c 3e 40 8b 0f 40
       -1.5103292 1.2418298 0.1529179 2.2428741

actor.6.bias f4 [4]
000000 67 ee 85 40 74 d8 bb 40 45 d2 98 40 c5 40 77 40
       4.185352 5.8701725 4.7756677 3.8633282

critic.0.weight f4 [32, 180]
000000 c5 62 f0 bf 7f bc 5b c0 91 ba 26 c0 37 dd 5d bf
       -1.8780142 -3.43338 -2.605137 -0.8666567
000010 a9 70 2a 3f 70 c3 c2 3f fe 22 b4 3f c2 a5 9f 3f
       0.66578156 1.5215893 1.4073179 1.247246
000020 13 02 ae 3f d0 30 0c 40 a0 43 88 bf 70 4c 95 bf
       1.3594383 2.1904793 -1.0645638 -1.1663952
000030 dc d5 69 3f c3 94 19 be 0a 86 9e bf 6b 59 eb 3e
       0.9134195 -0.14998154 -1.2384655 0.45966658
000040 73 5e 9f 3e ab df 40 3f 5a e4 18 3f f5 75 85 3f
       0.31126747 0.7534129 0.59723437 1.0426623
000050 b0 31 1c c0 27 25 84 bf ed f9 01 c0 f3 f7 9a bf
       -2.4405327 -1.0323838 -2.0308793 -1.2106918
000060 dc 71 3f bf 70 1a 31 bf a1 1c 74 3f 83 31 05 40
       -0.7478311 -0.69180965 0.95356184 2.081147
000070 27 e4 39 40 05 4a 60 40 1c cc 82 c0 e0 97 07 c0
       2.9045503 3.5045178 -4.0874157 -2.1186447
000080 66 0a 40 c0 34 8d 32 c0 0c 5d 99 c0 7c 12 58 c0
       -3.0006347 -2.7898684 -4.7926083 -3.3761282
000090 4f cc 4c c0 00 92 35 c0 9a 9d 9d c0 9d 4a 94 c0
       -3.19997 -2.8370361 -4.9254885 -4.634108
0000a0 06 62 b1 c1 f9 e4 e4 c1 22 60 c6 c1 bd 40 a6 c1
       -22.172863 -28.611803 -24.79694 -20.78161
0000b0 f8 77 d5 c1 42 b5 f1 c1 aa 39 da c1 c1 4a db c1
       -26.683578 -30.213505 -27.278156 -27.4115
0000c0 7e 88 14 c2 9e d4 1f c2 c1 f3 16 40 db 4a 18 40
       -37.133293 -39.957634 2.3586276 2.3795688
0000d0 6f 97 35 40 4d 9e d0 3f 0c aa e3 3f 64 83 7e 3f
       2.8373678 1.629831 1.7786269 0.99419236
0000e0 f8 8e 9d bf 2f 3a 31 40 34 c8 61 40 0e da 1b 40
       -1.2309256 2.7691762 3.5278444 2.435184
0000f0 89 7a c3 3e 14 81 3c 40 b4 14 f8 3f d6 47 56 40
       0.38179424 2.9453783 1.9381318 3.3481345
000100 a1 7f f6 3f c8 d9 94 3f 75 67 3d 3f 1e 8b 40 40
       1.9257699 1.1628962 0.7398599 3.008491
000110 66 0e 8b 40 eb 9e c9 3f ed 4e 22 40 c4 6d a4 3f
       4.3455076 1.5751623 2.5360672 1.2845998
000120 22 65 d1 3f 88 bf 21 40 42 1e 9a 3f 3e ac d9 3f
       1.6358988 2.5273151 1.2040484 1.7005689
000130 d9 c3 6a 3f d1 53 d6 3e 78 de 2a 40 4d 0e 88 3f
       0.9170509 0.41860822 2.6698284 1.0629364
000140 99 85 8d bd f2 e6 67 3f f2 22 99 3f 67 e1 00 40
       -0.06910247 0.9058677 1.196379 2.0137575
000150 f1 ea b4 3f d4 75 62 3f 2d 8a 43 3e 34 97 74 3f
       1.4134198 0.8846104 0.19095679 0.9554322
000160 31 ed 07 40 ad 7d 5f 3f 07 21 4f be 3a 7f 73 3f
       2.123852 0.8730114 -0.20227443 0.9511601
000170 14 03 7d 3f 84 6d 7d 3f 51 00 32 3f 82 d3 8d 3e
       0.9883282 0.9899523 0.6953173 0.2770043
000180 e9 b2 22 3e d3 ba 92 3f de 98 1d 3f be cd c1 3f
       0.15888561 1.1463264 0.6156138 1.5140913
000190 60 91 5d 3e 32 5b 35 3f 3a 95 13 3f 8e 21 11 bf
       0.21637487 0.7084228 0.57649577 -0.56691825
0001a0 98 00 5f 3f 1b df 20 3f 96 ea 34 3f 8c c7 82 3f
       0.8711028 0.6284043 0.7067045 1.0217147
0001b0 56 a0 3d 3f df 40 02 3f 02 8b 46 3f 6e f1 12 3f
       0.7407278 0.50880235 0.7755586 0.5739964
0001c0 cb bc 8f 3f 90 45 48 3f 65 54 ba 3e 6b f0 48 3e
       1.122949 0.78231144 0.36392513 0.19622962
0001d0 e5 7c d4 be 63 f2 db 3e 71 0c 60 3f b5 0a 78 3f
       -0.41501537 0.42958364 0.87518984 0.9689134
0001e0 7f 1d e6 be d2 7d 90 3f 84 97 e2 3f c3 17 ce 3e
       -0.4494438 1.1288397 1.7702489 0.40252504
0001f0 1a 8a aa bf e4 90 ad 3e 31 3e 57 3e 5f f6 83 3e
       -1.3323395 0.33899605 0.21019818 0.25773904
000200 14 2f 98 3f eb 79 87 3d 86 e6 a3 bd ab ac 37 3f
       1.1889367 0.06615051 -0.08002953 0.71747845
000210 28 7c 9d 3e 06 93 99 3e 29 db b7 3c 54 d4 d8 3e
       0.30758786 0.29994982 0.02244337 0.42349494
000220 28 7d 4c 3d c8 e1 3d 3f f0 e9 2a 3f 77 df 4a 3f
       0.049924046 0.7417264 0.6676321 0.7924723
000230 23 45 3a 3f 77 28 fc 3e b1 ff 2a bf d6 ac b8 be
       0.72761744 0.49249622 -0.66796404 -0.36069363
000240 71 d7 d0 3f 34 7d f7 3e ad 92 48 3f d0 d0 d3 3e
       1.6315747 0.4833771 0.7834881 0.4137025
000250 11 28 2d 3e 9b 94 3b 3f 5c 3f 16 bf 0f 3c 39 be
       0.16909815 0.7327363 -0.5869043 -0.18089317
000260 d5 83 39 3f 28 db 8f 3f 2f 5e 8a 3f df 70 01 3f
       0.72466785 1.1238756 1.0809993 0.5056285
000270 93 2c 51 3e 2d 7c a6 be 76 3b 30 3f e9 a8 1c 3f
       0.2042716 -0.32516614 0.6884073 0.61195236
000280 66 7d a2 bf de f9 40 be e8 94 d9 bf d0 3d eb bf
       -1.2694519 -0.18845317 -1.6998568 -1.8378239
000290 3d 30 ae bf a8 c7 9b bf 8d 83 c6 bf cc 74 d3 bf
       -1.3608471 -1.2170305 -1.5508896 -1.6520019
0002a0 d9 43 c9 bf 01 7f 27 c0 f3 e0 2b c0 fe 5e e3 bf
       -1.572383 -2.6171267 -2.6856048 -1.7763364
0002b0 44 f4 f8 bf d8 56 0d c0 4e 09 02 c0 47 bb 12 c0
       -1.9449544 -2.2084255 -2.031818 -2.2926805
0002c0 f3 64 be 3f e2 a9 ae 3e b5 75 31 3f 5b c7 e5 bd
       1.4874557 0.34113985 0.6932023 -0.11219665
0002d0 59 a3 dd 3f 5b 7c a6 bd 14 13 f4 3e f6 e5 72 bf
       1.7315475 -0.08129188 0.47670805 -0.9488214
0002e0 d4 bd 1e c0 fe dc aa bf 17 ef 4b 3e 33 6e 0a c0
       -2.4803362 -1.3348691 0.19915424 -2.162976
0002f0 27 d9 17 bf 84 73 80 40 18 2b 46 bd 4f 3c ac bf
       -0.59315723 4.014101 -0.04838094 -1.3455905
000300 11 75 28 c0 85 fc fe 3e af 83 14 3f 93 b4 ce be
       -2.6321452 0.49802032 0.58013433 -0.40372142
000310 15 00 9d be 29 75 ac bf dc 47 20 3f ef 5e 2c 40
       -0.30664125 -1.3473254 0.6260965 2.6932943
000320 e8 cf ff 3f d9 c7 3c bf 8e c3 5e 3f c6 cb 53 be
       1.9985323 -0.73742443 0.8701714 -0.20683202
000330 04 ad c7 be 66 dc 49 bf 8d 30 b4 bf 77 94 91 bf
       -0.38999188 -0.78851926 -1.4077317 -1.1373433
000340 36 1f b4 be 7b 84 ec bf ce 51 98 3f 1b 53 c1 be
       -0.35180062 -1.847793 1.1899965 -0.37758717
000350 58 9c e6 bd 68 b7 c6 3e 06 55 f0 bf 85 05 54 bf
       -0.11260289 0.38811803 -1.8775947 -0.8282092
000360 c1 f4 82 be 1b 0f bc bf 7d 28 fe be 47 c3 4c bf
       -0.25577357 -1.469211 -0.49640265 -0.7998547
000370 13 10 b8 3f 10 4b bf 3f ee 55 18 40 a1 23 a9 3f
       1.4379905 1.4944782 2.3802447 1.3213998
000380 c1 b4 14 3f 96 62 3c bf 10 21 73 3f 8d 26 34 be
       0.5808831 -0.7358793 0.94972324 -0.17592831
000390 f4 4e 04 be 0b bc 32 3f 1c e7 1a c0 a7 e8 0e c0
       -0.12920743 0.6981818 -2.4203558 -2.23295
0003a0 63 84 9e be d3 00 e6 bf e0 7c 83 c0 e9 c8 f5 3f
       -0.30960378 -1.7969002 -4.1089935 1.9201938
0003b0 9b 04 28 bf d9 39 c8 3f d1 19 16 40 a7 47 26 40
       -0.6563203 1.5642654 2.3453257 2.5981233
0003c0 65 43 48 c0 7f 8b d8 be 90 98 6c 3f 2f 1c c3 bf
       -3.1291134 -0.42293927 0.9242029 -1.5242976
0003d0 91 3f 2b 40 9e 45 d3 3f ee b2 01 40 73 70 68 3f
       2.6757548 1.650562 2.026546 0.90796584
0003e0 a5 1c 45 40 ca 80 1b 40 0d ae 82 be 6c 96 09 c0
       3.0798733 2.4297357 -0.25523415 -2.149806
0003f0 c1 a4 a4 bf 90 73 04 c0 b9 d6 ea be 52 5f e6 3f
       -1.2862779 -2.0695534 -0.45866945 1.799784

critic.0.bias f4 [32]
000000 72 4b cb bf 63 d3 07 bf a2 aa a9 c0 87 72 4b 3f
       -1.5882399 -0.53056926 -5.302079 0.7947163
000010 6e a0 cb c0 02 9a 88 bf 54 83 49 c0 35 fc c2 c0
       -6.3633337 -1.0672 -3.1486406 -6.093287
000020 9b e1 67 bf e7 1e ee bf 11 32 89 bf 81 46 03 c1
       -0.9057862 -1.8603181 -1.0718404 -8.204713
000030 98 0d 4a bf b7 75 8e bf 17 7b 65 c0 ad af e3 3d
       -0.7892699 -1.1129674 -3.5856378 0.11117492
000040 8f 88 26 c0 68 96 f7 bf 0e 5e 85 c0 13 b3 4c c0
       -2.6020849 -1.9342775 -4.1677313 -3.1984298
000050 67 83 2d c1 b7 2d f6 bf 24 49 02 40 1c cf 0c c1
       -10.844581 -1.9232701 2.0357141 -8.800564
000060 26 96 23 bf 59 ff b5 c0 59 86 3f 40 5a 2f 20 c0
       -0.63900983 -5.6874204 2.992575 -2.50289
000070 42 f9 dd bf 33 e7 f7 bd 88 b4 4f 3f d8 b3 33 c0
       -1.7341692 -0.121046446 0.81134844 -2.8078518

critic.2.weight f4 [32, 32]
000000 04 fa 7b bd 8c 27 eb 3f cb c6 80 3f ed 33 cd 3f
       -0.06151773 1.8371444 1.0060667 1.6031471
000010 0f 6a 86 3f cb c6 fb bd f6 09 21 c0 c3 47 43 3e
       1.0501117 -0.12293776 -2.516233 0.19070344
000020 c7 c4 49 3f b3 24 a9 bf c3 70 37 3f ff 89 d5 3d
       0.78815883 -1.3214325 0.71656436 0.10426711
000030 1a 7c 14 bf 09 01 1a 3f ac c7 33 bf 17 46 b0 be
       -0.58001864 0.6015783 -0.7022655 -0.34428474
000040 e8 e9 99 3f 62 03 8c bf da 7c 58 3f ad 9b 6a 3f
       1.2024508 -1.0938532 0.8456551 0.9164379
000050 78 72 10 3e 3b 46 68 3f 19 5e 1b 3f 09 54 67 be
       0.14106166 0.90732163 0.60690457 -0.2259065
000060 b0 80 5c be f4 01 b5 3e c4 8a 8f 3f 59 fc 55 c0
       -0.21533465 0.35353053 1.1214223 -3.343527
000070 50 b7 e8 3d d7 61 e8 3f 52 e3 2b 3f f6 a0 24 bf
       0.11363089 1.8154858 0.6714374 -0.64308107
000080 35 ef a0 c0 e9 f1 16 40 1e 26 e7 40 f8 96 28 40
       -5.0292 2.358515 7.223403 2.6342144
000090 7f 8c c3 40 eb 4e 76 c0 e5 6c 4c 40 a4 b6 e7 40
       6.1109004 -3.8485668 3.1941464 7.241045
0000a0 49 85 ac 3f 19 1d 02 40 5b 69 ac 3f cc 9c bf 40
       1.3478175 2.033026 1.3469652 5.9878902
0000b0 6c 7b 88 40 fb 8e 0b c0 4e 10 4d 40 53 35 02 c1
       4.265066 -2.1806018 3.2041202 -8.138019
0000c0 da 26 bc 40 f2 3e 36 40 63 66 40 3e 3c 1e d3 40
       5.8797426 2.8475919 0.18789057 6.5974407
0000d0 8b ea bc 40 3b 46 9b 40 b5 08 79 bf 54 63 c1 40
       5.9036307 4.852323 -0.9727891 6.043375
0000e0 15 c0 da 3e e2 77 d3 40 3e de ca 3f f6 ed 83 3e
       0.42724672 6.608384 1.5849073 0.25767487
0000f0 55 7c 6c 40 b6 a4 9b 40 c5 e6 1d c0 1a 1a 6e 40
       3.6950886 4.8638563 -2.46721 3.720343
000100 81 b5 d0 c0 f8 63 57 40 f9 88 4c 40 dc c5 90 3e
       -6.5221562 3.3654766 3.1958601 0.28275955
000110 d4 50 9a 40 31 e8 cd c0 cb 2a 56 bf 8e 8d 61 40
       4.8223667 -6.4345937 -0.83659047 3.5242648
000120 b4 3e 93 3f c0 5b c0 3f 28 29 2a 3f 60 31 66 40
       1.150351 1.5028 0.6646905 3.5967636
000130 65 24 86 40 70 98 a9 c0 32 b6 58 40 4b 00 bc be
       4.1919427 -5.299858 3.3861203 -0.36718974
000140 a5 09 f1 3f 86 43 91 3f 60 07 9b bf 18 1a 61 40
       1.8831068 1.1348732 -1.2111626 3.5172176
000150 db ed 91 40 27 e2 37 bf 08 e2 24 c0 06 e1 46 40
       4.560285 -0.71829456 -2.5762959 3.1074843
000160 54 fa 02 c0 38 08 8e 40 6f 9b 2a 3e cc 28 8b bf
       -2.0465288 4.4385033 0.16660856 -1.0871825
000170 70 23 10 3e 64 fb bb 3e 7f c7 19 c0 71 83 12 40
       0.14076018 0.36715233 -2.4028013 2.2892725
000180 b4 c2 02 c1 0b 83 71 40 7b 23 9d 40 ec bd 73 c0
       -8.172535 3.7736232 4.910581 -3.808467
000190 12 8e b4 40 c4 3b bb 3e 0c c2 58 3f de b8 8f 40
       5.6423426 0.36569035 0.8467109 4.491317
0001a0 9a f6 10 c0 9d 98 ed be 1b 13 ca 3f 60 0d a6 40
       -2.2650514 -0.46405497 1.578708 5.1891327
0001b0 92 f5 5f 40 16 38 36 40 a3 42 93 40 fe fb 23 c1
       3.4993634 2.8471732 4.6018844 -10.249022
0001c0 44 64 4d 3f d4 42 16 40 2f 02 05 c0 b4 9b aa 40
       0.8023112 2.3478289 -2.0782583 5.3315067
0001d0 b2 f0 af 40 87 a9 a4 3e 6f 77 88 c0 01 09 94 40
       5.4981318 0.3216059 -4.2645793 4.626099
0001e0 9a ee 4e 40 0b 1f ac 40 0b a1 1c c0 6e 9c 09 40
       3.233313 5.3787894 -2.4473293 2.1501727
0001f0 38 06 84 40 97 af 3c 40 3e f2 c8 c0 c5 7b 81 40
       4.125759 2.9482172 -6.2795706 4.0463586
000200 2e 82 05 c1 94 12 1e 40 20 ea bd 40 5f 4b 1e 40
       -8.344282 2.469884 5.9348297 2.4733503
000210 d0 e9 d2 40 b7 1a 1e c0 20 b9 f4 3e bb f6 d8 40
       6.5910416 -2.4703805 0.4779749 6.7801185
000220 a6 64 14 3f 30 ca 4d 40 bb 6b 5d bf f4 3a cd 40
       0.5796608 3.2154655 -0.8649251 6.4134464
000230 a6 b4 63 40 8f 95 36 c0 9b 1b 3f 40 59 5d 05 c1
       3.557901 -2.8528783 2.98606 -8.33529
000240 f4 72 6c 40 c1 89 34 40 1f 47 be bf 55 ef d0 40
       3.6945162 2.8209078 -1.4865454 6.5292153
000250 43 58 c1 40 d3 48 b8 3f c5 92 86 c0 b8 b1 c9 40
       6.042024 1.4397224 -4.205416 6.302944
000260 54 18 36 40 2d 04 bd 40 68 1d 89 bf 47 9b 24 3f
       2.8452349 5.9067597 -1.0712099 0.64299434
000270 74 33 15 40 83 3a 32 40 83 5d f6 bf 57 91 69 40
       2.3312654 2.7848213 -1.9247288 3.6494958
000280 c8 c8 e6 c0 34 10 06 40 70 00 e0 40 5c 19 cf 3f
       -7.2120094 2.094739 7.0000534 1.6179614
000290 29 0b ae 40 a4 7f 51 c0 fd 0f 53 40 11 a6 a8 40
       5.4388623 -3.2734156 3.2978508 5.270272
0002a0 9b cc e4 3f b8 da 66 40 56 22 97 be 6c 56 b0 40
       1.7874941 3.6070995 -0.29518384 5.5105495
0002b0 e4 75 c8 40 3c 33 81 c0 75 e6 82 40 e2 22 a5 c0
       6.264391 -4.037504 4.090632 -5.160508
0002c0 1e 32 12 40 e6 4f c8 40 d3 95 2d c0 7d e5 b7 40
       2.284309 6.259753 -2.7122695 5.7467637
0002d0 96 d6 b8 40 47 0e 18 40 22 89 a7 c0 9f c9 b3 40
       5.7761946 2.3758714 -5.23549 5.618362
0002e0 b7 e2 3d 3f 6e 68 b0 40 38 32 33 3e 54 83 31 40
       0.74174064 5.512748 0.17499626 2.7736406
0002f0 0b 28 88 40 1b 76 95 40 99 07 5a c0 74 a2 5a 40
       4.254888 4.670667 -3.4067137 3.4161654
000300 c7 69 fb be 51 9c a1 c0 42 06 7c 3f 8f 40 89 c0
       -0.4910414 -5.0503316 0.9844705 -4.2891307
000310 74 e9 29 40 1d 08 95 c0 05 68 ee 3f 9e 75 98 3f
       2.6548738 -4.6572404 1.8625494 1.1910894
000320 66 72 d3 c0 18 20 f2 c0 ea 60 ba bf 83 d9 cd 3f
       -6.6077147 -7.5664177 -1.4560826 1.6082004
000330 a4 7a ec c0 05 d8 da bf 9e 8c 67 bf 25 50 80 40
       -7.389971 -1.7097174 -0.9044894 4.0097833
000340 3a 90 d4 3f 62 88 b4 c0 6a 65 3e bf cc b9 57 be
       1.6606514 -5.6416483 -0.74373496 -0.2106697
000350 da 28 f0 3f 27 29 14 bf 0e f6 7f 3f 75 a3 f0 3e
       1.8762467 -0.57875293 0.99984825 0.46999708
000360 6d 41 5f c0 08 57 96 3f 4e 5e c5 be 87 b0 18 c0
       -3.4883683 1.174531 -0.3854851 -2.3857744
000370 db 3d df bf f5 14 9d c0 82 1e 13 3f d7 c5 fa bf
       -1.7440752 -4.908808 0.57468426 -1.9591626
000380 90 b7 2d 40 59 1b d0 3f 9b 45 b9 3f d3 f6 11 3f
       2.7143288 1.6258346 1.4474367 0.5701725
000390 ac b3 b0 3e 74 cc f9 c0 7e db e4 3f 56 bf 7d 3f
       0.3451208 -7.8062077 1.7879484 0.9912008
0003a0 08 4f e3 bf 20 b7 e1 be 7b 6f 37 bc c3 75 3b 3f
       -1.7758493 -0.44085026 -0.011196013 0.73226565
0003b0 4a dc 9b 3f f9 53 7b 3f 28 42 96 3e 1c 72 c3 3e
       1.2176602 0.9817501 0.29347348 0.38172996
0003c0 31 29 92 3f 19 53 1f 40 30 6c 71 3f ae f5 f6 3e
       1.1418821 2.4894469 0.94305706 0.48234314
0003d0 0c b4 ae 3f 33 98 85 bf 29 41 27 3e 40 06 66 3f
       1.3648696 -1.0437073 0.1633345 0.89853287
0003e0 10 b1 5d 3e f0 0d 36 40 5d ec 79 be 02 11 f2 3e
       0.21649575 2.8446007 -0.24406572 0.472786
0003f0 f1 5c c9 be f6 a6 03 3f c1 8a 99 3e f0 f6 51 3d
       -0.3932872 0.5142664 0.29988673 0.05126089

critic.2.bias f4 [32]
000000 5a e2 19 3f bb 5e 25 c0 ad 6a 6d bf 6a 15 49 c0
       0.6011101 -2.583907 -0.927409 -3.141932
000010 bd c6 bc c0 06 a0 a3 c0 1b e7 77 c0 bc 4e b8 3f
       -5.89926 -5.113284 -3.8734806 1.4399028
000020 2b ea be c0 8b e6 97 c0 a7 71 93 c0 3a 10 0c c0
       -5.966085 -4.7468925 -4.6076236 -2.1884904
000030 e4 90 8f c0 a3 82 de bf c8 0c aa c0 8e 31 47 c0
       -4.486437 -1.7383617 -5.31406 -3.1123996
000040 b5 36 38 c0 b8 cd dd bd fb c1 20 c0 d5 c7 80 c0
       -2.878339 -0.10830253 -2.5118396 -4.0243936
000050 33 b5 1f bf 87 03 91 c0 28 a4 5b c0 d9 d6 44 c0
       -0.62385863 -4.5316806 -3.4318943 -3.0756133
000060 42 38 0d c0 5e 7c 62 c0 c2 0e 96 c0 f2 aa 51 c0
       -2.2065587 -3.5388408 -4.6893015 -3.2760587
000070 3f cd e7 bf 41 6c 6c c0 49 ed a3 c0 d6 99 31 c0
       -1.8109511 -3.6941073 -5.1227155 -2.7750144

critic.4.weight f4 [32, 32]
000000 e0 23 d3 be f0 b0 52 3f a7 df d5 be 32 05 06 3f
       -0.41238308 0.82301235 -0.41772196 0.5235168
000010 6b 38 63 3e 03 3b 77 3f f8 52 0b 3e 13 41 81 bf
       0.2218949 0.9657442 0.13605869 -1.0097984
000020 7f 9a 0b bf 74 3c 15 3f f9 d0 2c 3d b9 af fd be
       -0.5453262 0.5829537 0.04219148 -0.49548128
000030 3b ca 48 3f ff 41 33 be f5 06 88 be 7d bc 9d be
       0.7843358 -0.17505644 -0.26567808 -0.30807868
000040 eb a1 6b be 5d f5 89 3e e1 0f 03 3f 8e ac cb 3f
       -0.23010986 0.2694501 0.51196104 1.5912035
000050 a2 0f 90 3f d8 e4 85 3e 8b 98 95 3e db 6d 89 3f
       1.1254771 0.26151156 0.29217944 1.073665
000060 c4 85 2d bd d4 c8 07 bf 66 91 00 bf ea c7 82 bf
       -0.042363897 -0.53040814 -0.5022186 -1.0217259
000070 e3 10 15 3f eb 50 83 be c6 c0 90 3e 72 5c 3d bf
       0.5822889 -0.25647673 0.28272074 -0.73969185
000080 98 e6 60 be 1c 4c 8d be b5 21 83 3f 30 60 19 be
       -0.21962965 -0.2759713 1.0244662 -0.14978099
000090 62 5b 73 be 3e dc 25 bf e3 06 99 3e 62 29 bf bf
       -0.23765329 -0.6478919 0.29888067 -1.4934504
0000a0 54 f0 8f bf 74 0c d7 bd 38 56 9b 3e 39 07 12 3f
       -1.1245217 -0.10500422 0.30339217 0.5704227
0000b0 e1 2d e7 3e ed 5b 23 3e 0c ef 09 3f 6a 8b ab bf
       0.4515219 0.15953036 0.5388038 -1.3401921
0000c0 bd d5 f0 be c9 20 5d 3e 99 7a 0c 3f 59 2e f2 3e
       -0.4703807 0.21594538 0.5487457 0.47300985
0000d0 06 6f 20 3d 12 5e f5 bd 77 86 18 3f 4d 14 36 3f
       0.03916838 -0.11980833 0.5958018 0.71124727
0000e0 00 25 d3 3f a6 47 54 3f ff 6f 08 bf b7 47 37 3e
       1.6495667 0.82921827 -0.5329589 0.17898451
0000f0 6d 11 10 3e 67 d5 ad 3e 2d 27 7f 3f c9 f0 a7 3f
       0.14069147 0.33951876 0.9966915 1.3120357
000100 1d 60 02 be a7 bb 3e 3f b0 5e e0 be bc c0 96 bf
       -0.12731977 0.74505085 -0.4382224 -1.1777568
000110 09 4a 87 bf fa 19 25 3f 46 29 6e 3f a1 d4 06 bf
       -1.0569469 0.6449276 0.9303173 -0.52668196
000120 0f 60 33 3f b1 9f 56 3c ef 56 37 3f 89 48 47 be
       0.7006845 0.013099597 0.71617025 -0.19461264
000130 43 d2 dd be a3 96 73 bf 8b c1 56 bf b4 3b 17 bf
       -0.4332448 -0.9515173 -0.83889073 -0.59075475
000140 a9 c2 9f 3e 19 c7 0d 3e fa 08 56 3f ca 9d e1 3f
       0.312032 0.13845481 0.8360745 1.7626278
000150 60 07 c1 be 97 56 0b 3f c9 45 aa 3e 06 f5 da bc
       -0.3770094 0.54429 0.33256367 -0.026728164
000160 e4 a6 d5 3d 38 78 a0 3f e0 81 98 bf e5 55 99 3f
       0.104322225 1.2536688 -1.1914635 1.1979338
000170 f8 c9 16 bf 04 73 f7 3e 93 72 99 be d4 62 fe 3d
       -0.5890193 0.48329937 -0.29970226 0.12421194
000180 a7 22 17 bf 89 99 80 bf 81 a3 b7 3d 46 2c 30 be
       -0.5903725 -1.0046855 0.08966733 -0.17204389
000190 f2 86 91 bd 26 97 f3 be 0b 15 b8 3f 7e 4f 7b 3c
       -0.07105817 -0.47576255 1.4381422 0.015338777
0001a0 77 b5 3b bc ce 9b 60 be 80 b3 c8 3e fb 43 d5 3e
       -0.011456839 -0.21934435 0.39199448 0.41653427
0001b0 9c f1 06 be 60 38 0c 3f cc 44 29 be e3 07 12 be
       -0.13178104 0.5477352 -0.1653015 -0.14260821
0001c0 b8 a4 72 3d d3 69 3d be df ab 07 bf cf 8f b6 3d
       0.05923912 -0.184974 -0.5299663 0.08914148
0001d0 5d a3 18 bf d4 af 9d 3f 0d 8f e2 3e b2 dc ed be
       -0.5962427 1.2319283 0.44249764 -0.4645744
0001e0 46 7a 7c bd 99 6d 01 3f 9c 99 4b 3e 4d 28 a6 be
       -0.061640047 0.5055786 0.19882816 -0.32452622
0001f0 34 71 e8 be 1f 9e 08 3f 76 b1 1e bf 1e 21 61 bf
       -0.45398867 0.53366274 -0.61989534 -0.8794116
000200 7f 3f c5 3f 5e f4 59 40 4d 10 42 3f d3 26 4f 40
       1.5410002 3.40554 0.75806123 3.2367446
000210 1f ea ab 40 1e 46 9c 40 7c bb 12 40 5d ae 47 c0
       5.372329 4.883559 2.2926931 -3.1200173
000220 c0 f8 7d 40 a2 df 35 40 b4 e0 86 40 c2 49 4e 3f
       3.9683075 2.8417745 4.2149296 0.80581295
000230 8b 9b 40 40 b4 c2 ba 3e 0f c1 12 40 74 a4 9c be
       3.0094936 0.36476672 2.2930334 -0.30594218
000240 12 b5 9d bf bd 56 fe 3f 56 b6 46 3f e9 a9 ea 3f
       -1.2320883 1.987022 0.7762197 1.8333102
000250 59 4a bb bf 40 76 f4 be 10 05 44 40 6f cb 8c 40
       -1.4632064 -0.47746468 3.062809 4.399833
000260 0e 18 93 3f 48 c1 f2 bf bd df 9a 40 64 8b 79 3f
       1.1491716 -1.8965235 4.839812 0.9747832
000270 0e f6 80 c0 6a f1 40 bc 3c bb a5 40 7b e8 e5 3f
       -4.030036 -0.011776308 5.1791058 1.7961572
000280 89 9c 32 3f 62 ed bc 3f ad b6 01 3f 9c 06 5c 3f
       0.69770104 1.4759943 0.50669366 0.85947585
000290 8a d8 71 3f cc 1f 06 bf 52 02 73 3d dd 70 cb 3f
       0.9447104 -0.5239227 0.059328385 1.5893818
0002a0 59 55 46 3f 19 b4 9a bb 71 e1 3a 3f 08 b2 24 3e
       0.7747398 -0.0047211763 0.73000246 0.16083539
0002b0 ef 14 ce 3f 50 a6 da 3e 15 db 26 3f 21 cc e1 bd
       1.6100138 0.4270501 0.6517804 -0.110252626
0002c0 c0 4f 82 3d dd 99 05 3f 96 e6 8a 3e 00 72 62 3f
       0.06362867 0.521879 0.27129048 0.884552
0002d0 08 ce 60 40 7d 86 e8 3f 30 1e 5a 3f 12 b4 4b 3d
       3.5125751 1.8166043 0.8520231 0.049732275
0002e0 75 05 cf be aa 0d cf 3f 5e 23 51 3f 89 78 67 3f
       -0.4043385 1.6176045 0.8169459 0.904183
0002f0 01 66 e8 be e6 83 f4 3f 4a 13 74 3e 58 80 c3 3f
       -0.45390323 1.9102752 0.23835483 1.5273542
000300 d0 bb 6d 3e 36 1a c0 3f 1d 60 97 be 87 d8 89 3f
       0.23216176 1.5007999 -0.29565516 1.0769204
000310 cc 5a 1e 40 98 69 70 3f 76 ef 98 bf 23 2c 14 c0
       2.4742918 0.93911123 -1.1948078 -2.315194
000320 95 07 d4 3e c0 6a e4 bc a4 26 e1 be 4c f7 3b be
       0.41412035 -0.027882934 -0.43974793 -0.18356055
000330 bd 19 8c 3f f9 57 a0 be 40 12 1a 3d 1e c6 c7 bd
       1.0945355 -0.31317118 0.03761506 -0.09754585
000340 26 90 57 be 46 88 7c 3c 9f 87 1f bf 2c c7 90 3f
       -0.21051082 0.0154133495 -0.62316316 1.1310782
000350 bd 8c 90 be 31 57 5b bf 53 26 b3 be 4d c3 30 bf
       -0.28232375 -0.8567992 -0.34990177 -0.69048005
000360 40 ee a0 bc 2d ae 7d bf 7d 03 b6 3e 7b 99 7b be
       -0.019644856 -0.99093896 0.35549536 -0.24570267
000370 bc f6 57 3d 4a 66 f9 be 77 69 9b 3e 80 d9 23 3f
       0.05272554 -0.48710853 0.303539 0.64003754
000380 61 ca c1 3e dd d5 02 c0 9a bf 7a 3f 7e 93 3b 3e
       0.37849715 -2.0443032 0.9794861 0.18317983
000390 f5 5c f2 3e c2 03 6f bf 48 1a 9a 3e af f8 75 3f
       0.47336546 -0.9336511 0.30098176 0.96082586
0003a0 50 79 20 bf 68 dc b3 3e 04 47 6b bd cf c8 16 bc
       -0.6268511 0.35129094 -0.057440773 -0.00920315
0003b0 22 fc 69 3f 59 21 48 3e 52 d5 d4 3e ae d5 29 3e
       0.9140035 0.19543971 0.41569 0.16585419
0003c0 8d 64 2a bf 0b 9c b0 bd 32 85 d9 bd 4f 68 1d 3f
       -0.6655968 -0.08623513 -0.10621108 0.6148729
0003d0 20 5b be 3f 9f b0 85 3f ec 0e a1 3e 50 51 1b 3f
       1.4871559 1.0444525 0.31456697 0.6067095
0003e0 e4 88 6c bf 7b ab 2b be a7 61 ae be c5 08 d8 3e
       -0.9239638 -0.16764633 -0.34058878 0.4219419
0003f0 d2 9a 4f bf 3c 77 e2 be 73 42 62 3f b8 a4 b4 3f
       -0.8109561 -0.44231594 0.88382643 1.4112768

critic.4.bias f4 [32]
000000 83 a1 7c 40 f4 2a bc 3d 4b 01 c8 3e f4 04 5a 40
       3.947358 0.0918788 0.39063486 3.4065523
000010 99 69 02 c1 bf f6 c3 3f 1f 3a 2f 40 ba a7 56 40
       -8.150781 1.5309676 2.7379224 3.3539872
000020 df 97 36 40 cf 1c 07 40 92 06 8d be 88 66 f2 be
       2.8530195 2.1111333 -0.27544075 -0.4734385
000030 40 6d 2b 40 1f 2d 05 40 65 fe 83 3f 30 f2 1f bf
       2.678543 2.080879 1.031201 -0.62478924
000040 a1 7f 4b 3f 80 d1 8b 3f e6 c7 0c ba 1c e5 83 40
       0.7949162 1.0923309 -0.00053703634 4.1217175
000050 c3 2b d9 3f cb 2f 55 bf 87 45 f4 3f 97 9d 49 40
       1.696648 -0.8327605 1.9083718 3.1502435
000060 a8 f3 6a 3f ef 20 09 40 4b d4 15 40 92 6f 83 3e
       0.9177804 2.142635 2.3410823 0.2567106
000070 2e d4 5d 40 a9 a9 64 40 94 bf bb 3e dc 8c 3b 40
       3.4660754 3.5728552 0.366696 2.9304724

critic.6.weight f4 [1, 32]
000000 aa 29 dc bd 24 44 6c 3d b4 dd 94 3b 68 56 b5 bd
       -0.10750134 0.05768217 0.0045430306 -0.08854371
000010 50 66 93 3d e8 4d 18 3e d8 6a d0 bb bc 0f 41 3e
       0.07197249 0.14873469 -0.006360393 0.18853658
000020 4a 14 94 3d b1 c6 e4 3d 3f 9f 78 3e 38 60 71 bd
       0.07230432 0.1117071 0.24279498 -0.058929652
000030 5c 40 3f 3d 9d 9b d7 3c f4 b1 20 be d3 d7 3e 3f
       0.046692237 0.02631932 -0.15692884 0.7454807
000040 67 1e 6f be f1 27 e4 3d 75 b5 66 bd bc 3c 9b 3d
       -0.23351441 0.11140431 -0.056325395 0.075799435
000050 83 29 cc bc 37 d1 bc 3c e1 cc 1e 3e 7a f4 90 bc
       -0.024922138 0.02304898 0.15507843 -0.0176947
000060 f6 02 c6 3c 90 39 22 3e 22 72 1a 3e a1 df ab bd
       0.024171334 0.15842271 0.150826 -0.08392263
000070 0e 16 ac bd 1d a4 0c 3e ae 35 3f bd ba 55 2d 3d
       -0.08402644 0.13734479 -0.046682052 0.042318083
