models/model.ckpt-204368.pth (torch, 70479 bytes, 15 tensors)

actor.0.weight f4 [32, 181]
00000000: f126 eeba bdfe 2bbe 23d1 ffbe 906d 10bf
00000010: cde1 28be b4f6 243e 5ab5 713d 616e c03e
00000020: cda0 123f 91cd d93d 3169 16bd b63f 79be
00000030: da59 3bbf d8ba 52bf 08b3 38bf cfa9 c1be
00000040: abe2 803c 75f9 133f a22c 3f3f bf41 cb3e
00000050: e6a9 fc3d ac85 13be 65b7 abbc db4b 6dbe
00000060: 6162 043e f011 cbbd 9b2d 9cbd 3bb6 b0bd
00000070: 80ad 44bd 481d 76bc a0fa 0bbd 9387 0e3e
00000080: 1462 e73d a589 093e 1d15 e33d 691d f13d
00000090: 3360 143d 95d7 52bd e4af 05bd abaf 86be
000000a0: 5e78 823d 8add 4bbe f1e9 1bbe aef7 bfbc
000000b0: edce 95bd 5b1b fa3d f984 2e3d 5245 ccbd
000000c0: 9d2f 84be ab6d c1ba 7165 e4bd 0f18 edbe
000000d0: 0de3 53be db7c 573d 0a56 c43e a92a 90be
000000e0: 5fab a63e 625f ac3e 6c27 9d3e bdc0 8a3d
000000f0: 7f01 aebe 9b36 58bf ea9e b5be 41e6 853d
00000100: 8ea8 a43e 4095 7dbe ab96 f63d da15 633e
00000110: b8a8 373f 9990 523f e516 bbbd 262d 59be
00000120: b096 0bbe 61ec 3d3e 0ee3 033e 1efe 0dbe
00000130: b0bd 21bd e67c c03d 0726 2a3e 3489 88be
00000140: 688e 02be 5753 883e 4454 90bc ba3d 12be
00000150: c12a 64be dede 9abe 8467 a03d 7c66 993d
00000160: 7a5a 0d3e 0af8 6d3e 584e 5fbe c8a9 31be
00000170: 3601 7cbd 2528 5ebe 613d ec3d 0fd8 22be
00000180: 5e7c 6bbc ba7e 30be 1fa7 d93d cc20 a53d
00000190: a7cf 0abe f3cf cebd 6ed7 75be a7a2 82be
000001a0: 4c5b 2a3d 710d 0fbf df59 0fbe a92e c23e
000001b0: fcb3 06bd a6ec aabe e4f5 afbe f75d 40be
000001c0: f972 10be 1770 f2be 8977 acbe 840e fdbe
000001d0: c542 a6be 5e40 2fbd 07f5 8dbe be48 3fbe
000001e0: d879 ffbd 0393 17be 6ae6 8c3e 9570 6f3d
000001f0: 6012 7e3c 00d5 ad3b e642 24bf cc07 a4be
00000200: afd2 713e ef2f fb3d bca7 6abe bf22 5a3e
00000210: 9a56 883e c172 09bd 18a2 c5be 705c a3bc
00000220: 1eba 9fbe 6515 103d 75d1 dc3d 04cc 083e
00000230: 266a 92be fe80 89be 0219 cdbd 3428 283e
00000240: 02ab 923c 2b3b eabd 058b b6be 0b31 a1bd
00000250: c356 60bd 271f e7be 13f7 bdbe 3de3 15bf
00000260: 139a 7bbe 2629 83be e314 06be 2169 eabe
00000270: 92c6 c9be 15fa bdbd 8779 563e 715f b73e
00000280: 2600 773d 97f0 b1be 8344 a23e 4513 203d
00000290: b6e1 03be d477 15be 1c4a b7bd 7782 093c
000002a0: 8f21 50be ec45 933d 974a 85be 6f51 85bd
000002b0: 04f6 a93e ecdd b4be 4be6 833c 0cd4 e1be
000002c0: 0470 c3be 1dad a9bd 1b3e 5a3e 2c7f 9c3e
000002d0: 6c33 89be 9999 e3bd 11d8 babe feb5 acbe
000002e0: 0252 01bf 4a67 0bbc d108 63be 0138 bbbe
000002f0: 84fb 7abf 6af9 3a3f 8265 ac3f 1ffe 3bbe
00000300: ee3a 38be e380 4fbf 59b9 26be 4eba 29bf
00000310: 6ae0 0bbf 2187 fdbf 0c01 0bbf ebf6 91bd
00000320: a110 883f 25a0 c2be 2122 c8bd 5031 17be
00000330: df06 95be b45f 923e 81c2 f4bd e978 833e
00000340: 03b1 2d3e bae9 733e 47e1 833d 93a8 b03d
00000350: 1cab 1ebe e8be 0a3e b062 da3e 86a4 cc3e
00000360: 5b6a c63e 4726 97bd 735c 06bc 727c 96bd
00000370: f177 88bc 894c 8dbe b0df cfbe 12cb 133f
00000380: 93ba d53d 25ac e9bd a135 d83e 88a5 9f3b
00000390: ab32 1fbe 1054 043f 127a 053f 61e8 4ebf
000003a0: 581a b8bf 8f2c b2be 3b93 0c3f 62ad 823f
000003b0: aed2 963e 5bcd 833f 39fa 2d3f 45f9 8e3f
000003c0: f301 413e 2c38 eebf 6646 1dc0 bc18 5cbf
000003d0: acac a53f 29b3 d73f b491 8a3f 4f6b 683f
000003e0: 59fd 513f 77de 063f 4269 3e3e 925f 8abf
000003f0: 1ff2 12bf 3f5c 3cbe 52c5 9b3e 8dd2 9a3f
-0.0018169564 -0.16796394 -0.49964246 -0.5641718 -0.16492386 0.16109735 0.05901084 0.37584212
0.5727661 0.10634912 -0.036721412 -0.2434071 -0.7318398 -0.8231635 -0.7214818 -0.37824866
0.015733084 0.57802516 0.7467748 0.39698598 0.12337093 -0.1440646 -0.020961473 -0.23173468
0.12928154 -0.09915531 -0.07625886 -0.08628508 -0.048017025 -0.01502163 -0.03417456 0.13918905
0.11298004 0.13431413 0.110880114 0.11773188 0.036224555 -0.051475126 -0.032638445 -0.263059
0.063706145 -0.19908729 -0.1522596 -0.023433533 -0.073148586 0.12212249 0.04260728 -0.09974159
-0.25817576 -0.0014757415 -0.11152161 -0.46307418 -0.20692082 0.052609306 0.38346893 -0.28157547
0.3255262 0.3366652 0.3069414 0.06775043 -0.33985516 -0.8445832 -0.35472804 0.06538058
0.32159847 -0.24763966 0.120404564 0.22176304 0.7174182 0.8225189 -0.09135226 -0.21208629
-0.13631701 0.18547203 0.12879583 -0.1386647 -0.03948754 0.093988225 0.16616069 -0.26667178
-0.12749636 0.26626083 -0.017618306 -0.1428136 -0.22281934 -0.3024816 0.07832244 0.074902505
0.13804045 0.2323915 -0.2180723 -0.17349923 -0.061524592 -0.21695001 0.115351446 -0.15902732
-0.014372913 -0.17235842 0.10627579 0.08062896 -0.13555776 -0.10098257 -0.24007961 -0.2551472
0.041590974 -0.55879885 -0.13999127 0.37926224 -0.03288649 -0.33383673 -0.34367287 -0.18785845
-0.14106359 -0.47351143 -0.33684948 -0.49425137 -0.32472816 -0.042785995 -0.27726004 -0.18680093
-0.12474412 -0.14802174 0.27519542 0.058456976 0.015507311 0.0053049326 -0.6416458 -0.320372
0.23615526 0.12265002 -0.22915548 0.21302317 0.26628572 -0.033556703 -0.3860023 -0.019941539
-0.31196684 0.035176653 0.10782138 0.13359076 -0.2859661 -0.26856226 -0.100145355 0.16421586
0.017903809 -0.11437067 -0.35652938 -0.07870682 -0.054770242 -0.45140955 -0.37102565 -0.58549863
-0.24570493 -0.2561733 -0.13093905 -0.45783332 -0.3940931 -0.09276215 0.20944797 0.35815004
0.060302876 -0.34753868 0.31692895 0.039080877 -0.1287907 -0.14596492 -0.08949682 0.008392922
-0.20325302 0.07191071 -0.2603347 -0.06509673 0.33195508 -0.35325563 0.016101023 -0.4410709
-0.381714 -0.08284972 0.21312754 0.30565774 -0.26797044 -0.11113281 -0.3649297 -0.337326
-0.5051576 -0.008508513 -0.22171332 -0.36566165 -0.9804003 0.73036826 1.3468478 -0.18358658
-0.1799123 -0.8105604 -0.16281642 -0.66299903 -0.54639304 -1.9806863 -0.5429847 -0.07127174
1.0630075 -0.38012806 -0.097721346 -0.14764905 -0.29106805 0.2858864 -0.11951161 0.25678185
0.16962056 0.23819628 0.064394526 0.08625903 -0.1549496 0.13549387 0.42653418 0.3996927
0.38753018 -0.07380348 -0.008200753 -0.07347955 -0.016658755 -0.27597454 -0.40600348 0.57731736
0.10435977 -0.11409787 0.42228416 0.004872028 -0.15546672 0.5169077 0.5213939 -0.8082333
-1.438304 -0.3479962 0.54912156 1.0209162 0.2945761 1.0297045 0.67959934 1.1169821
0.188484 -1.8610892 -2.4574218 -0.8597524 1.294332 1.685155 1.0825715 0.9078874
0.820272 0.52683204 0.1859484 -1.0810416 -0.574007 -0.18394564 0.3042398 1.2095505

actor.0.bias f4 [32]
00000000: 9a39 9cbe 6a5d 7bbe 4d0d 65be dafa 693e
00000010: bd33 aabd 1723 d3bd ee8a 55bd a49b 7c3d
00000020: 10ed 6dbe b6b2 1a3e 979c d63d 690a d0bd
00000030: c2ac 19be 6c85 64bd 9a7e 40be 95e1 ad3e
00000040: 5f8b b03d a517 a8bc 0377 1f3e 4617 7c3e
00000050: a657 7ebe dce8 8cbe 02f1 b43d 879a 65be
00000060: 3d32 ab3c ad38 c3be 762f 513d 93fd 4c3e
00000070: 446d 33be c4e0 83be 1884 353e 5b4f 163c
-0.30512697 -0.24547353 -0.22368355 0.22849599 -0.083106495 -0.10309427 -0.052134447 0.061671868
-0.23234963 0.15107235 0.10479086 -0.101582356 -0.15007308 -0.055791304 -0.18798295 0.33961168
0.08620333 -0.020519087 0.15572743 0.24618253 -0.24838123 -0.27521408 0.08835031 -0.22422229
0.020897979 -0.38129178 0.051070653 0.20018606 -0.1752215 -0.2575742 0.17726171 0.009174193

actor.2.weight f4 [32, 32]
00000000: 0239 e8bd 92ea d93d 4059 7fbe fc88 bb3e
00000010: 0541 b9be 28a6 a33d 2900 19be 4bae 0c3e
00000020: 697c bebe f22e 31bf c4f4 0dbe 6277 7b3f
00000030: d3e9 903d a015 383e 9293 7ebe 962a d93e
00000040: 2b51 7a3f a8b6 d03b fa7f e63e d119 0e3f
00000050: 71fa 623d e0a6 81be 317b 6fbe b3c3 80be
00000060: b141 efbd 2ffa b43e e9e6 473e d547 66be
00000070: 8fd2 41be 5928 3cbf b162 26be 6ac7 d7be
00000080: feb7 1e3d 9501 16be 00a8 92bd 551f 6abe
00000090: 60ce 063e 1214 6f3d f8f9 90bd 520b b33d
000000a0: 2c2c 29be b7e8 78bd f9d9 6c3d ff9f 07be
000000b0: 9d47 483e e721 f7be 415d 6cbe b249 0e3e
000000c0: 1000 babe 5de1 87be 3132 a53d 18c3 c43d
000000d0: a198 b03c e617 a83c d347 23be bdf9 64be
000000e0: e97a b5be f076 013d 1cf5 cabb 383a 223d
000000f0: fae5 09be 4e98 a0be dce2 f2be f271 87be
00000100: 085e 9e3e 3a22 2a3f 17e7 993e 36f5 7b3e
00000110: e782 18be e381 fe3d 4509 13be bc3d 143e
00000120: c434 883d a326 12bf cc66 72bf 4813 8a3e
00000130: c701 18bf 149c f73f 31f0 813f 4df7 3dbe
00000140: 813e a9be b751 7abe 1191 69bf 4585 17be
00000150: b9d3 013f 6ce2 31bf 4ef8 fdbe c2d4 243f
00000160: b2f2 243f 303a f2be bf12 6ebf 8e71 2bbf
00000170: 9986 ebbd c04e 843d 1320 2fbf 22dd b13d
00000180: e377 aa3e a0ba ec3d 85e9 7cbe 6aa3 e3bd
00000190: 096c 2e3e b56a 5ebb 6f7c f23c f2e9 093d
000001a0: d45c c63e 9531 47bf 89ae 16be 2feb 90bd
000001b0: ef1d 23be 4462 a7bc 98e8 d83e d7fb 4d3f
000001c0: 3e7c 9f3e 4fe6 0d3e 2bc8 28bf 16ae b73e
000001d0: 374e f4be af6f debd 8ef5 c3be 304d dd3e
000001e0: b6bf 543e ae4d bcbe ee0b a03e 5d1d b0be
000001f0: 60b7 8bbc 1b69 83be 5027 203f fb9b 39be
00000200: a8ce ba3e aeab 23bf fbf4 7ebe f29d b0bd
00000210: 14b5 44be 6b60 efbd 6985 02bf d219 ea3d
00000220: 8853 cb3c 12b1 943d 967c 253f d279 15bf
00000230: bff8 66be 310c 9f3e 3a44 053f 7a89 993f
00000240: c6d4 3dbe 3cb0 1c3f 5872 4bbd 19b6 20bf
00000250: a20d b7be 86c5 ac3e 4b9b 2cbe 63d1 5b3d
00000260: 700a 893e d111 5abf 16a7 35be f319 8abc
00000270: 8532 233f 70dc a1be 458a 0d3f 74a5 71bf
00000280: e3d4 82be 5e29 71be 3e6c 97bd 776a 97bd
00000290: fbd6 5f3e 1271 4a3f 7092 afbe 6302 4b3f
000002a0: 759d e93e 8918 153f 1cbe 773e 66ca 2abf
000002b0: b108 ed3d 9dfd 6ebf fafd 90be 8fa8 87bf
000002c0: fbe0 42bd fa6e 243e 37f1 673f c467 6b3f
000002d0: 5f65 0c3e 9976 10bd 0cb0 fe3e 819f 7c3e
000002e0: 655c c0be 9ff8 613f 6467 6d3f 8dcb 34bf
000002f0: 5ef3 40bf 1e42 183f 810f f33d 236c e8bd
00000300: 0f9e e13d dfc3 6ebe 803f 10be 463c 813e
00000310: d36e 49be 7da9 21be 176b eabe 4a1e 9abd
00000320: de1c d6be d47b 71be ba70 63be af56 1bbe
00000330: 2aec dfbd 2151 303f 1c2d 22bd dbfb e43e
00000340: 0d6f 883e fd6d 573d 216a 3cbf feb7 8fbe
00000350: 47c3 7fbd c51e 92be d8de 3dbe 1744 aa3c
00000360: 6841 e93d 7ce9 0cbf 83d5 22be 66ac 02bd
00000370: d1e6 b93b 8320 4abe c4ff 85bc 252f fdbe
00000380: 3c8b 62bc b003 3fbd b0e3 05bf bf4e 3c3e
00000390: fa85 793e 35d3 283e cddc 7abe ad52 423d
000003a0: 87fc 2ebc 62cf 00bd e03f 253e 011c aabe
000003b0: d1ea cebe 85bf 293e 4984 7e3d 8c16 87bd
000003c0: aa4d eebd 55c9 77be 167c 883d 805a bebe
000003d0: 38f5 513c aeb0 f2bd 4e40 1abe 0b3e 7fbe
000003e0: 2045 f3be 678b 14be 7669 3fbe f803 1a3e
000003f0: e2ac de3d 9972 493d 8162 bfbe 6415 0bbf
-0.113389984 0.10640444 -0.2493639 0.36627948 -0.36182418 0.07990676 -0.14941467 0.13738362
-0.37204292 -0.6921226 -0.13862902 0.9822904 0.070758484 0.17977 -0.24860981 0.42415303
0.977801 0.0063694306 0.45019513 0.5550814 0.05541462 -0.25322628 -0.23386838 -0.25149307
-0.116824515 0.35347125 0.19521679 -0.22488339 -0.18927978 -0.73499066 -0.16248585 -0.42144328
0.038749687 -0.14649041 -0.0716095 -0.22863515 0.13164663 0.05836875 -0.07078928 0.087423936
-0.16520756 -0.06076881 0.057825062 -0.13244627 0.19558568 -0.48268053 -0.23082449 0.138953
-0.36328173 -0.26539126 0.08066214 0.09607524 0.021557154 0.020519208 -0.15945368 -0.22360893
-0.35445336 0.03160757 -0.00619377 0.039606303 -0.13466635 -0.313662 -0.47438705 -0.2645412
0.30931115 0.66458476 0.3005912 0.2460526 -0.14893685 0.12427118 -0.14359005 0.14476675
0.06650689 -0.57090205 -0.94688106 0.26967835 -0.5937771 1.9344506 1.0151426 -0.18551369
-0.330555 -0.24445234 -0.9123698 -0.14796932 0.5071369 -0.6948612 -0.49603504 0.6438714
0.64432824 -0.4731002 -0.92997354 -0.66970146 -0.11500282 0.06460333 -0.68408316 0.08684756
0.3329459 0.115590334 -0.24698456 -0.11115153 0.170334 -0.0033938114 0.02960035 0.033670373
0.38742697 -0.7781003 -0.14715017 -0.07076108 -0.15929388 -0.020432599 0.42364955 0.804624
0.31149477 0.13857387 -0.6593043 0.35875005 -0.47715923 -0.10861146 -0.3827328 0.43222952
0.20776257 -0.36778015 0.31259102 -0.34397402 -0.017055213 -0.25666127 0.62559986 -0.18125908
0.3648579 -0.6393384 -0.2489814 -0.08623876 -0.19209701 -0.11688312 -0.5098482 0.11430706
0.024820104 0.07260336 0.6464323 -0.5838901 -0.22555827 0.3106399 0.5205723 1.199508
-0.18538198 0.6120641 -0.049669594 -0.6277786 -0.3575259 0.33744448 -0.16856115 0.053666484
0.26765776 -0.85183436 -0.1773952 -0.016858077 0.6374896 -0.31613493 0.5528911 -0.94393086
-0.25553045 -0.23550937 -0.073936924 -0.073933534 0.21859352 0.7907878 -0.3429141 0.79300517
0.45627943 0.5824056 0.24193615 -0.66715086 0.115739234 -0.93355733 -0.2831877 -1.0598315
-0.04757784 0.16057959 0.9060244 0.9195521 0.13710545 -0.035269354 0.49743688 0.24670221
-0.3757049 0.8826999 0.92735887 -0.70623094 -0.7537135 0.59475887 0.118681915 -0.113487504
0.110164754 -0.23316906 -0.14086723 0.25241297 -0.19671182 -0.15787311 -0.45784828 -0.075253084
-0.418189 -0.23582393 -0.2221097 -0.15169786 -0.109337166 0.6887379 -0.0395938 0.447234
0.26647225 0.052595127 -0.7359944 -0.28070062 -0.06244209 -0.285391 -0.1854204 0.02078442
0.113894284 -0.5504377 -0.15901761 -0.031902693 0.0056732674 -0.19738965 -0.01635731 -0.4945003
-0.013827141 -0.046634376 -0.5230055 0.18389414 0.24367514 0.16486819 -0.24498291 0.047442127
-0.010680324 -0.031447776 0.16137648 -0.3322449 -0.40413526 0.16576965 0.062137876 -0.06596097
-0.11635907 -0.24197896 0.066642925 -0.3717842 0.012814812 -0.11850105 -0.15063593 -0.24926011
-0.47513676 -0.14506303 -0.18692574 0.15040576 0.108728185 0.049181554 -0.3737984 -0.54329515

actor.2.bias f4 [32]
00000000: e8d0 523c 42b7 8bbe c73b d7bd b6fc 0e3c
00000010: f638 93bd 096c 853e 9723 25be ec6c e3be
00000020: 7337 3fbe 5927 38be 6ecf 273e 3e48 4d3e
00000030: 2729 e7be 232a 65be d1d5 9a3d 14be 20be
00000040: b603 f0be b760 de3e 9e93 97be a04e b1be
00000050: 25ff ed3d 61dd e0bd b847 9cbe 765a 8cbe
00000060: d6b0 5a3e a1d3 90be 869a 1a3e d174 a0be
00000070: 5d51 babe ff27 773d 1d89 f63e 8566 9e3d
0.01286719 -0.27288252 -0.105094485 0.008727243 -0.07188599 0.26058987 -0.16126858 -0.44419038
-0.18673496 -0.1798376 0.16387722 0.2004709 -0.45148584 -0.22379355 0.075603135 -0.15697509
-0.4687783 0.43433163 -0.2960481 -0.346303 0.116209306 -0.10979725 -0.30523467 -0.27412766
0.2135652 -0.2828646 0.15098009 -0.31339124 -0.363902 0.060340878 0.48151484 0.07734398

actor.4.weight f4 [32, 32]
00000000: 3fd8 09bf 1209 583d 69be f5be 0f6f 273e
00000010: c0c5 833e 6b67 5e3e edae 313e 5b8d bebd
00000020: 86bd cfbd c2d3 88bf 2040 97bd 0069 0bbe
00000030: 97d1 d63e 5866 95bd d9e9 613f 55a8 db3e
00000040: a723 8e3e 0be3 b9be 5341 5e3d 067d 0fbc
00000050: b33c ca3e 058b 60be 310c 043e 33e9 e53e
00000060: 3845 5a3e bc8a 02bf 2318 d5be 8fb5 ef3e
00000070: 3455 03bf 5db8 5cbc 4902 4bbe b0ad aabd
00000080: 49d5 78bd ed12 5e3e 4735 ccbe 8c24 ba3e
00000090: 591c b9be 933a 9b3e 24a7 23bf e4e3 403d
000000a0: c20e 5dbe 6d9e af3d 19da 40bf 8fe4 523e
000000b0: ef25 89bc 353d e13d ab80 083f e78d d6be
000000c0: dd63 fbbe 2874 afbe a2a4 fe3c 0e6a 963e
000000d0: 1ab4 2a3d eefa c6be 4d93 1dbc 92fe 0c3e
000000e0: 5e92 cabe 893d 88be 936b dbbe 397f 443f
000000f0: 7a7c ea3d 62ab 1f3f fa61 0f3f 1e96 eabe
00000100: 5c75 d83e a925 b43d 2731 4b3c 0aac 7f3e
00000110: f7c0 443f 63b7 c3bd 4e76 be3e 6116 0ebc
00000120: 9d2b ef3e 5aeb 663c 8c00 fc3e 0e1b a63e
00000130: dfc7 15bf 88b0 b03d 36c0 0abf 92f7 04bf
00000140: e570 f4be 6352 4e3f 359a 313f 7f63 013e
00000150: c368 bb3e 6fa6 c23e 436f 213d d804 89be
00000160: 01ac 9a3e eff6 0a3f 0e41 8d3e 1c02 f1be
00000170: f105 d3be c370 83bf 8313 2cbc dd6c d83e
00000180: 907e f63d 51a3 a23e a338 adbe 31e1 903e
00000190: f2d1 5ebd 34f9 51be 90bf 02bd e521 573d
000001a0: bb95 903e 520b 98be bb1d bbbe f685 683e
000001b0: 5251 f9bd 920d 893e 42b8 c9be 2818 7abd
000001c0: c4e7 39be d5e3 393e 700e 8dbd 406a 213f
000001d0: 21ec cabe 45ef 853d fff1 d83e ed95 413e
000001e0: 931a d7be 44b7 df3d 2ae5 65be 0c88 3abe
000001f0: d748 38be 08ba abbe e6f6 24bc f58a 2c3f
00000200: cf22 023e cc99 b6be fbfb 8b3e fb38 983e
00000210: 3de5 113f f714 333e 74e0 693e 8f79 bdbe
00000220: 0cfa 763e 9efc 903e a4a4 973e e36c 793e
00000230: a902 8d3d 8a34 c53e 8538 93be 8822 f7be
00000240: 7ce9 1cbf 7a40 0e3f bc06 343e d5a7 25bd
00000250: 176c a0bd 6168 cb3d 432c 7cbe f29b 7bbe
00000260: a9a7 cd3e c6b2 383e b7aa 11be 7592 3dbf
00000270: 2a8f a4be e35b 0ebc 2563 3a3d 2ee4 3f3e
00000280: 8eb8 d4bd 0026 163d 1ba2 75bc 1d73 9f3e
00000290: cd62 0abf 33fa a3bf 59a5 c4be 5bc4 8bbd
000002a0: 640a 05bc c441 0dbf 5b69 1ebe 2a3c 053e
000002b0: 5550 21be 7fe1 ecbd 6318 6dbe 1b24 36bf
000002c0: a653 82be d12f e83d aacc 01be 7bf9 70bd
000002d0: 1ddc 1fbf 99c1 25bf e211 353d f86a 1ebf
000002e0: 2cbc 75be 2a0d 6abd f825 f13e 7d00 d5be
000002f0: 8db7 a53e 54f8 5abf 7aa5 73be 82bb 36be
00000300: 7062 81be b3f2 7fbe 9a3a c8be c804 a8be
00000310: 40cc a03e 50ad 12bd 4161 353e 42b9 d5bc
00000320: 0883 00bf e6fd eabe c5cd bfbe c3e1 ee3e
00000330: 34f4 a1bc 7a9b 303e 9853 273f 1ef6 db3d
00000340: e09e 2e3e 385e 59bf 15d2 9d3e 877e 0d3e
00000350: 0b16 d53d 8efe 58be e55f 1d3e 80fa 2ebe
00000360: 992d e6bd 9bc0 fbbe daf7 933d 6a31 723e
00000370: ae5e 46be 34f4 7c3e 3828 403d 2138 b2be
00000380: 3069 38bf ae5c e43c b172 663e 1472 e9bd
00000390: baff f33e c8dc 8dbd 1941 973e 2536 b2bc
000003a0: efa9 bc3c a2fd 823e 5e70 233f 454c 45be
000003b0: a041 99be 56a5 803e e194 403e 5a0a 6fbd
000003c0: a8a4 a53d 1c8e 7f3e b864 7d3e 44a1 4e3e
000003d0: 52d4 c13e cb9c 2e3e 2259 66bc c371 f2be
000003e0: 693d 743f b97a db3e a567 dc3e 5bf5 c33b
000003f0: 76b7 d3be 556e 80be 4de3 b4be 11b5 80bb
-0.5384559 0.052743025 -0.47996834 0.16350959 0.2573681 0.21719138 0.17351885 -0.09304305
-0.101435706 -1.0689623 -0.07385278 -0.13614273 0.4195678 -0.07294911 0.8824745 0.42901865
0.27761576 -0.36306033 0.054261517 -0.008757835 0.39499435 -0.21928032 0.12895276 0.4490448
0.21315467 -0.5099294 -0.41619977 0.46818206 -0.51301885 -0.01347169 -0.1982509 -0.083339095
-0.06075028 0.21686907 -0.39884397 0.36356008 -0.3615444 0.30318126 -0.6392691 0.047092333
-0.21587661 0.08575139 -0.7533279 0.20595 -0.016741721 0.109980024 0.5332133 -0.41905138
-0.49099627 -0.34268308 0.031084362 0.29377788 0.041675664 -0.3886332 -0.009617639 0.13768986
-0.39564794 -0.26609448 -0.4285551 0.76756626 0.11449523 0.62370884 0.56008875 -0.45817655
0.42277038 0.087962456 0.012401856 0.24967971 0.7685694 -0.095564626 0.37199634 -0.008672328
0.46712962 0.014094198 0.49219167 0.32442516 -0.58508104 0.08627421 -0.5419954 -0.5194026
-0.47742382 0.8059446 0.69375926 0.12635611 0.36603364 0.38017604 0.039412748 -0.26761508
0.30209354 0.5428304 0.27588695 -0.47071922 -0.4121547 -1.0268787 -0.010502699 0.42270556
0.12035859 0.31765226 -0.33832273 0.28296807 -0.05439944 -0.2050522 -0.03192097 0.05252256
0.28239235 -0.29696137 -0.3654612 0.22707352 -0.12173714 0.26768166 -0.3939839 -0.061058193
-0.18154818 0.18153317 -0.06887519 0.6305275 -0.39633277 0.06539778 0.42372128 0.18904848
-0.42012462 0.10923627 -0.224507 -0.1821596 -0.17996536 -0.33540368 -0.010068631 0.6739953
0.12708591 -0.35664213 0.27340683 0.29730973 0.56990415 0.17488466 0.22839528 -0.37006804
0.24118823 0.28317732 0.29617798 0.24357943 0.06885273 0.38516647 -0.28754058 -0.48268533
-0.6129377 0.55567133 0.17580694 -0.04044326 -0.078331165 0.09932018 -0.2462626 -0.24571207
0.40166977 0.18036947 -0.14225279 -0.740516 -0.32140476 -0.0086889 0.045504708 0.18739387
-0.103867635 0.036657333 -0.014992262 0.31142512 -0.5405701 -1.281073 -0.384074 -0.06824561
-0.008120153 -0.55178475 -0.15469877 0.13011232 -0.157533 -0.115664475 -0.23153834 -0.7114884
-0.25454444 0.11337245 -0.1267573 -0.058831673 -0.6244524 -0.6474853 0.044206508 -0.6188197
-0.23997563 -0.05714146 0.4709928 -0.41601935 0.323666 -0.8553517 -0.23793593 -0.17844966
-0.25270414 -0.24994926 -0.3910721 -0.32816148 0.3140583 -0.035809815 0.1771288 -0.026089314
-0.5019994 -0.45896834 -0.37461677 0.46656618 -0.019769765 0.1724681 0.6536193 0.107403025
0.17052794 -0.8490939 0.30824342 0.13817798 0.10404595 -0.21190855 0.15368612 -0.17087746
-0.11239166 -0.49170384 0.07225008 0.23651662 -0.19372055 0.24702531 0.046913356 -0.34808448
-0.72035503 0.027876224 0.22504689 -0.11398712 0.4765604 -0.06926876 0.29541853 -0.021754334
0.02303025 0.2558413 0.63843334 -0.19267376 -0.2993288 0.2512614 0.18806793 -0.05835948
0.08088046 0.24956554 0.24745452 0.20178705 0.378573 0.17052 -0.014059337 -0.47352418
0.95406204 0.42867067 0.43047825 0.0059801764 -0.41350907 -0.25084177 -0.35329667 -0.003927835

actor.4.bias f4 [32]
00000000: 2ac5 853e ee4c b23d e1de 913e 418c b13c
00000010: 8efc 3b3f d936 373b ccd1 2c3d bcb7 f53d
00000020: bf23 a23d c9e9 5ebe faf2 9ebe 0259 69bf
00000030: 6386 8abe 2c79 143f f200 60be 8f8c 593e
00000040: 6fe1 13be 36f8 9bbe 9f59 bcbe f522 3dbe
00000050: 5abb 0abf 9cfb ddbd 7d15 8d3e 51b3 36be
00000060: 8b56 53bd 234b 09bf 9917 1fbe 01a6 46be
00000070: dc71 a8be 695b 45be c98d 773c c82e 74be
0.26126987 0.087060794 0.28490356 0.021673324 0.7343224 0.0027956276 0.042192265 0.11997935
0.07916974 -0.2176887 -0.3104475 -0.9115144 -0.27055654 0.57997394 -0.2187536 0.21245025
-0.14441465 -0.30462807 -0.36787125 -0.18470366 -0.54192126 -0.10839006 0.27555457 -0.17841841
-0.051596206 -0.53630275 -0.15536346 -0.19399263 -0.32899368 -0.19273151 0.015109488 -0.2384597

actor.6.weight f4 [4, 32]
00000000: bfcf e73e 6923 aabc 58f4 943d 0285 a63d
00000010: a2b6 813e e74e 30be 5d19 05bf 8531 1d3f
00000020: 4c7b 993e c3db d63d 5c7f a0bd daef c53d
00000030: 173b 2b3f bc6b c33d 6b06 1c3c 1326 f03e
00000040: ae23 e4be 508d db3c 50af 3abe d213 00bd
00000050: f6c6 c3be 887d bf3c 5936 083f 9522 823e
00000060: 58c6 1e3e 9965 283e 37f5 b5be 6263 26be
00000070: 40cb 87be 6562 18be 1812 a8be fb21 15be
00000080: 2d95 ca3e 7469 a13e 57c2 9d3e 1109 623e
00000090: dee9 113e da0c 11bf c572 8e3d 88e1 e23d
000000a0: 2c2f d03e e67c e0bd 8822 c2bd 9be9 b83d
000000b0: 5468 853d e1ed a13d 96b0 31be 6768 a2be
000000c0: 8049 453f 6828 83be f993 4ebe 2911 553d
000000d0: 30cf 85be e953 ba3e 2cbf 9e3e 713b a23d
000000e0: 4432 923e 2a1b 1cbe 7caf dfbd ddf5 edbe
000000f0: d0e8 41be 2c9b 993d 0688 cb3e 78ac cbbd
00000100: 7a3d 4abf 2742 a1bd e238 3abf 72f2 e6be
00000110: 62b1 45bf 8320 a43f 4ea0 133e dace efbe
00000120: 762e 9dbf ab3a b13e 4f10 d13e ddbd d03e
00000130: 91a1 3e3f 0ee9 3dbf ad18 10bf 7748 803e
00000140: 788d 5a3c c5f8 1c3e 8b98 cdbe f7bc b5bd
00000150: 7010 80be b733 d63c d713 c63c f3c9 7fbd
00000160: 4ce1 303f 7a48 053f 6c26 6b3d e6cc 523f
00000170: 8f8b c13d f26f 49be d44b e53e af7d cc3e
00000180: fbc6 dbbe c399 1fbe 665e a6bf 6d48 c6bf
00000190: 864c afbf 794a 303e 32fd 8d3e bc82 4cbf
000001a0: ae0f 37bf e8db 46be f93c 803d 2a47 03bf
000001b0: f457 e2bd 2338 87bf 6b02 9b3e 6d89 dabd
000001c0: dac6 bfbe 8a87 bcbe c9ab c93d f94a 07be
000001d0: 8fef 8e3e 13cd 4fbe c76c afbf 156f 15bf
000001e0: 3584 3dbe d0d5 f23d 6067 6cbe 3971 483e
000001f0: 4ea5 653e 595f a2bd 2644 81bf e4b9 ad3d
0.45275685 -0.020768838 0.07273167 0.08130838 0.2533465 -0.17217599 -0.51991826 0.61403686
0.2997688 0.10491135 -0.07836792 0.09664889 0.6688704 0.09542033 0.009523015 0.46904048
-0.4455847 0.026800781 -0.18230939 -0.031268902 -0.38237733 0.023375288 0.5320793 0.2541701
0.1550535 0.16445006 -0.35538647 -0.16248849 -0.26522255 -0.14881285 -0.32826304 -0.14563744
0.39566937 0.31525767 0.30812332 0.22073771 0.1424937 -0.56660235 0.06955484 0.11078173
0.4066099 -0.109613225 -0.094792426 0.09028932 0.0651404 0.079067 -0.17352518 -0.31720278
0.7706528 -0.25616765 -0.20173635 0.05201832 -0.26134634 0.36392143 0.31005228 0.07921494
0.28553975 -0.15244737 -0.10922143 -0.4647664 -0.18936467 0.075003 0.39752215 -0.09945005
-0.79000056 -0.07873946 -0.72743046 -0.45106846 -0.7722379 1.2822422 0.1441662 -0.46837503
-1.2279804 0.34615073 0.40832755 0.40769854 0.7446528 -0.7418374 -0.5628765 0.25055286
0.013339393 0.15329273 -0.40155444 -0.08873933 -0.2501254 0.026147706 0.024179382 -0.062448453
0.69093776 0.52063715 0.05740969 0.823439 0.09450447 -0.1967161 0.44784415 0.3993964
-0.42925248 -0.15585999 -1.2997558 -1.5490853 -1.3695228 0.17215909 0.27732235 -0.79886985
-0.715083 -0.19419825 0.062616296 -0.5128046 -0.11051932 -1.0564007 0.30275282 -0.10670743
-0.374564 -0.36822158 0.098472185 -0.13212194 0.27917144 -0.20293073 -1.3705071 -0.5837262
-0.18507464 0.11857188 -0.2308631 0.19574441 0.2242634 -0.07928342 -1.0098922 0.084827214

actor.6.bias f4 [4]
00000000: fb96 8f3e 3ac3 823e 8f2b 3ebf 6ff0 00c0
0.28044876 0.2553957 -0.74285215 -2.014675

critic.0.weight f4 [32, 181]
00000000: b2ba c93f 8c0b cd3f ab08 483f 3baa 363f
00000010: 98ff 503f 8897 363f 75bd 273f d14a 863f
00000020: 9845 613f ebea ab3f 09e8 1840 fbb0 b73f
00000030: 051e 493f df39 4b3f 8698 c23e 6bcc a23e
00000040: ff82 2b3e d501 453f 9c74 6d3f dbed a43f
00000050: e75a 123f 8adc 353f daf0 3f3f 4b27 2c3f
00000060: c667 1d3f c4a0 293f 4c71 403f d483 2d3f
00000070: b47f ca3e e7b5 013f 61d3 41be c4ca d03e
00000080: ff77 e6bd dd53 f03d af0d 5f3f 9141 aa3d
00000090: b3de b23e 9dcf 8f3e 1a97 ce3e d6a8 12be
000000a0: 764c c23f d4f7 c93f 57be 613f 5de2 da3f
000000b0: afdf fb3f 2cdc 933f 6b95 9c3f 3eda 613f
000000c0: a93c 813f f3d6 693f 3ab5 03be a63c 253e
000000d0: 0030 9fbd 67a4 cc3e 2cde bf3e d22f fb3c
000000e0: efdc b03f 906f bd3f 2d24 553f 82fe 5e3e
000000f0: 4830 18be 8b16 27bf 24da 93be 12f6 b03e
00000100: d930 383f f10c b53e 607b 6e3f e8a8 733f
00000110: 0321 683f 2a33 d13e 94d1 0d3d 34a4 8ebe
00000120: 03aa 853d a916 693e 972e 273f 252c f63d
00000130: c56d 7a3f 1659 243f 8d2c 673f 7221 9b3e
00000140: 2160 7e3e 3d66 9b3e 237a 18be caf3 f83e
00000150: 1439 343f e472 393e afbd 393f 2ff4 883f
00000160: c25b a43f 94aa ab3e c6c8 29bd 7c19 213d
00000170: 5ab0 613b 8ad7 7d3e bf83 1a3f c528 323e
00000180: ec50 043f ebf5 b93e f776 c63e cee7 843e
00000190: e358 ea3c 111d 5b3e 2761 f23d 0e85 553e
000001a0: 7c78 8c3e ad46 ac3d c313 af3e fe53 823d
000001b0: 78da b33e 93bb 773e b2e3 e63d 97eb 70bd
000001c0: 4ba3 8e3d 594f 94bd 6bde e93c 27a7 05bd
000001d0: a4df 8bbd 1641 13be 3310 84be 1b7e ce3d
000001e0: 1e7a 2b3e 3133 b23d bcb2 7c3e 310c 913e
000001f0: 55b8 dc3e 62dc 953d 837d b43e d7b5 76be
00000200: ee2b 54bd 972a ea3d 83fc 033c c70a 1f3a
00000210: d42d 4abd 4bbb a43e dc3d 1a3e ae3c c33d
00000220: 9539 5a3d 23e8 c43d d3aa 70be 7dfa b23d
00000230: 4f8c 0b3e bd49 963d 8feb fbbb 57c3 533e
00000240: 8bbc 5cbe 775b a5bd 3695 70bd 7366 093e
00000250: 19c7 90bd 3e40 5cbd 84f8 8abe 7863 09be
00000260: 9b7e b9be d87f 78be e1ab 89bd 00bf 12be
00000270: 6cd2 553e dc5d 8cbd 7d46 b93d 94b9 093e
00000280: 4f0b c43e 43cf 76bf 51ca bd3e 8207 323e
00000290: d8e9 043f ff6d 0b3f bde2 1e3f 46ee 173f
000002a0: fb56 503f a880 0f3f d5e5 f33d ad1d 3a3f
000002b0: e7ad 333f 085f 383f 5fe7 173f 4274 833f
000002c0: 4d69 a23f 70d5 b33f fa64 953f 3ef7 943f
000002d0: 4af6 53bf d613 c13f 5ef1 bf3f 654b 363f
000002e0: 70c4 c33e 1c08 a83e fca3 023f cc42 023f
000002f0: 652f a43f b998 7b3f fda8 ac3f 96a9 1940
00000300: 91f8 b63f 245b 2b3f ddf5 223f 34df e23d
00000310: a85d 683d 88d8 cf3d 5a9f 843f 7203 703f
00000320: c11d 9c3f 4821 463f cf2c 2f3f ee03 463f
00000330: 5232 323f 8513 1b3f 7f5c 2e3f 26ab 7a3f
00000340: 98d7 163f 06de c93e dac7 2d3f 4f92 01be
00000350: faf5 c63e 0a1d 52be d2e3 473e dcc2 003f
00000360: 672f 8ebd 0516 843e a26b 63bd 7081 b93e
00000370: 3012 003d 0360 ad3f 1ec1 bf3f 78e8 5c3f
00000380: 55c7 a93f 2c7b ce3f cd21 a53f 6c8a 633f
00000390: d9f4 5c3f f7cf 573f f13b 033f 3424 a63d
000003a0: 42d1 ed3c 9c9a 47be 3016 813e 9c24 ee3e
000003b0: 5723 893e 4d3a 973f 8512 8f3f d476 3f3f
000003c0: 175a da3e d29e 29bd f296 26be 415f ebbe
000003d0: 88f3 783e 9d3b dd3e 933c 8b3e 26ca 9f3f
000003e0: be0f 6b3f bd45 373f 4671 ff3e b22d a23e
000003f0: d1ac 933e e564 123e d3a4 9b3e 5424 9b3e
1.57601 1.6019149 0.78138226 0.713535 0.81640005 0.7132497 0.65523463 1.0491582
0.87996817 1.3431066 2.3891623 1.4350885 0.7856143 0.7938518 0.3800699 0.31796584
0.1674919 0.7695592 0.92756057 1.2885088 0.57169956 0.7103964 0.74976885 0.67247456
0.6148647 0.66260934 0.7517288 0.6777928 0.39550555 0.50668186 -0.18928291 0.40779698
-0.11253356 0.11734746 0.87130255 0.08313287 0.3493553 0.28088084 0.40349656 -0.14322218
1.5179584 1.5778756 0.8818106 1.710033 1.9677638 1.1551566 1.2233099 0.88223636
1.0096637 0.9134361 -0.12862101 0.16136417 -0.07772827 0.3996918 0.3747419 0.030662451
1.3817424 1.4799671 0.83258325 0.21776775 -0.14862168 -0.6526877 -0.28877366 0.34562737
0.71949536 0.35361436 0.93157005 0.95179605 0.9067537 0.40859348 0.034623697 -0.27859652
0.06526568 0.2276255 0.65305465 0.12020139 0.97823745 0.64198434 0.90302354 0.30298954
0.24841358 0.3035144 -0.14890341 0.48623496 0.70399594 0.18110234 0.7255506 1.0699519
1.2840502 0.33528578 -0.041451238 0.039330944 0.003443739 0.24789253 0.6035728 0.17398365
0.51685977 0.36320433 0.38762638 0.25958103 0.028606838 0.21397807 0.118349366 0.20851538
0.27435672 0.08411918 0.34194764 0.063636765 0.35127616 0.24192648 0.11273898 -0.058818426
0.069647394 -0.07241697 0.02854844 -0.032630112 -0.068297654 -0.14380297 -0.2579361 0.100826465
0.16745803 0.0870117 0.24677557 0.28329614 0.43109384 0.07317425 0.35252008 -0.24092804
-0.051799707 0.114339046 0.008055809 0.00060669746 -0.04936011 0.32174143 0.1506266 0.09533058
0.05327757 0.09614589 -0.23502664 0.08739183 0.13627742 0.07338283 -0.007687993 0.20679985
-0.21556298 -0.08074086 -0.05873605 0.13417988 -0.07069225 -0.053772204 -0.27142727 -0.1341685
-0.36229405 -0.24267519 -0.067222364 -0.14330673 0.20881051 -0.0685384 0.09046648 0.13449699
0.38289878 -0.96410006 0.37068418 0.17385677 0.5191932 0.54464716 0.62064725 0.5934795
0.8138272 0.5605569 0.11909071 0.7270153 0.7018723 0.72020006 0.5933742 1.0269854
1.2688385 1.4049511 1.1671441 1.1637952 -0.8279768 1.5084178 1.4995534 0.7120879
0.38235807 0.32818687 0.5103147 0.50883174 1.2826964 0.9827991 1.3489071 2.4009757
1.4294606 0.66935945 0.6365641 0.11077729 0.056729943 0.10148722 1.036113 0.9375526
1.219658 0.77394533 0.6842775 0.77349746 0.6960803 0.6057666 0.6810989 0.979174
0.5892272 0.39427203 0.67883074 -0.12653469 0.3885954 -0.2051889 0.195205 0.5029733
-0.06942635 0.2579805 -0.05552257 0.36231565 0.031267345 1.3544925 1.498081 0.8629222
1.3263956 1.6131339 1.290094 0.8888309 0.8631111 0.84301704 0.5126334 0.08112374
0.029030446 -0.19492573 0.2521224 0.46512306 0.26784775 1.1814667 1.1177527 0.7479069
0.42646858 -0.04141123 -0.16268519 -0.4597111 0.2431165 0.43209544 0.27194652 1.2483566
0.91820896 0.7159079 0.49891108 0.31675488 0.28842786 0.142963 0.30399188 0.30301154

critic.0.bias f4 [32]
00000000: 3c1d b33f 9e73 9d3f 14cf 173f e4eb ce3f
00000010: 2118 be3f 773f 2e3f 09c5 7d3f ee5d 9dbe
00000020: b9ce 1e3f 8c9a bd3f 0be9 d03f 5b4e fd3e
00000030: 397f 713f 8873 713f 2489 073f b83d 423f
00000040: f629 7abe a1dc 6d3f f6df 3b3f 3551 513f
00000050: 8bda 3c3f 5dac 373f 7bc5 cb3f e997 02c0
00000060: 6d7a 453f b9ec 9cbf f85f 9d3e 47ff a63e
00000070: ae8a f3bf c71e f43e 3aba 243f 7ef2 d5bd
1.3993297 1.2300909 0.5930035 1.6165738 1.4851114 0.6806559 0.99128777 -0.30735725
0.62034184 1.4812789 1.6321119 0.49473843 0.9433475 0.9431691 0.52943635 0.75875425
-0.2443007 0.9291478 0.7338861 0.8176454 0.7377097 0.7174738 1.5919641 -2.0405219
0.7713993 -1.2259742 0.3073728 0.32616636 -1.9026697 0.4767973 0.6434666 -0.10446642

critic.2.weight f4 [32, 32]
00000000: a06b 4ebd b3a4 80bd 789c 83be 2fdd 17bf
00000010: c220 a6be e84c 96be e9aa 8abe 52e1 993e
00000020: 670c 333e 712f 31be c9b7 973d 35db 1a3b
00000030: a69d d83c c2b8 c1be d49d 0e3f 4be8 babc
00000040: f448 a23e 84b6 80be 6405 23bf dbdc 12be
00000050: 9c1a 01be 7910 6fbd 4934 70be 68f3 1ebb
00000060: 1101 8f3d 4a60 613e c4d5 79bf 058a a3be
00000070: 91e6 b0bd 596a 423f 8825 183f 51e8 6cbe
00000080: 69a0 17bd b0cb 78be 3eb6 f3bc 2f36 703e
00000090: ab3f a03e e706 4a3e 4c51 083f b9ae 91bf
000000a0: 01ec a8be fac8 033f 67e8 15be 41f6 fc3d
000000b0: 9b32 5a3e 16df 90be 0bab 9cbf 4138 b8be
000000c0: dad1 c83d 1494 cfbd 465c e8bd e9b9 12be
000000d0: 856b e5be 38e3 d73d 96a8 bf3e b5f8 dbbf
000000e0: 2d2b c7be 43b2 41bf 790c 553e 46cc d03d
000000f0: b804 27bf 9cd8 3dbf d1f3 a7be 2aab 4a3e
00000100: 275a 80bd d64c efbd 5070 083f f85f f63c
00000110: ca7b 0dbf fe8a 75bf 8b8d 3fbf 603d 443e
00000120: 024e fd3d ed2d 143e 4210 e73c 004f 603f
00000130: f6f3 e3bf bfd2 633d 659c d63f 43ac 68be
00000140: 42fc 2fbe 5ef3 6cc0 a65b 24bf 3eb1 09be
00000150: 5aac 603d 9492 303d a861 0c3e 524f 1fbe
00000160: 62c9 0b3d 6236 3c3e 6164 073e 023f de3d
00000170: c22a 6dbe 1de0 afbe 5a35 a03f 3d49 4fbe
00000180: 9393 a93d bea9 e8bd bb57 143b aaf9 5cbe
00000190: 8599 8c3d 39c4 2dbe 766d 82be 6e37 ba3e
000001a0: 6804 403e d523 61be a7a7 773e 9224 58be
000001b0: a017 42bd 0d64 4e3e 1c31 1b3f 6beb 75bc
000001c0: 0abe 81be 5f7c cabd e4db b9be ebd7 a5be
000001d0: 66e0 103e 52ed 1f3e 7ca1 09be 80fa 0e3f
000001e0: dd2f 2c3d fe12 5d3e 5a55 e0be 13a3 76bd
000001f0: e2be 883d 0dcc ad3e dfbe ce3d 30a9 83be
00000200: e58a 673e cea1 23bc 8228 6a3e a629 21be
00000210: 2676 dabe 2aad 4bbf 7733 a93d 4fe9 573e
00000220: 6fb7 18bf 47ed d63d 6357 45bf 6f6e 093f
00000230: d6da 39be 7bd8 29bd cfa3 3c3e 4c9b 0fbf
00000240: 11aa f3be 174f 1cbf 1c8c 26be 33dc a2be
00000250: 6935 833d 1a58 d1bd 2297 54be d645 40bf
00000260: 17f8 f13e 31db c5bd fcd6 9d3f 83d3 923e
00000270: 92af b2bd 7d76 5ebf 5233 21bf e7c3 a7be
00000280: b406 5e3e cf97 a73c 2cd2 1b3e 5045 47be
00000290: 4a33 aa3e 9b33 a8be 07f4 15bf 73c1 7d3e
000002a0: bc34 153e c287 3e3d 1d34 843f 723a d0bd
000002b0: e300 a13e 9474 62bf 40e7 05bd 4b50 0bbf
000002c0: 5e7c 923f bc13 ccbc 6a5c 463e ea1a 8fbe
000002d0: f688 b4be b5e0 d9bf a91f 1a3c 0bde 94bf
000002e0: a536 4d3d cfbc a03d 089e 0cbe 0810 80bd
000002f0: 7000 e33d f10f 3ebf 9b3e e9be 6b78 a23e
00000300: 590f ed3c 13a2 ae3e f0cf a7be 1673 393f
00000310: f499 2f3e 0fb4 7a3d e60a 133e 1478 eebe
00000320: 142d 1ebf 438f 493f 8d6c 993d 35f5 cc3a
00000330: 75d5 5dbe 893d 71be 3037 b9bf 1b20 6dbd
00000340: d514 463e 55ed 98be 6b6b a8be 2ef5 63be
00000350: 1403 fbbe a888 1a3e 144b 1e3f efa9 27bf
00000360: a724 fcbe 9238 21bf f6f2 273f efc2 c9be
00000370: 5ab6 dfbe 8a0f bdbf 0ecb 05bf 21e7 9a3d
00000380: b576 b13d c642 0dbe 5620 b13c 80aa a9be
00000390: 2838 303e 9843 793d 9d25 f7bb d4dc 933d
000003a0: a5c0 de3e e695 52be ae58 523e 607e 073e
000003b0: 9e1a e63c 7860 623d ed74 813d e6d4 eb3d
000003c0: d739 9ebe 4dbc 953e 2da8 94be f17f 16be
000003d0: f42b 41bd 0789 9abe 6e2b aabe 80cb 12bf
000003e0: 56c5 203d baff b13e eedd c0be 997d 85be
000003f0: a95e 99be 448b 71bd 7535 923e d773 85be
-0.050395608 -0.06281414 -0.25705314 -0.59321874 -0.32446867 -0.2935555 -0.2708352 0.30054718
0.174852 -0.17303254 0.07408101 0.0023629193 0.02644236 -0.37836272 0.55709577 -0.022815844
0.31696284 -0.25139248 -0.636801 -0.14342062 -0.12607807 -0.05836532 -0.23457445 -0.0024253968
0.06982625 0.22009388 -0.97591805 -0.31941238 -0.08637727 0.75943524 0.5943227 -0.23135497
-0.037018213 -0.2429645 -0.029749986 0.2345817 0.31298575 0.19729196 0.5324905 -1.1381446
-0.32992557 0.5147854 -0.14639436 0.12351657 0.21308367 -0.282952 -1.2239698 -0.35980418
0.09805651 -0.101356655 -0.11345725 -0.14328732 -0.44808593 0.105413854 0.37433308 -1.7185274
-0.38900128 -0.7566263 0.20805539 0.10195212 -0.65241575 -0.74158645 -0.32803205 0.19791856
-0.06267195 -0.11684577 0.53296375 0.030075058 -0.5526701 -0.9591521 -0.7482535 0.19164038
0.123683944 0.14470644 0.028205995 0.87620544 -1.7808826 0.055620905 1.6766478 -0.22721963
-0.17186072 -3.702354 -0.64202344 -0.13446519 0.054851867 0.043108538 0.13709128 -0.15557602
0.0341276 0.1838012 0.13221885 0.108518615 -0.23160842 -0.34350672 1.2516282 -0.20242782
0.08280101 -0.11360501 0.00226353 -0.21579614 0.06865219 -0.16969384 -0.25474137 0.36370414
0.18751681 -0.21986325 0.24185048 -0.211077 -0.04738581 0.20155354 0.6062181 -0.015009741
-0.253403 -0.09887003 -0.36300576 -0.32391295 0.14148101 0.15617874 -0.13440508 0.5585098
0.042037833 0.21589276 -0.43815118 -0.060214113 0.06677033 0.3394474 0.100949995 -0.25715017
0.22611578 -0.009987308 0.22867015 -0.15738544 -0.42668265 -0.795611 0.08261769 0.21085094
-0.596549 0.10494476 -0.77086467 0.53684133 -0.18149886 -0.041466217 0.18421863 -0.5609634
-0.47590688 -0.6105818 -0.16264385 -0.31808624 0.064066716 -0.10221882 -0.20760778 -0.7510656
0.4725959 -0.09660948 1.2331233 0.28676996 -0.08724894 -0.8689955 -0.62968934 -0.3276665
0.21682245 0.02045813 0.15216893 -0.19460034 0.33242255 -0.32851872 -0.5857548 0.24780826
0.14570898 0.046516187 1.0328404 -0.101673976 0.3144599 -0.88459134 -0.03269124 -0.5441939
1.1444204 -0.024911754 0.1937119 -0.2795022 -0.35260743 -1.70217 0.009406962 -1.1630262
0.05010094 0.078485124 -0.13732159 -0.06253058 0.11084068 -0.74243075 -0.45555577 0.31732497
0.028937982 0.34108028 -0.3277583 0.7244123 0.17148572 0.061206874 0.14359626 -0.46575987
-0.61787534 0.78734225 0.074914075 0.0015637042 -0.21663459 -0.2355863 -1.4469967 -0.057891946
0.19343884 -0.2986857 -0.32894453 -0.22261497 -0.49025786 0.15091193 0.6183331 -0.65493673
-0.49246714 -0.62976944 0.65605104 -0.39406535 -0.4369381 -1.4770367 -0.5226296 0.075636156
0.0866522 -0.13795003 0.021621864 -0.33137894 0.17208922 0.060855478 -0.0075423256 0.07219854
0.4350635 -0.20564994 0.20541641 0.13231802 0.028088864 0.05526778 0.0632113 0.115152165
-0.30903503 0.29245225 -0.29034558 -0.14697243 -0.047161058 -0.3018267 -0.3323626 -0.57341766
0.039250694 0.34765416 -0.3766932 -0.26072386 -0.29955032 -0.058970705 0.2855641 -0.2606494

critic.2.bias f4 [32]
00000000: 2137 41bf c3a3 e23f 46c0 e6be bae9 60bf
00000010: 6cec 053e faa4 ca3f 9060 ee3f a950 03bf
00000020: 8143 1640 39fc ab3f f8db f73d 5015 0940
00000030: 610a e7be 66f2 27bf fc75 dfbf 7006 8cbe
00000040: 5286 d33f 23b9 4ebe a9ec 773d 631d e4bd
00000050: 203a ae3e 11c1 ec3f d079 f43f 29e2 2140
00000060: c351 0040 2efd e7be 1fd1 1140 20d2 373f
00000070: 8275 db3f 652f 0840 62bf 473f 44d5 a2be
-0.75474745 1.7706226 -0.45068568 -0.8785664 0.13078469 1.5831597 1.8623219 -0.5129495
2.34787 1.3436347 0.121025026 2.1419258 -0.45125106 -0.65604246 -1.7457881 -0.2734866
1.6525366 -0.20187812 0.06052843 -0.111384176 0.3402872 1.8496419 1.9099674 2.5294287
2.0049903 -0.45310348 2.2783887 0.71805 1.7145236 2.1278927 0.780264 -0.31803334

critic.4.weight f4 [32, 32]
00000000: ba70 aebe e494 9cbc a897 77be 6a7b a23d
00000010: e800 d23a 6a53 2e3e f6ff 013f aeb4 08be
00000020: 1467 373e 5673 403e 9da9 903d 9f41 b73d
00000030: 7191 a8be a330 aabe fc97 c1be 9b43 59be
00000040: a8f6 d63e 1294 2b3c 18df afbd 4c2c 003e
00000050: e3c9 39bf 2a8d b6be 4362 8e3e 43e4 133f
00000060: 824f b73e ff9a 2abe aa8b 013e ac6a 123e
00000070: cf46 b93e 4f27 dc3e 2bf5 513e a36b 1d3d
00000080: 56a3 c53e 6a8b 273e 0289 b03d 0318 13be
00000090: 40a2 3c3e abe6 073e ebf8 8d3d 712e 8e3d
000000a0: 04e5 1cbe eab2 293e 1c8a 4dbe 956c c7bc
000000b0: 21a4 3fbd 4649 833e 4bb9 8fbe 9592 5dbe
000000c0: 2f2b 2e3e fdd2 143e b6c8 95be 3b96 b9bd
000000d0: 5fc2 f1be adb4 93bd 7252 acbe ba7e 323f
000000e0: dec9 453e b664 dbbe f38b 843e 32e7 d63d
000000f0: 6e71 4b3e 5f22 ecbd 26e5 c3bd 191d b13d
00000100: 24f0 023f e24c ca3e 3e96 21bf f17f 8d3e
00000110: ccde 4cbc eaaf 623e d626 a7bd e5f5 1f3d
00000120: 1dbd d83e 06be ea3e 7d01 4a3e 2ec3 00be
00000130: acbe 6c3e 7d2b 393e e336 b73c 94b0 063f
00000140: 5cc2 803b 8df9 ab3e f75d c0be e352 adbe
00000150: 22a9 ddbd fe35 bc3e 17a4 c0be 8290 0bbe
00000160: c22c 59be cb7f 77bd 85b1 0b3f 14f0 77be
00000170: 632d 13be bdea 3ebe 0075 8d3e fdf1 9b3c
00000180: 339f 03bd e026 56bf b23f 97be a8b3 21bd
00000190: 9bc6 83bd b498 83be 3137 16be 5ae6 00be
000001a0: 846f c7be 5855 0dbf e736 adbe 30be 21bf
000001b0: 456e 23bf 20ca a33e 4555 9f3e f080 08bf
000001c0: 61e2 d1be aee9 ecbd 610f 2bbf 8d5a 433f
000001d0: bbd1 b1bf 447b 94bf 5e6f 823d d7cd 06bf
000001e0: 1700 f33e d579 58be e005 7fbe f53c adbe
000001f0: 84e0 cfbe 2a1a e6be af91 953e 85e8 d33d
00000200: 1386 f73e 51d5 01bf a6d5 5cbe cc8c f23e
00000210: b65c 2bbf 6fc2 503d 4d71 b6be fb98 7d3e
00000220: 5402 1dbe b47a c2be 2f8c a53f cd33 9cbe
00000230: 19b9 64bf 52c3 363f 81e8 9abf 3824 093f
00000240: 1e4a 09bd 39b2 193f b9ff 14be 7fa4 fb3e
00000250: f92b 4d3e 8c31 62bf d174 d7be 37b0 23bf
00000260: b91d 84bd fe6b 3dbf b324 493d 7c08 353e
00000270: 2f05 813e 52e6 d7be b696 ab3f c6f2 8f3e
00000280: 2533 5d3e 7ff8 523c 146d 14bd 9333 aa3e
00000290: 2ea6 eebd 560e 3dbe a5fa a5bd 086d d33e
000002a0: ff55 30be a04d ff3d 9761 6f3e cf95 0b3b
000002b0: 9839 fa3d 587c 8e3c f091 0abd f962 013f
000002c0: 2884 4f3e 674b 21be cb26 03be 401d 993d
000002d0: 83f7 4b3d 897e 803d 1be2 b2be 1614 0abe
000002e0: 32c7 a8bd 0431 9cbe 72bf bdbe 2eba 33bc
000002f0: 481a b83c 29dc afbd b499 a83d 8b44 3f3e
00000300: bb5f 583e e282 cfbd cc49 9a3f e029 033e
00000310: e2f5 113f 3133 863d 0e82 7fbe de60 1f3e
00000320: 918f a4be a9b7 9c3e cc43 5a3e 5094 88be
00000330: 9e5f 493f 0619 2b3f 55db 8dbf 98dd 3d3f
00000340: eebc e6bc 1743 633f eedb 3f3e 27a0 bb3e
00000350: 8410 103e 31fb 01bf 4e09 073e 6638 373e
00000360: 66cc cfbb 18b0 06be df4a b6bd bae4 873e
00000370: 3816 88be 0339 2d3d 03aa 663f 93ec c43e
00000380: 448f 13bd 908a cc3d 7eda 8cbe b4a1 cfbd
00000390: 7290 1abe a558 dfbb 9be0 e23e 2c56 babc
000003a0: cad4 b83d e199 82bc 1c73 58be 7d27 3e3e
000003b0: 8624 9c3d a3f8 423d 0f8f e8be 2d2d 313e
000003c0: 1736 3d3d 8bda 053f aaf2 38bd 8434 73be
000003d0: c2f1 01bf b589 5bbd 2831 343e be28 1d3f
000003e0: 7782 8a3e 9955 4ebe 3496 253e 1176 22be
000003f0: 46d8 a13e 9f7c e13d 0d98 28bb 4ad6 60be
-0.3407038 -0.019113965 -0.24178946 0.079336956 0.0016021999 0.17024007 0.5078119 -0.13350174
0.17910415 0.18793997 0.07063601 0.08948063 -0.32923463 -0.33240232 -0.37811267 -0.21217196
0.4198506 0.010472314 -0.08587474 0.12516898 -0.7257368 -0.35654575 0.27809343 0.57770175
0.35802847 -0.16660689 0.12650934 0.14298505 0.36186835 0.4299874 0.2050368 0.03843273
0.38601178 0.16361776 0.08619882 -0.14364628 0.18421268 0.13271587 0.06932243 0.06942452
-0.15321738 0.16572157 -0.20072216 -0.024343768 -0.046787385 0.2564184 -0.28071055 -0.21637948
0.1700866 0.1453361 -0.29254693 -0.09061857 -0.47218606 -0.072121955 -0.3365665 0.6972462
0.19315287 -0.42850274 0.25888023 0.10493316 0.19867489 -0.11529993 -0.09565191 0.08648128
0.51147676 0.39511782 -0.63119876 0.27636674 -0.012504291 0.22137418 -0.08161704 0.039052863
0.42331782 0.458481 0.1972713 -0.12574455 0.2311961 0.18082996 0.02236504 0.52613187
0.0039294194 0.3358883 -0.3757169 -0.338523 -0.10823275 0.36759943 -0.3762519 -0.13629344
-0.2120848 -0.060424607 0.5456775 -0.24212676 -0.14372782 -0.18644233 0.27628326 0.019036287
-0.032134246 -0.8365307 -0.29540783 -0.039477974 -0.06434365 -0.2570244 -0.14669491 -0.12587872
-0.38952267 -0.5520835 -0.3383095 -0.6318083 -0.6384013 0.31990147 0.31119743 -0.53321743
-0.40993026 -0.11568008 -0.6682034 0.76310045 -1.389213 -1.1600118 0.06368898 -0.52657837
0.47461006 -0.21140225 -0.24904585 -0.3383557 -0.4060098 -0.44941837 0.2921271 0.10347084
0.48344478 -0.5071612 -0.21565875 0.47373044 -0.6693834 0.050966676 -0.35633317 0.24765389
-0.1533292 -0.3798424 1.2933406 -0.3050827 -0.89344937 0.71391785 -1.2102205 0.5357089
-0.03351795 0.6003757 -0.14550675 0.49148938 0.20036305 -0.8835685 -0.4208131 -0.6394076
-0.06450982 -0.7399291 0.049107265 0.17679018 0.25199267 -0.42167908 1.3405368 0.2811491
0.21601541 0.012876629 -0.036236838 0.33242473 -0.1165279 -0.184625 -0.08104447 0.41294122
-0.17220305 0.12465978 0.23377071 0.002129901 0.122180164 0.017393276 -0.033830583 0.50541645
0.20265257 -0.1575142 -0.12807767 0.07476282 0.049796592 0.06274135 -0.3493813 -0.13484225
-0.082411185 -0.30506146 -0.37060124 -0.010969682 0.02247347 -0.08586914 0.082324415 0.18678491
0.21130268 -0.10132386 1.2053771 0.12808943 0.5701581 0.06552733 -0.24951956 0.15564296
-0.32140782 0.30608872 0.21314925 -0.26675653 0.78661525 0.6683506 -1.108256 0.7416625
-0.02816626 0.88774246 0.1873624 0.36645624 0.140688 -0.5077391 0.13187143 0.17892608
-0.006341505 -0.13153112 -0.08900999 0.26541692 -0.26579452 0.0422907 0.9010317 0.38461742
-0.0360253 0.09987366 -0.27510446 -0.10138264 -0.15094164 -0.006815987 0.44311985 -0.022746168
0.09024961 -0.015942516 -0.2113766 0.18569751 0.07624154 0.0476004 -0.45421645 0.1730239
0.046194162 0.52286595 -0.045153297 -0.23750502 -0.5075952 -0.053598125 0.17596877 0.6139029
0.27052662 -0.2014984 0.16170579 -0.15865351 0.31610316 0.11010098 -0.0025725395 -0.21956745

critic.4.bias f4 [32]
00000000: 4a3c db3f 89b2 d43f f382 753f eced a33e
00000010: 0504 89be 216d c4be f3bf 9fbe 2fbf d73f
00000020: 6fc5 9f3e 03bd 42be abd4 22bf 29b3 b6be
00000030: b8bc d63f 0393 0dbf 1be0 95be ceed 0d3f
00000040: ae43 27bf 4819 dcbe 4834 dd3f 4c05 af3f
00000050: a926 e7bd 2c1f 9e3f 4ac9 aebe 9df9 a4bd
00000060: b90f 8fbf 7dde 253f b79e d1be 1b21 d93f
00000070: d26d c4be ece5 403f 4be6 993f 4ef3 573e
1.7127774 1.6616985 0.9590294 0.32017457 -0.2676088 -0.3836451 -0.31201133 1.685522
0.31205317 -0.19017415 -0.63605756 -0.35683563 1.6776342 -0.5530245 -0.2927254 0.55440986
-0.65337646 -0.42988038 1.728158 1.3673491 -0.11286671 1.2353263 -0.34137946 -0.080554225
-1.1176673 0.64792615 -0.40941402 1.6963228 -0.38365036 0.7535083 1.2023405 0.21088907

critic.6.weight f4 [1, 32]
00000000: df94 b5be 5b3f 8dbd d71d e13d 6ebf af3e
00000010: 7bd5 f13e 5b45 6d3b 23fe 773e 32f3 58be
00000020: 55cc 89bd e574 16bc 76a4 04bc 3e29 0ebd
00000030: ca13 2fbe 8431 bbbd cea3 9d3e 735d 2b3c
00000040: cec7 0fbd ae40 f03e cb1c 4cbe f4af e2bc
00000050: 9caa 63bf c276 57bd 5d12 04bb faae 2fbe
00000060: cefd 3a3d bdb0 323f 6c81 cd3e d9cb 9fbe
00000070: 3c2c 28be c0b0 81be 0085 4d3c 0fbf 91be
-0.35465142 -0.0689685 0.109920196 0.34325737 0.47233185 0.003620467 0.24218039 -0.21186522
-0.06728426 -0.009183143 -0.008095851 -0.0347073 -0.17097393 -0.09140304 0.30789036 0.010459292
-0.035102658 0.46924347 -0.19932859 -0.027671792 -0.88932204 -0.05260349 -0.0020152547 -0.17156592
0.045652203 0.6980093 0.40137804 -0.3121021 -0.16423124 -0.25330162 0.012543917 -0.2846608
