models/model.ckpt-242692.pth (torch, 70479 bytes, 15 tensors)

actor.0.weight f4 [32, 181]
0.28395498 -0.6471542 -0.85977876 -0.85250396 0.51183194 0.26445994 -0.2655025 -0.6262375
-2.2662525 -0.89069664 -0.52517146 -0.8432519 -0.832701 -0.66071266 -1.0230957 -1.2827834
-1.3443044 -1.2594049 -1.2019135 -0.5736655 0.24219988 0.2285736 -0.79802364 -0.5868869
-0.8853536 -0.12122943 -1.5517623 -0.6057454 -0.35446072 -0.038830183 0.17104717 -0.24212457
0.07125578 -0.10143215 -0.02721469 0.0697912 -0.7929251 0.11621928 -0.6043961 -0.66447574
0.1720165 0.5760996 0.4324256 -0.39202377 -0.6277557 -0.568094 0.23781388 0.28550702
0.09152878 0.39179242 0.5772358 0.65854007 0.5596449 0.24708457 0.008172879 -0.59833485
-2.2633584 -2.1759148 -0.7787049 0.006359098 0.6406995 1.1472375 0.6566646 0.13000022
-0.23735689 -1.1736176 -3.609043 -3.7910228 -1.0585673 -0.35489014 0.9647707 -0.18478552
-0.56199586 -0.9316125 -0.17652361 -1.742751 -3.5367494 -2.74936 -0.21404617 0.4557463
-0.5802342 -1.1783733 -0.8190598 -1.2762552 -0.6213031 -0.02626946 -2.236236 -2.7390049
-0.4220588 0.036374964 0.005220683 0.36352372 0.19206136 -0.4229367 -0.3782992 -1.340119
-1.45541 -2.0589287 -0.81757724 0.7093497 -0.12740593 0.28792605 -1.637319 -1.0624082
-1.2364985 -1.0016017 -2.109985 -1.80516 -0.22118835 -0.16029897 -0.5521456 -0.40252167
-0.5772189 -0.4333806 -0.26384693 -0.9859219 -2.0144665 -1.7961286 0.24775726 -0.24916495
0.32147002 0.12962618 -1.1343077 -0.4233431 0.040182684 -2.12912 -0.63714176 -1.4041755
-0.5941687 -0.93364406 -1.4064829 -0.11816227 -0.26445994 0.32748333 -0.3552857 -0.5634426
-1.9014395 -1.3519444 0.117158994 0.09375868 0.4019393 -0.22866222 -0.9949112 0.3193438
-0.08942687 -0.30373985 -2.4630318 -0.9975599 0.0022813268 -1.1684053 -0.8010139 -0.01632061
-1.42738 -0.0057566804 -0.33267492 -1.1728555 -1.187465 0.5897094 -1.1747546 0.17255615
-1.8205652 -0.12868497 -0.056175034 -1.1577898 -0.742774 -1.2566742 -1.940863 -1.1812522
-0.48283586 0.8832719 -0.93745106 -0.41365692 -0.928952 -2.465627 -0.6563794 -1.6009567
-1.7899129 -2.4465868 0.15453203 -0.06369634 0.07704906 -0.013726555 -0.4340436 -2.9339197
-3.473337 -2.7060814 -2.1162941 0.5026492 1.5195345 3.8477566 0.61605924 0.71775645
-1.4860222 -2.243506 -5.103129 -3.4851377 -2.190427 1.3744131 3.8888304 4.736348
0.9905909 0.22673663 -0.9569859 -0.02785631 -3.606871 -2.323081 -1.8876841 2.1706872
1.2133527 2.7456427 1.5925092 1.0142174 0.0513331 1.2616202 0.49146557 0.90046155
-2.6793582 1.4957755 0.3169415 -0.4259622 0.5185413 -0.61777794 -0.5938508 -0.78540796
0.15106551 -0.47834554 -1.1378508 -1.1253341 -1.8960288 -1.2064582 -1.424811 -0.50352764
-1.2131956 -1.0941492 -0.6130559 -2.2877119 0.39674184 0.93385166 -0.2736239 0.29545116
0.109343946 0.16825415 0.41110212 0.04459835 -1.0855429 -1.0567906 -1.4514982 -0.53491265
-0.07200251 1.7620851 1.6937376 -0.054228757 0.8436563 -0.64109564 1.1014512 -0.9356457
00000000: 8c62 913e e6ab 25bf 761a 5cbf b33d 5abf
00000010: 6b07 033f 4b67 873e f2ef 87be 1a51 20bf
00000020: 480a 11c0 b204 64bf a371 06bf 5bdf 57bf
00000030: e52b 55bf 7724 29bf cdf4 82bf 3f32 a4bf
00000040: 2b12 acbf 2e34 a1bf 4dd8 99bf bedb 12bf
00000050: 3f03 783e 330f 6a3e 474b 4cbf 383e 16bf
00000060: 89a6 62bf 2347 f8bd 26a0 c6bf 2112 1bbf
00000070: e07b b5be 660c 1fbd fd26 2f3e 81ef 77be
00000080: 8dee 913d a9bb cfbd 57f1 debc b0ee 8e3d
00000090: 24fd 4abf 6004 ee3d b4b9 1abf 151b 2abf
000000a0: 1825 303e 437b 133f e366 dd3e 57b7 c8be
000000b0: 99b4 20bf 9c6e 11bf 7b85 733e fa2d 923e
000000c0: 7173 bb3d 0499 c83e bac5 133f 1596 283f
000000d0: e344 0f3f bd03 7d3e 8ae7 053c 792c 19bf
000000e0: ddda 10c0 3042 0bc0 3459 47bf fb5f d03b
000000f0: e204 243f aed8 923f 2c1b 283f c71e 053e
00000100: af0d 73be 1a39 96bf 8ffa 66c0 1ea0 72c0
00000110: 227f 87bf 29b4 b5be 36fb 763f 6a38 3dbe
00000120: f6de 0fbf 287e 6ebf 9bc2 34be 7712 dfbf
00000130: 1a5a 62c0 84f5 2fc0 eb2e 5bbe 9457 e93e
00000140: 3b8a 14bf f0d4 96bf e7ad 51bf 555c a3bf
00000150: b80d 1fbf 0d33 d7bc 7e1e 0fc0 db4b 2fc0
00000160: 1718 d8be eafd 143d 4312 ab3b c81f ba3e
00000170: bcab 443e 298b d8be 6fb0 c1be 0589 abbf
00000180: e04a babf 7dc5 03c0 be4c 51bf f197 353f
00000190: b376 02be 0b6b 933e ab93 d1bf fefc 87bf
000001a0: 9545 9ebf 7c34 80bf ff09 07c0 7c0f e7bf
000001b0: 337f 62be 6a25 24be 6a59 0dbf 5217 cebe
000001c0: 9ec4 13bf 10e4 ddbe f216 87be 6165 7cbf
000001d0: 05ed 00c0 8be7 e5bf 14b4 7d3e 1925 7fbe
000001e0: b897 a43e babc 043e ff30 91bf 6dc0 d8be
000001f0: 9996 243d 8143 08c0 b91b 23bf 06bc b3bf
00000200: 711b 18bf 4c03 6fbf a207 b4bf 0fff f1bd
00000210: 4b67 87be e5ab a73e 02e8 b5be c63d 10bf
00000220: 5f62 f3bf 840c adbf 0ef1 ef3d 8d04 c03d
00000230: fdca cd3e 6e26 6abe 80b2 7ebf 0881 a33e
00000240: 6f25 b7bd ca83 9bbe 50a2 1dc0 1660 7fbf
00000250: 5082 153b 4e8e 95bf 3f0f 4dbf cdb2 85bc
00000260: 63b4 b6bf 89a2 bcbb 5e54 aabe 2120 96bf
00000270: dafe 97bf 32f7 163f 5c5e 96bf 8fb2 303e
00000280: 4808 e9bf fec5 03be cb17 66bd 7532 94bf
00000290: 7026 3ebf b3da a0bf 336e f8bf 4633 97bf
000002a0: 4336 f7be 1b1e 623f cbfc 6fbf d7ca d3be
000002b0: cccf 6dbf d5cc 1dc0 7b08 28bf 26ec ccbf
000002c0: de1b e5bf e194 1cc0 a53d 1e3e 3a73 82bd
000002d0: e6cb 9d3d 58e5 60bc f63a debe 57c5 3bc0
000002e0: 274b 5ec0 7030 2dc0 5d71 07c0 9ead 003f
000002f0: 1b80 c23f a541 7640 0fb6 1d3f e3be 373f
00000300: fa35 bebf 9a95 0fc0 d54c a3c0 7f0c 5fc0
00000310: f52f 0cc0 c5ec af3f 99e2 7840 2a90 9740
00000320: 5d97 7d3f a62d 683e 07fd 74bf eb32 e4bc
00000330: f9d6 66c0 5cad 14c0 a29f f1bf 8aec 0a40
00000340: 244f 9b3f 9cb8 2f40 57d7 cb3f e0d1 813f
00000350: a842 523d c57c a13f 60a1 fb3e a684 663f
00000360: 9b7a 2bc0 9275 bf3f 2846 a23e b817 dabe
00000370: 1fbf 043f b226 1ebf 9b06 18bf 7f10 49bf
00000380: ebb0 1a3e b5e9 f4be 18a5 91bf f30a 90bf
00000390: 12b1 f2bf 396d 9abf 3560 b6bf 30e7 00bf
000003a0: fe49 9bbf 150d 8cbf 3bf1 1cbf df69 12c0
000003b0: bf21 cb3e e710 6f3f 6f18 8cbe 6045 973e
000003c0: b8ef df3d d14a 2c3e fa7b d23e c2ac 363d
000003d0: 12f3 8abf ea44 87bf b1ca b9bf 09f0 08bf
000003e0: 0d76 93bd 018c e13f 65cc d83f f91e 5ebd
000003f0: dcf9 573f d81e 24bf 5afc 8c3f 7a86 6fbf

actor.0.bias f4 [32]
-2.6140041 -0.07043426 -1.1544479 -0.7802031 -4.8524942 -3.2812836 -0.37102062 -2.2090747
-1.1022214 -1.4161224 -0.014683203 0.30630767 -0.09794335 -0.8294742 -0.89979 -0.35329428
-0.37041682 -0.196019 1.9801303 -0.42603108 -0.3320228 0.3456721 -0.23139328 -0.16477121
0.6369989 -1.8556154 -3.4951763 -1.2341435 1.7783928 -2.1222928 -0.24531263 -0.62210536
00000000: d84b 27c0 d63f 90bd f3c4 93bf 64bb 47bf
00000010: a247 9bc0 8d00 52c0 6af6 bdbe 7b61 0dc0
00000020: 9715 8dbf 8043 b5bf d191 70bc 5cd4 9c3e
00000030: 8696 c8bd 6c58 54bf a358 66bf fde2 b4be
00000040: 46a7 bdbe 34b9 48be e974 fd3f bf20 dabe
00000050: e4fe a9be effb b03e 5cf2 6cbe c9b9 28be
00000060: 5c12 233f ce84 edbf f8b0 5fc0 6af8 9dbf
00000070: 60a2 e33f a5d3 07c0 3c33 7bbe 4c42 1fbf

actor.2.weight f4 [32, 32]
0.9025391 -0.8676239 -0.09541916 -1.6602542 0.6164926 0.8338117 0.4553203 0.18641676
0.8703881 0.08050781 -0.44914624 -0.23403846 0.3376932 0.18719539 -0.14991488 -0.21847539
-0.8390686 -1.0745637 -0.8576585 1.0568608 -0.9072671 1.5962483 -2.509585 -1.8886027
1.9005319 0.03889 1.2995402 -1.2023304 0.03315878 -0.5800999 -2.2518017 0.73872393
1.2179366 0.92968315 -0.31657463 0.98773307 2.5405996 0.8677056 0.013622085 0.9903011
1.4881902 1.5151703 -0.48009282 0.33396283 -0.84556144 2.2195249 0.4663134 -0.91609526
1.1765097 0.57617116 -0.6303433 1.7024939 2.7293005 1.3876609 -0.6816278 -0.36524954
-1.5961488 -0.9260717 0.67836386 0.5099641 -0.8194475 1.0804913 1.0970305 -0.09130317
0.48461115 -0.12135936 -0.7319294 -1.5245274 1.9653362 0.27960795 -0.06441036 -0.05618544
0.72026783 0.7516228 -0.39076993 1.1152661 -0.26470324 0.38531476 0.9261913 -0.0063031353
-1.9341239 -0.07882596 -0.20534302 -0.7371878 -0.39194915 1.406551 0.3966436 1.4951519
1.9868375 2.6036403 -1.5336236 -0.44409543 0.50599253 -1.630017 -1.1130079 -0.50736314
1.8233453 -2.338241 -1.1071209 -0.98459375 -0.03159639 -1.184311 -1.4014249 1.4912593
-3.685992 -0.007963762 0.021340603 -5.4873824 -2.472916 -1.0891176 -0.2138473 -0.2757806
-0.9247174 -0.57608813 -0.42423907 -4.981954 -1.0319026 -0.47318304 -1.1922247 0.17024612
0.50932574 -0.81581694 1.3435476 -1.0328505 -0.81325215 1.2684011 -1.9890131 -0.8500819
0.04603866 -0.11058082 0.13644901 -0.45726 1.0565795 1.7760005 -0.6043318 0.338092
0.5242386 0.44001532 -1.2018036 0.19256343 -3.5192943 -0.9501825 -1.0764242 0.24552983
-0.3226355 -0.8663385 -0.56450206 1.1706728 -0.85362285 -0.5340558 -1.40621 0.40747234
-1.9817756 -2.9845128 -0.39577132 -0.11785753 0.084908485 -0.7034092 -0.5102187 -0.95974964
0.97155726 1.2480637 0.23224081 0.16038021 -2.3087482 -0.595655 0.2128348 0.4470957
-0.28425446 -0.36064416 -0.67644286 -1.5313777 -0.6427526 2.2235973 -1.3591952 1.1832856
1.14119 -0.6119256 -0.054529063 -1.1410004 -0.31643093 1.281531 -0.91283286 -0.5413026
0.033949565 -0.08745141 0.34171012 1.7843612 -0.89707446 -0.1291886 0.08191307 0.7915413
2.7309642 -2.0676186 -2.286932 0.6558602 0.038849935 -0.762072 0.82058674 0.807185
-4.9936748 1.4114966 -0.24423708 -4.381919 -2.201968 0.711672 -0.5487117 -0.13640998
-0.57406247 -1.7389668 -3.028347 -6.0040965 0.2647037 0.20424387 -2.2763271 0.2056243
0.933678 -1.4009461 3.1673586 -0.033040006 -1.4697616 1.3187977 -2.2444847 -2.058579
0.26187134 -0.5538383 -0.98514783 0.709601 -2.0421886 -1.4096243 1.5909959 1.2477833
1.5583874 -0.80918205 -0.15041758 -0.1573419 -1.1321665 0.5868445 -1.5873861 -2.0245936
-0.8052625 0.6022058 -0.019389374 -0.70055264 0.17712906 -1.6917467 -0.5594586 0.9013317
1.2822688 -1.1243535 -0.26821095 -1.8763225 -0.34647152 1.2036657 -1.951146 -0.70735115
00000000: cd0c 673f 9a1c 5ebf 1f6b c3bd 3683 d4bf
00000010: 76d2 1d3f af74 553f be1f e93e 09e4 3e3e
00000020: c1d1 5e3f 47e1 a43d 7ff6 e5be c7a7 6fbe
00000030: 20e6 ac3e 26b0 3f3e 4983 19be 03b8 5fbe
00000040: 33cd 56bf 4e8b 89bf 828f 5bbf 3747 873f
00000050: a842 68bf dd51 cc3f 0a9d 20c0 bcbd f1bf
00000060: a144 f33f 1f4b 1f3d 5557 a63f f6e5 99bf
00000070: 80d1 073d 6d81 14bf 851d 10c0 031d 3d3f
00000080: 59e5 9b3f b7ff 6d3f 1216 a2be 13dc 7c3f
00000090: 2f99 2240 f421 5e3f 2a2f 5f3c 5f84 7d3f
000000a0: 047d be3f 1af1 c13f bace f5be 2dfd aa3e
000000b0: b776 58bf b20c 0e40 a1c0 ee3e 3885 6abf
000000c0: df97 963f f47f 133f 2e5e 21bf 52eb d93f
000000d0: dcac 2e40 df9e b13f 297f 2ebf fd01 bbbe
000000e0: 9b4e ccbf 0913 6dbf 41a9 2d3f 028d 023f
000000f0: 50c7 51bf 8a4d 8a3f 7f6b 8c3f 28fd babd
00000100: f41e f83e 428b f8bd ba5f 3bbf b723 c3bf
00000110: 2390 fb3f c628 8f3e 94e9 83bd b422 66bd
00000120: 7963 383f 5a6a 403f ff12 c8be 0ac1 8e3f
00000130: 2f87 87be fa47 c53e df1a 6d3f 888a cebb
00000140: 5f91 f7bf 816f a1bd 7145 52be 57b8 3cbf
00000150: 8fad c8be dd09 b43f df14 cb3e 2361 bf3f
00000160: b150 fe3f 0ba2 2640 c74d c4bf 7a60 e3be
00000170: ba88 013f 66a4 d0bf 0b77 8ebf 8de2 01bf
00000180: 6163 e93f bea5 15c0 23b6 8dbf 560e 7cbf
00000190: 376b 01bd 8197 97bf e461 b3bf 96e1 be3f
000001a0: 4be7 6bc0 707a 02bc 7dd2 ae3c a398 afc0
000001b0: 4144 1ec0 3568 8bbf c9fa 5abe 1d33 8dbe
000001c0: 48ba 6cbf 837a 13bf dd35 d9be 2b6c 9fc0
000001d0: 6215 84bf 0c45 f2be d29a 98bf 0055 2e3e
000001e0: 2c63 023f 61d9 50bf 5ef9 ab3f 7234 84bf
000001f0: 4b31 50bf f85a a23f fb97 febf f89e 59bf
00000200: 0993 3c3d 3278 e2bd 4ab9 0b3e fc1d eabe
00000210: ff3d 873f fc53 e33f 7db5 1abf 651a ad3e
00000220: 8034 063f b049 e13e b3d4 99bf 592f 453e
00000230: 1e3c 61c0 293f 73bf 45c8 89bf 2c6c 7b3e
00000240: 7b30 a5be 5cc8 5dbf 3583 10bf 9bd8 953f
00000250: 0787 5abf e2b7 08bf b0fe b3bf 37a0 d03e
00000260: d3aa fdbf 4202 3fc0 8aa2 cabe 4a5f f1bd
00000270: 80e4 ad3d a012 34bf b19d 02bf 27b2 75bf
00000280: fab7 783f 8dc0 9f3f 89d0 6d3e b63a 243e
00000290: 88c2 13c0 d97c 18bf 5ef1 593e bae9 e43e
000002a0: cd89 91be 5aa6 b8be 5c2b 2dbf 2f04 c4bf
000002b0: 6f8b 24bf 6b4f 0e40 1cfa adbf e775 973f
000002c0: 8412 923f 28a7 1cbf de59 5fbd 4d0c 92bf
000002d0: 3c03 a2be 3509 a43f 6aaf 69bf cf92 0abf
000002e0: b30e 0b3d ba19 b3bd a1f4 ae3e f365 e43f
000002f0: aca6 65bf 044a 04be 0ac2 a73d 73a2 4a3f
00000300: 1ec8 2e40 dd53 04c0 185d 12c0 74e6 273f
00000310: 1c21 1f3d 2717 43bf f911 523f ada3 4e3f
00000320: 2fcc 9fc0 ecab b43f 4919 7abe ae38 8cc0
00000330: 0bed 0cc0 2330 363f 5f78 0cbf 0faf 0bbe
00000340: c2f5 12bf 7796 debf 70d0 41c0 8f21 c0c0
00000350: 3e87 873e 4e25 513e 58af 11c0 2d8f 523e
00000360: 8505 6f3f 3452 b3bf 01b6 4a40 f554 07bd
00000370: 2621 bcbf 5dce a83f a3a5 0fc0 c2bf 03c0
00000380: 0014 863e 59c8 0dbf a632 7cbf 69a8 353f
00000390: 38b3 02c0 926e b4bf c1a5 cb3f 5db7 9f3f
000003a0: 3d79 c73f 8e26 4fbf 1107 1abe 3c1e 21be
000003b0: d5ea 90bf 713b 163f 782f cbbf f192 01c0
000003c0: af25 4ebf 292a 1a3f 77d6 9ebc 6b57 33bf
000003d0: 5261 353e 288b d8bf ae38 0fbf adbd 663f
000003e0: 6221 a43f d1ea 8fbf f252 89be 562b f0bf
000003f0: b764 b1be b811 9a3f 27bf f9bf f714 35bf

actor.2.bias f4 [32]
-0.84660965 -3.007448 1.0548314 -4.641442 1.1128744 -0.5753051 -4.3657875 -0.1490968
-1.9171119 -2.3157353 -0.24285068 0.36110067 -0.6381055 -1.9792883 -0.9854473 -1.2277653
1.6836132 -1.6243911 -1.2064627 -0.78865683 -0.891775 -0.81486624 -2.1423066 -0.41600358
-2.5440485 0.523368 -0.46058956 1.0299051 -0.28904024 -2.3414876 -2.3795788 -2.0944145
00000000: 69bb 58bf 077a 40c0 b704 873f b186 94c0
00000010: ab72 8e3f 3247 13bf 88b4 8bc0 d5ac 18be
00000020: ec63 f5bf 0235 14c0 d9ad 78be 30e2 b83e
00000030: e25a 23bf 5259 fdbf 4646 7cbf 6a27 9dbf
00000040: a380 d73f 0cec cfbf 5f6d 9abf 6ae5 49bf
00000050: 5e4b 64bf 139b 50bf 8d1b 09c0 6cfe d4be
00000060: b1d1 22c0 72fb 053f 65d2 ebbe eed3 833f
00000070: 15fd 93be efda 15c0 054b 18c0 e30a 06c0

actor.4.weight f4 [32, 32]
0.03412912 -0.8292063 0.0010672637 0.35310024 -0.27078018 0.3128144 0.014539345 -2.3503907
-0.35173544 0.44153592 1.1155428 0.63765925 0.32765004 -0.37853733 -0.42880222 -0.45295766
0.019763112 -0.25909632 -0.06438136 -1.1065986 0.11800746 0.10872685 0.29415217 -1.6019615
-0.7547099 0.5402854 -0.79242694 -1.765881 0.27861667 -0.88414896 0.9463273 0.39492652
0.91089463 -1.0865579 0.32670316 -0.22308315 -1.8629754 -1.8350416 1.1509922 0.6179291
-0.35631493 0.76153713 2.3532383 -1.4804686 0.61449766 -1.2906371 -1.4730167 -0.4143499
-0.37410402 0.36197233 0.29819542 -0.99283826 -0.057900827 -0.9839297 0.5972458 -0.02036362
-0.77654094 0.65176535 -0.66687965 -0.061425842 -0.2692492 0.25810626 -0.37430844 -0.47506714
0.6760874 -2.662802 -2.0760472 3.3254733 -2.745912 -2.8888292 2.504219 -1.3515716
1.6009014 1.7197455 -1.4617622 -1.9639647 1.4682806 -3.074378 -0.97105014 2.290955
-1.8798074 2.208612 0.21275847 0.15074746 1.2988033 -1.1631703 2.3096457 -0.34834582
-2.3868423 -4.534322 1.4073173 -0.7033166 0.60652214 1.8138975 -0.08277776 1.8953882
-1.5937449 -2.4788253 0.6602099 -0.039924424 -1.0392814 0.4839527 1.7580568 -0.8442661
0.3507956 0.29040518 -1.2567397 -1.2526308 0.96956444 -0.8188662 -1.2207755 0.8877425
-0.3677324 0.20231314 0.4304234 0.8468258 1.0763781 -1.8291314 0.23793271 0.30509806
0.5882423 -0.786837 0.7680996 -0.57646525 0.84891057 1.6874973 -0.10591466 0.034532905
-0.15465027 0.5929399 -1.5325422 -0.8718 -0.9970726 0.55988216 0.22041371 0.56798685
0.5287599 -0.05859104 -0.09077036 -1.9120228 0.31676593 0.84303117 0.9483551 -0.545232
-1.022877 -1.5773556 1.7899598 0.66370285 0.15878795 0.35893655 -0.23461261 -1.6833626
1.5517261 1.3664193 0.05040229 -1.0538229 -0.3878131 1.1457574 0.24074319 -0.46918535
-3.0705547 3.2664676 -0.5603821 0.40017936 1.6850476 -0.9241332 0.8467953 -1.0855286
0.82698673 1.1214358 0.880432 -1.939958 -0.15019256 3.2378135 -0.5850689 0.87963986
-0.7112318 0.37676534 0.5967384 0.6354265 -1.4954864 -0.85139924 0.5255874 -1.2931147
4.355104 1.6363143 0.18822402 -0.9520236 -1.0034071 -1.1064605 -0.5627367 1.4913839
-3.1329298 3.0579607 -1.4122095 0.8943789 2.0087962 -0.2634309 0.23080216 -0.75243497
1.0918899 1.7775308 0.16660662 -0.037378956 -0.09826763 4.319209 0.36518717 0.44584113
0.011536354 -1.3056566 0.8532785 0.70953804 -0.18610524 -1.7132126 -0.29836634 -2.1107671
4.2431407 1.5388439 -0.5094309 0.86887175 -2.4305763 -1.773213 -1.3362775 1.0568242
1.6611077 0.5670181 -0.26669782 0.9955345 0.116765104 -0.85911834 2.075437 0.82063603
2.1122077 0.8107652 1.7757498 -1.3696861 1.0872003 0.3361065 0.899324 0.6234836
-0.13822828 2.4901733 2.5886564 1.1272188 -0.17684719 -0.07791313 1.1239685 -0.6975799
0.05056891 -0.49709904 0.3915653 -0.23050322 0.28181916 1.1093813 1.7693547 1.1442189
00000000: faca 0b3d dd46 54bf 6de3 8b3a 8ec9 b43e
00000010: b3a3 8abe 3629 a03e 6f36 6e3c cd6c 16c0
00000020: ab16 b4be ff10 e23e 1bca 8e3f a33d 233f
00000030: bfc1 a73e a5cf c1be f78b dbbe 11ea e7be
00000040: 40e6 a13c 46a8 84be 60da 83bd 06a5 8dbf
00000050: e5ad f13d 2fac de3d 1d9b 963e 130d cdbf
00000060: ab34 41bf 2550 0a3f 7edc 4abf 6308 e2bf
00000070: d8a6 8e3e 9657 62bf 8242 723f cf33 ca3e
00000080: 6430 693f 5414 8bbf a345 a73e e96f 64be
00000090: fa75 eebf a5e2 eabf b653 933f 9a30 1e3f
000000a0: e96e b6be 19f4 423f 759b 1640 ff7f bdbf
000000b0: b84f 1d3f 9933 a5bf d08b bcbf ac25 d4be
000000c0: 908a bfbe 7054 b93e 12ad 983e a62a 7ebf
000000d0: 6b29 6dbd d1e2 7bbf 1ae5 183f 9bd1 a6bc
000000e0: 63cb 46bf 18da 263f a0b8 2abf aa99 7bbd
000000f0: 08db 89be 8126 843e 5ba5 bfbe 003c f3be
00000100: 1014 2d3f 596b 2ac0 f5dd 04c0 8ed4 5440
00000110: 06bd 2fc0 94e2 38c0 2045 2040 4c00 adbf
00000120: 56ea cc3f 9f20 dc3f 061b bbbf 3263 fbbf
00000130: 9ef0 bb3f 9cc2 44c0 be96 78bf 029f 1240
00000140: 879d f0bf e659 0d40 5bdd 593e 8b5d 1a3e
00000150: 303f a63f c4e2 94bf 3cd1 1340 625a b2be
00000160: 06c2 18c0 2a19 91c0 f922 b43f 8f0c 34bf
00000170: 0945 1b3f cb2d e83f 6387 a9bd 159c f23f
00000180: d5ff cbbf 13a5 1ec0 8403 293f cb87 23bd
00000190: 2c07 85bf a6c8 f73e 0108 e13f d321 58bf
000001a0: 7b9b b33e fdaf 943e d9dc a0bf 3556 a0bf
000001b0: 6035 783f 37a1 51bf 5f42 9cbf 1843 633f
000001c0: 6c47 bcbe 2d2b 4f3e 7560 dc3e 93c9 583f
000001d0: c2c6 893f fa20 eabf a2a4 733e d035 9c3e
000001e0: 0c97 163f 266e 49bf 2da2 443f 3a93 13bf
000001f0: 3452 593f e9ff d73f c9e9 d8bd 6072 0d3d
00000200: a45c 1ebe e9ca 173f 582a c4bf 492e 5fbf
00000210: 2640 7fbf 7054 0f3f 22b4 613e 9667 113f
00000220: cf5c 073f 29fd 6fbd cfe5 b9bd 2abd f4bf
00000230: 252f a23e e4d0 573f 66c7 723f 5394 0bbf
00000240: a2ed 82bf cae6 c9bf 671d e53f 6ee8 293f
00000250: 4f99 223e 88c6 b73e 4a3e 70be 6d78 d7bf
00000260: f69e c63f d4e6 ae3f a272 4e3d abe3 86bf
00000270: 708f c6be 2ea8 923f 6285 763e 1039 f0be
00000280: f883 44c0 ce0d 5140 3475 0fbf 4fe4 cc3e
00000290: a4af d73f fe93 6cbf 94c7 583f 9af2 8abf
000002a0: 67b5 533f 358b 8f3f fe63 613f 8b50 f8bf
000002b0: 14cc 19be 5638 4f40 13c7 15bf 1430 613f
000002c0: 4a13 36bf 63e7 c03e d9c3 183f 50ab 223f
000002d0: 196c bfbf 4df5 59bf e58c 063f c884 a5bf
000002e0: 035d 8b40 bf72 d13f ccbd 403e d2b7 73bf
000002f0: a56f 80bf 7fa0 8dbf 830f 10bf abe5 be3f
00000300: ec81 48c0 a1b5 4340 48c3 b4bf 04f6 643f
00000310: 1e90 0040 6ae0 86be 6757 6c3e 949f 40bf
00000320: 0cc3 8b3f 2186 e33f ed9a 2a3e ad1a 19bd
00000330: 8a40 c9bd f636 8a40 d0f9 ba3e 4a45 e43e
00000340: fa02 3d3c c11f a7bf 7670 5a3f 49a4 353f
00000350: 5f92 3ebe 8d4a dbbf 79c3 98be cf16 07c0
00000360: cfc7 8740 d6f8 c43f 106a 02bf 616e 5e3f
00000370: 908e 1bc0 a5f8 e2bf 240b abbf 0446 873f
00000380: 2d9f d43f 1928 113f 9e8c 88be 59db 7e3f
00000390: 8b22 ef3d 2eef 5bbf f6d3 0440 3415 523f
000003a0: 692e 0740 4f8e 4f3f c54b e33f e051 afbf
000003b0: 6129 8b3f 2716 ac3e 193a 663f 9f9c 1f3f
000003c0: b78b 0dbe 005f 1f40 8cac 2540 b548 903f
000003d0: 6e17 35be eb90 9fbd 33de 8f3f 9994 32bf
000003e0: 5821 4f3d c483 febe 3f7b c83e 0909 6cbe
000003f0: 9a4a 903e 3500 8e3f 377a e23f c475 923f

actor.4.bias f4 [32]
0.45057312 0.49006447 -3.8351114 0.18930584 -0.31324095 -2.221162 -1.6781893 -1.4722549
-1.315362 -2.8026881 -1.6182107 0.5053609 -1.6095203 0.3823914 -1.8713274 -1.1874714
-4.515678 -3.4136736 -1.8466285 -3.4685147 -3.8549955 -1.7008916 -2.7116976 -2.1195414
-3.4915683 -1.6246883 -0.48492053 -1.7779241 -3.544829 0.45792985 -0.5588786 -1.9608877
00000000: 85b1 e63e bbe9 fa3e 7772 75c0 64d9 413e
00000010: 1e61 a0be 8527 0ec0 e8ce d6bf d972 bcbf
00000020: c85d a8bf 3e5f 33c0 8721 cfbf 555f 013f
00000030: c304 cebf cec8 c33e a887 efbf 10ff 97bf
00000040: 6f80 90c0 a179 5ac0 535e ecbf 25fc 5dc0
00000050: 3fb8 76c0 d1b6 d9bf 748c 2dc0 91a6 07c0
00000060: db75 5fc0 c9f5 cfbf 8147 f8be 0493 e3bf
00000070: 7ade 62c0 c875 ea3e ab12 0fbf 5efe fabf

actor.6.weight f4 [4, 32]
0.84478444 2.0899742 -2.1063335 2.0440109 0.11329536 0.59536725 0.1943534 -0.23521067
0.9644632 -2.6922302 -0.4531207 -0.2649428 0.021166746 0.09785676 0.70101875 1.0209621
-2.6197846 -2.6886618 -0.49310982 -1.5353839 -2.0600164 0.40634173 -1.4988346 -1.4829419
-2.4949327 -0.7507153 -0.30805594 1.3559437 -2.8571198 0.9251594 0.57246774 -0.5603115
1.2749271 1.966121 -1.4033096 2.1713235 -0.58715296 -0.38684645 -2.742469 0.34206322
2.1044803 -0.6352002 -1.9374266 0.035933074 -1.0616295 -1.7087028 1.3261726 -1.536718
-1.7879668 -1.8295144 -0.8957682 -2.4411676 -2.1557972 -1.8130708 -0.65938926 -0.7141936
-0.45982972 -0.47867796 -0.85294974 2.1575499 0.077487476 0.21708146 0.8052188 -1.6677145
1.5776396 2.729146 -0.74342847 2.250137 0.30851188 -1.2613627 -2.2425282 -0.15587306
2.1094966 -2.495298 -0.47716635 0.6282642 -1.9316695 0.3145518 1.2755737 0.41236284
-0.76044744 -0.5080406 -0.6643565 0.42215836 -0.42686915 -0.25712353 -1.1507963 -0.7356854
-1.8666201 -1.8747003 0.8216226 1.1919166 -3.344838 1.0394893 1.2500435 0.25176635
1.8373048 2.5936315 0.9169133 2.413065 -0.51632077 -0.3648918 -0.2122629 -1.4021797
1.0704916 -0.14991842 -0.28451577 -2.0419235 -0.41004795 -1.5342427 1.5854783 -0.78575975
1.2270132 0.4657637 -0.91284454 0.43048903 0.7398558 -0.33626264 -1.1668627 0.2733554
-1.0261493 -1.036465 0.7882803 3.3260283 -1.0533166 -1.041943 0.81883675 1.1240119
00000000: cb43 583f 23c2 0540 2bce 06c0 13d1 0240
00000010: 6607 e83d fd69 183f 9404 473e 11db 70be
00000020: 0fe7 763f 804d 2cc0 70ff e7be 95a6 87be
00000030: e265 ad3c 2069 c83d f775 333f e3ae 823f
00000040: 8daa 27c0 0913 2cc0 e478 fcbe 7687 c4bf
00000050: 4fd7 03c0 060c d03e d0d9 bfbf 0ad1 bdbf
00000060: faac 1fc0 e12e 40bf 82b9 9dbe 908f ad3f
00000070: 0ddb 36c0 3fd7 6c3f 3f8d 123f 9370 0fbf
00000080: d030 a33f daa9 fb3f a69f b3bf f7f6 0a40
00000090: a84f 16bf bd10 c6be 9d84 2fc0 e922 af3e
000000a0: ceaf 0640 7b9c 22bf 98fd f7bf 8f2e 133d
000000b0: 7ae3 87bf c6b6 dabf 06c0 a93f 2db3 c4bf
000000c0: 19dc e4bf 872d eabf 1151 65bf 173c 1cc0
000000d0: 95f8 09c0 b412 e8bf bccd 28bf 64d5 36bf
000000e0: cd6e ebbe 4715 f5be ea5a 5abf 4c15 0a40
000000f0: c1b1 9e3d 9a4a 5e3e d222 4e3f ab77 d5bf
00000100: 18f0 c93f 54aa 2e40 5451 3ebf 3f02 1040
00000110: 45f5 9d3e 5574 a1bf 9585 0fc0 309d 1fbe
00000120: fe01 0740 f6b2 1fc0 264f f4be ecd5 203f
00000130: f240 f7bf ef0c a13e 0046 a33f 3921 d33e
00000140: afac 42bf f30e 02bf 4513 2abf 2425 d83e
00000150: 988e dabe b2a5 83be 4b4d 93bf e155 3cbf
00000160: 68ed eebf 2ef6 efbf dc55 523f b990 983f
00000170: d311 56c0 fc0d 853f 6d01 a03f 85e7 803e
00000180: ce2c eb3f 0ffe 2540 d4ba 6a3f a86f 1a40
00000190: 992d 04bf 19d3 babe 725b 59be a07a b3bf
000001a0: de05 893f 3784 19be 0dac 91be e0ae 02c0
000001b0: cef1 d1be 1162 c4bf f4f0 ca3f 8d27 49bf
000001c0: c50e 9d3f 9478 ee3e 2eb0 69bf 0f69 dc3e
000001d0: 3167 3d3f 9e2a acbe c25b 95bf 3df5 8b3e
000001e0: dc58 83bf e3aa 84bf bdcc 493f a6dd 5440
000001f0: 14d3 86bf 635e 85bf 499f 513f 9fdf 8f3f

actor.6.bias f4 [4]
2.7727225 1.7598608 2.847559 -1.6894296
00000000: 4974 3140 1e43 e13f 683e 3640 3b3f d8bf

critic.0.weight f4 [32, 181]
-0.76283836 0.085152134 1.3742203 0.4627311 0.74762464 0.74003685 1.0441809 0.9025165
-0.61990315 -0.49103847 -0.7154926 1.773745 2.6294887 1.2635157 2.4021516 2.593658
2.6600447 -0.5699035 -0.20024812 -3.4895208 -2.0094912 -1.5343773 -0.7165256 0.27970013
0.47469813 -0.40039435 -3.026113 -3.390387 -0.82400525 -0.4359113 0.19042802 -0.35014978
0.9684869 0.505721 0.25533864 -0.24577749 -0.95601827 0.5695315 -0.54412276 0.26836702
-0.25630426 0.990033 2.3868308 3.4232192 3.809013 3.1500618 1.1750704 1.348921
0.21698815 0.5976117 1.0621914 1.1186948 0.6275986 -0.95732945 0.56805634 0.0016588405
0.5400694 0.7509016 -1.6500297 0.9074038 0.92643297 0.70017934 0.21466288 -0.6431492
0.69994277 1.7780719 0.67435133 -1.7125162 -2.0845528 0.14134425 0.86582917 0.5428488
-0.28394255 -0.7865247 0.26861033 0.99949545 0.013960741 0.36705095 -0.694526 0.31123343
1.1458745 0.48562995 -0.9512803 -1.5941254 -0.61508185 -0.33231446 0.2440383 -0.35576648
-1.2116348 -0.47259402 1.2689825 1.0978869 0.47733352 -1.2734777 -2.4233289 -0.26921943
0.75850165 1.9875782 1.0764097 -0.20707366 1.6204945 2.2927642 0.67736197 -0.9396155
-0.70986325 -0.7154041 0.95668435 3.0100012 3.201045 2.2803059 1.3798755 1.3768121
0.6275497 -0.85617816 0.32520092 0.8044891 1.606041 3.5806534 3.7913208 1.7069155
2.0355966 1.1285554 0.4625434 -0.70777595 0.68464196 0.5923228 -0.09389886 1.289463
1.4752511 1.6500778 1.2355402 0.92892146 0.3372001 -0.69653183 0.23708205 0.41484037
-0.30600315 0.13431104 0.45034754 -0.4488293 1.7113869 0.7306772 0.23671533 0.7093759
1.0359013 0.9615796 0.18394336 -0.12983619 0.06470189 -0.06728776 0.25337082 0.6779072
0.7834049 0.37671736 0.32948616 0.58204347 0.62946045 -0.09255794 -0.1024899 0.17720374
0.03943583 1.4733328 0.597699 0.7697277 0.45975524 0.67157084 0.3974027 0.32692006
0.23795763 0.16087835 0.6041665 0.30006504 0.798503 0.81565356 0.65110046 0.5052609
-1.8628697 -1.9775896 -1.963939 -2.0878596 -0.30059558 1.2439704 1.2701037 1.4285138
1.5637827 1.8421433 1.935124 1.0367419 1.378142 1.4564416 1.0440284 3.1635742
0.8516023 0.34769157 0.36223263 1.6815424 1.6216266 1.1531638 0.16293807 1.7042704
4.5012126 -0.37741852 1.2928467 0.0382073 0.040935002 0.3885877 0.35160798 0.13219161
0.028698262 1.8923519 0.8526655 0.3699008 0.33917755 -0.5635213 0.67753166 -0.8860598
-0.81357515 -0.8113664 3.058673 2.2504737 2.256024 -7.075059 -10.853813 -11.393924
-12.019317 -13.601941 -11.883415 -2.6493049 -1.8270296 -2.2526455 -1.8224919 0.9741427
0.95317316 0.5850341 0.7142608 0.7482777 0.863881 -7.0618134 -9.474986 -5.638753
-4.5406613 0.47650197 1.0024817 0.92519295 0.47823647 0.36945948 0.44990134 -4.3913193
-13.276586 -7.737697 -5.926 0.8903929 0.9628481 0.7073878 0.71867025 1.1424215
00000000: 6049 43bf 3e64 ae3d 73e6 af3f 17eb ec3e
00000010: 5464 3f3f 0e73 3d3f b8a7 853f 520b 673f
00000020: f9b1 1ebf 6569 fbbe 862a 37bf 130a e33f
00000030: 8b49 2840 e2ba a13f dabc 1940 7efe 2540
00000040: 2c3e 2a40 32e5 11bf d80d 4dbe 4f54 5fc0
00000050: 819b 00c0 7a66 c4bf 396e 37bf db34 8f3e
00000060: a20b f33e 7d00 cdbe d6ab 41c0 1afc 58c0
00000070: 02f2 52bf c42f dfbe 90ff 423e d546 b3be
00000080: c2ee 773f ee76 013f bfbb 823e 18ad 7bbe
00000090: 9dbd 74bf d1cc 113f a14b 0bbf 6767 893e
000000a0: 503a 83be cd72 7d3f d6c1 1840 0616 5b40
000000b0: dec6 7340 9d9a 4940 b568 963f 71a9 ac3f
000000c0: 2432 5e3e 15fd 183f e3f5 873f 6431 8f3f
000000d0: 4daa 203f 8b13 75bf 246c 113f 736d d93a
000000e0: fd41 0a3f 163b 403f 2c34 d3bf 9e4b 683f
000000f0: b62a 6d3f f43e 333f 96d0 5b3e 6da5 24bf
00000100: 732f 333f dc97 e33f 4aa2 2c3f bb33 dbbf
00000110: 5069 05c0 8cbc 103e fba6 5d3f 24f8 0a3f
00000120: eb60 91be af59 49bf 4b87 893e efde 7f3f
00000130: 98bb 643c 1aee bb3e 75cc 31bf fd59 9f3e
00000140: 04ac 923f 7da4 f83e 1b87 73bf 4d0c ccbf
00000150: 0176 1dbf 1f25 aabe 2de5 793e 0627 b6be
00000160: d916 9bbf d8f7 f1be 056e a23f 8f87 8c3f
00000170: 0f65 f43e 5101 a3bf d217 1bc0 21d7 89be
00000180: 2a2d 423f f668 fe3f cbc7 893f 1e0b 54be
00000190: 5d6c cf3f a6bc 1240 9867 2d3f a48a 70bf
000001a0: 99b9 35bf b924 37bf 44e9 743f dca3 4040
000001b0: ecdd 4c40 88f0 1140 c39f b03f 613b b03f
000001c0: 19a7 203f 7e2e 5bbf bc80 a63e fff2 4d3f
000001d0: c092 cd3f 6d29 6540 00a5 7240 357c da3f
000001e0: 3747 0240 8174 903f 7dd2 ec3e ce30 35bf
000001f0: b244 2f3f 78a2 173f 0c4e c0bd 200d a53f
00000200: 07d5 bc3f c035 d33f 2e26 9e3f cccd 6d3f
00000210: 7ea5 ac3e e94f 32bf a3c5 723e f565 d43e
00000220: 72ac 9cbe d588 093e f493 e63e f4cc e5be
00000230: ba0e db3f a90d 3b3f 8165 723e a999 353f
00000240: 6a98 843f 152a 763f a65b 3c3e c7f3 04be
00000250: 6d82 843d 2ace 89bd d2b9 813e 548b 2d3f
00000260: 398d 483f 19e1 c03e 69b2 a83e cd00 153f
00000270: 5224 213f 048f bdbd 3ae6 d1bd e674 353e
00000280: 7787 213d 2b96 bc3f cd02 193f e00c 453f
00000290: 0a65 eb3e 11ec 2b3f 5e78 cb3e 1162 a73e
000002a0: 2aab 733e 4bbd 243e a8aa 1a3f 20a2 993e
000002b0: b16a 4c3f acce 503f 85ae 263f c758 013f
000002c0: 8472 eebf a821 fdbf 5a62 fbbf 7e9f 05c0
000002d0: aae7 99be 6c3a 9f3f c292 a23f 8ad9 b63f
000002e0: 082a c83f 5acb eb3f 25b2 f73f f5b3 843f
000002f0: f566 b03f ae6c ba3f b9a2 853f 0078 4a40
00000300: 9c02 5a3f a104 b23e 8e76 b93e c83c d73f
00000310: 7691 cf3f df9a 933f 3dd9 263e 8825 da3f
00000320: ef09 9040 003d c1be 007c a53f 427f 1c3d
00000330: 76ab 273d f8f4 c63e f605 b43e 3d5d 073e
00000340: 9e18 eb3c 9638 f23f 4948 5a3f a363 bd3e
00000350: aea8 ad3e ef42 10bf b772 2d3f d1d4 62bf
00000360: 7646 50bf b5b5 4fbf 4cc1 4340 c307 1040
00000370: b262 1040 e266 e2c0 38a9 2dc1 834d 36c1
00000380: 1f4f 40c1 8da1 59c1 7822 3ec1 368e 29c0
00000390: 1bdc e9bf 582b 10c0 6a47 e9bf 6a61 793f
000003a0: 2803 743f cbc4 153f ccd9 363f 218f 3f3f
000003b0: 4e27 5d3f 60fa e1c0 8b99 17c1 aa70 b4c0
000003c0: 194d 91c0 11f8 f33e 5251 803f 72d9 6c3f
000003d0: 69db f43e cb29 bd3e 7859 e63e b085 8cc0
000003e0: e56c 54c1 379b f7c0 cba1 bdc0 caf0 633f
000003f0: 377d 763f 5e17 353f c6fa 373f de3a 923f

critic.0.bias f4 [32]
-4.754586 -1.8304919 0.75960666 1.407966 -1.690503 4.869348 0.31156346 -4.6351247
-4.055707 -7.1834135 2.7447467 3.3755455 1.6242328 3.2470074 -1.1123668 5.1897516
-3.949562 0.66018295 0.8556885 5.2412767 5.2116895 5.1127777 -2.1234589 0.39087602
-0.7326546 1.3858049 -0.54491925 -4.229718 -0.10404248 -2.5239315 2.3236127 1.5004758
00000000: 9225 98c0 8f4d eabf 9575 423f 3b38 b43f
00000010: 6762 d8bf b3d1 9b40 3f85 9f3e f152 94c0
00000020: 5ac8 81c0 86de e5c0 eea9 2f40 f008 5840
00000030: dce6 cf3f f8ce 4f40 0962 8ebf 7212 a640
00000040: a0c5 7cc0 c001 293f 670e 5b3f 8ab8 a740
00000050: 29c6 a640 e09b a340 c0e6 07c0 e720 c83e
00000060: 408f 3bbf 0e62 b13f d47f 0bbf da59 87c0
00000070: 3914 d5bd 1888 21c0 12b6 1440 970f c03f

critic.2.weight f4 [32, 32]
-0.5339092 -0.26053107 -0.38586023 0.23992379 -0.33991653 -0.16702372 -0.26315966 0.12812258
-0.35486907 -2.3323607 -0.046496622 0.2866024 -0.51972955 -0.6277716 -0.03140282 0.36847103
-1.428414 -0.46736503 -0.33973804 0.2687926 0.4505543 -0.07942554 0.18296629 -0.07069544
-0.8261443 -0.17444801 -0.33222088 -0.42045048 -0.8762072 -0.70500016 -0.110123806 -0.10384683
0.92029506 1.6823987 -0.3669095 -0.936092 0.58108246 -1.814453 0.6436923 0.17460093
1.6720362 0.54504174 1.4558572 -0.31561786 2.1967828 1.3908918 0.8507566 -3.195691
0.96881515 0.95944494 1.6508768 -2.4886281 -3.1250055 -3.1157768 0.9634461 -0.9614345
0.79066634 1.0317272 0.6875499 2.1303334 -2.5656517 1.4453274 -1.2712798 1.1631647
1.7966142 1.1462588 -0.91948515 -0.59010524 0.6139424 -0.82607245 0.61845726 1.4067575
1.1874766 0.551197 0.14967045 0.11507833 1.0841534 1.2880865 -0.28780863 -2.0462132
1.0991087 -0.024111878 0.39928734 -1.6604685 -2.1046119 -1.6132472 0.18606012 -0.7500021
0.9236424 0.73238397 0.35351193 1.531301 -0.56528807 1.4727474 -0.42894644 0.64143807
0.68316746 0.8567302 -1.4038514 -0.29187402 0.45492306 -1.1940726 0.56899697 0.74589986
1.2869608 1.150262 0.5086741 -0.15053082 1.5538069 1.141735 0.8940293 -2.6582255
1.2902884 0.6988284 0.3412415 -2.0294197 -2.9209316 -2.4506087 0.534584 -0.08610281
1.4113246 0.93382365 0.8393669 1.2585424 -1.0375617 1.2784681 -0.3846859 0.49068022
0.5576746 1.3717415 -0.21639685 -0.61407787 0.7514031 -2.0084174 0.84479386 0.6815646
1.5500634 0.7942184 1.4747132 -0.028494205 1.7485379 1.453496 1.3354821 -3.3123968
1.4449966 1.5374389 1.4026632 -2.4480724 -3.1783786 -2.7355704 0.49354377 -1.1129801
1.2839776 1.213459 0.3889401 2.0644617 -2.066683 2.0584104 -1.2032307 1.2113426
0.5589762 0.7059459 0.22451152 -0.7146955 0.08170633 -0.49069402 1.1723235 0.50201243
2.1007755 0.81210226 0.23114836 -0.70817864 0.16971059 0.35345045 0.21272375 -0.23325118
0.0630986 0.022065463 0.30224296 -0.6136429 -0.43342024 -0.20516784 1.2195382 -0.018985067
-0.6750181 0.37671947 -0.5690899 2.7101223 0.6736197 1.3860903 -0.21945103 0.32002217
0.73685753 1.6738783 -1.0687428 -0.70330137 1.0059392 -1.4042681 0.3568771 1.2221344
1.2400014 1.4021183 0.4711734 0.1271096 1.4928539 0.46301818 0.6866337 -2.8844225
1.8030403 0.4445293 0.7882968 -2.307824 -2.3762085 -2.3705113 0.68083924 -0.9061257
1.2926372 0.40003163 0.44063237 1.1626693 -0.8980757 1.7747422 -0.82685614 0.48821095
1.3593237 1.2651118 -1.181336 -0.6088709 0.75538343 -1.4721202 0.4997259 0.98688656
1.2699223 0.5350633 1.3066428 -0.015918797 1.3622729 0.9144762 0.8163446 -2.9356647
1.3591268 0.77401257 0.68893486 -2.498928 -2.6615467 -2.7508585 0.522324 -0.74058074
1.3122195 0.77991223 0.40625414 1.0683522 -1.8362212 1.5894214 -0.8290197 0.99262786
00000000: 46ae 08bf 5464 85be 798f c5be 95ae 753e
00000010: 8a09 aebe 4408 2bbe ddbc 86be 9132 033e
00000020: 66b1 b5be 6645 15c0 3e73 3ebd 8dbd 923e
00000030: ff0c 05bf a4b5 20bf 3ea0 00bd 3ca8 bc3e
00000040: 45d6 b6bf 784a efbe 25f2 adbe 2f9f 893e
00000050: 0eaf e63e dca9 a2bd 845b 3b3e c5c8 90bd
00000060: 317e 53bf 80a2 32be db18 aabe 4945 d7be
00000070: 1d4f 60bf e47a 34bf 9788 e1bd a6ad d4bd
00000080: 7598 6b3f d758 d73f 90db bbbe baa3 6fbf
00000090: d2c1 143f ff3f e8bf 05c9 243f 96ca 323e
000000a0: 4805 d63f db87 0b3f 8759 ba3f aa98 a1be
000000b0: 1798 0c40 be08 b23f 2fcb 593f 3486 4cc0
000000c0: 4504 783f 2f9e 753f ee4f d33f af45 1fc0
000000d0: 1700 48c0 e368 47c0 67a4 763f 9220 76bf
000000e0: 1c69 4a3f a30f 843f 4503 303f 6257 0840
000000f0: a333 24c0 7d00 b93f 4cb9 a2bf 95e2 943f
00000100: 74f7 e53f 9cb8 923f 6163 6bbf 2311 17bf
00000110: 542b 1d3f 7c79 53bf 3753 1e3f a110 b43f
00000120: 3cff 973f 3f1b 0d3f 3643 193e 30ae eb3d
00000130: 8ac5 8a3f 05e0 a43f a75b 93be 28f5 02c0
00000140: 98af 8c3f 4686 c5bc 646f cc3e 3b8a d4bf
00000150: f6b1 06c0 e27e cebf 8b86 3e3e 2300 40bf
00000160: d473 6c3f 847d 3b3f 84ff b43e ac01 c43f
00000170: b8b6 10bf fd82 bc3f de9e dbbe 4935 243f
00000180: 10e4 2e3f ac52 5b3f 67b1 b3bf 8370 95be
00000190: adeb e83e 5fd7 98bf c9a9 113f 4bf3 3e3f
000001a0: 22bb a43f c93b 933f 7738 023f c024 1abe
000001b0: 25e3 c63f 5f24 923f 1bdf 643f 5e20 2ac0
000001c0: 2c28 a53f 6be6 323f 35b7 ae3e 03e2 01c0
000001d0: 8bf0 3ac0 c6d6 1cc0 7fda 083f ac56 b0bd
000001e0: 49a6 b43f 110f 6f3f c0e0 563f eb17 a13f
000001f0: d2ce 84bf d8a4 a33f 8df5 c4be 703a fb3e
00000200: c3c3 0e3f 3a95 af3f 2397 5dbe 3534 1dbf
00000210: f45b 403f e989 00c0 6944 583f 057b 2e3f
00000220: 7a68 c63f e651 4b3f 67c3 bc3f ae6c e9bc
00000230: 17d0 df3f 280c ba3f 14f1 aa3f 4ffe 53c0
00000240: a6f5 b83f ccca c43f 788a b33f 38ad 1cc0
00000250: 8e6a 4bc0 9613 2fc0 c5b1 fc3e 2276 8ebf
00000260: 6159 a43f a052 9b3f 2823 c73e 2420 0440
00000270: 8944 04c0 ffbc 0340 7703 9abf 460d 9b3f
00000280: 1019 0f3f dfb8 343f 59e6 653e 49f6 36bf
00000290: a655 a73d 3f3c fbbe b20e 963f e383 003f
000002a0: 1b73 0640 efe5 4f3f 28b2 6c3e 324b 35bf
000002b0: 9dc8 2d3e 75f7 b43e 41d4 593e 66d9 6ebe
000002c0: d739 813d a1c2 b43c 97bf 9a3e b317 1dbf
000002d0: 42e9 ddbe 8517 52be d419 9c3f 9286 9bbc
000002e0: fccd 2cbf 60e1 c03e e0af 11bf a572 2d40
000002f0: 5772 2c3f 686b b13f c5b7 60be f2d9 a33e
00000300: b2a2 3c3f a541 d63f 90cc 88bf 8f0b 34bf
00000310: 9ec2 803f 0fbf b3bf 98b8 b63e e66e 9c3f
00000320: 5eb8 9e3f 9d78 b33f a43d f13e 0529 023e
00000330: d615 bf3f b810 ed3e 3ac7 2f3f 619a 38c0
00000340: 06ca e63f 5899 e33e d2cd 493f 63b3 13c0
00000350: cd13 18c0 75b6 17c0 7b4b 2e3f dbf7 67bf
00000360: 2375 a53f f2d0 cc3e 919a e13e 59d2 943f
00000370: 4ae8 65bf c12a e33f d8ac 53bf c9f6 f93e
00000380: 52fe ad3f 2fef a13f 0536 97bf f7de 1bbf
00000390: cf60 413f 6f6e bcbf 13dc ff3e 99a4 7c3f
000003a0: d08c a23f e9f9 083f 1240 a73f 2368 82bc
000003b0: f55e ae3f 1d1b 6a3f f6fb 503f eee1 3bc0
000003c0: def7 ad3f b025 463f 095e 303f 70ee 1fc0
000003d0: c856 2ac0 110e 30c0 07b7 053f b396 3dbf
000003e0: cff6 a73f 54a8 473f 8b00 d03e c4bf 883f
000003f0: 4c09 ebbf 2972 cb3f a33a 54bf dc1c 7e3f

critic.2.bias f4 [32]
5.0076556 -2.9005442 -1.1147693 -2.3643758 -2.843105 -1.1839938 -1.9375461 -2.8353662
4.304827 -2.606991 -2.7897491 4.0187936 -2.7723403 -1.4868802 4.0829887 -2.7321332
3.6783972 -2.3432791 3.910609 -1.9337833 -2.770364 -2.752686 -1.859204 -2.9550722
-2.1411273 4.176657 -2.853954 -2.6126688 -2.0230234 -0.23139492 -0.15734123 -0.8826001
00000000: b73e a040 84a2 39c0 c3b0 8ebf ef51 17c0
00000010: 6ff5 35c0 1c8d 97bf 8301 f8bf a476 35c0
00000020: 25c1 8940 f1d8 26c0 408b 32c0 f599 8040
00000030: 066e 31c0 1752 bebf d8a7 8240 45db 2ec0
00000040: dc6a 6b40 49f8 15c0 6b47 7a40 3686 f7bf
00000050: a54d 31c0 022c 30c0 66fa edbf e71f 3dc0
00000060: 3b08 09c0 2da7 8540 2fa7 36c0 f735 27c0
00000070: 3779 01c0 caf2 6cbe 0f1e 21be 15f2 61bf

critic.4.weight f4 [32, 32]
0.15217215 0.71922547 -0.09206344 0.3650884 0.530569 0.89608604 0.25155914 0.36259174
-0.5390256 0.045403022 0.39529586 0.5099275 0.012592162 0.16467707 0.117456585 0.33954313
-0.03729831 0.2032415 -0.08730127 0.1625832 0.10719462 0.19140859 0.52056015 0.21366775
0.030538768 0.39647216 -0.078825444 0.26380694 0.15841651 0.38399497 0.42645302 0.27417836
0.13290577 -1.4681649 -0.8956903 -1.0939616 -1.6087816 -0.12038783 -0.80391675 -1.0963762
0.063710876 -1.4543012 -1.3419971 0.17269218 -1.2336512 -1.1401904 0.1321639 -1.3569542
0.083478704 -1.3580402 -0.14782324 -1.4844221 -1.5270041 -1.5983036 -1.2447048 -1.5724331
-1.3817024 0.016506858 -1.2220751 -1.4581844 -1.0973694 0.087855555 -0.1273073 -1.024773
-0.43745634 0.30838907 -0.17553183 0.38863066 0.14088486 0.21735913 0.31877863 -0.0009655821
0.03909813 0.32757592 0.05954101 -0.13531874 0.39854008 -0.16699365 0.1554867 0.318515
-0.0044528753 0.6536888 0.08128144 0.10750715 0.20067443 0.17889582 0.16672014 -0.07966174
0.13973235 -0.02277192 0.31170785 0.32170305 -0.16179876 0.41073352 0.08105746 -0.21924391
0.44312564 0.29402876 0.3278686 0.42100686 0.2141409 0.38663757 0.5540203 0.016325187
-0.25350478 0.284816 0.2763247 -0.09519825 0.42264193 0.13524899 -0.5062444 0.46720538
0.74886316 0.33608085 0.62817234 0.59014 0.105370566 0.23586075 0.13780606 0.5052189
0.26820096 0.2924121 0.16013964 0.52464867 0.32936534 0.61635184 0.3733087 0.48202047
0.9461181 1.6663638 0.7002568 1.3288548 1.8613328 -0.87206584 1.3299363 1.5142806
-0.59226936 1.9062501 1.7195991 0.3466981 1.0567789 1.532272 0.46752682 1.7302186
-0.004632148 1.5370636 1.0251944 2.0212784 1.6671735 2.0511646 1.6515647 1.3367187
1.676189 0.72404873 1.0620073 1.3959969 1.2946882 0.23510058 -1.2183028 1.1548096
0.6392156 0.86488837 0.109570764 0.5816601 0.745489 -0.1757637 0.9072379 0.7251011
0.4819143 0.38783967 0.6112202 0.6742178 0.67355 0.8175723 0.19993012 0.9753015
0.5221531 0.8936966 0.5914744 0.32699746 1.0030458 0.7853379 0.6359316 0.63311386
0.60227185 0.37077406 0.7099427 0.77077943 0.5414174 0.39327052 0.17560148 -0.011506216
-0.49381334 0.18058856 0.27692753 0.16685429 0.6084371 1.1708683 0.34487668 0.32605472
0.29308286 0.26105204 -0.08357482 0.37636745 0.0250353 0.47255835 -0.79582715 0.4198255
0.88126725 0.0866061 0.19680981 0.5077052 0.2171725 0.04888143 0.11534088 0.045803975
0.48297712 -0.011139495 0.36277032 0.110090144 0.49910966 0.70564836 0.5536087 0.9334243
-0.08949267 0.26346 0.55883247 0.28884757 0.4299745 0.048506286 0.24600653 0.5912353
0.29796168 0.1504426 0.48865217 0.2256294 0.25695902 0.13787135 0.571443 0.08928781
-0.06865479 -0.19804852 -0.64594644 0.48676524 0.44076553 0.1962585 0.38985848 0.43331945
-0.097337976 0.15957354 0.13979606 0.35913792 0.6097611 0.025284693 0.12290941 0.19894221
00000000: 04d3 1b3e 291f 383f c28b bcbd deec ba3e
00000010: 5fd3 073f e565 653f 5ccc 803e a0a5 b93e
00000020: 95fd 09bf 85f8 393d 3864 ca3e 9c8a 023f
00000030: 5b4f 4e3c 1ba1 283e 148d f03d 99d8 ad3e
00000040: 1dc6 18bd 8a1e 503e 02cb b2bd 367c 263e
00000050: da88 db3d 9d00 443e 6e43 053f b8cb 5a3e
00000060: 702c fa3c 66fe ca3e 3c6f a1bd b411 873e
00000070: f037 223e fd9a c43e 0d58 da3e 1b61 8c3e
00000080: 7318 083e d4ec bbbf f64b 65bf ef06 8cbf
00000090: 8eec cdbf e58d f6bd 7dcd 4dbf 0e56 8cbf
000000a0: d97a 823d 8b26 babf 90c6 abbf 38d6 303e
000000b0: 48e8 9dbf c2f1 91bf f955 073e adb0 adbf
000000c0: e2f6 aa3d 43d4 adbf fa5e 17be 8b01 bebf
000000d0: df74 c3bf 3695 ccbf 7d52 9fbf 7d45 c9bf
000000e0: a0db b0bf 6439 873c f56c 9cbf c9a5 babf
000000f0: 9a76 8cbf 9ded b33d d85c 02be c32b 83bf
00000100: 47fa dfbe 2ce5 9d3e 9ebe 33be 99fa c63e
00000110: 1f44 103e 6493 5e3e f436 a33e 1e1f 7dba
00000120: 5c25 203d 08b8 a73e 46e1 733d ff90 0abe
00000130: 720d cc3e 6200 2bbe e837 1f3e 6614 a33e
00000140: 6de9 91bb 2658 273f e276 a63d b52c dc3d
00000150: 997d 4d3e 7730 373e afb8 2a3e b225 a3bd
00000160: ff15 0f3e 2d8c babc 2c98 9f3e 43b6 a43e
00000170: 93ae 25be aa4b d23e 7401 a63d 7a81 60be
00000180: 5de1 e23e f08a 963e 65de a73e 368e d73e
00000190: c147 5b3e 5cf5 c53e 46d4 0d3f 66bc 853c
000001a0: 61cb 81be 67d3 913e 6e7a 8d3e 4df7 c2bd
000001b0: 8664 d83e b67e 0a3e 3c99 01bf 8b35 ef3e
000001c0: 7fb5 3f3f ca12 ac3e e7cf 203f 6a13 173f
000001d0: 86cc d73d 7b85 713e 081d 0d3e 0756 013f
000001e0: a351 893e 0ab7 953e a5fb 233e 604f 063f
000001f0: 93a2 a83e 3cc9 1d3f 5122 bf3e 63cb f63e
00000200: cc34 723f 694b d53f 0844 333f ea17 aa3f
00000210: 2740 ee3f b53f 5fbf 5a3b aa3f f2d3 c13f
00000220: f79e 17bf 0100 f43f d31b dc3f 6a82 b13e
00000230: 8844 873f 7d21 c43f ad5f ef3e ce77 dd3f
00000240: 46c9 97bb 80be c43f 9239 833f a05c 0140
00000250: f165 d53f 4846 0340 7966 d33f 9919 ab3f
00000260: 5c8d d63f 425b 393f dbef 873f 07b0 b23f
00000270: 58b8 a53f 35be 703e 59f1 9bbf cdd0 933f
00000280: a2a3 233f 5369 5d3f a366 e03d ade7 143f
00000290: 5ed8 3e3f 66fb 33be be40 683f 3aa0 393f
000002a0: 79bd f63e ec92 c63e ed78 1c3f 8a99 2c3f
000002b0: c66d 2c3f 6b4c 513f 7bba 4c3e 5cad 793f
000002c0: d3ab 053f 4dc9 643f de6a 173f 366c a73e
000002d0: ce63 803f e80b 493f 6acc 223f c013 223f
000002e0: 7d2e 1a3f 19d6 bd3e cebe 353f cd51 453f
000002f0: 559a 0a3f c15a c93e e0d0 333e 9184 3cbc
00000300: 1ad5 fcbe 35ec 383e 72c9 8d3e dadb 2a3e
00000310: 89c2 1b3f 03df 953f ad93 b03e a5f0 a63e
00000320: f50e 963e 9da8 853e 4629 abbd 3cb3 c03e
00000330: d416 cd3c 2bf3 f13e 54bb 4bbf 5ef3 d63e
00000340: bb9a 613f 8a5e b13d 8388 493e f8f8 013f
00000350: 7862 5e3e e537 483d d737 ec3d f39c 3b3d
00000360: c748 f73e 6e82 36bc 08bd b93e f176 e13d
00000370: 4d8b ff3e 5fa5 343f 4db9 0d3f e5f4 6e3f
00000380: ef47 b7bd 3be4 863e a50f 0f3f d4e3 933e
00000390: 9e25 dc3e 87ae 463d 23e9 7b3e 325b 173f
000003a0: 6f8e 983e a00d 1a3e 9e30 fa3e 650b 673e
000003b0: 2290 833e 262e 0d3e 174a 123f 87dc b63d
000003c0: e29a 8cbd 3bcd 4abe bf5c 25bf 4b39 f93e
000003d0: 05ac e13e fdf7 483e 889b c73e 0cdc dd3e
000003e0: 2259 c7bd 3f67 233e b326 0f3e ede0 b73e
000003f0: 4e19 1c3f d821 cf3c eeb7 fb3d 82b7 4b3e

critic.4.bias f4 [32]
1.8735073 3.6020472 -0.2604848 0.115233995 -1.6596885 -1.3930507 0.52254236 1.8925277
0.9232077 0.040752724 0.6476385 0.69099414 0.8727491 0.5718269 0.21110266 0.5393398
-0.6373155 -0.042932395 1.7258646 0.6300052 0.214742 1.2135127 0.14453709 0.27701563
-0.5769657 -1.2222695 -0.43361616 0.42649516 3.7950122 0.96215534 0.24100271 -0.32298255
00000000: 16cf ef3f f187 6640 445e 85be cdff eb3d
00000010: ac70 d4bf 7c4f b2bf 56c5 053f 593e f23f
00000020: 5757 6c3f 54ec 263d a3cb 253f fee4 303f
00000030: 7c6c 5f3f 3f63 123f 4c2b 583e 2c12 0a3f
00000040: 1c27 23bf e1d9 2fbd 22e9 dc3f 0548 213f
00000050: 54e5 5b3e 6254 9b3f 8801 143e fed4 8d3e
00000060: 06b4 13bf 5473 9cbf f002 debe 935d da3e
00000070: 7be1 7240 d04f 763f 6ac9 763e f85d a5be

critic.6.weight f4 [1, 32]
0.011789369 -0.508098 0.06665502 0.14291105 0.7028345 -0.07094233 -0.025066981 -0.018414408
-0.0042473283 -0.16382818 0.11730055 -0.020475604 0.0066440604 -0.12726572 0.04748049 0.38981542
0.011880523 -0.028078157 0.06511618 0.011141666 -0.015064354 0.15122913 0.011267795 0.120939575
0.014321923 0.37042314 -0.0025364642 -0.053391118 -0.26697937 -0.0712685 -0.10163526 0.11921271
00000000: 3328 413c b612 02bf 6d82 883d 4657 123e
00000010: f6ec 333f 364a 91bd 4559 cdbc d0d9 96bc
00000020: 2c2d 8bbb 93c2 27be 453b f03d 74bc a7bc
00000030: 6bb6 d93b f251 02be e77a 423d e395 c73e
00000040: 86a6 423c 2a04 e6bc a25b 853d 898b 363c
00000050: 7bd0 76bc cfdb 1a3e 8f9c 383c 2baf f73d
00000060: 80a6 6a3c 1aa8 bd3e cf3a 26bb a5b0 5abd
00000070: 85b1 88be 38f5 91bd 2626 d0bd cb25 f43d
