models/model.ckpt-429317.pth (torch, 70479 bytes, 15 tensors)

actor.0.weight f4 [32, 181]
-0.0059520868 -0.17631118 -0.48870277 -0.566608 -0.2388199 0.06971412 0.020127429 0.3816754
0.64609456 0.14827508 -0.03405574 -0.23000896 -0.7144005 -0.78881943 -0.77486324 -0.48581713
-0.09028832 0.5415877 0.82518244 0.50460786 0.12348537 -0.1454209 -0.0130944485 -0.2229275
0.12321397 -0.07255427 -0.08467874 -0.08036271 -0.06547137 -0.023637958 -0.032527525 0.1430461
0.11553203 0.14704849 0.12281339 0.11529262 0.029050753 -0.07359936 -0.0361269 -0.26700962
0.0838727 -0.1688615 -0.14665653 -0.00980315 -0.06936452 0.115389876 -0.006569321 -0.12068502
-0.27957055 0.006651316 -0.105788045 -0.55016965 -0.26320332 0.089090765 0.438825 -0.30982524
0.31275696 0.37953725 0.31538883 0.109310836 -0.38860095 -0.93936354 -0.4889542 0.1534974
0.49099782 -0.07818646 0.16725941 0.2771231 0.6752643 0.85825723 -0.09039401 -0.05717235
-0.14708713 0.1771076 0.17736942 -0.25465164 -0.15606107 0.08012612 0.20258072 -0.23321389
-0.20219785 0.34749106 0.08536361 -0.18075277 -0.26079565 -0.22729658 0.0176336 -0.0090882
0.12976195 0.2549543 -0.07514334 0.08878549 0.09204254 -0.22475539 0.19230512 -0.048108697
0.06555789 -0.16695562 0.027623959 -0.00030116225 -0.018125392 -0.08880197 -0.29452026 -0.17107353
-0.004404354 -0.60452783 -0.15910107 0.2248504 -0.0638158 -0.37006363 -0.20025174 -0.08960965
-0.08481627 -0.5531509 -0.39878064 -0.5138498 -0.44147846 -0.02815505 -0.33660588 -0.23902194
-0.14386922 -0.1280556 0.22934929 0.13096525 0.0139393825 0.13995063 -0.5847264 -0.1765522
0.31106135 0.20323958 -0.14486034 0.29307756 0.2869114 0.015746916 -0.33869496 0.08167927
-0.2920471 0.10043044 0.13858135 0.07090142 -0.15677777 -0.08867029 -0.17031543 0.18448044
0.11967594 -0.1569218 -0.4247175 -0.09091805 -0.18925643 -0.56478053 -0.22138391 -0.565336
-0.36918372 -0.15474051 -0.1101112 -0.35483554 -0.37730396 -0.17253071 0.11587403 0.402299
0.081626594 -0.40174022 0.34816304 0.020559592 -0.21204366 -0.117450416 0.013430481 0.11267743
-0.30574483 0.10809227 -0.2386722 -0.0975135 0.2832204 -0.3973543 0.07534742 -0.450266
-0.41245553 -0.1459748 0.28278646 0.35208705 -0.358493 -0.3959417 -0.9289671 -1.5922855
-0.59840715 -0.94040745 -0.5196758 0.10873351 -0.81901217 1.611693 2.4959447 -0.40927577
-1.1262608 -1.2742921 -0.34241316 -1.4020839 -1.464812 -2.2188928 0.48070744 0.8483535
2.4309294 -0.37389332 -0.09686676 -0.21827373 -0.37527505 0.40429348 -0.1810747 0.48709518
0.39178005 0.16709316 -0.051952615 0.05729749 -0.22221592 0.12429638 0.62569505 0.7781898
0.5829733 -0.03020516 0.060175654 -0.10955757 -0.12265761 -0.09763998 -0.5380136 0.71038187
0.38591656 -0.08603494 0.24836668 -0.82821906 -0.7358409 0.60910296 0.15086873 -1.2562888
-1.9603883 0.62138486 0.8210973 0.99180174 -0.011109336 0.7954488 0.8668396 2.0119605
0.66337436 -2.319226 -2.9710891 -1.1486281 1.9464256 2.337828 1.3986677 0.70441675
0.9680098 1.214923 0.7515185 -1.2957346 -0.54985195 0.0034648117 0.3565485 1.7630332
00000000: b909 c3bb eb8a 34be 4037 fabe 390d 11bf
00000010: 348d 74be 47c6 8e3d 47e2 a43c f56a c33e
00000020: 7466 253f 6cd5 173e 087e 0bbd 7887 6bbe
00000030: f3e2 36bf 12f0 49bf 705d 46bf 06bd f8be
00000040: 15e9 b8bd 7ea5 0a3f 283f 533f fb2d 013f
00000050: e6e5 fc3d 37e9 14be 198a 56bc 1b47 64be
00000060: 9b57 fc3d 5597 94bd 0c6c adbd 3495 a4bd
00000070: db15 86bd 64a4 c1bc 953b 05bd ad7a 123e
00000080: 0f9c ec3d e193 163e 9685 fb3d 8a1e ec3d
00000090: d8fb ed3c 43bb 96bd cdf9 13bd 7cb5 88be
000000a0: 73c5 ab3d 07ea 2cbe 212d 16be 649d 20bc
000000b0: fc0e 8ebd 8751 ec3d 7543 d7bb b529 f7bd
000000c0: df23 8fbe 48f3 d93b 67a7 d8bd ebd7 0cbf
000000d0: 96c2 86be 3875 b63d acad e03e 6aa1 9ebe
000000e0: ae21 a03e b552 c23e a57a a13e 5cde df3d
000000f0: b4f6 c6be 217a 70bf 3458 fabe 6c2e 1d3e
00000100: 1164 fb3e 3920 a0bd 0d46 2b3e 14e3 8d3e
00000110: 1fde 2c3f bfb6 5b3f 7f20 b9bd 8e2d 6abd
00000120: 029e 16be b25b 353e 54a0 353e b361 82be
00000130: 79ce 1fbe 2a19 a43d 5271 4f3e 9fcf 6ebe
00000140: f40c 4fbe 59ea b13e 1ed3 ae3d 4117 39be
00000150: 0287 85be 6fc0 68be 5774 903c ace6 14bc
00000160: 51e0 043e 5f89 823e c0e4 99bd 2bd5 b53d
00000170: cd80 bc3d 4726 66be a2eb 443e a00d 45bd
00000180: 3743 863d 6af6 2abe a44b e23c 50e5 9db9
00000190: b47b 94bc cfdd b5bd 5ccb 96be e62d 2fbe
000001a0: 6652 90bb 56c2 1abf 64eb 22be 2f3f 663e
000001b0: dcb1 82bd fb78 bdbe cb0e 4dbe 4485 b7bd
000001c0: 27b4 adbd 4c9b 0dbf fa2c ccbe a98b 03bf
000001d0: 7709 e2be 6ba5 e6bc 9b57 acbe 2bc2 74be
000001e0: 7452 13be 0221 03be 8ada 6a3e c11b 063e
000001f0: 0262 643c 384f 0f3e a1b0 15bf 1aca 34be
00000200: 6f43 9f3e 091e 503e 4556 14be 430e 963e
00000210: 0de6 923e adff 803c 6d69 adbe 7647 a73d
00000220: 3387 95be 79ae cd3d 45e8 0d3e c434 913d
00000230: 5a8a 20be c598 b5bd 2b67 2ebe 71e8 3c3e
00000240: a918 f53d 1cb0 20be 9274 d9be 3e33 babd
00000250: 70cc 41be 7595 10bf 77b2 62be dcb9 10bf
00000260: a605 bdbe 4c74 1ebe fb81 e1bd 01ad b5be
00000270: fc2d c1be e4ab 30be 5d4f ed3d 22fa cd3e
00000280: d82b a73d e5b0 cdbe 6d42 b23e 976c a83c
00000290: f921 59be d889 f0bd 850b 5c3c 6dc3 e63d
000002a0: 968a 9cbe 7b5f dd3d 7c66 74be 28b5 c7bd
000002b0: 4402 913e 0672 cbbe c04f 9a3d 4489 e6be
000002c0: 5f2d d3be 6b7a 15be 63c9 903e c144 b43e
000002d0: 658c b7be dfb8 cabe cad0 6dbf 03d0 cbbf
000002e0: 3631 19bf 8bbe 70bf 7909 05bf adaf de3d
000002f0: c8aa 51bf f54b ce3f 8fbd 1f40 988c d1be
00000300: 5029 90bf 011c a3bf c750 afbe 7c77 b3bf
00000310: f67e bbbf 5702 0ec0 491f f63e b22d 593f
00000320: 5994 1b40 f26e bfbe 1462 c6bd 2683 5fbe
00000330: 0d24 c0be 8eff ce3e a56b 39be 8a64 f93e
00000340: 6597 c83e 781a 2b3e 44cc 54bd c6b0 6a3d
00000350: 928c 63be 1a8f fe3d 8d2d 203f 7237 473f
00000360: bd3d 153f d070 f7bc bf7a 763d b85f e0bd
00000370: ea33 fbbd 78f7 c7bd 42bb 09bf 96db 353f
00000380: db96 c53e 1633 b0bd d653 7e3e 2a06 54bf
00000390: 1260 3cbf 2cee 1b3f 557d 1a3e 12ce a0bf
000003a0: 01ee fabf 1413 1f3f 6f33 523f b8e6 7d3f
000003b0: ef03 36bc 88a2 4b3f 33e9 5d3f f6c3 0040
000003c0: e7d2 293f 336e 14c0 5326 3ec0 3f06 93bf
000003d0: 7924 f93f f99e 1540 8b07 b33f a854 343f
000003e0: 7ecf 773f 9982 9b3f 8463 403f a2da a5bf
000003f0: 19c3 0cbf e511 633b 868d b63e 12ab e13f

actor.0.bias f4 [32]
-0.2909975 -0.23614445 -0.057914704 0.50273097 0.17583579 -0.106238365 -0.19949053 -0.082670115
-0.32939824 0.44570163 0.33682242 -0.04596184 -0.2853174 -0.19224589 -0.14815842 0.414223
-0.31518382 -0.118938595 -0.13430434 0.00290579 -0.3847251 -0.17950487 0.18704347 -0.76731
-0.025667172 -0.43710658 0.19652703 0.4916053 -0.19994383 -0.23037492 -0.42379826 -0.0674567
00000000: a0fd 94be dacf 71be f837 6dbd fab2 003f
00000010: 4c0e 343e 8093 d9bd 3f47 4cbe f34e a9bd
00000020: e3a6 a8be 0133 e43e fd73 ac3e 7b42 3cbd
00000030: 1f15 92be 1bdc 44be d7b6 17be 0915 d43e
00000040: c65f a1be 1496 f3bd 1487 09be 116f 3e3b
00000050: b0fa c4be 20d0 37be 5388 3f3e 6e6e 44bf
00000060: f643 d2bc 6fcc dfbe 623e 493e b1b3 fb3e
00000070: 13be 4cbe 67e7 6bbe 16fc d8be bd26 8abd

actor.2.weight f4 [32, 32]
-0.25686976 -0.42962056 -0.11787916 0.26498222 -0.50544125 0.62544906 -0.13339333 0.3924483
0.16328813 -0.49297097 -0.23430172 0.7163356 -0.22850797 0.5078763 0.39974388 0.23775943
0.6992989 -0.057184357 1.2178481 0.83713436 -0.34142962 -0.06048594 0.018305497 -0.24072543
0.22560331 0.64815074 0.37508017 -0.38660717 -0.7014218 -1.1904329 0.13210896 -0.54232603
0.04497405 -0.22243588 -0.11195093 -0.23364471 0.07649668 -0.06481792 0.021723276 0.09570497
-0.1722025 -0.1612985 0.06600654 -0.1434764 0.23064557 -0.49570787 -0.16425915 0.13200118
-0.37728828 -0.22169256 0.0039078975 0.0409253 0.10049509 0.07957582 -0.1528651 -0.21128392
-0.31971473 -0.25180113 -0.21581098 0.037058793 -0.122809805 -0.3951661 -0.44250077 -0.21077009
0.5003876 0.47637546 -0.32889268 0.4703667 -0.4487371 -0.3240457 -0.72118753 -0.4467079
-0.0059154816 -1.2381119 -1.5349162 0.27489528 -0.80328584 2.043803 0.88962466 -0.17814273
-0.4665289 -0.35430682 -0.91570973 -0.36842567 0.543915 -0.5773346 -0.8792494 0.6207231
0.46566725 -0.8078569 -1.3810681 -0.47359705 0.01410253 0.0020252988 -0.8824645 -0.1619267
0.3237278 -0.5236448 -0.060315087 -0.04891073 0.18169495 -0.55783236 0.3026652 0.03261654
0.36245164 -1.0595043 0.020695668 0.51419824 0.70457387 -0.053580187 0.05773439 0.66963714
0.41346171 0.06530195 -0.807934 0.52541 -0.83319587 -0.50971925 -0.5215581 0.11516092
0.52302426 -0.7744896 0.17215833 0.012823084 -0.060680598 -0.41251075 1.019107 -0.29906443
0.54042524 -0.80124885 -0.48573175 0.16568322 0.13502757 -0.6568432 -1.2096357 0.26570344
0.1034694 0.24637224 0.29961395 0.33640072 -0.24407366 0.2525671 0.34808052 1.6287326
-0.40978932 0.88457507 -0.07139399 -0.8515628 -0.73636794 -0.048514858 -0.30883425 0.04421883
0.12512596 -0.861486 -0.41566685 0.6405146 0.56080234 -0.7637529 0.5852667 -1.1586334
-0.19437407 -0.72434306 0.06760633 -0.09146335 0.18046762 1.5214369 -0.8356528 0.8994882
0.58262205 0.4884804 0.32978058 -1.0729362 -0.23999895 -1.3002089 0.005202845 -0.74751204
0.20643757 0.36527935 0.99055654 0.53992724 -0.3078699 0.01585371 0.68465817 0.03475796
-1.2773486 0.30667302 0.46999648 -0.32031834 -0.88247555 -0.124442495 0.73929286 -0.41158524
0.11937005 -0.22110887 -0.15227695 0.30877954 -0.22823834 -0.29859227 -0.53059727 -0.096546836
-0.42430082 -0.28446648 -0.3812356 -0.11228882 -0.12916866 0.6598314 0.039909966 0.3816738
0.18336353 0.027158543 -0.73652613 -0.49364144 0.014846418 -0.30258456 -0.22708993 -0.057101224
-0.017784333 -0.6054904 -0.21677577 -0.04102279 0.052116595 -0.20294616 -0.118924744 -0.41165575
0.00097166427 -0.197611 -0.5646767 0.12174084 0.20010215 0.10381592 -0.2034964 0.030853681
-0.01393797 -0.04568405 0.07333522 -0.34392294 -0.3818965 0.14894329 0.13335317 -0.035645608
-0.14499347 -0.22097361 0.051357534 -0.37347376 -0.024478218 -0.09170327 -0.14200324 -0.2368185
-0.40337554 -0.3401419 -0.3415422 0.15848824 0.11222307 -0.009548936 -0.30417717 -0.49587223
00000000: 6f84 83be 3af7 dbbe a16a f1bd c0ab 873e
00000010: 9964 01bf 6e1d 203f 4398 08be fcee c83e
00000020: 0135 273e b166 fcbe caec 6fbe c561 373f
00000030: fefd 69be 2e04 023f 3bab cc3e 3577 733e
00000040: 4105 333f 253a 6abd 72e2 9b3f 704e 563f
00000050: ddcf aebe 1bc0 77bd 69f5 953c ba80 76be
00000060: 8e04 673e 35ed 253f 820a c03e 60f1 c5be
00000070: 6190 33bf 1b60 98bf 9247 073e e1d5 0abf
00000080: b636 383d 3bc6 63be 8746 e5bd 8f40 6fbe
00000090: 4baa 9c3d 42bf 84bd 03f5 b13c f800 c43d
000000a0: da55 30be 6f2b 25be 702e 873d 7aeb 12be
000000b0: 5a2e 6c3e 6ccd fdbe 8d33 28be 512b 073e
000000c0: ee2b c1be 6003 63be d20d 803b 4aa1 273d
000000d0: 5fd0 cd3d a6f8 a23d ab88 1cbe d05a 58be
000000e0: a6b1 a3be 14ec 80be 8efd 5cbe f6ca 173d
000000f0: b583 fbbd 3653 cabe 768f e2be 1dd4 57be
00000100: 6719 003f 7ce7 f33e 9f64 a8be e7d3 f03e
00000110: dfc0 e5be 51e9 a5be bf9f 38bf e6b6 e4be
00000120: a8d6 c1bb 737a 9ebf 2278 c4bf 13bf 8c3e
00000130: 24a4 4dbf abcd 0240 71be 633f 0c6b 36be
00000140: e0dc eebe b467 b5be f46b 6abf 4aa2 bcbe
00000150: 033e 0b3f 33cc 13bf 7d16 61bf b6e7 1e3f
00000160: f06b ee3e b6cf 4ebf d7c6 b0bf 507b f2be
00000170: 4c0e 673c e0ba 043b 32e9 61bf 1dd0 25be
00000180: a6bf a53e 960d 06bf f40c 77bd 9e56 48bd
00000190: 3e0e 3a3e 1ace 0ebf eff6 9a3e ec98 053d
000001a0: 4393 b93e d69d 87bf f689 a93c 7fa2 033f
000001b0: f45e 343f e676 5bbd e57a 6c3d 576d 2b3f
000001c0: 41b1 d33e 07bd 853d c3d4 4ebf 4581 063f
000001d0: 534c 55bf f67c 02bf d584 05bf 7dd9 eb3d
000001e0: ebe4 053f f344 46bf 464a 303e ea17 523c
000001f0: 388c 78bd 9c34 d3be 1972 823f f91e 99be
00000200: 4f59 0a3f a51e 4dbf d5b1 f8be dda8 293e
00000210: ab44 0a3e e026 28bf 58d5 9abf 480a 883e
00000220: c4e7 d33d 0149 7c3e 0067 993e b73c ac3e
00000230: 72ee 79be 7a50 813e 9c37 b23e 4f7a d03f
00000240: e8cf d1be 8373 623f 0337 92bd 0500 5abf
00000250: 9c82 3cbf 84b7 46bd 861f 9ebe ce1e 353d
00000260: 0521 003e 598a 5cbf 49d2 d4be c4f8 233f
00000270: be90 0f3f 4f85 43bf 0ad4 153f 194e 94bf
00000280: ff09 47be 8c6e 39bf 3075 8a3d 2351 bbbd
00000290: 81cc 383e 72be c23f 58ed 55bf dc44 663f
000002a0: b826 153f 1a1a fa3e 00d9 a83e f955 89bf
000002b0: 49c2 75be 3f6d a6bf a17c aa3b f35c 3fbf
000002c0: 5f64 533e e505 bb3e 1d95 7d3f ac38 0a3f
000002d0: 20a1 9dbe a4df 813c c245 2f3f 5d5e 0e3d
000002e0: 2980 a3bf 3f04 9d3e 61a3 f03e c400 a4be
000002f0: ebe9 61bf b5db febd 4c42 3d3f 4dbb d2be
00000300: 4978 f43d 5d6a 62be 7dee 1bbe 5a18 9e3e
00000310: 50b7 69be 16e1 98be 39d5 07bf 59ba c5bd
00000320: f53d d9be 97a5 91be 5031 c3be aef7 e5bd
00000330: ca44 04be b6ea 283f a278 233d c06a c33e
00000340: a6c3 3b3e 987b de3c fa8c 3cbf 92be fcbe
00000350: 643e 733c 5dec 9abe 438a 68be f9e2 69bd
00000360: 73b0 91bc 6b01 1bbf 78fa 5dbe 8307 28bd
00000370: 3678 553d 1ed1 4fbe d18e f3bd 8bc4 d2be
00000380: 49b7 7e3a 8a5a 4abe a78e 10bf 4353 f93d
00000390: 94e7 4c3e 719d d43d 5c61 50be dcc0 fc3c
000003a0: 155c 64bc 331f 3bbd c730 963d ab16 b0be
000003b0: f087 c3be 9784 183e bc8d 083e 2101 12bd
000003c0: 2b79 14be e846 62be 475c 523d f437 bfbe
000003d0: 8b86 c8bc edce bbbd 4c69 11be 8d80 72be
000003e0: 3d87 cebe 1427 aebe 9fde aebe be4a 223e
000003f0: 35d5 e53d 2473 1cbc 1cbd 9bbe f7e2 fdbe

actor.2.bias f4 [32]
-0.2466921 -0.35777426 -0.3174045 -0.08995858 -0.29540524 -0.15774678 -0.24449529 -0.5386425
0.19771524 -0.31788427 0.04339756 0.21005064 0.007848004 -0.22359534 0.11322044 -0.26273298
-0.42251226 0.5854939 -0.4379258 -0.285103 0.07533675 -0.12882605 -0.24318115 0.30145323
0.206287 0.18519346 0.31649855 -0.10339868 -0.3610401 -0.31673893 -0.17478208 -0.19604805
00000000: db9c 7cbe 302e b7be d882 a2be 343c b8bd
00000010: 5b3f 97be 5f88 21be f95c 7abe 7ae4 09bf
00000020: dd75 4a3e bac1 a2be a4c1 313d 8417 573e
00000030: ea94 003c 2df6 64be 1ee0 e73d f084 86be
00000040: 8753 d8be eee2 153f cf37 e0be 05f9 91be
00000050: 274a 9a3d faea 03be 7b04 79be 1458 9a3e
00000060: e63c 533e 5ba3 3d3e 190c a23e b0c2 d3bd
00000070: 3fda b8be 9b2b a2be 13fa 32be d2c0 48be

actor.4.weight f4 [32, 32]
-0.406399 0.07592569 -0.5161161 0.43832964 0.65248495 0.32673946 0.1849515 0.005853544
0.045482367 -0.90773445 -0.38569027 0.17439817 -0.3241756 -0.08719966 1.3130349 0.39644775
0.6980666 -0.89828944 0.043219794 0.14402805 0.51813775 0.1932002 0.13306643 0.66301316
0.30586866 -0.910278 -0.72546124 1.0592245 -0.39882526 0.0935816 -0.3866738 -0.17135957
-0.32166776 0.4197405 -0.60048455 0.28468168 -0.23691116 0.033913236 -0.51831526 0.15022539
-0.67913127 -0.31226245 -1.1211454 0.42792526 0.09460569 0.33052793 0.53949386 -0.86173034
-0.29704794 -0.3092823 0.22591949 0.28491828 0.08515671 -0.8928866 -0.15047781 -0.42774263
-0.3600425 -0.29498294 0.033475883 1.1293175 0.35191014 0.44135463 0.5397442 -0.26727283
0.43906966 0.037048716 0.7366683 0.14474931 0.24575359 0.20900725 0.34008113 0.03113261
0.4394278 0.45608985 -0.14312999 0.5894962 -0.50976217 0.15316263 -0.9293238 -0.83995605
-1.1385841 0.20218322 0.6829779 0.19961144 0.5732623 1.0349199 -0.016688906 -0.47548816
0.3702136 0.91061497 0.44349092 -0.96070576 -0.42450964 -0.894182 -0.26501986 0.4648331
-0.21638626 0.44628844 0.30009878 0.21717797 0.21160202 -0.23699355 0.40047845 0.3516411
0.32419947 -0.40960872 -0.60016227 0.81009984 -0.48347864 0.72495323 -0.3398956 -0.0412938
-0.7249636 0.6111773 0.35925144 0.6770095 -0.0030222072 0.23906831 0.70284027 0.08918086
-0.5649564 0.8324809 0.4891743 -0.0579876 0.3784639 -0.48115364 0.1296426 1.1974777
-0.19898888 -0.2615669 0.37418061 0.13122247 1.243659 0.033484332 0.38402578 -0.25269043
0.19967207 0.4386126 0.5162495 0.32612893 0.58347046 0.5032247 -0.07941758 -0.6716573
-0.63005686 0.1830226 0.30455583 0.11690721 0.550624 0.31919214 -0.8859778 -0.12682295
0.121023536 0.28544867 -0.19050308 -0.54502237 -0.016851297 -0.23424375 0.14448684 0.32248318
-0.4055564 0.0419306 0.029554902 0.058264926 -0.51110744 -1.7758919 -0.3365553 -0.04610362
-0.1515533 -0.4729919 -0.13533121 0.1346125 0.030074561 -0.04445409 -0.32914308 -1.0655478
-0.303808 0.35856414 -0.07552933 -0.023263186 -0.6823764 -0.4340072 -0.08848715 -1.003027
-0.2863165 0.0686537 0.45324403 -0.45389038 0.36300278 -1.0716044 -0.28078574 -0.09858004
-0.075979516 -0.11078157 -0.06733169 -0.28870195 0.31252524 -0.09034973 0.35807925 0.14218745
-0.9803524 -0.87628233 -0.3230739 0.6132337 -0.122640416 0.40518442 1.230189 -0.59106946
0.45574507 -0.8988781 0.48130193 0.21468641 0.33717874 -0.5861623 -0.33734247 -0.39531815
-0.31767666 -0.38738042 0.3561722 0.7076199 0.12083517 0.45293796 0.14397536 -0.13064523
-1.2932374 0.05687003 -0.22432771 0.17851484 0.8791862 0.0076806317 0.33488518 -0.034237687
-0.5557286 -0.4831338 1.0311747 -0.19207321 -0.40038815 0.32908803 -0.057357088 -0.31121472
-0.2646903 1.0533661 0.30418694 0.04083279 1.0446805 -0.64005184 -0.5071976 -1.0518028
0.9430329 0.63381565 0.660099 0.16617769 -0.41760284 -0.36752158 -0.1884606 0.09408296
00000000: 8813 d0be ee7e 9b3d 2f20 04bf be6c e03e
00000010: 4109 273f 654a a73e ed63 3d3e 16cf bf3b
00000020: b84b 3a3d 4961 68bf 3279 c5be 6f95 323e
00000030: 58fa a5be bc95 b2bd 8711 a83f 33fb ca3e
00000040: 7eb4 323f 4cf6 65bf 3d07 313d 177c 133e
00000050: ada4 043f 46d6 453e 9142 083e 3bbb 293f
00000060: d19a 9c3e fb07 69bf d4b7 39bf ab94 873f
00000070: d332 ccbe b6a7 bf3d 1cfa c5be e278 2fbe
00000080: a3b1 a4be 3ae8 d63e 5bb9 19bf ccc1 913e
00000090: d798 72be 9be8 0a3d 4fb0 04bf afd4 193e
000000a0: 8cdb 2dbf dde0 9fbe b181 8fbf 0519 db3e
000000b0: a1c0 c13d f53a a93e 451c 0a3f 5c9a 5cbf
000000c0: ab16 98be 405a 9ebe 7057 673e cfe0 913e
000000d0: a466 ae3d 3794 64bf db16 1abe 1501 dbbe
000000e0: 7e57 b8be 0108 97be 021e 093d 7a8d 903f
000000f0: 912d b43e 3cf9 e13e ad2c 0a3f fcd7 88be
00000100: bdcd e03e 65c0 173d 4b96 3c3f 2a39 143e
00000110: d4a6 7b3e ff05 563e 1d1f ae3e d109 ff3c
00000120: aefc e03e 9c84 e93e ab90 12be 39e9 163f
00000130: c67f 02bf aad6 1c3e 2ae8 6dbf 5c07 57bf
00000140: 20bd 91bf 1e09 4f3e a4d7 2e3f f166 4c3e
00000150: 51c1 123f 4178 843f 2cb7 88bc 2f73 f3be
00000160: a38c bd3e 101e 693f 3e11 e33e d0f0 75bf
00000170: 5459 d9be 1de9 64bf afb0 87be 9bfe ed3e
00000180: 5c94 5dbe eb7f e43e 8ca6 993e e763 5e3e
00000190: 33ae 583e 70ae 72be 830b cd3e 4d0a b43e
000001a0: 79fd a53e 3cb8 d1be 3ca4 19bf b462 4f3f
000001b0: 838a f7be 8996 393f cc06 aebe b023 29bd
000001c0: 3797 39bf 1e76 1c3f ceef b73e 7f50 2d3f
000001d0: 3910 46bb 53ce 743e 57ed 333f 74a4 b63d
000001e0: fca0 10bf 781d 553f 0e75 fa3e 6884 6dbd
000001f0: 05c6 c13e c559 f6be 08c1 043e f346 993f
00000200: bec3 4bbe 19ec 85be 9a94 bf3e 2f5f 063e
00000210: 3830 9f3f de26 093d 079f c43e a460 81be
00000220: d676 4c3e d591 e03e ed28 043f 5ffa a63e
00000230: 525e 153f 55d3 003f afa5 a2bd bcf1 2bbf
00000240: 684b 21bf 476a 3b3e beee 9b3e 0c6d ef3d
00000250: b2f5 0c3f 276d a33e 71cf 62bf e0dd 01be
00000260: 30db f73d 5426 923e 3d13 43be 9686 0bbf
00000270: bb0b 8abc 98dd 6fbe 5cf4 133e 841c a53e
00000280: 17a5 cfbe 6cbf 2b3d 1f1d f23c 34a7 6e3d
00000290: f0d7 02bf 6d50 e3bf fa50 acbe 26d7 3cbd
000002a0: ca30 1bbe ff2b f2be 4494 0abe dcd7 093e
000002b0: ed5e f63c 7e15 36bd 7185 a8be df63 88bf
000002c0: b98c 9bbe b895 b73e 1faf 9abd 7092 bebc
000002d0: 38b0 2ebf 3136 debe c038 b5bd 3063 80bf
000002e0: 1498 92be 509a 8c3d 9a0f e83e 5264 e8be
000002f0: 80db b93e 552a 89bf 26c3 8fbe 55e4 c9bd
00000300: 269b 9bbd 73e1 e2bd 32e5 89bd bed0 93be
00000310: 4f03 a03e 4709 b9bd 2a56 b73e 9699 113e
00000320: 60f8 7abf 0a54 60bf f169 a5be e2fc 1c3f
00000330: e62a fbbd 5574 cf3e d576 9d3f 5450 17bf
00000340: 6b57 e93e e01c 66bf 356d f63e c1d6 5b3e
00000350: b1a2 ac3e bc0e 16bf 27b8 acbe 2467 cabe
00000360: 84a6 a2be ba56 c6be 345c b63e 9426 353f
00000370: 6e78 f73d 7ce7 e73e 476e 133e ddc7 05be
00000380: ce88 a5bf 8cf0 683d 2ab6 65be 98cc 363e
00000390: 5912 613f cfad fb3b 1276 ab3e d13c 0cbd
000003a0: 3b44 0ebf 505d f7be 88fd 833f d7ae 44be
000003b0: adff ccbe 3a7e a83e 44ef 6abd 8957 9fbe
000003c0: 7d85 87be b3d4 863f 64be 9b3e 4940 273d
000003d0: 17b8 853f 70da 23bf b4d7 01bf 79a1 86bf
000003e0: 9b6a 713f be41 223f 40fc 283f 7c2a 2a3e
000003f0: 0ad0 d5be ca2b bcbe d1fb 40be 91ae c03d

actor.4.bias f4 [32]
0.38311818 -0.26288614 0.25251362 -0.33813632 0.72288865 -0.3045932 0.07962183 0.2975202
0.0207993 -0.58739954 -0.5571828 -0.9125162 -0.5235211 0.5603403 -0.023204008 -0.05341127
-0.3126052 -0.4914511 -0.5269462 -0.36479917 -0.7002555 -0.08492573 0.21967989 -0.58815944
-0.35293442 -1.0171185 -0.11701322 -0.32940903 -0.6022901 -0.50695604 -0.01671958 -0.47724447
00000000: 1128 c43e 0399 86be 7749 813e 3420 adbe
00000010: 3b0f 393f a4f3 9bbe c510 a33d 9154 983e
00000020: 4b63 aa3c d15f 16bf 88a3 0ebf a99a 69bf
00000030: 7b05 06bf 7672 0f3f 5516 bebc c7c5 5abd
00000040: ca0d a0be 7b9f fbbe f2e5 06bf f5c6 babe
00000050: f243 33bf 8bed adbd c4f3 603e 9e91 16bf
00000060: d2b3 b4be f030 82bf a1a4 efbd 4da8 a8be
00000070: af2f 1abf dfc7 01bf 80f7 88bc 6359 f4be

actor.6.weight f4 [4, 32]
0.34020835 0.119224615 0.35723498 0.24022801 0.36657548 -0.06513103 -0.7173841 0.91442066
0.2240557 -0.13851054 -0.16309316 0.29849613 0.70609987 -0.22944874 0.041628383 0.663031
-0.63018346 0.40863 -0.13312802 0.3628049 -0.14780857 0.15900853 0.96030277 0.7885484
0.03746823 0.4097357 -0.61490583 -0.13220769 -0.286121 -0.32892543 -0.40418094 0.18018693
0.6042035 0.301869 0.17294262 0.22780015 0.1115495 -0.7643121 0.25447103 -0.1491045
0.47793585 -0.011826287 0.11907763 -0.11820415 -0.09425398 0.44863275 -0.082393534 -0.35729107
1.0265115 -0.6025284 -0.31619823 -0.32636562 -0.40419027 0.2165559 -0.06823188 -0.31557688
0.3390847 -0.24651986 0.1937019 -0.59667295 -0.21437092 0.43865395 0.48060498 -0.45461464
-0.7428315 0.07689548 -0.77855146 -0.50584334 -0.9907047 1.5290228 0.347607 -0.689151
-1.0896508 1.017734 0.25683495 0.8112579 1.0923535 -0.6377047 -0.70680654 0.26369363
0.12926316 0.07356118 -0.33269513 -0.10697116 -0.83758795 0.20955177 0.17059122 -0.2620403
0.8557805 0.5184957 0.28394657 1.0624093 0.12320383 -0.29981273 0.57849365 0.47492108
-0.3715998 -0.12016478 -1.1919816 -1.6238387 -1.3754216 0.400042 0.22676003 -0.7309911
-0.63001275 0.035227943 0.05713373 -0.42324382 0.07941782 -1.1053958 0.25785652 0.06814366
-0.29618728 -0.24631588 0.20046315 -0.059102636 0.21179341 -0.14792852 -1.2460649 -0.4595026
-0.09985145 0.123938575 -0.47577584 0.38231465 0.3470641 -0.19456464 -0.91503084 0.22237189
00000000: ca2f ae3e 092c f43d 81e7 b63e 55fe 753e
00000010: c8af bb3e 6b63 85bd 7ca6 37bf 7917 6a3f
00000020: db6e 653e b5d5 0dbe e501 27be 7cd4 983e
00000030: f6c2 343f 9cf4 6abe 8682 2a3d 66bc 293f
00000040: b453 21bf f437 d13e b652 08be 90c1 b93e
00000050: 215b 17be 22d3 223e 67d6 753f 4fde 493f
00000060: 4978 193d e1c8 d13e 786a 1dbf 7461 07be
00000070: 747e 92be ea68 a8be cef0 cebe ec82 383e
00000080: 15ad 1a3f 938e 9a3e df17 313e 7144 693e
00000090: 1074 e43d f5a9 43bf 074a 823e daae 18be
000000a0: 02b4 f43e 0bc3 41bc f9de f33d 0415 f2bd
000000b0: 3b08 c1bd 31b3 e53e f1bd a8bd dbee b6be
000000c0: bb64 833f 4d3f 1abf bce4 a1be 6519 a7be
000000d0: 07f2 cebe d4c0 5d3e 28bd 8bbd 4b93 a1be
000000e0: 839c ad3e b46f 7cbe ca59 463e 8fbf 18bf
000000f0: 0d84 5bbe 4097 e03e db11 f63e 40c3 e8be
00000100: 352a 3ebf 617b 9d3d 264f 47bf f37e 01bf
00000110: d39e 7dbf 05b7 c33f 8bf9 b13e 336c 30bf
00000120: ad79 8bbf 1c45 823f df7f 833e 99ae 4f3f
00000130: 3dd2 8b3f 9d40 23bf 46f1 34bf da02 873e
00000140: 905d 043e 3ea7 963d 0457 aabe b213 dbbd
00000150: 2a6c 56bf bd94 563e 77af 2e3e 252a 86be
00000160: 6e14 5b3f 22bc 043f 7261 913e 07fd 873f
00000170: 4a52 fc3d 0e81 99be 2918 143f db28 f33e
00000180: 5442 bebe f418 f6bd da92 98bf f2d9 cfbf
00000190: d10d b0bf 4ed2 cc3e c833 683e 3c22 3bbf
000001a0: 8448 21bf 2d4b 103d 0f05 6a3d 6ab3 d8be
000001b0: cfa5 a23d 9c7d 8dbf c505 843e e78e 8b3d
000001c0: dca5 97be 3b3a 7cbe 3646 4d3e 9b15 72bd
000001d0: 5fe0 583e 937a 17be 0e7f 9fbf ed43 ebbe
000001e0: eb7e ccbd 82d3 fd3d e498 f3be bfbe c33e
000001f0: 63b2 b13e f43b 47be 763f 6abf 75b5 633e

actor.6.bias f4 [4]
0.36908293 0.33747628 -1.000927 -2.3891585
00000000: 70f8 bc3e b1c9 ac3e 601e 80bf f9e7 18c0

critic.0.weight f4 [32, 181]
1.920131 1.4564542 0.3686433 0.5302329 1.2232496 1.6328895 2.2089531 2.5321898
1.6540266 1.7401397 2.6659644 1.466647 1.0829768 1.0991342 0.16898665 0.17034787
0.36507502 1.0754539 0.33643457 -0.23895086 0.6421201 0.79879606 0.72981095 0.43655127
0.5884106 0.76385236 0.7602409 0.6500393 0.41923663 0.48440793 -0.46742317 0.24423778
-0.13742809 -0.26727462 0.77457416 -0.11623106 0.17260121 0.014442214 0.35886893 -0.21362032
2.0086043 2.1419995 1.1207588 1.5790151 2.0969908 1.0117737 0.91051793 0.53387004
0.6286995 0.47141692 -0.6359327 -0.6301996 -0.27883998 0.5977037 0.68397933 -0.006143825
2.10575 1.6361487 1.0199131 0.11301442 -0.95122075 -1.6636046 -0.7682938 0.41965193
0.6932282 0.42983916 1.153639 0.49974564 0.27827546 -0.27764997 -0.45318356 -0.5299734
-0.25442633 0.35346553 0.9328421 -0.41239136 1.4411423 0.79760057 0.90560734 -0.18482819
0.7002486 1.046375 -0.19479811 0.84327507 0.45850152 -0.31570128 0.15536866 0.33626345
1.148566 -0.220141 -0.28301302 0.06625878 -0.3518675 0.020953778 0.5958962 -0.25278974
0.18041123 0.110834956 0.4234444 -0.14114927 0.3609874 0.42155725 0.064126305 0.07426154
0.18295272 -0.17442413 0.48353466 0.49535918 1.4184492 0.47157472 0.2371229 0.088413104
0.21925649 -0.518801 -0.3428071 -0.31486768 -0.45484775 -0.021419639 0.12541738 0.062281474
0.58032405 -0.01989078 -0.11968864 0.21763656 0.45353502 0.06523897 0.11179381 0.061779264
0.4204327 0.17462145 -0.32936552 -0.40440813 -0.24507241 0.18449579 -0.19925609 -0.035771105
-0.61912423 0.13255286 0.06628179 -0.06250226 0.72150195 -0.34303257 -0.4419647 0.39315957
-0.7398026 -0.6771057 -0.4471488 0.5135809 0.07534361 -0.45551062 -0.79929084 -0.6155529
-0.7418017 -0.61689407 -0.36531103 -0.71103287 0.2489029 0.20494948 0.45949653 0.045186505
0.25323623 -0.69032806 0.3568112 0.5075703 0.61204714 0.7434441 0.9267055 0.8797027
1.0592315 0.97595763 0.2991107 1.0651468 0.77706224 0.7549692 0.83306175 1.2402829
1.337757 1.9888525 1.8284998 1.8553059 -0.7807694 0.57676 0.120537795 -0.0051984065
1.0827339 1.3983785 1.468641 0.9596322 1.1322606 0.86078906 1.7943474 1.9046707
0.8621601 0.6466562 0.36952814 0.09920767 -0.06277296 -0.14943445 0.92103845 0.5083105
0.6301306 0.81050813 0.6609853 0.750199 0.60001117 0.4841608 0.8255681 1.0460925
0.6063484 0.36786652 0.7369405 0.26982054 0.29152408 -0.42703944 0.68015456 0.33881232
-0.25424954 0.27572158 -0.1944672 0.48788896 0.080096334 2.153031 1.9383141 2.0484288
1.7178874 1.6413844 1.541872 0.4057459 0.51494056 0.8094724 0.34653175 -0.7203203
-1.4175452 -1.1915073 0.11344563 0.23618302 0.04305379 0.49788594 -0.32823905 0.11929637
0.008091811 -0.89744925 -2.043815 -1.3726193 0.24532881 0.017694322 0.061920676 0.39989278
-0.37447664 -0.25044146 -0.055661682 -0.20210308 -0.95939845 -0.815 0.010729431 0.4975009
00000000: dac6 f53f 176d ba3f d1be bc3e 58bd 073f
00000010: 7193 9c3f 8602 d13f 7d5f 0d40 660f 2240
00000020: 25b7 d33f e6bc de3f 299f 2a40 17bb bb3f
00000030: fc9e 8a3f 6eb0 8c3f d60a 2d3e ac6f 2e3e
00000040: 1deb ba3e 79a8 893f 2741 ac3e 89af 74be
00000050: fc61 243f e67d 4c3f e4d4 3a3f a683 df3e
00000060: 14a2 163f d48b 433f 269f 423f fa68 263f
00000070: 2fa6 d63e 5104 f83e 1752 efbe 7819 7a3e
00000080: f3b9 0cbe 38d8 88be 7e4a 463f 8d0a eebd
00000090: 5fbe 303e 099f 6c3c abbd b73e 49bf 5abe
000000a0: f98c 0040 8516 0940 0675 8f3f 2b1d ca3f
000000b0: 1935 0640 cd81 813f b417 693f b5ab 083f
000000c0: 73f2 203f 8f5d f13e 7ccc 22bf c354 21bf
000000d0: 1dc4 8ebe 1c03 193f 4519 2f3f 2452 c9bb
000000e0: 9cc4 0640 526d d13f 838c 823f 1b74 e73d
000000f0: 3483 73bf fff0 d4bf e7ae 44bf 9edc d63e
00000100: 6777 313f e113 dc3e 71aa 933f a9de ff3e
00000110: 1f7a 8e3e 2328 8ebe ad07 e8be 56ac 07bf
00000120: 2b44 82be 6ff9 b43e bdce 6e3f f624 d3be
00000130: 5a77 b83f 8d2f 4c3f e2d5 673f 9a43 3dbe
00000140: 7e43 333f 9eef 853f 2879 47be e0e0 573f
00000150: b6c0 ea3e 99a3 a1be f618 1f3e b92a ac3e
00000160: 3604 933f a46c 61be 15e7 90be afb2 873d
00000170: fa27 b4be 42a7 ab3c a78c 183f a86d 81be
00000180: b9bd 383e 70fd e23d b4cd d83e 6f89 10be
00000190: 57d3 b83e 5ad6 d73e a754 833d 6f16 983d
000001a0: f557 3b3e 3d9c 32be db91 f73e b89f fd3e
000001b0: be8f b53f 3e72 f13e 58d0 723e ee11 b53d
000001c0: c684 603e 24d0 04bf 6a84 afbe 5636 a1be
000001d0: cee1 e8be 3d78 afbc 6a6d 003e dc1a 7f3d
000001e0: 1e90 143f fdf1 a2bc 511f f5bd 1edc 5e3e
000001f0: be35 e83e 029c 853d 27f4 e43d 410c 7d3d
00000200: f442 d73e f7cf 323e 99a2 a8be 950e cfbe
00000210: 43f4 7abe 77ec 3c3e ca09 4cbe b984 12bd
00000220: ed7e 1ebf f0bb 073e bfbe 873d 2f01 80bd
00000230: 5ab4 383f f7a1 afbe 3249 e2be 364c c93e
00000240: b463 3dbf cd56 2dbf b0f0 e4be 0a7a 033f
00000250: c04d 9a3d b038 e9be 539e 4cbf e094 1dbf
00000260: b7e6 3dbf c5ec 1dbf 0c0a bbbe 4006 36bf
00000270: 67e0 7e3e 47de 513e 2143 eb3e 7c15 393d
00000280: 2ea8 813e 57b9 30bf f5af b63e 21f0 013f
00000290: 1faf 1c3f 5a52 3e3f 923c 6d3f 3234 613f
000002a0: e694 873f 5cd8 793f 0a25 993e bb56 883f
000002b0: 8ded 463f a945 413f 8943 553f 97c1 9e3f
000002c0: 9f3b ab3f b892 fe3f 480c ea3f aa7a ed3f
000002d0: 81e0 47bf 8ba6 133f 85dc f63d 6557 aabb
000002e0: 0697 8a3f 11fe b23f 6efc bb3f 75aa 753f
000002f0: eaed 903f ac5c 5c3f 2dad e53f 40cc f33f
00000300: 86b6 5c3f 438b 253f cb32 bd3e 642d cb3d
00000310: 1c8f 80bd 5805 19be 2dc9 6b3f a320 023f
00000320: 3d50 213f 767d 4f3f 5536 293f 0b0d 403f
00000330: 559a 193f ede3 f73e 6e58 533f 5ce6 853f
00000340: a639 1b3f 0059 bc3e 22a8 3c3f eb25 8a3e
00000350: a542 953e eaa4 dabe 9c1e 2e3f cf78 ad3e
00000360: ff2c 82be 612b 8d3e 6922 47be 95cc f93e
00000370: 8c09 a43d 43cb 0940 ad1a f83f 7519 0340
00000380: bce3 db3f e218 d23f 105c c53f edbd cf3e
00000390: 25d3 033f 9539 4f3f 9c6c b13e e966 38bf
000003a0: 1f72 b5bf 5083 98bf 2f56 e83d f6d9 713e
000003b0: 2c59 303d e8ea fe3e f30e a8be a851 f43d
000003c0: 8493 043c 3cbf 65bf ddcd 02c0 fdb1 afbf
000003d0: 7a37 7b3e aff3 903c 89a0 7d3d bfbe cc3e
000003e0: 67bb bfbe dd39 80be 81fd 63bd 1cf4 4ebe
000003f0: 239b 75bf d7a3 50bf 7fca 2f3c 70b8 fe3e

critic.0.bias f4 [32]
1.4937167 0.8943513 1.251006 2.394425 2.1759772 0.35579488 1.2440013 -0.16496488
1.1119761 2.0136805 2.3371232 1.2203823 1.1871794 1.327863 0.8380723 1.3872124
-0.37141547 0.5099136 0.5506081 1.3937178 1.3031753 1.7652713 2.1741748 -2.5505354
1.1132841 -1.0338148 0.061102163 0.88373154 -2.9559553 0.9139455 1.1045146 -0.90820485
00000000: 1c32 bf3f 35f4 643f f720 a03f 423e 1940
00000010: 3643 0b40 bf2a b63e 6f3b 9f3f 8eec 28be
00000020: 3c55 8e3f 24e0 0040 6d93 1540 7d35 9c3f
00000030: 7ff5 973f 6af7 a93f e88b 563f 2d90 b13f
00000040: 2b2a bebe b389 023f a7f4 0c3f 5865 b23f
00000050: 73ce a63f 69f4 e13f ae25 0b40 f93b 23c0
00000060: 1880 8e3f 0b54 84bf 4346 7a3d 3b3c 623f
00000070: 5f2e 3dc0 55f8 693f bc60 8d3f 1d80 68bf

critic.2.weight f4 [32, 32]
-0.7342681 0.6503917 -0.8700949 -3.0367408 -1.6924807 -0.3578444 -2.2100575 -0.64990383
-0.3314529 -2.5226967 -1.073685 -0.42621332 -0.5451226 -0.87322825 0.5501665 -0.69767976
0.14875025 -0.600351 -1.4037999 -0.80227315 -1.0509036 -0.59562814 -2.2698348 -0.79718333
-0.55418164 -0.5395692 -2.0789964 -0.36359677 -1.0135154 1.6057268 0.86818194 -0.5624833
-0.47880304 -0.4831799 -0.08431329 0.39036414 0.24952555 -0.14606094 0.42287344 -1.757767
-0.010458021 0.64749914 0.17720278 -0.13618246 -0.019057019 -0.0008231752 -1.2385459 -0.34459284
-0.5105478 -0.06047837 0.4077803 -0.2586544 -0.77676284 0.24979064 0.7105479 -1.9304146
-1.1167055 -0.9946033 0.6116217 -0.54711896 -0.72825706 -1.7767785 -0.23219886 -0.65136266
-0.6335462 -1.4236526 0.91907716 0.10088471 -1.6625057 -1.5146812 -0.6614329 0.48438755
0.11910486 0.111334726 0.009148675 1.3055775 -3.1872814 0.22064441 2.722572 -0.18824467
0.302734 -6.1916747 -1.0910156 -0.10568649 0.07657379 0.07094791 0.36981118 -1.1980416
0.7884223 0.4125442 0.29656225 0.23787613 -0.25246114 -0.6273939 2.5004983 0.19111858
0.08222826 0.54974824 -0.30009758 -1.6538881 -0.65457827 -0.04341779 -1.387215 -0.039146945
-0.06039905 -1.5959972 -0.21481119 -0.3655726 -0.44392148 -0.09024287 0.6270159 -0.279347
-0.44257194 -0.039806463 -1.2341442 -0.75094986 -0.23312761 -0.02649863 -1.3088077 0.17385082
-0.25656104 0.008865115 -1.3729221 -0.146647 -0.411596 0.7366865 0.36403427 -0.41597548
0.19588758 -0.14202519 0.66614443 -0.120569386 -0.6528749 -1.1463485 -0.08842194 0.2841194
-0.5522591 -0.046584077 -0.39895284 1.3203211 -2.900426 -0.17933801 0.5910737 -0.3323455
-0.19473419 -0.5615529 -0.8132054 -0.40028888 0.2921259 0.53121996 -0.21905178 -0.6712401
0.465595 0.08580957 1.228903 0.28880227 -0.036172103 -0.7822176 -0.482721 0.004550815
0.41724354 -0.11040446 0.18577069 -0.089472756 0.57857233 -0.3573452 -0.80133444 0.3479042
-0.14585982 0.0667596 1.5222163 -0.49631652 0.3557174 -0.9373854 0.12706016 -1.0761338
1.8048563 0.05527223 -0.21756707 -0.79285586 -0.1487221 -2.1457498 0.04647397 -0.64611524
0.09972166 -0.10261624 1.0431265 -0.22697838 -0.054844197 -1.139076 -0.57145023 -0.10405273
-0.16628937 -0.5797887 -0.53254855 1.1390435 0.27638033 -0.05812494 0.29461932 -0.57038033
-0.5242713 1.1084903 0.2913987 -0.22983457 -0.4409504 -0.39178 -1.2617551 -0.20451914
0.20324035 -0.4586841 -0.57033855 -0.43116748 -0.5273146 0.18701378 0.9197974 -0.5692283
-0.70107645 -0.85853535 0.42777732 -0.79995984 -0.56856847 -2.3150666 -0.736383 -0.68235826
-0.7216417 0.5195461 -0.22517827 -2.6098568 -0.9058947 0.057763472 -2.0107713 -0.89141124
0.17723867 -2.3500693 -0.8783023 0.12329002 -0.20609672 -0.17333344 0.3869768 -0.29288742
-0.65500546 -0.007797355 -0.7278401 -0.42276645 -0.5296364 -0.71154374 -2.2741437 -1.196675
-0.15137024 -0.5029804 -1.157408 -0.33865225 -1.2305351 0.569527 0.323914 -0.829979
00000000: fff8 3bbf 1280 263f 8abe 5ebf f659 42c0
00000010: 35a3 d8bf 6237 b7be 9571 0dc0 1960 26bf
00000020: 32b4 a9be dd73 21c0 836e 89bf a238 dabe
00000030: 288d 0bbf e38b 5fbf b6d7 0c3f 249b 32bf
00000040: fc51 183e 9ab0 19bf b7af b3bf c661 4dbf
00000050: 0284 86bf 167b 18bf f944 11c0 3514 4cbf
00000060: d9de 0dbf 3521 0abf 470e 05c0 5b29 babe
00000070: dfba 81bf 7588 cd3f 2c41 5e3f e8fe 0fbf
00000080: ac25 f5be 5b63 f7be 72ac acbd cfdd c73e
00000090: a083 7f3e 0091 15be de82 d83e 82fe e0bf
000000a0: 1f58 2bbc 81c2 253f a574 353e 6a73 0bbe
000000b0: 771d 9cbc 5aca 57ba ac88 9ebf 796e b0be
000000c0: 43b3 02bf 2bb8 77bd 94c8 d03e 596e 84be
000000d0: eed9 46bf 1ec9 7f3e 78e6 353f d317 f7bf
000000e0: 35f0 8ebf 529e 7ebf 3d93 1c3f fd0f 0cbf
000000f0: 0e6f 3abf 7a6d e3bf 8ac5 6dbe b4bf 26bf
00000100: 1530 22bf 403a b6bf a448 6b3f a59c ce3d
00000110: fdcc d4bf 13e1 c1bf ab53 29bf a501 f83e
00000120: 40ed f33d 7603 e43d 53e4 153c 2a1d a73f
00000130: 6bfc 4bc0 9cf0 613e 9f3e 2e40 36c3 40be
00000140: f3ff 9a3e 3322 c6c0 66a6 8bbf 2972 d8bd
00000150: b8d2 9c3d 234d 913d e457 bd3e 6d59 99bf
00000160: 0bd6 493f fe38 d33e 02d7 973e cd95 733e
00000170: 9642 81be e39c 20bf 2a08 2040 97b4 433e
00000180: 4a67 a83d 4dbc 0c3f 64a6 99be 9bb2 d3bf
00000190: 7192 27bf dad6 31bd 4390 b1bf 8c58 20bd
000001a0: ff64 77bd a349 ccbf 77f7 5bbe 552c bbbe
000001b0: ad49 e3be 41d1 b8bd 1d84 203f 9206 8fbe
000001c0: ca98 e2be 1a0c 23bd 70f8 9dbf 403e 40bf
000001d0: 01b9 6ebe a813 d9bc 0387 a7bf f305 323e
000001e0: f85b 83be fd3e 113c e9bb afbf a22a 16be
000001f0: b6bc d2be 7d97 3c3f b362 ba3e bdfa d4be
00000200: c196 483e 0d6f 11be 7188 2a3f 15ed f6bd
00000210: cf22 27bf 8cbb 92bf 9016 b5bd 1978 913e
00000220: da60 0dbf f2ce 3ebd 8c43 ccbe 4800 a93f
00000230: 94a0 39c0 62a4 37be 9b50 173f 3029 aabe
00000240: 6668 47be eec1 0fbf 3b2e 50bf aaf2 ccbe
00000250: 8791 953e 08fe 073f 1c4f 60be 64d6 2bbf
00000260: 7862 ee3e eebc af3d b24c 9d3f e4dd 933e
00000270: 3329 14bd 6a3f 48bf 3527 f7be 011f 953b
00000280: f2a0 d53e bc1b e2bd ac3a 3e3e 7e3d b7bd
00000290: 511d 143f f3f5 b6be 4124 4dbf 8020 b23e
000002a0: 475c 15be 42b9 883d fcd7 c23f 331d febe
000002b0: 9720 b63e 7df8 6fbf 0f1c 023e c1be 89bf
000002c0: 8805 e73f 2265 623d e7c9 5ebe 9af8 4abf
000002d0: 9b4a 18be f753 09c0 7d5b 3e3d cf67 25bf
000002e0: df3a cc3d 7728 d2bd 2b85 853f 056d 68be
000002f0: 4fa4 60bd 3ecd 91bf 904a 12bf 9919 d5bd
00000300: c347 2abe 086d 14bf 1a55 08bf 2dcc 913f
00000310: b981 8d3e 6b14 6ebd 58d8 963e 7204 12bf
00000320: a536 06bf 03e3 8d3f 3632 953e c159 6bbe
00000330: 40c4 e1be 6397 c8be 3181 a1bf 776d 51be
00000340: 3d1e 503e a4d8 eabe b501 12bf fcc1 dcbe
00000350: 17fe 06bf 8a80 3f3e d877 6b3f f2b8 11bf
00000360: bf79 33bf f9c8 5bbf a105 db3e 2bca 4cbf
00000370: b48d 11bf 0d2a 14c0 9983 3cbf 08af 2ebf
00000380: 83bd 38bf f900 053f 2295 66be e507 27c0
00000390: b7e8 67bf 6499 6c3d 7ab0 00c0 8733 64bf
000003a0: 0e7e 353e 8967 16c0 6bd8 60bf 7a7f fc3d
000003b0: 050b 53be 527e 31be d321 c63e 57f5 95be
000003c0: 70ae 27bf f480 ffbb bb53 3abf d874 d8be
000003d0: 4096 07bf bb27 36bf 928b 11c0 a52c 99bf
000003e0: cd00 1bbe 53c3 00bf f225 94bf d463 adbe
000003f0: 2d82 9dbf 85cc 113f 0ed8 a53e 8179 54bf

critic.2.bias f4 [32]
-2.1242075 2.5532436 -0.7834718 -1.6793945 -0.08039467 3.0529985 2.9415183 -1.6178493
3.7567253 1.3942358 0.14638132 3.6859767 -0.46414867 -1.8873134 -3.3386047 -1.6997386
2.5047245 -0.26748008 -0.04383819 -0.37570652 0.23800936 1.8804263 3.211317 4.6998186
3.2025075 -0.973461 4.0364366 0.28724962 2.53957 3.2858458 0.61218363 -1.0897446
00000000: 04f3 07c0 5868 2340 9c91 48bf 66f6 d6bf
00000010: f6a5 a4bd 5464 4340 d641 3c40 b015 cfbf
00000020: 306e 7040 5276 b23f fce4 153e 0be7 6b40
00000030: e5a4 edbe 7c93 f1bf b3ab 55c0 0991 d9bf
00000040: 684d 2040 26f3 88be ad8f 33bd 9b5c c0be
00000050: bab8 733e cfb1 f03f 3886 4d40 ea64 9640
00000060: e2f5 4c40 bd34 79bf 7d2a 8140 6212 933e
00000070: 5188 2240 4c4b 5240 11b8 1c3f c07c 8bbf

critic.4.weight f4 [32, 32]
-0.49431634 0.12805672 -0.44709018 -0.10150978 -0.19228555 0.30913645 0.69964755 -0.30346158
0.2878115 0.19634318 0.03153917 0.030989477 -1.1260434 -0.5340925 -0.4608615 -0.4414136
0.087309614 0.41636625 -0.23191151 0.05672097 -1.0274526 -0.5256543 0.21217644 1.0726684
0.6077703 -0.22227032 0.37888974 0.087406464 0.37227648 0.2793115 -0.36553252 -0.16000472
1.3558602 0.6287099 -0.52537614 0.77113205 1.1366061 -0.9412922 -0.34177196 0.9898596
0.06983136 1.3562214 0.3828348 1.0207819 0.73839873 1.209969 -0.3959384 0.86531544
0.22231515 -1.2880661 -0.21750098 0.38712463 0.29530302 -0.5487474 0.036635514 -0.119574614
-0.32510957 -0.25682673 0.96687907 1.5926018 -0.13547045 0.5194799 0.6407468 0.35653847
1.227338 -0.47839543 -0.63572794 0.95212823 -0.0906439 -0.10860507 0.0732749 0.80469966
0.39532208 0.6848004 0.18800625 0.22604556 0.0773028 1.0191184 0.18014036 1.2131821
-0.48275927 0.2117355 -0.15864184 -0.20430417 0.3226358 0.20083751 0.28141552 0.124054186
-0.18663366 -0.093319006 0.5718921 0.1947316 -0.16785467 -0.33447 0.14900042 0.7546972
-0.43889353 -1.6985198 -0.7416207 -0.18063278 -0.44244996 -0.7732287 -0.62454706 -0.24064623
-0.49076614 -0.7602903 -0.79395485 -1.1050984 -0.9640347 -0.09156142 0.104076974 -0.90465885
-1.2268502 -1.0293536 -1.4294707 0.48883432 -1.5283664 -1.0832624 0.28116375 -1.1013372
0.74043787 -0.6154873 -1.0032032 -0.022300273 -1.2375684 -0.31983727 -0.20145115 -0.096542634
0.830874 -0.5091139 0.167385 0.85713756 -0.97598433 -0.20142396 -0.32912144 0.59063673
0.09734274 0.21955281 2.4935904 -0.58007485 -0.8552207 1.1018683 -0.65369946 0.80955034
0.6331087 0.97590756 -0.51824456 1.1914383 0.1359123 -1.2363489 -0.106771946 -1.1218547
-0.32095602 -1.0975447 0.6469629 0.9761797 0.8693824 -0.44040588 1.5422506 0.8235115
1.0730512 -0.25499365 0.016011387 0.8649326 -0.51612407 -0.6879837 0.03453962 1.2928909
0.04162469 0.008653081 0.58118385 0.12810269 0.3589341 0.9664248 -0.08631934 1.3967725
0.34688607 -0.57662606 -0.2015157 0.6174453 0.20795263 0.3502924 -0.30193084 -0.12475045
0.101535164 -0.298876 -0.15453684 0.26769328 0.16089362 -0.54718566 0.6021944 0.87170243
0.3347737 -0.2907612 0.11721692 0.10439458 -0.2639798 0.4921428 -0.0434778 0.32746482
0.11659255 0.10856182 -0.7401805 0.4933406 -0.00095119193 0.8334841 -1.3362631 0.9241608
-0.16601327 0.012537972 -0.14842989 -0.020007929 -0.84542924 -0.80013824 -0.41785768 0.457823
0.21175006 -0.060213182 -0.70677114 -0.09163413 -0.3311034 -0.23502791 0.93427 0.21645921
0.72992456 -0.38744253 -0.9833441 0.52026963 0.17047866 0.048984297 0.18594201 0.8027205
-0.21215408 0.14658959 0.12208899 0.087267905 -0.022473237 0.75375676 -0.16306052 0.8661588
-0.35649803 0.31622708 -0.30786207 -0.25634244 -0.20584798 -0.20455071 -0.41124502 0.5109513
0.06711464 -0.3900536 -0.3251538 0.32840785 0.039550688 -0.23757322 -0.048189733 0.27379555
00000000: 0817 fdbe 4d21 033e 01e9 e4be 5ce4 cfbd
00000010: 81e6 44be 2247 9e3e 1a1c 333f 515f 9bbe
00000020: 075c 933e 300e 493e 372f 013d a5dd fd3c
00000030: 3122 90bf 49ba 08bf 0af6 ebbe f700 e2be
00000040: 62cf b23d f52d d53e 367a 6dbe 3f54 683d
00000050: 9183 83bf 4891 06bf c844 593e 334d 893f
00000060: d696 1b3f d59a 63be d6fd c13e 2902 b33d
00000070: 069b be3e eb01 8f3e 1427 bbbe 47d8 23be
00000080: d48c ad3f 22f3 203f 0d7f 06bf e968 453f
00000090: 4f7c 913f 87f8 70bf bcfc aebe 7067 7d3f
000000a0: be03 8f3d aa98 ad3f ec02 c43e fba8 823f
000000b0: b307 3d3f 44e0 9a3f 70b8 cabe 5085 5d3f
000000c0: 95a6 633e 5adf a4bf 94b8 5ebe 3335 c63e
000000d0: f531 973e b67a 0cbf 1f0f 163d 89e3 f4bd
000000e0: c374 a6be cb7e 83be 6385 773f 60da cb3f
000000f0: c4b8 0abe a2fc 043f fb07 243f 368c b63e
00000100: 6919 9d3f 3ff0 f4be 11bf 22bf adbe 733f
00000110: 82a3 b9bd 566c debd 2711 963d cc00 4e3f
00000120: a867 ca3e 144f 2f3f b684 403e 7d78 673e
00000130: ee50 9e3d 7972 823f b776 383e 8d49 9b3f
00000140: 392c f7be 31d1 583e 0273 22be 1d35 51be
00000150: 8530 a53e 59a8 4d3e b215 903e 1f10 fe3d
00000160: e51c 3fbe 091e bfbd 8567 123f b867 473e
00000170: 18e2 2bbe a73f abbe 9193 183e d633 413f
00000180: a7b6 e0be 1969 d9bf dbda 3dbf cdf7 38be
00000190: cd88 e2be 51f2 45bf 51e2 1fbf f76b 76be
000001a0: b345 fbbe 63a2 42bf a040 4bbf dd73 8dbf
000001b0: faca 76bf 8e84 bbbd 4f26 d53d b997 67bf
000001c0: 6d09 9dbf dcc1 83bf e5f8 b6bf 7e48 fa3e
000001d0: 83a1 c3bf 58a8 8abf b2f4 8f3e 9ef8 8cbf
000001e0: 568d 3d3f 9390 1dbf f668 80bf 10af b6bc
000001f0: a468 9ebf b6c1 a3be 3649 4ebe 25b8 c5bd
00000200: 29b4 543f 4a55 02bf f966 2b3e 5e6d 5b3f
00000210: 1cda 79bf 1542 4ebe 9b82 a8be f833 173f
00000220: a15b c73d 74d2 603e fc96 1f40 c97f 14bf
00000230: beef 5abf 050a 8d3f d958 27bf b13e 4f3f
00000240: 6913 223f 14d5 793f adab 04bf 0d81 983f
00000250: 982c 0b3e ae40 9ebf 40ab dabd ef98 8fbf
00000260: 5954 a4be 587c 8cbf 5c9f 253f eae6 793f
00000270: d88f 5e3f e17c e1be 7868 c53f a6d1 523f
00000280: be59 893f 878e 82be 502a 833c 396c 5d3f
00000290: b520 04bf b31f 30bf 6b79 0d3d 737d a53f
000002a0: a77e 2a3d a7c5 0d3c 77c8 143f 5a2d 033e
000002b0: 36c6 b73e 9e67 773f 32c8 b0bd 71c9 b23f
000002c0: 0d9b b13e c49d 13bf 225a 4ebe e510 1e3f
000002d0: 89f1 543e 8759 b33e ae96 9abe 2a7d ffbd
000002e0: abf1 cf3d 4606 99be e83e 1ebe 180f 893e
000002f0: 4cc1 243e 5c14 0cbf 6a29 1a3f e427 5f3f
00000300: 7567 ab3e a7de 94be 6d0f f03d d3cc d53d
00000310: 5c28 87be 24fa fb3e c715 32bd 78a9 a73e
00000320: 13c8 ee3d a955 de3d 787c 3dbf 2497 fc3e
00000330: 6959 79ba 375f 553f ab0a abbf cd95 6c3f
00000340: 62ff 29be 116c 4d3c 01fe 17be abe7 a3bc
00000350: 0d6e 58bf dcd5 4cbf 71f1 d5be c767 ea3e
00000360: 02d5 583e 19a2 76bd f4ee 34bf adaa bbbd
00000370: 6386 a9be 28ab 70be 522c 6f3f 7ca7 5d3e
00000380: 56dc 3a3f de5e c6be 70bc 7bbf 6430 053f
00000390: f591 2e3e c2a3 483d 9567 3e3e 177f 4d3f
000003a0: eb3e 59be 951b 163e cb09 fa3d 84b9 b23d
000003b0: cb19 b8bc 34f6 403f 56f9 26be 95bc 5d3f
000003c0: e986 b6be 84e8 a13e 19a0 9dbe 513f 83be
000003d0: d0c9 52be be75 51be b58e d2be b4cd 023f
000003e0: 6673 893d 1bb5 c7be 8f7a a6be 1325 a83e
000003f0: e7ff 213d 6546 73be 9962 45bd ee2e 8c3e

critic.4.bias f4 [32]
2.5253458 1.5454876 0.4523056 0.88320166 -0.38359886 -1.0109512 -0.274772 1.4897134
0.78780675 -0.75809205 -1.2095006 -0.95743966 2.4337983 0.22950573 -0.6722646 -0.008096052
-1.2254926 -0.12089305 1.8367667 1.7030908 -0.57041514 0.3825512 -0.9035937 -1.0749371
-1.7845159 1.1665289 -0.20945598 2.480317 -0.87496525 0.6506638 0.7021809 0.26818562
00000000: 449f 2140 8ad2 c53f 9994 e73e 8119 623f
00000010: 1267 c4be d966 81bf eaae 8cbe eeae be3f
00000020: b4ad 493f 5212 42bf ead0 9abf c41a 75bf
00000030: 5ac3 1b40 8d03 6b3e 8819 2cbf 4ea5 04bc
00000040: f1dc 9cbf c796 f7bd 2c1b eb3f e1fe d93f
00000050: ba06 12bf c0dd c33e eb51 67bf 8a97 89bf
00000060: 046b e4bf d250 953f a17b 56be 84bd 1e40
00000070: b9fd 5fbf e791 263f 21c2 333f a04f 893e

critic.6.weight f4 [1, 32]
-0.2724847 -0.06730317 0.04181366 -0.00078054884 0.10896828 -0.039931495 -0.06161424 -0.015930634
-0.082545176 -0.022664726 0.013108933 -0.019378096 0.41854802 -0.065981865 0.080334626 0.003045105
-0.049766034 0.46749738 -0.052290592 0.119739875 -0.21487577 -0.0035113418 -0.0026111132 -0.51860714
-0.0069133616 0.04177405 0.19115546 -0.2122013 0.0008488909 -0.21037397 -0.016425446 -0.082291275
00000000: 1d83 8bbe 3fd6 89bd cd44 2b3d bf9d 4cba
00000010: c32a df3d 358f 23bd 375f 7cbd f680 82bc
00000020: 720d a9bd 60ab b9bc dac6 563c d0be 9ebc
00000030: ed4b d63e 8021 87bd 7b86 a43d 6290 473b
00000040: 78d7 4bbd d15b ef3e a92e 56bd 2e3a f53d
00000050: 6508 5cbe 8a1e 66bb 361f 2bbb 70c3 04bf
00000060: 7b89 e2bb 441b 2b3d 42be 433e 4c4b 59be
00000070: 1b88 5e3a 466c 57be a88e 86bc 5488 a8bd
