models/model.ckpt-301102.pth (torch, 70223 bytes, 15 tensors)

actor.0.weight f4 [32, 180]
000000 88 b9 aa c0 d6 a0 df bf 13 3a 40 40 25 61 d9 3f
       -5.335148 -1.7470958 3.0035446 1.6982771
000010 5f 1d 43 3e b3 f8 04 40 6c a9 11 40 28 03 8a 3f
       0.19054173 2.0776794 2.2759657 1.0782213
000020 b5 73 04 c0 62 fd d3 c0 56 0a 2e c1 5b f0 21 c0
       -2.0695622 -6.6246805 -10.877523 -2.5302951
000030 53 c7 b3 bd 11 c1 e3 3f 1c 1f 92 40 85 5f fc 3f
       -0.087782525 1.7793294 4.5662975 1.971665
000040 97 ba 4c 3f 92 0e 98 3e dc 35 2b c0 8c 16 42 c1
       0.79972214 0.29698616 -2.6751623 -12.130505
000050 be 00 43 c0 65 fc a7 bf aa 66 90 3f 38 42 83 bf
       -3.0469203 -1.31239 1.128133 -1.0254583
000060 64 e1 08 40 f3 80 07 3f 8d d5 52 3f c5 ba ba 3f
       2.1387568 0.52931136 0.823571 1.4588248
000070 90 22 9a bd 61 50 8b c0 d6 22 c9 bf b1 e3 54 3f
       -0.075261235 -4.353562 -1.5713756 0.8315993
000080 16 a9 e7 3e 9c bf b1 bf b4 c2 92 be b1 a7 66 bd
       0.4524619 -1.38866 -0.28664172 -0.056312267
000090 99 3c af bf eb 32 35 bf 17 f0 ea be 9a ba e2 bf
       -1.3690368 -0.7078082 -0.458863 -1.7713196
0000a0 37 0d e1 bf d0 32 a4 bf c7 90 83 bf 40 96 3e bf
       -1.7582158 -1.2828007 -1.0278558 -0.74448013
0000b0 bc f5 b7 bf d1 58 d8 bf 80 a9 de bf 7e 46 a9 be
       -1.4371867 -1.6902105 -1.7395477 -0.33061594
0000c0 d9 9f a1 bf de ee 8d bf c9 69 59 bf b8 c4 7a bf
       -1.2626907 -1.1088521 -0.8492704 -0.9795642
0000d0 a6 ca e8 be 0f 39 9b bc 90 af ad 3d b3 9d 95 3f
       -0.45467108 -0.018948106 0.084807515 1.1688751
0000e0 8a 49 ee 3e 29 f8 33 3f f9 21 c5 be 4c c3 9b bf
       0.4654048 0.7030054 -0.38502482 -1.2168975
0000f0 d0 61 f8 bf 93 dc 09 bf f2 ea 9b be c6 1d cb 3f
       -1.940485 -0.53852195 -0.30452687 1.5868461
000100 e6 68 32 3f 9b d3 86 bc 81 6d be 3e 76 22 7a 3e
       0.6969131 -0.016458323 0.3719292 0.24427208
000110 5b 2b a9 3e ae 3f 3e be 58 83 bf bf 34 3b c5 bf
       0.3304089 -0.1857898 -1.4961958 -1.5408692
000120 d4 77 c6 be 52 54 9d be 3d 18 9f 3e 34 fb 9e 3e
       -0.38763297 -0.30728394 0.3107318 0.31051028
000130 2c 94 f8 3b df 88 da bd 80 e1 80 3d 08 82 ae 3d
       0.007586023 -0.10670637 0.06293011 0.08520895
000140 0d bf 94 bf bb bd cf be ae 8a 3e bf 7a 3c 1e bf
       -1.1620804 -0.4057444 -0.7443036 -0.6181103
000150 9b 48 0d 3f e5 15 47 3f cf 58 90 3f d8 c9 8d 3e
       0.5518891 0.77767783 1.1277102 0.27693057
000160 78 ec 54 3f fa 52 5f 3e bc 36 b4 bf a0 f9 04 bf
       0.8317332 0.21808997 -1.4079204 -0.519434
000170 62 52 b3 be 9b 78 96 be 22 ff 18 bd 81 cc 90 be
       -0.3502379 -0.2938889 -0.03735269 -0.28281024
000180 65 96 e8 3e 39 77 ef be a5 a6 eb be 13 12 f2 be
       0.45427242 -0.46770647 -0.46025577 -0.47279415
000190 16 fb 97 bf 27 e6 1d bf 09 e1 8f 3a ca be 3d 3e
       -1.18735 -0.6167931 0.00109771 0.18529812
0001a0 c0 a0 33 bd 54 07 cf 3e 67 3c da bd c0 7e d3 be
       -0.043854475 0.40435278 -0.10656052 -0.4130764
0001b0 d2 f4 1d be 6d 5d 4e bf 95 1d fc bf e5 b7 57 bf
       -0.15425423 -0.80611306 -1.9696528 -0.84264976
0001c0 16 71 f2 be 05 9f bb 3d 09 ba 23 3f e1 e8 5c 3e
       -0.47351903 0.0916119 0.6395574 0.21573211
0001d0 e2 cb 0b 3f f6 d1 81 be 23 11 8f be 1d 9a 40 bf
       0.54607975 -0.253555 -0.27942762 -0.7523516
0001e0 2a 41 b1 bf 2c e7 c5 bf aa 32 2d bf 73 c2 14 3d
       -1.3848011 -1.5461173 -0.6765543 0.036318254
0001f0 0e 95 fb 3e f7 c1 9a 3e f6 3b 27 be 3d 12 26 3f
       0.49137157 0.30226108 -0.16331467 0.6487158
000200 6a 15 86 bf 9c fd ba bf 30 38 a8 bf 75 67 e7 be
       -1.0475285 -1.4608645 -1.3142147 -0.4519612
000210 41 c0 30 bf 23 f8 79 bf 45 6b df 3e 17 76 7e be
       -0.69043356 -0.9764425 0.43636528 -0.24849735
000220 5b f2 2b bf e9 86 53 bf 0a 01 9f be da 9a b1 be
       -0.6716668 -0.8262773 -0.3105548 -0.34688455
000230 fe 4f b0 bf 17 12 12 bf 33 01 90 bd ba 4f 95 3c
       -1.3774412 -0.5705885 -0.07031479 0.018226493
000240 d8 26 df 3e e5 8c f2 be 64 f4 5f bf 13 0d 21 3e
       0.43584323 -0.4737312 -0.87482285 0.15727644
000250 17 6a 01 bf 10 fc 8f bf 55 7d 60 bf ca a4 6f bf
       -0.50552505 -1.1248798 -0.8769124 -0.93610823
000260 3a f3 0e 3e a7 7d 08 bf 04 49 6e be 9b a7 d2 3c
       0.13959971 -0.5331673 -0.23270041 0.025714686
000270 1f 15 52 be 84 20 40 3c af 59 06 bf 95 7d 73 bd
       -0.2051587 0.011726502 -0.52480596 -0.059445936
000280 8c 2b ca bd 06 f2 66 40 ee fb 28 3f 1c 68 68 be
       -0.09871587 3.608522 0.66009414 -0.22695965
000290 4c 3b 99 be 86 ed e9 3e 70 37 36 be 6e 82 46 3e
       -0.29928052 0.45689029 -0.17794585 0.19385692
0002a0 7a 87 9b 3e 05 39 6c 3e 78 ea f9 3e 04 f7 90 3e
       0.30376798 0.23068626 0.48811698 0.28313458
0002b0 90 d9 5d 3f a6 98 92 bf 03 c1 4d bf 8f f7 8c 3e
       0.866601 -1.1452835 -0.8037264 0.27532622
0002c0 3f 09 e9 3e 22 9f 83 3e 10 10 c2 be d1 d7 11 3f
       0.45514867 0.25707346 -0.3790288 0.56969935
0002d0 cb ff dd bf f7 c9 bd be a7 17 2f 3e c5 4f 31 3e
       -1.7343687 -0.3706815 0.17098866 0.17315586
0002e0 1e 36 ff be 3a 1e 3e bf 79 b2 2a bf 6c 6e 1b c0
       -0.49845976 -0.7426487 -0.6667858 -2.4286146
0002f0 6c 17 60 bf 44 19 7d 3f 57 01 0a c0 ee 51 af bf
       -0.8753574 0.9886668 -2.1563318 -1.3696878
000300 c9 74 79 bf e6 51 4e 3f 77 d9 21 3f e8 2f dc 3d
       -0.97443825 0.8059372 0.6322245 0.10751325
000310 54 24 7e bf 65 4e 62 c0 00 a0 e0 bf 2a 75 c0 3f
       -0.9927418 -3.5360348 -1.7548828 1.5035756
000320 2b 7c e0 3e 52 5b 04 bf 0e 85 d3 3e bb c6 bf 3e
       0.43844733 -0.51701844 0.4131245 0.37456307
000330 4a 92 04 be c9 85 4c bf dc 21 be bf 36 28 13 c0
       -0.1294643 -0.7989164 -1.4854083 -2.2993293
000340 1a 8a 79 bf bb 42 8c 3f 5b a4 1d 3f 06 3d 1c 3e
       -0.9747635 1.0957865 0.6157891 0.15257654
000350 aa ad 85 3e dc 5f a4 be e0 4e c1 3e 47 6b de 3e
       0.26109058 -0.32104385 0.3775549 0.4344122
000360 e5 4d 35 be 55 ee b4 be 2c 2e 5f be 3f 6c b7 3d
       -0.17705496 -0.35338083 -0.21794957 0.08956193
000370 8d 0e b7 3d 88 99 00 3f 45 d5 cb bd 2d 2f 18 3f
       0.08938322 0.5023427 -0.09952787 0.59446985
000380 a0 e9 35 3f f5 d7 27 3f b8 c3 f4 3e 88 b5 98 bd
       0.7105961 0.655639 0.47805572 -0.07456499
000390 42 67 f7 be 7d f0 cc be da ba f0 bf bf 57 33 c0
       -0.48320967 -0.40027228 -1.8807023 -2.8022306
0003a0 fc b6 2a c0 fc 31 41 c0 1f d2 25 c0 ee 81 26 c0
       -2.6674185 -3.0186758 -2.5909498 -2.6016803
0003b0 8c b6 10 c0 80 65 ea bf 46 97 e9 bf 47 81 49 bf
       -2.2611418 -1.8312225 -1.824929 -0.78712887
0003c0 ee b5 55 c0 e6 7c 92 c0 7e ef 4e c0 a4 95 2d c0
       -3.339229 -4.5777464 -3.2333674 -2.7122583
0003d0 4c 51 2c c0 17 2e 53 c0 e6 18 2d c0 e4 d9 27 c0
       -2.692462 -3.299688 -2.7046447 -2.622674
0003e0 fc f7 55 c0 cf 69 e9 bf 48 2b e2 bf 58 80 0f c0
       -3.3432608 -1.8235415 -1.7669458 -2.2422085
0003f0 78 04 10 c0 db 5f 83 bf f5 40 74 c0 6d 1d 6b c0
       -2.2502728 -1.0263628 -3.8164647 -3.673671

actor.0.bias f4 [32]
000000 0b 25 51 be 9a f6 41 c0 03 4f 25 3f a0 da 74 bf
       -0.20424287 -3.0306764 0.6457369 -0.95646095
000010 ac 6c 6b 3d da 24 c5 3e 75 cc 3e be cf 2f d6 bd
       0.057476684 0.38504678 -0.18632682 -0.104583375
000020 2d 86 0f c0 d7 e4 d3 be bd b2 1d be 6d 5f 08 bf
       -2.2425644 -0.41385528 -0.15400214 -0.5327061
000030 3c d9 a1 be 0a 1d 89 3f cf c5 6c 3e 87 74 64 be
       -0.3161105 1.0711987 0.23122333 -0.22310077
000040 4a 1f c8 bf 00 7f bd 3e 62 d9 f5 be 44 b5 ec bf
       -1.5634549 0.37010956 -0.48017412 -1.8492818
000050 10 ec 97 be 1e 3c 20 bf 61 66 ad be c2 cf f4 bf
       -0.2967229 -0.6259173 -0.3386717 -1.9125903
000060 38 71 a0 bd ea 43 37 3f e7 be 6f bf 80 32 12 bf
       -0.07834095 0.71588004 -0.9365067 -0.57108307
000070 18 ad 1a be 72 2a 29 bf 89 47 02 3d 42 36 25 be
       -0.15105093 -0.6608039 0.031806502 -0.16133979

actor.2.weight f4 [32, 32]
000000 1b ce d0 3d 95 87 04 40 b4 2f 0a bf 65 2a b7 3f
       0.101955615 2.0707753 -0.5397904 1.4309813
000010 f2 b1 99 3f 91 80 d9 bf 67 92 01 be 3a d9 00 3f
       1.200743 -1.699236 -0.12653504 0.5033146
000020 9a 78 20 40 3f ed a2 3f 3f 4b ff 3d 14 48 83 3f
       2.507361 1.2728652 0.12465524 1.0256371
000030 e5 e9 c8 3f 40 74 9b 3f 6b af 3b c0 a9 8b 32 3f
       1.5696379 1.2144852 -2.9325817 0.69744354
000040 80 6d 1d 40 4f c9 48 3f a9 94 db bf d4 69 be 3f
       2.4598083 0.7843217 -1.7154742 1.4876046
000050 ce 52 21 40 bd 72 14 c0 4c 72 f5 3f 68 4b 27 40
       2.520679 -2.319503 1.9175506 2.6139774
000060 c5 58 02 c0 b8 69 60 3e e5 7b 18 40 1b c3 73 3f
       -2.036668 0.21915329 2.382562 0.9521958
000070 de 97 bd 3f 2e 69 a1 bf ad 39 a0 bd 53 6f eb 3f
       1.4811971 -1.2610223 -0.07823501 1.8393348
000080 f3 9f d3 3e 97 c1 e6 be b2 e9 81 3f cc c7 1f 3f
       0.4133297 -0.45069572 1.0149443 0.6241424
000090 73 7c 97 3e 36 9d 3b bf 08 81 10 3e 45 c3 41 3f
       0.29587135 -0.7328676 0.14111722 0.7568858
0000a0 de 70 86 be 30 4f bc 3e 97 b7 e4 bf be b2 a5 be
       -0.26257986 0.36779165 -1.7868527 -0.32362932
0000b0 6b 5d 5c 3c 2b 86 26 3f c7 b0 f1 bc db e2 72 bc
       0.013450007 0.65048474 -0.02950324 -0.014824594
0000c0 fa 66 1f bf 2e 43 3d 3f a5 a2 8a bf e2 af 19 3e
       -0.62266505 0.73930633 -1.0830885 0.150085
0000d0 74 0c 01 3f 30 20 be bd 29 4d 5b bf 64 7b 9c 3d
       0.50409627 -0.09283483 -0.8566461 0.076407224
0000e0 3a 87 02 3f 97 4b 99 bf 0a 34 fe bc 08 da 2c be
       0.5098759 -1.1976193 -0.031030674 -0.16880047
0000f0 86 c9 93 3f 4b 6d 97 bf 70 86 0b 40 76 cb 59 bf
       1.1545875 -1.1830229 2.1800804 -0.8507608
000100 7c bf c3 bf ae 14 d1 3f 8b 7c 88 3f f7 11 05 40
       -1.5292811 1.6334436 1.0663007 2.0792215
000110 67 7e a1 3f 8d 44 0f bf f1 2e 20 bf 44 26 b9 be
       1.26167 -0.55963975 -0.62571627 -0.36162007
000120 a9 d6 8d 3f 43 b7 9f 3f d0 61 1f 3f 81 70 d4 3f
       1.1081134 1.2477802 0.62258625 1.6596833
000130 da a1 cd 3f a2 34 7c 3f 4b 29 1e bf f9 90 71 bf
       1.6065018 0.9851781 -0.6178176 -0.94361836
000140 2d 66 e3 3f 55 42 b6 3f bb c6 6c 3d 6f 87 91 3f
       1.7765557 1.4238993 0.05780671 1.1369456
000150 92 4e 0a 40 90 47 9c bf ee 32 d1 3f dc 7f 8d 3f
       2.1610456 -1.2209339 1.6343668 1.1054645
000160 08 99 42 be 99 76 7c 3e d1 f8 a6 3f c6 8e f7 3e
       -0.1900369 0.24654616 1.3044683 0.48351115
000170 d0 18 53 bf 4c 69 f9 3d 8e 0f 24 3f 74 52 b8 3f
       -0.82459736 0.12178287 0.64086235 1.4400163
000180 6e 8a 1b bf 75 1a a8 3f 81 f3 02 3f 5f 8d 04 3f
       -0.607581 1.3133074 0.5115281 0.51778215
000190 fb e3 45 3f 02 f6 8c bf d8 53 fd 3d c8 87 3a 3f
       0.77300996 -1.1012576 0.123695076 0.72863436
0001a0 b7 ea 9f 3f ef 5a 83 3f 6f bc 20 3e 0c 76 ad 3e
       1.2493504 1.0262126 0.15696882 0.33879125
0001b0 32 8c 90 3f a5 3c 63 3f 82 c5 c0 be c9 94 8b 3f
       1.1292784 0.8876441 -0.37650687 1.0904781
0001c0 cb 1d 93 3f 8e bf c5 3f 89 49 e6 bf f4 b4 df 3f
       1.1493467 1.5449083 -1.7991191 1.7477098
0001d0 2f c7 08 40 6f b2 a8 bf ef 43 9f 3f 53 aa f2 3f
       2.1371572 -1.3179454 1.2442607 1.8958229
0001e0 d5 81 c8 be 3e d1 a1 3e 05 76 f6 3f 80 5d 14 3f
       -0.39161554 0.31604952 1.9254767 0.5795517
0001f0 3d 25 fa be 11 77 cd 3c d8 f4 3f bf d5 02 83 3f
       -0.48856536 0.02508119 -0.74982977 1.0235239
000200 c4 f4 a5 bd 1c ed 0f 3f b2 62 1c c0 57 f0 e7 3e
       -0.08103326 0.56221175 -2.443524 0.45300552
000210 48 1d 80 3d 35 08 70 bf 5c 41 c5 3f f8 9e 9e bf
       0.06255585 -0.9376252 1.5410571 -1.2392263
000220 f2 7c 2e bf 2c 7d c5 bf c1 93 09 3e 7d 90 2a 3f
       -0.681594 -1.5428824 0.1343527 0.6662672
000230 d2 c7 97 3e 0c 98 37 3d 89 36 9d bd 74 83 92 bf
       0.29644638 0.044822738 -0.076764174 -1.1446366
000240 e5 84 5a 3d 3e 65 dd bf 12 73 b2 be 74 73 33 3f
       0.053349394 -1.7296522 -0.34853417 0.7009804
000250 b4 32 51 3f 06 8f 77 3e c6 50 8f bf cf 7c 9e be
       0.8171799 0.24175653 -1.1196525 -0.30954596
000260 85 fc 9e 3f 5b 56 c6 bf 45 ce 98 bf b9 89 28 bf
       1.2420813 -1.5495104 -1.1937948 -0.6583515
000270 9f 58 c3 3d 7e 15 a7 3e 36 7d f9 3e 01 0c aa bf
       0.095383875 0.32633585 0.4872834 -1.3284913
000280 f1 b9 66 bf 20 80 f7 3f 83 53 09 3f a9 84 67 3f
       -0.90127474 1.9335976 0.53643054 0.904368
000290 88 96 3d 3f ef 5b 6e bf b3 04 cd 3d 93 16 f6 3e
       0.7405782 -0.9310903 0.10010662 0.48064098
0002a0 37 b5 17 40 17 e8 8a 3f 48 d0 12 3f 4c 9e 5c 3f
       2.3704355 1.0852078 0.5734906 0.8617904
0002b0 36 4d f9 3f ab 0c b7 3f 85 e9 37 c0 7e df 7a be
       1.9476688 1.4300741 -2.873628 -0.24499318
0002c0 96 3b cf 3f 8f ea 24 40 61 9e da bf e0 e3 db 3f
       1.6190059 2.5768163 -1.7079583 1.7178917
0002d0 74 1e f2 3f 11 68 96 bf 31 e7 82 3f c7 4e 1b 40
       1.8915544 -1.1750509 1.0226804 2.4266832
0002e0 a7 27 17 c0 7d 9d 91 be 50 6e cf 3f cf e1 72 3f
       -2.3617952 -0.28440467 1.620554 0.94875807
0002f0 1a 82 28 3f d9 68 18 bf c2 62 11 3f 55 25 f0 3f
       0.6582352 -0.59534985 0.5679132 1.8761393
000300 de 7c 22 3d d8 1c c3 3f 8a 2d 43 3f 37 43 85 be
       0.039669864 1.5243177 0.7624136 -0.26027843
000310 c7 e2 87 3f f1 86 ca be 7b c7 a0 3f 9d dd ab 3f
       1.0616082 -0.39556077 1.2560877 1.3427006
000320 c4 1a b4 3f d4 4f bf 3f 3e a4 a8 bf 81 3a 8a bb
       1.4070668 1.4946237 -1.3175123 -0.0042184
000330 1a 3a 30 40 d9 21 b9 3f 76 74 8d bf ec 79 32 bd
       2.7535462 1.4463454 -1.1051166 -0.043573305
000340 df 83 67 3f e0 e2 8d 3f e2 7b 89 bf a4 16 34 3f
       0.90435594 1.1084862 -1.0740931 0.70347047
000350 c6 b3 27 3e 11 6c 3b bf 59 19 5e 3f b3 f5 9a 3f
       0.16377172 -0.7321177 0.8675743 1.2106231
000360 71 53 8e bf b0 20 53 3e 88 45 b2 3f a9 0d e7 3f
       -1.1119214 0.20617938 1.3927469 1.8051044
000370 65 65 16 3f 51 0d 8b bf c8 ea 66 be c2 8e d5 be
       0.58748466 -1.0863439 -0.225505 -0.41710478
000380 d5 77 3e bf 1f b5 b5 3f b5 09 3d be b7 98 53 3f
       -0.744016 1.4195899 -0.18460734 0.826549
000390 58 fe 74 3f 4d 6e ec be b4 45 90 3e 82 b2 49 3f
       0.957006 -0.46177903 0.2817818 0.78788006
0003a0 e9 38 d4 3f 4e 22 13 3f 0b 24 d3 3e c8 b6 f8 be
       1.6579868 0.5747422 0.41238436 -0.4857695
0003b0 07 ee c0 3e 6c 54 c6 3f 39 95 df be 17 70 a9 be
       0.376816 1.5494514 -0.43668535 -0.3309333
0003c0 66 0a 97 3f 8e 5d da 3f 5c f4 b7 3d 01 3c 80 3f
       1.1800048 1.7059801 0.08982155 1.0018312
0003d0 5c 37 f1 3f 56 3c 2c c0 9c b6 08 3f 1f c4 a4 3f
       1.8845019 -2.6911826 0.5340364 1.2872351
0003e0 c1 66 80 bf 2b 43 f9 be 69 32 80 3f 50 fb 06 bf
       -1.0031358 -0.48684058 1.0015384 -0.5272722
0003f0 5a 78 90 3e ca 4b 58 bf 63 ac eb 3d c5 de 9e 3f
       0.2821682 -0.84490645 0.115074895 1.2411734

actor.2.bias f4 [32]
000000 a7 ab 4f c0 8f 73 32 bf 78 5d 87 bf 00 4a 3d bf
       -3.2448518 -0.6970758 -1.0575399 -0.7394104
000010 30 27 c1 3e 5b cc 13 c0 2a 8e b1 be eb 1b 5b bf
       0.3772521 -2.3093479 -0.34678775 -0.85589474
000020 0a f1 99 bf 6a f2 be bf e7 a3 48 bf ab 8b 1b c0
       -1.2026684 -1.4917729 -0.78375095 -2.4303997
000030 49 85 7f 3f eb 2b de be c1 06 9e bf 76 9b 05 bf
       0.9981275 -0.43392882 -1.2345811 -0.5219034
000040 51 e3 85 bf 1a 90 2e c0 59 bd e0 bf 42 ca 41 bf
       -1.0459996 -2.7275453 -1.7557784 -0.75699246
000050 e8 46 6d bf 24 31 e9 bf 68 c5 31 bf bb 9c 6a bf
       -0.9268632 -1.8218122 -0.69441843 -0.916454
000060 06 a2 a5 be b3 90 1c 3f 17 13 0e bf ba 88 3a 3e
       -0.32350177 0.61158293 -0.5549788 0.1821622
000070 2a 1f a6 bf 42 03 bd bf 95 5f 2a bf 68 43 8e bf
       -1.297826 -1.4766619 -0.66552097 -1.1114321

actor.4.weight f4 [32, 32]
000000 3a e9 ec 3f 3c 8c c2 3e 8a 26 a8 3f 47 37 96 3e
       1.8508675 0.37997615 1.3136761 0.29339048
000010 9c 8a 18 c0 2d df cc 3f 15 05 ba bf 7b f4 80 3f
       -2.38346 1.6005608 -1.4532801 1.007461
000020 49 ab 89 3f 78 61 a2 3f 86 68 07 3f 19 fe da 3f
       1.0755397 1.2685995 0.52893865 1.7108794
000030 fc 57 4e 3f 0c 6d 96 be 09 77 af 3e 7e 47 94 3e
       0.80603004 -0.2938007 0.34270504 0.28960794
000040 6f e6 cc bf 1f 6e f1 3f fc 36 d0 3d 66 ba 7e 3f
       -1.6007823 1.8861731 0.101667374 0.9950317
000050 c4 b5 0f 3f 1e 8a 8f 3f 2b f0 2e bf f1 4e fc be
       0.5613673 1.1214025 -0.6833522 -0.49278978
000060 d0 f8 84 be 2a a1 8f bf 72 fb 21 be cb 51 44 be
       -0.2597108 -1.1221058 -0.15818575 -0.19171827
000070 89 bc e3 3f 39 27 c4 3d 99 70 9e 3d fe ab 38 3d
       1.7791911 0.09577794 0.0773632 0.0450859
000080 35 00 55 3f 40 d6 bf 3f ab e5 4e 3f 25 a8 0a 3f
       0.8320344 1.4987259 0.80819196 0.5416282
000090 39 a2 f8 3e 04 a3 e0 3e da 77 a2 3f 79 cb b2 3e
       0.48561266 0.4387437 1.2692826 0.34920862
0000a0 f6 82 0d be e7 c6 d5 3e 84 07 ec bd ec 78 0f 3f
       -0.13819489 0.41753313 -0.11524871 0.5604389
0000b0 f7 b2 bd 3f 75 99 6a bf 2d 96 f8 bb bc 96 43 3d
       1.4820241 -0.91640407 -0.0075862617 0.047751173
0000c0 2b 0e a5 bf f0 48 1a 3f 48 ea e6 3f 56 e8 08 3f
       -1.2894949 0.60267544 1.8040247 0.53479517
0000d0 b9 ab 31 bf e9 7d 03 3f c8 f7 b0 3e 08 30 59 bf
       -0.6940265 0.51364 0.34564042 -0.84838915
0000e0 92 fb bb bf 96 c5 95 3d ab 68 0e 3f 75 5f b5 bf
       -1.4686148 0.07313077 0.5562846 -1.4169756
0000f0 2b b9 81 3f c5 2c 08 bf 7e 3a 3f bd da 76 12 3f
       1.0134634 -0.5319331 -0.046686642 0.57212603
000100 71 78 e7 bd 91 1f 7e bf 7e 4c bb be 20 26 7c bf
       -0.11302269 -0.99266917 -0.36581796 -0.98495674
000110 91 7e 85 bf e8 21 80 3e ed e1 92 bf ba 27 89 be
       -1.042925 0.25025868 -1.1475197 -0.2678812
000120 cf 70 91 be 49 34 90 bf 7b 93 34 3f d5 52 c8 bf
       -0.2840638 -1.1265956 0.7053754 -1.5650278
000130 4b dc 38 bf 7a 80 4e bf e1 96 48 be 87 91 c4 bf
       -0.7221114 -0.8066479 -0.19588806 -1.5356911
000140 60 24 49 bf 8a b5 87 3d 3c 8c 26 c0 96 88 03 bf
       -0.7857113 0.06626423 -2.6023092 -0.5138029
000150 d4 aa 1d 3f 4f f8 11 3f 5a 69 36 3f 14 28 78 3f
       0.6158879 0.57019514 0.71254504 0.96936154
000160 09 46 37 40 4a c7 98 bd f8 df 1f 3f 5a 3d 74 3f
       2.8636496 -0.07459886 0.62451124 0.95406115
000170 15 0e 0e bf 95 95 74 bf 5d c5 3a 3e 86 5a 4d 3e
       -0.5549024 -0.95540744 0.1823935 0.20054063
000180 98 c5 9c 3e 06 57 29 bf a4 49 c2 3f dd 24 5b 3f
       0.30619502 -0.6614841 1.5178723 0.85603124
000190 f9 01 b9 be c5 c7 d1 3c 05 55 46 3f 59 b2 19 3f
       -0.36134318 0.025607953 0.7747348 0.6003776
0001a0 75 e5 a7 3e b7 9f 4a 3f 27 e3 36 be 33 78 b9 3e
       0.3279225 0.79149956 -0.17860089 0.36224517
0001b0 8e 68 3e bf fb 6b b4 bf 1d 9e 25 c0 7d ec d6 bf
       -0.7437829 -1.4095453 -2.5877755 -1.679092
0001c0 26 de b5 bf de da 25 3f 82 87 ba be 5f 6e 3c bf
       -1.4208419 0.6478709 -0.3643151 -0.7360591
0001d0 5b 69 03 bd 20 44 2e 3e 4c c5 92 3e e7 f3 5d bf
       -0.032082897 0.17018175 0.2866615 -0.8670029
0001e0 ea 34 6f bf b7 a7 06 3f d6 6b c3 bf 79 d8 d5 be
       -0.93440115 0.5259966 -1.5267284 -0.41766718
0001f0 29 26 06 3f 24 d0 e1 3f 6b 2e aa 3f 44 66 ce 3e
       0.5240198 1.7641644 1.3295416 0.40312397
000200 52 dd 9a 3f 54 86 80 bf 6e 72 1e be 82 c5 16 3f
       1.2098792 -1.0040994 -0.15473339 0.58895123
000210 30 d8 9f bf 8a 5f 2f 3e fe 95 f2 3a 42 b8 6b bd
       -1.248785 0.17126289 0.0018507836 -0.05754877
000220 f8 7a b1 3e 4c dc c3 3e 7c 25 7c be ff 7b ce bd
       0.3466413 0.3825401 -0.24623674 -0.10082244
000230 cb 8f 7e 3f b8 07 54 3f 18 93 99 3e 45 22 66 bf
       0.9943816 0.8282428 0.29995036 -0.8989604
000240 6b cf 6f bf a1 dc 7c 3f f1 98 94 bf 96 8b e7 be
       -0.9367587 0.98774153 -1.1609174 -0.45223683
000250 7f 9f 44 3f 16 fd a5 3e 46 38 ed be 5e 01 0e 3f
       0.7680587 0.32419652 -0.46331996 0.55470836
000260 9f 7c d4 3f 34 fe 74 bf 0b 1c 09 3e fe 86 64 bf
       1.6600531 -0.95700383 0.13389604 -0.8926848
000270 39 aa 7f be a2 43 3b 3f aa 87 8b 3f d6 0c 28 3f
       -0.24967279 0.73150074 1.0900776 0.65644586
000280 51 85 0b 40 62 ae 26 be 5a 52 9b 3f e5 32 70 3e
       2.180012 -0.1627746 1.2134507 0.23456915
000290 0e 85 f6 bf 5c d0 0a 40 47 9f 5d bd 94 d9 ca 3f
       -1.9259355 2.1689672 -0.054106977 1.584765
0002a0 70 d6 8b 3f 95 53 47 3f 18 c9 eb 3e 9c 04 7c 3f
       1.0924816 0.7786191 0.4605186 0.98444533
0002b0 e1 10 d2 3d c1 aa 2f bf 29 b4 2e 3f 69 e6 ba be
       0.10257126 -0.68619925 0.6824365 -0.36503914
0002c0 50 59 88 bf b9 96 f8 3f 65 c7 bc 3e d8 1d 04 3f
       -1.0652256 1.9420997 0.36870876 0.5160804
0002d0 21 d0 8b 3f 17 76 c8 3f cd da 33 3e f8 3b 0d be
       1.0922891 1.5661038 0.17563935 -0.13792408
0002e0 ae 6a 84 be 3d d2 04 3e cd d5 b2 bf 57 35 da 3c
       -0.2586264 0.12970825 -1.3971497 0.026636763
0002f0 ab f0 87 3f 39 39 4f 3f 44 61 44 3e e0 61 bf 3e
       1.0620321 0.8094669 0.19177729 0.3737936
000300 fd f5 b1 3d 1b c4 bf be db 32 54 be 72 a3 d8 be
       0.08689497 -0.37454304 -0.20722525 -0.423122
000310 f7 8d 6c 3e c9 d6 91 3e d6 e8 c9 bf c0 16 0c 3e
       0.2310103 0.2848418 -1.5774181 0.13680553
000320 7c 07 18 3e fb 49 f2 bf 32 e9 15 3d 01 e6 85 3e
       0.14846605 -1.8928827 0.036599346 0.26152042
000330 fe 19 49 3d d7 e1 8c be 4f 43 bd bc 8a ec 08 bf
       0.049097054 -0.27516052 -0.023103384 -0.5348593
000340 0d a1 dd bf ad e9 55 3e 48 6f 95 bf 4b 3a 99 be
       -1.7314774 0.20889921 -1.1674585 -0.29927287
000350 41 db d5 3f 84 4f 90 3e 22 5a 8a bf 8b 91 86 3f
       1.6707536 0.28185666 -1.0808756 1.0513166
000360 ad 06 cc 3f c2 76 91 3d 71 35 0e 3f 4c ef 9f 3f
       1.5939537 0.071027294 0.55550295 1.2494903
000370 05 85 35 bf 3b e9 38 3f 9f 65 da 3f 63 7e 24 3e
       -0.70906097 0.7223088 1.7062262 0.16063838
000380 86 20 75 be 7a da ff 3d cd aa 81 bf 8a 13 ee bf
       -0.23938188 0.12492843 -1.0130249 -1.8599713
000390 45 cf 4a 3e 5f 5e 7f bd e6 24 7c bf 19 05 54 be
       0.1980563 -0.06234586 -0.984938 -0.2070507
0003a0 01 b3 51 3f 26 9b b7 be ad dc 28 bf d7 37 89 be
       0.81913763 -0.35860556 -0.65961725 -0.26800415
0003b0 46 4a 25 3f 6f eb 38 3f 3c a5 01 3f 35 43 b3 3e
       0.6456646 0.72234243 0.5064275 0.35012212
0003c0 e7 7a bd bf 2f e8 f7 be ee 0c ec be 93 c9 10 3f
       -1.4803132 -0.4841933 -0.46103615 0.5655758
0003d0 c5 09 ec 3e 57 df 95 3e 62 58 09 c0 d6 bd 06 bf
       0.46101204 0.29271957 -2.1460195 -0.52633417
0003e0 0d 4c 37 3f df df e4 bb f6 be bf 3e 4e 27 ef bf
       0.7160042 -0.0069846953 0.3745038 -1.868387
0003f0 2b 7b a2 be b1 74 07 bf c5 56 18 3f 12 3d 84 be
       -0.31734595 -0.5291243 0.595074 -0.25827843

actor.4.bias f4 [32]
000000 dd 4e 1b c0 f2 25 f0 be be 3c 1f 3e e8 ae 0b 3f
       -2.4266884 -0.4690395 0.15550515 0.5456376
000010 23 a4 56 bf a1 2c 2e c0 6a 1c ec be 32 8c 74 3f
       -0.838442 -2.721474 -0.46115428 0.9552642
000020 66 55 6c 3d 0c 77 16 bf 29 10 b8 bd 9f 80 80 bf
       0.05769863 -0.587754 -0.08987457 -1.0039252
000030 2e 48 5e bf 9e 8a cd bf 3b 63 4f 3f eb 46 07 c0
       -0.8682889 -1.6057928 0.8101079 -2.1137035
000040 8b 70 0f bf f9 5c c6 bf f0 14 dc bf 0b c3 08 3f
       -0.560311 -1.5497123 -1.719389 0.5342261
000050 bc 7f 3c bf 8d 5d 3e bf 00 76 c9 bf 83 fc 25 40
       -0.7363241 -0.743615 -1.5739136 2.593537
000060 90 88 d4 be 04 67 ac bf 80 8b e9 bf a6 58 09 c0
       -0.4151044 -1.3468938 -1.8245697 -2.1460357
000070 38 7d 29 bf 9b 8f 5d 3d d0 4e e0 bf 0c ff ef bf
       -0.66206694 0.05409203 -1.7524052 -1.8749709

actor.6.weight f4 [4, 32]
000000 3d 0d a6 bf b8 0d 27 bf b8 79 ec 3f c6 40 c9 3d
       -1.297279 -0.6525531 1.8474646 0.09826808
000010 2c 03 24 3f 37 72 06 c0 8b c7 f9 3e db 9f 23 40
       0.6406734 -2.1007211 0.48785052 2.5566318
000020 2f 8c 00 40 e5 39 e6 3f 2f 12 2f bf f8 5b b7 3f
       2.0085561 1.7986418 -0.6838712 1.4324942
000030 cd c7 c7 3f 3d ce 0f c0 05 aa 25 40 f7 08 a7 bf
       1.5607849 -2.2469628 2.5885022 -1.3049611
000040 1b f5 62 3e 83 38 d1 3f 74 cf f1 be 9b 87 8c 3f
       0.22163813 1.6345371 -0.47228587 1.0978884
000050 57 81 b3 3f 27 33 88 3f 2d eb 21 bf 81 6a 3e 40
       1.4023846 1.064061 -0.63249475 2.9752505
000060 02 17 6c bf bf dd b2 3d 37 7d 57 3f 9e 27 fe bd
       -0.9222261 0.08733701 0.8417544 -0.124099
000070 e2 83 bb bf 8b 5b b7 3f 37 35 28 3f d3 bb e2 be
       -1.4649622 1.4324812 0.657062 -0.44283924
000080 c8 21 67 bf eb 65 cc bc 69 b7 b5 3f 09 bd 10 3f
       -0.9028592 -0.024950942 1.4196597 0.56538445
000090 74 f2 be be 6d 99 07 c0 38 b8 11 3f ac 25 cf 3f
       -0.37294352 -2.1187394 0.5692172 1.6183372
0000a0 ec 37 f4 3f d2 3a c9 3f 3f 1d 55 be 9a e5 65 3f
       1.9079566 1.5721076 -0.20811938 0.8980347
0000b0 b1 47 d0 3f 29 df de bf 30 a7 3a 40 17 dc 80 bf
       1.6271878 -1.7411853 2.9164543 -1.0067166
0000c0 82 65 b2 3e 7a 9f 78 3f 08 52 60 bf 68 f7 da 3f
       0.3484307 0.9711834 -0.8762517 1.7106752
0000d0 f5 3d 54 3f 42 2d 69 3f 4a 87 86 be ca 3a 3b 40
       0.8290704 0.9108468 -0.26275092 2.9254632
0000e0 05 24 b6 be 92 ae 62 3e 9c 00 90 3e 6c ee 33 be
       -0.35574356 0.22136906 0.28125465 -0.1757142
0000f0 d2 bc 39 be 27 50 d8 3f e3 e3 48 3f 5f b8 44 c0
       -0.18138435 1.689946 0.7847273 -3.073753
000100 b1 dd 0f c0 23 fa aa 3e 17 92 a8 3f 43 ed 2b 3e
       -2.247906 0.33393964 1.3169583 0.16789727
000110 e3 4a 90 3e 46 93 23 c0 b4 39 7e 3f 18 40 f3 3f
       0.28182134 -2.5558639 0.993068 1.9003935
000120 4e 9e bb 3f e5 89 00 40 87 87 61 3d 09 c0 a2 3f
       1.4657686 2.0084164 0.05506089 1.2714854
000130 65 37 b4 3f 92 a5 82 bf 7b 89 35 40 ff 86 cf bf
       1.4079405 -1.0206778 2.8365161 -1.6213073
000140 10 3c 27 bd 50 9d a0 3f a0 a6 f2 bf c8 40 b1 3f
       -0.040828764 1.2548008 -1.89571 1.3847895
000150 68 2b b9 3f c2 43 b7 3f d8 32 9d bf ee ad 33 40
       1.4466372 1.4317553 -1.2281141 2.8074908
000160 30 1a 1e bf bb 7d 08 be 02 e4 ab bf 41 5f b0 bf
       -0.6175871 -0.13329212 -1.3428957 -1.3779069
000170 dc 80 33 bf 76 7b b8 3f d7 28 14 3f b0 44 37 c0
       -0.701185 1.4412677 0.57874817 -2.8635674
000180 2c 8a 30 bf 9e fa e0 3f 7a f5 0e 3f a3 67 07 40
       -0.68960834 1.7576482 0.5584332 2.1157005
000190 f5 46 e2 bd 26 66 70 bf 66 89 5e bf 06 b4 05 40
       -0.1104869 -0.93905866 -0.86928403 2.0891128
0001a0 1d a9 69 3f dc bd 86 3f 94 f4 15 40 0d b9 10 40
       0.9127367 1.052669 2.3430529 2.2612946
0001b0 f2 c3 04 40 c1 39 43 3f 11 47 28 40 fb 9f e3 3e
       2.0744596 0.7626 2.6293375 0.44457993
0001c0 6d a3 b3 be ad d0 24 40 42 ef d4 3f c3 21 b8 bf
       -0.3508562 2.5752366 1.6635516 -1.4385303
0001d0 c1 71 1e 40 f0 bb df 3f 02 6d 35 3e 31 5f 28 40
       2.475693 1.7479229 0.17717364 2.63081
0001e0 81 9e 5c 3f de 7d c3 3f 15 0d 2e 3f 79 c1 eb 3f
       0.8617936 1.5272787 0.6798871 1.8418418
0001f0 ce 5f db be 4b 74 1d 40 a4 d0 c4 3f d2 b7 ce 3f
       -0.4284653 2.460223 1.5376172 1.6149848

actor.6.bias f4 [4]
000000 61 dc 04 40 5e 58 38 40 08 13 3e 40 bd 37 e9 3f
       2.0759509 2.8803935 2.9699116 1.8220135

critic.0.weight f4 [32, 180]
000000 fa 07 ca bf 09 e0 0d c0 e1 23 43 c0 09 08 e3 bf
       -1.5783684 -2.216799 -3.0490649 -1.7736827
000010 c6 8a 13 c0 ab 5e 18 c0 1e da 05 bf 77 3c 4f 3e
       -2.305345 -2.380778 -0.52285945 0.2023791
000020 6b 15 49 40 4b ed d9 40 99 62 99 3f 60 9c 5a bf
       3.1419322 6.8102164 1.1983215 -0.8539486
000030 7d e5 f7 be 03 28 d8 bf 85 24 7e c0 dd 4c 49 c0
       -0.48417273 -1.6887211 -3.970979 -3.1453164
000040 a2 54 29 c0 de d3 c8 3f 8b bd 8d 40 52 ea ae 40
       -2.6457906 1.5689657 4.4293876 5.4661036
000050 5d 5c 49 c0 2d 1a 08 c0 5d ad 18 c0 c3 db a7 bf
       -3.1462624 -2.1265976 -2.3855813 -1.3113941
000060 f5 da 00 c0 06 6e 2e c0 97 32 eb be d2 66 3a 3e
       -2.013364 -2.7254653 -0.45937034 0.18203285
000070 74 60 5d 40 e5 47 ad 40 d0 c6 6f c0 bc be 9b bf
       3.459012 5.415026 -3.7465096 -1.2167583
000080 e2 bc 09 c0 92 a0 f7 bf 3c 4d 8a c0 8f db 0b c0
       -2.1521535 -1.9345877 -4.321928 -2.1852758
000090 73 b4 07 c0 92 dc d4 bf 89 c7 3a c0 2d 1d 0a bf
       -2.1203887 -1.6629813 -2.9184287 -0.5395077
0000a0 19 27 71 c1 9d 62 8e c1 2f 43 7d c1 e5 fa 63 c1
       -15.072045 -17.798151 -15.828902 -14.248754
0000b0 a7 45 8b c1 f4 92 8c c1 11 5f 6f c1 c6 ed 7c c1
       -17.40901 -17.571754 -14.96071 -15.80805
0000c0 a6 74 a3 c1 26 fe a9 c1 0f c7 a8 3f 01 38 c7 3f
       -20.431957 -21.249096 1.3185748 1.5563966
0000d0 8d c8 5b 3f 59 52 b7 3f 59 5c 05 40 b3 de 81 3e
       0.8585289 1.4322006 2.0837615 0.2536522
0000e0 82 62 10 3f fb 8b be 3f e0 32 9a 3f 76 82 89 3f
       0.5640031 1.4886469 1.2046776 1.0742939
0000f0 fe 7c d4 3c eb 7d d3 3f 2f 59 1b 3f db 3e e7 3f
       0.025938507 1.6522802 0.6068296 1.8066057
000100 9b 5b e8 3e 57 fe 80 be db 55 8e 3e 73 1b 11 40
       0.4538239 -0.25194046 0.27799878 2.2673004
000110 93 37 1f 40 68 28 a5 3f 42 71 81 3f ab 9e be 3f
       2.487767 1.2902956 1.0112689 1.4892172
000120 11 3b 0c 3f 4c bb 05 3f 7d b1 6a 3e 14 48 54 3f
       0.5477763 0.5223892 0.22919269 0.8292248
000130 2f 8b ae 3f fb 64 59 3f df ee 86 3f d8 1d 86 3f
       1.3636225 0.8491971 1.0541648 1.0477858
000140 29 d5 32 3f bc c0 63 3f 33 26 84 3f a6 f5 54 3f
       0.69856507 0.88965964 1.0324157 0.8318733
000150 32 3c 00 3f a9 85 2f 3f 48 1b 80 3f 41 63 eb 3e
       0.5009185 0.68563324 1.0008326 0.45974162
000160 fa f9 d3 3f 35 52 74 be c3 6c 78 be 5a 32 8f 3f
       1.6560662 -0.23859484 -0.2426024 1.1187241
000170 ad dc d2 3e 1b 4c 0a 3f 7c cb 6e 3e f2 d5 bd 3e
       0.41183987 0.5402238 0.2331981 0.3707729
000180 c1 cf 74 3e 08 9a 7b bd 6e 34 a3 bf 85 39 16 3e
       0.23907377 -0.061426193 -1.2750375 0.1467038
000190 ca 6d 3b 3f e8 68 9f 3f a1 b9 80 3f d7 df 4b 3f
       0.732144 1.245389 1.005665 0.7963843
0001a0 92 3b 0c bf 81 6c 13 3d 49 11 b1 be e6 d6 52 be
       -0.547784 0.03599215 -0.345835 -0.2058979
0001b0 c7 9b 55 3f 23 ce b9 be e0 8f 23 3f d2 40 1e 3f
       0.8344082 -0.36290082 0.6389141 0.6181766
0001c0 41 29 e7 3d 39 30 39 3f 23 84 44 bf ad 1f cf 3e
       0.112871654 0.72339207 -0.76764125 0.40453854
0001d0 22 f2 09 3f d2 37 35 3e 1c 0a 91 3e 23 2e a5 bd
       0.5388509 0.17697075 0.28328025 -0.080654405
0001e0 77 69 1e 3f c0 cf b5 3f 82 84 e9 3f ec cb e3 3d
       0.61879677 1.4204025 1.8243563 0.111228794
0001f0 75 b0 c4 be 03 2c ee be f0 3a 04 bf 10 02 22 be
       -0.38415876 -0.46517953 -0.5165243 -0.158211
000200 3d 16 70 3e 41 3a 5e be 5a 5a 0b 3f 41 ce 2a 3f
       0.23445983 -0.2170191 0.5443474 0.6672097
000210 d0 49 89 be cb de 83 bf c5 6a b3 bd d2 a5 36 ba
       -0.26814127 -1.0302366 -0.08760599 -0.0006967458
000220 42 62 3f bf 6e 90 0d 3e 98 f6 5c be c4 9f 25 bf
       -0.74759305 0.13824627 -0.21578443 -0.6469691
000230 08 29 9b 3f df 25 9c 3f 7b 30 4f 3c d6 af 69 3e
       1.2121897 1.2199057 0.012645836 0.22820982
000240 92 e6 d7 3e 19 95 cf 3d 39 9a 85 be 54 00 6b 3c
       0.421681 0.1013586 -0.26094225 0.01434334
000250 a7 6e e3 be ae 7b a6 be f0 4f 01 be e6 a1 c6 bd
       -0.4442036 -0.32516235 -0.1262815 -0.096988484
000260 75 66 27 3e 55 6f 63 3f e6 fe 7d 3f 91 85 4f be
       0.16347678 0.88841754 0.9921707 -0.20265795
000270 f8 2d 6f be 1e 21 d1 3e 9f 84 5f 3d 9d f2 7f 3e
       -0.2335738 0.4084558 0.054569837 0.24994893
000280 31 3b 87 bf 65 63 59 c0 19 7d ee bf 2a 2b 76 bf
       -1.0564939 -3.3966916 -1.8631927 -0.96159613
000290 63 08 bd be 11 84 03 c0 f1 a0 68 bf 74 f9 97 bf
       -0.3692046 -2.0549357 -0.9087058 -1.1873002
0002a0 0d 1b 0c c0 bd 27 0e c0 e8 26 b6 bf 4d f8 06 bf
       -2.189151 -2.2211754 -1.4230623 -0.52722627
0002b0 7a f5 13 c0 c9 21 04 c0 c7 5f 13 c0 00 00 f9 bf
       -2.3118577 -2.064562 -2.3027208 -1.9453125
0002c0 be 94 a9 3e 64 08 83 be e6 6d 4a 3e b3 fb 20 be
       0.33121294 -0.2559234 0.19768485 -0.15721016
0002d0 bf 0b 7e 3f 7d d0 b0 3e 02 91 01 40 ab 34 cf 3f
       0.99236673 0.34534064 2.0244756 1.6187948
0002e0 93 35 33 3e d4 e2 ad bf 8e c4 22 bf a7 9a b0 3e
       0.17500906 -1.3584847 -0.6358117 0.3449299
0002f0 a7 9a 1f 3f 08 69 62 3e b2 60 87 bf 68 3b 3f 3e
       0.62345356 0.22110379 -1.0576384 0.18675005
000300 99 88 d5 be 35 18 90 bc e5 9f 2c bf 0b 89 cc bf
       -0.41705778 -0.017589668 -0.6743148 -1.5979322
000310 e5 22 55 bd 52 82 96 3f 79 52 7a 3f 9d 28 41 3f
       -0.05203523 1.1758521 0.97782093 0.75452596
000320 08 fd d2 3f 3a c2 f7 be cb b8 ad 3f 31 51 0f 3f
       1.6483469 -0.4839037 1.3572019 0.55983263
000330 93 bf aa 3e 8e d9 40 3e f1 c8 06 bf 95 73 16 bf
       0.33349285 0.1883299 -0.5265036 -0.58770114
000340 f2 c7 f5 bf 9a 7a 7e c0 6e 3f 9b 3f dd d8 b4 be
       -1.9201643 -3.976233 1.2128732 -0.35321704
000350 82 cf 6e bc 7c 1e 27 3f b5 2d 17 c0 1e 0b d0 bf
       -0.014575841 0.6528089 -2.3621647 -1.6253393
000360 9c 4d 72 bf 24 25 b0 bf e2 5c 35 bf 9c 1d 83 bf
       -0.9464967 -1.3761334 -0.7084485 -1.0243411
000370 6a bc 1d 40 4f 25 3a 40 54 ad 4a 40 de 3e e1 3f
       2.464625 2.9085271 3.166829 1.759731
000380 97 54 5f be 60 f0 de bf 37 1e d9 3e a3 37 0d bf
       -0.21809612 -1.7417107 0.42405865 -0.5516302
000390 3b 77 e5 3e a3 33 35 40 76 31 78 c0 d0 bb 82 c0
       0.44817528 2.8312767 -3.8780189 -4.0854263
0003a0 d3 56 38 c0 26 d7 5f c0 b2 f6 cf c0 e4 39 16 c0
       -2.8802993 -3.4975066 -6.498864 -2.3472834
0003b0 66 4a 5b c0 41 9e 6c bd e4 ab 1f bb 90 a0 a6 3e
       -3.426416 -0.05776811 -0.002436393 0.32544374
0003c0 42 c1 5d c0 1d 63 73 c0 ad cc 26 c0 64 6c 95 c0
       -3.4649205 -3.8029244 -2.6062424 -4.6694813
0003d0 78 af f4 bf 2a 94 c6 bf bd b4 20 3e 38 ff 95 3f
       -1.9116049 -1.5513966 0.15693946 1.1718512
0003e0 56 0b 7e 3f 91 8c 81 3f e5 c5 00 c0 a7 b2 7b c0
       0.9923605 1.0121022 -2.0120785 -3.932779
0003f0 93 b9 19 c0 8a c9 4a c0 2d bc a0 bf 3d 80 f2 3e
       -2.4019516 -3.168551 -1.2557427 0.47363463

critic.0.bias f4 [32]
000000 97 eb 00 c0 b7 cc f5 3e 4b 82 3e c0 a7 63 fd 3f
       -2.0143793 0.48007748 -2.9767025 1.9796036
000010 d9 54 41 c0 52 dc f0 bf 15 5c ca bf 6e c2 5d c0
       -3.0208037 -1.8817236 -1.5809351 -3.464992
000020 23 75 ea 3f 4a 18 b6 bd 1f 69 ae bf d4 da ab c0
       1.8316997 -0.088913515 -1.362583 -5.3704624
000030 1e 8e a6 3e e8 d5 a1 bf 6e 8f 2e c0 70 a0 79 3d
       0.32530302 -1.2643404 -2.7275043 0.06094402
000040 bb 80 05 c0 37 36 bd be 11 59 08 c0 37 a2 06 c0
       -2.085982 -0.36955425 -2.1304362 -2.1036508
000050 87 49 c8 c0 8a 4d 95 bf 21 b1 a4 3f eb e0 e1 c0
       -6.2589755 -1.1664288 1.2866555 -7.058706
000060 bc 82 ad bf ee 84 5f c0 21 cb e5 bd 35 07 1b 3f
       -1.3555522 -3.4924884 -0.112203844 0.6055787
000070 bc 58 d3 be ee 36 79 3f 53 74 56 3f a5 2a c6 bf
       -0.41278636 0.9734944 0.83771247 -1.5481764

critic.2.weight f4 [32, 32]
000000 a8 b4 6e 3f 6e 1f 91 bf 4e 63 0f 3f ed 23 6f 3e
       0.9324441 -1.1337717 0.560109 0.23353548
000010 cb 55 88 3f d0 68 35 bd 3a e8 86 bd 4a 58 99 3e
       1.0651182 -0.04428941 -0.065872625 0.29950172
000020 4c a9 3c 3f cc 36 ee be 29 59 15 bf 7b 4b db 3e
       0.73695827 -0.46526182 -0.5833917 0.42831025
000030 ec 32 07 bf 25 08 54 3e ea 22 cf 3d 3b b1 1b bf
       -0.52812076 0.20706232 0.10114081 -0.6081731
000040 7a d9 ba 3f f9 4e 45 3f b3 12 a8 3f 9e fc 60 3f
       1.4597619 0.7707363 1.3130707 0.87885463
000050 37 9b fe 3e 70 7c 0f bf 77 e0 80 bf af d6 71 3e
       0.49727795 -0.5604925 -1.0068501 0.23617052
000060 92 31 64 bf ea 5b 4c 3f 91 01 5f 3f 3a 11 b5 bf
       -0.8913814 0.7982775 0.87111765 -1.4145882
000070 5f cf 4f 3e 79 65 83 bc 42 20 d9 3e 7f 1e 33 3f
       0.2029395 -0.016039597 0.42407423 0.6996841
000080 42 6d 43 3f 1d fe 8e bf 1d 98 a2 3f 02 25 3a 3f
       0.7633859 -1.1171299 1.2702671 0.7271272
000090 f8 8a d8 3e 3e da aa be c2 6e d0 3f f0 53 e5 3f
       0.42293525 -0.3336963 1.6283801 1.7916241
0000a0 42 86 2b bf f3 e8 a9 3e a4 78 d4 3e 07 f1 88 3f
       -0.67001736 0.3318554 0.41498291 1.0698556
0000b0 fa f9 dc be 2a dd 9c 3f 64 67 95 3d 22 3b 18 c0
       -0.43159467 1.2254994 0.07295111 -2.3786092
0000c0 4d fa bf 3f 1a 00 c2 be b9 26 85 3f 73 51 5e 3f
       1.4998261 -0.37890702 1.0402442 0.8684303
0000d0 24 c1 82 3f 49 37 b7 3f 8e b4 b7 3d 09 15 be 3f
       1.0215192 1.4313747 0.08969985 1.485017
0000e0 61 6c ef 3f 4f c4 4f 3f c3 7b 22 be f6 e3 81 bf
       1.870495 0.8115892 -0.15867524 -1.0147693
0000f0 a9 eb 27 3d 79 d6 94 be 06 c5 ad bf 48 b8 23 be
       0.040996227 -0.2906988 -1.3575752 -0.15988266
000100 cb 84 95 be ad 43 08 3f 49 e3 24 3f 12 a2 c3 3e
       -0.29202875 0.53228265 0.6440931 0.38209587
000110 cc 0a 86 3f 94 05 82 3f a3 d8 4a bd 59 bf 06 3f
       1.0472045 1.0157952 -0.049523007 0.52635723
000120 94 14 8a 3e f3 be 52 bf 76 e8 36 3e 58 ce 21 3f
       0.26968825 -0.82322615 0.17862114 0.6320548
000130 9b 93 91 3f 6a 2c bd be d0 46 f0 3f 8a 2c 8d 3e
       1.1373171 -0.36947948 1.877161 0.27573043
000140 f5 0d 1c 3e 1e 07 be be a9 33 b3 3c 8e f0 82 3f
       0.15239699 -0.37114805 0.02187522 1.0229661
000150 95 23 91 3f d9 0b 9d 3e 3a 80 49 3f e3 46 c5 3c
       1.1338984 0.30673102 0.78711283 0.024081653
000160 09 4c d5 3e f8 61 af 3f 51 b4 86 3d b2 0d e6 3e
       0.41659573 1.3701773 0.065773614 0.44932324
000170 f0 3f 1b 3f 83 2b e1 3e 41 22 00 3f 04 6f 54 3f
       0.60644436 0.4397851 0.5005227 0.82981896
000180 bf 09 ea c0 b0 03 89 3f cb 47 83 40 da 39 d4 bf
       -7.3136897 1.070425 4.102514 -1.6580155
000190 a6 0f a3 40 d9 31 0e c0 e4 03 ee be 12 a1 75 40
       5.09566 -2.2217925 -0.46487343 3.837956
0001a0 49 e9 88 3f 52 07 9a bf eb e4 01 40 14 b4 96 40
       1.0696193 -1.2033484 2.029597 4.709482
0001b0 3b c2 35 40 e5 d1 b4 3f f6 33 31 40 28 5d b3 c0
       2.83998 1.4126555 2.7687964 -5.6051216
0001c0 56 5e c9 3f 98 d8 97 3f ea 34 80 c0 87 f4 86 40
       1.5731914 1.1862974 -4.006459 4.2173495
0001d0 b9 b1 a4 40 31 84 5e 3e 20 5a 81 c0 5f 32 87 40
       5.1466947 0.21730115 -4.0422516 4.224899
0001e0 5c 65 04 c0 52 44 95 40 28 b9 12 c0 2d 3e 0d be
       -2.0686865 4.66459 -2.292551 -0.1379325
0001f0 d7 69 3e 40 73 6d b9 3f 52 c9 b1 c0 2f 56 30 40
       2.97521 1.4486526 -5.555825 2.7552602
000200 68 68 57 bf 7b 47 5e bf 8c c3 54 3f e9 d1 e3 3e
       -0.84143686 -0.8682782 0.8311088 0.44496086
000210 df d2 91 3f 5d 4a 19 bd 82 56 82 bf 55 2b c7 3f
       1.1392478 -0.037424434 -1.018265 1.5560099
000220 c6 d6 e8 be 38 84 74 be b3 6a c8 bf 8d 07 94 3f
       -0.4547636 -0.23878562 -1.5657562 1.1564804
000230 62 d3 71 bf 9f 15 f7 3f 02 8e 10 3f bd 6a 90 c0
       -0.9446317 1.9303473 0.56466687 -4.5130296
000240 a5 d9 c4 3f 90 86 d1 be 43 b3 66 3f 85 c0 f4 3f
       1.537892 -0.40922976 0.9011728 1.9121252
000250 44 c0 23 3f a9 9d 7d 3f 14 d5 4e bf 1d c9 91 3f
       0.6396525 0.99068695 -0.8079388 1.13895
000260 5a cc d3 bd e3 c2 69 3f 25 19 80 bf d7 11 0e bf
       -0.10341711 0.91313 -1.0007674 -0.5549597
000270 6e 2d ce bd d7 fa 1f bf 6f 2c 3c bf 23 c8 4d 3f
       -0.10067259 -0.62492126 -0.735053 0.8038351
000280 df 0e 52 bb 10 ab 46 c0 84 3b 90 3f f0 b4 a6 3e
       -0.003205232 -3.1041908 1.1268163 0.3255992
000290 92 78 e3 be 72 d1 07 3f 0a 72 91 3f 33 a9 ff be
       -0.44427925 0.53053963 1.1362927 -0.49933776
0002a0 89 d9 74 bf d2 12 2d 3e 77 c6 99 bf e3 46 a6 bd
       -0.9564443 0.1690171 -1.2013692 -0.08118989
0002b0 ef 07 41 be d6 67 5c 3f bd 30 1f bf 94 b5 3b c0
       -0.18850683 0.8609594 -0.62183744 -2.9329576
0002c0 ff 13 2c bf b2 ac 41 3f 86 9c 26 40 45 62 52 3e
       -0.6721801 0.7565414 2.6033034 0.205453
0002d0 8e 47 af 3d 2d 3a 7a 3f 97 3a 86 bf 1c ce 54 3e
       0.0855857 0.9774502 -1.048663 0.2078175
0002e0 3d 39 0a 3f e7 2f f4 be 2a db 93 3f 32 d1 ff be
       0.5399359 -0.47692797 1.1551259 -0.4996429
0002f0 89 c6 22 bf 55 a2 65 bf ff 20 6c bf c9 7c 68 bf
       -0.6358419 -0.89700824 -0.9223785 -0.9081541
000300 c1 d0 46 c0 34 dc 7d c0 aa 4c 22 40 d2 d4 c7 c0
       -3.1064913 -3.9665651 2.5359292 -6.244729
000310 5f d1 51 40 8b 97 61 c0 b7 a5 87 3f b8 14 06 40
       3.278404 -3.5248744 1.0597447 2.0950146
000320 6e c6 ef c0 45 15 d1 c0 a3 b0 99 bf 57 02 28 40
       -7.4929724 -6.5338464 -1.200703 2.6251428
000330 04 dc f8 c0 ca 32 33 c0 c9 74 2e 3f 30 2e 0b 3f
       -7.7768574 -2.799975 0.6814695 0.5436735
000340 56 f8 fe 3f 2e 5d 96 c0 06 6f e1 bb 7a d3 89 3f
       1.9919536 -4.6988745 -0.00687969 1.0767663
000350 6c 09 3b 40 56 d6 8a bf c8 ef dc bf 95 34 ce 3f
       2.92245 -1.084666 -1.7260675 1.6109797
000360 bf f2 cb be c1 c3 02 40 4c 03 45 c0 9d 7d 69 c0
       -0.39833638 2.0431979 -3.0783262 -3.6482918
000370 78 ee 36 bf c7 d5 4f c0 9c 08 3c c0 4f 3d a1 be
       -0.71457624 -3.247423 -2.9380255 -0.31492087
000380 4b f5 d4 be 62 42 96 3f 3a 00 e8 3f 3f 13 b6 bd
       -0.41593394 1.1739008 1.8125069 -0.0889039
000390 8e 77 1c 3f 3f ee 56 c0 1c 2e d0 be a4 ba a2 3f
       0.61119926 -3.3582914 -0.4066018 1.2713208
0003a0 c4 86 a5 3b 58 27 85 bf fd 75 43 bf 0b 3e a1 3f
       0.0050514657 -1.0402632 -0.7635191 1.2597059
0003b0 5c d9 88 3e 85 35 8a bf 35 80 2f 3f a5 7f 4d 3f
       0.26728332 -1.0797583 0.68555003 0.80272895
0003c0 3e f0 eb 3f dc ae 95 3f 2b d7 91 bf ec d2 8e 3f
       1.8432691 1.1693988 -1.1393789 1.1158118
0003d0 3b aa f6 3f 95 de 47 bf ca 30 68 3f 12 d1 bb 3f
       1.92707 -0.7807401 0.90699446 1.4673178
0003e0 43 1e d1 3c d3 8e 1e 40 bb 6a 8a be cd d0 45 bf
       0.025527125 2.4774673 -0.27034554 -0.7727173
0003f0 4f 38 b3 be 14 c5 57 be 42 7b 1d 3f ae de 48 bd
       -0.35003898 -0.21071273 0.615162 -0.04904049

critic.2.bias f4 [32]
000000 a4 f6 97 be 61 d5 36 be b3 9b f0 3e ef 79 3d c0
       -0.2968036 -0.17854835 0.4699379 -2.9605672
000010 dd b0 7b bf 6a 8a 9b bd bf 7d c5 c0 dc 99 ce bd
       -0.98316747 -0.0759476 -6.1716 -0.1008794
000020 1f a9 c8 c0 f6 6b a2 c0 19 9d 7b bf 0d 92 32 c0
       -6.2706447 -5.075679 -0.98286587 -2.7901642
000030 cb 7e 20 c0 8e d4 89 c0 00 0f 92 c0 f2 99 c0 c0
       -2.5077388 -4.3071966 -4.564331 -6.018792
000040 93 f6 ab c0 e8 46 28 bf f1 40 c3 3e 80 23 41 c0
       -5.3738494 -0.65733194 0.38135484 -3.0177917
000050 97 28 32 bf 2f 58 0e c0 1c 80 7e c0 4b 2d 18 c0
       -0.69593185 -2.2241323 -3.9765692 -2.3777645
000060 d4 b9 94 bf 61 e4 86 c0 51 ba 91 bf 22 5a 80 c0
       -1.161921 -4.2153783 -1.1384984 -4.0110025
000070 11 83 e8 3e 68 80 8c c0 22 d9 f2 bf 23 2b 8b be
       0.45412496 -4.3906746 -1.8972514 -0.27181348

critic.4.weight f4 [32, 32]
000000 d8 1d 05 3f 54 d9 b6 3e 41 90 d4 be 0e a7 76 3f
       0.5199866 0.35712683 -0.41516307 0.96348655
000010 12 4a 60 bd 26 45 0a 3f c8 3a c6 bc 20 4a 51 3d
       -0.05475814 0.5401176 -0.024197951 0.05109608
000020 99 50 b0 bd 12 63 65 3f e0 3a 62 3e 3b 21 ad 3e
       -0.08609123 0.89604294 0.22092772 0.33814415
000030 6d bc 39 3f 36 3c 94 bd c5 0c 42 3e 01 83 9a 3d
       0.7255314 -0.07238047 0.18950184 0.07544518
000040 2a 67 ab be fd b3 86 3d 49 52 b5 3e c2 e0 bb 3f
       -0.33477145 0.06577299 0.3541434 1.4677966
000050 60 d0 8e 3e 7f 4b 8b bb 19 c5 a3 3e a0 f7 45 3f
       0.27893353 -0.004250943 0.3198631 0.7733097
000060 c1 93 05 bf 17 9c 9b 3e 2c 91 03 bf e1 b2 bd 3d
       -0.5217858 0.30392525 -0.5139339 0.09262634
000070 0b c9 69 3c 02 fb 0e 3f 49 ae 13 3f 6a 24 87 be
       0.014269124 0.5585176 0.57687813 -0.2639497
000080 33 5f 07 c0 82 f1 3a bf 11 15 41 3f 62 a3 f0 be
       -2.1151855 -0.7302476 0.7542277 -0.4699965
000090 6b 75 15 bf c0 63 63 bf e2 1d f9 3e 7d d5 83 bf
       -0.5838229 -0.8882408 0.4865561 -1.0299526
0000a0 a9 6c bd be 4d 9e af 3e 06 19 85 be 63 dc f7 3e
       -0.36996964 0.3430046 -0.25995654 0.4841033
0000b0 99 9f 34 3c ad ac 89 3e f1 89 f8 be fe ac b5 3e
       0.011024379 0.26889554 -0.4854274 0.35483545
0000c0 d9 b9 c9 be 00 92 bc 3f 5a a4 f9 3e 97 ae 27 be
       -0.39399603 1.4732056 0.48758203 -0.16375194
0000d0 db 26 1a be 70 fc 49 be b7 04 2c 3e 54 4f 42 3e
       -0.15053885 -0.19725204 0.16798674 0.18975574
0000e0 e4 b8 81 3f e3 fa 1b 3f 80 d7 7b bf 5f ad 37 bd
       1.0134549 0.609297 -0.983757 -0.044843074
0000f0 6b f1 d0 bf 6b af 0b be 62 ae df 3e b2 df 26 3f
       -1.6323675 -0.13641135 0.4368773 0.6518508
000100 07 5a 84 be d2 6a 15 3f 41 9f 66 bf 7e 1a 11 bf
       -0.25849935 0.5836612 -0.9008675 -0.5668105
000110 bc f6 42 bf 38 0b c9 bd 74 fb f5 be fc 32 9a 3f
       -0.76157737 -0.09816593 -0.48043406 1.2046809
000120 b9 ad b9 be 90 4f 09 3f a5 e7 84 3f 8b 64 22 bf
       -0.36265352 0.5363703 1.0383192 -0.63434666
000130 35 6a 63 be f5 25 4e be fe 7c 57 bf 9d 29 83 be
       -0.22208484 -0.20131667 -0.841751 -0.25617686
000140 72 2d 35 be 47 28 15 be e4 ca f2 3e 6c a4 9b 3f
       -0.17693117 -0.14566146 0.47420418 1.2159553
000150 45 eb 27 3f e4 a3 2c 3e 35 cc 3d be 17 c3 e4 be
       0.6559337 0.16859394 -0.1853493 -0.44680092
000160 c9 b0 d7 3f 67 eb 94 be f0 2b 92 bf 44 4d a5 be
       1.6850826 -0.29085848 -1.1419659 -0.32285511
000170 b0 91 da be b8 51 4e bf 80 53 fe be 9c d3 21 3f
       -0.42689276 -0.8059344 -0.4967308 0.63213515
000180 de 58 b5 3e fc 93 f6 be 30 ac 70 be 6e 2b 92 3f
       0.35419363 -0.48159778 -0.23503184 1.1419504
000190 e7 b9 9e 3e 99 29 96 bd 33 5b 7f bd cd 86 50 be
       0.31001207 -0.07332153 -0.062342834 -0.20363922
0001a0 b5 8b 86 be 9c 73 e3 be 4e 4d bb 3f ab f8 f7 3e
       -0.26278463 -0.4442414 1.4632967 0.48431906
0001b0 39 09 a1 3e 8d 1c b0 bd e2 38 da 3e 8f 47 d1 be
       0.3145235 -0.08599196 0.42621523 -0.40874907
0001c0 4e d8 05 be d8 a6 da 3e 77 0e 3b 3e a2 50 35 3e
       -0.13070795 0.42705417 0.18267237 0.1770654
0001d0 eb fb 78 be b1 a1 6c 3f 35 86 4b 3f 54 70 aa bd
       -0.24314849 0.9243422 0.7950166 -0.08322206
0001e0 23 30 02 3f 33 1a 59 3e f2 40 24 3f b3 67 81 3d
       0.508547 0.212014 0.641616 0.06318607
0001f0 ab 8b 2f be b2 59 46 3e d8 85 6e bd d4 68 9a bd
       -0.17143123 0.19370154 -0.058233112 -0.07539526
000200 5d c3 36 40 8c cb 31 40 4e 3e ed 3f e4 2f 42 40
       2.855674 2.7780485 1.8534639 3.034173
000210 4d d0 8d 40 ab 23 72 40 ca 18 07 40 df 5b 97 bd
       4.4316773 3.783427 2.110888 -0.0739057
000220 0c c3 65 40 e5 5c 6b 40 a0 3d 7f 40 54 31 2f 40
       3.5900297 3.6775448 3.9881363 2.7373857
000230 32 a7 3d 40 f9 6f 26 40 25 b9 29 40 83 58 04 40
       2.9633298 2.6005843 2.6519253 2.0679023
000240 c4 30 35 40 e1 3a d6 3f 88 f3 51 bf 69 30 55 3f
       2.8311014 1.6736718 -0.82012224 0.83276993
000250 fb 86 ef 3e 94 98 22 40 95 6f 5b 40 f7 92 67 40
       0.4678267 2.5405626 3.4286854 3.618345
000260 7d 37 d1 3f 65 d3 2f 40 67 4b 6f 40 9a 67 3c 40
       1.6345059 2.7472775 3.7389772 2.9438233
000270 c0 7f 04 40 04 94 27 40 98 72 7a 40 9f c7 0e 40
       2.0702972 2.6184092 3.9132442 2.230934
000280 ae bb 65 be 77 22 de 3e c6 3b 2c be ef 03 2e 3f
       -0.22434875 0.4338567 -0.16819677 0.6797475
000290 1a 19 ef 3e 1c 77 11 bf 85 81 44 3e 5d cc 3d 3f
       0.46698838 -0.5682237 0.19190033 0.7413996
0002a0 b2 26 0e 3f 83 3f a4 3f fe f4 bf 3e 1f 37 84 3f
       0.55527794 1.2831882 0.37491602 1.0329322
0002b0 88 6d c0 3e 6c e6 83 3c 7f 7e fc bd 0b a3 03 3f
       0.37583566 0.016101085 -0.12328815 0.5142066
0002c0 cf fb 1b 3e c2 ca 0e 3f 73 d6 03 bf 20 52 1b 3f
       0.15232776 0.55778134 -0.514991 0.6067219
0002d0 0f dc dd 3f 0c e0 23 3f 72 b1 44 3e 45 0b d0 bd
       1.7332782 0.64013743 0.19208315 -0.101583995
0002e0 e4 9d 35 3f aa 7d 86 3e a6 28 82 bc 63 17 2e 3f
       0.70944047 0.2626775 -0.015888523 0.68004435
0002f0 7f c1 da 3e f6 cb f5 3e a3 ec 9f 3e ca cf 7d 3f
       0.4272575 0.48007172 0.31235227 0.99145186
000300 a4 61 a4 3d 36 dd 0f 3f 43 53 3d bf d4 09 18 3f
       0.08026436 0.56196916 -0.7395517 0.59389997
000310 a4 29 31 3f c2 be 00 3f a5 82 41 bf 49 2b cb 3e
       0.69204164 0.50291073 -0.7558997 0.3968146
000320 2f fb 8b 3e df 69 10 3f f8 70 0d bf b9 9c b2 bd
       0.27340075 0.56411546 -0.552505 -0.08721299
000330 2d 0b d4 3d 0d e5 03 bf 6a 87 28 bf cb 47 95 be
       0.10353694 -0.5152138 -0.65831625 -0.29156336
000340 85 80 ae be 1b 42 27 be f3 ad 1a bd 0d 18 fe 3e
       -0.34082428 -0.16333811 -0.037763547 0.49627724
000350 b3 ae 24 3f 69 fe 05 bf 18 ce 1d bf 79 9a d6 be
       0.6432907 -0.52341324 -0.616426 -0.41914728
000360 98 31 35 be c8 37 c1 be a6 c4 06 bf 9c a2 29 be
       -0.176947 -0.3773787 -0.5264381 -0.16565937
000370 0f 27 d9 3d 34 79 b1 be 26 95 20 be b8 4f 08 be
       0.10603153 -0.34662783 -0.15681896 -0.1331166
000380 2d fd 46 3f 53 43 01 c0 49 f8 99 bf 35 a8 1a 3e
       0.77730066 -2.0197341 -1.2028896 0.15103228
000390 a9 2f 4e 3b c5 90 c6 bf 77 54 4e 3e 25 65 c9 be
       0.0031461513 -1.551293 0.20149408 -0.3933498
0003a0 06 fb c8 bd 6c 93 2c 3f a7 c9 a5 bd 87 68 89 3f
       -0.09813504 0.6741245 -0.08095103 1.0735024
0003b0 e6 50 8d 3f 2f b9 9f be 9b ba 02 be 23 1e 7d 3d
       1.1040313 -0.3119597 -0.12766497 0.06179632
0003c0 bb f0 0a bf 5e 37 7f 3e 75 51 66 be c0 b4 41 3f
       -0.54273576 0.24923465 -0.22492011 0.7566643
0003d0 69 3b d9 3e 2b ff e3 3e cd b2 2f 3e 59 16 2a 3f
       0.4242814 0.44530615 0.17158051 0.6644035
0003e0 1e 95 0a bf 82 ed fa 3e 83 5a 09 bf 5a 05 f8 3e
       -0.54133785 0.4900933 -0.53653735 0.48441583
0003f0 d6 e7 1c 3f ca b8 36 be 70 2d 5c 3f 5e e7 b8 3f
       0.61291254 -0.17843929 0.8600683 1.4445608

critic.4.bias f4 [32]
000000 82 f3 fc 3f 1d ff 8c be 99 6b 14 3f 7f 41 1b 40
       1.9761813 -0.27538386 0.5797668 2.4258726
000010 c9 f5 3f c0 5c d2 72 3d 56 a4 de 3f e2 03 bf 3f
       -2.9993765 0.059282646 1.7393901 1.492306
000020 bf bd 25 3f ec 0f 66 3f 0d 67 a5 3f be c4 39 be
       0.64742655 0.89868045 1.2922074 -0.18141457
000030 65 7a c4 3f c4 a7 e5 3f 62 ef 1c 3f 63 31 6e 3f
       1.5349852 1.7941823 0.6130277 0.9304411
000040 e0 e9 91 3f ed 7c 3b 3f f2 0b 2b 3e 68 89 24 40
       1.1399498 0.73237497 0.16703776 2.5708866
000050 58 2b 3a 3f 4e 59 65 bf 9f 30 9b 3f ee af db 3f
       0.7272239 -0.89589393 1.2124213 1.7163064
000060 ab 9f 00 be 63 4f d2 3f 5b 97 ff 3f ad ab 0e bf
       -0.12560908 1.6430477 1.9968065 -0.55730706
000070 90 18 e0 3f 84 84 a2 3f 1a 27 d8 3e 50 c3 00 40
       1.7507496 1.269669 0.42217332 2.011921

critic.6.weight f4 [1, 32]
000000 f8 81 d6 3c ef 62 94 3d a2 fb 9f 3d 23 ff 3c 3d
       0.02618502 0.072454326 0.07811667 0.046141755
000010 30 09 52 3f 0d 40 17 bf 4e d2 a2 3c 9c 1a 92 bb
       0.8204527 -0.5908211 0.019875672 -0.0044587385
000020 97 3b e9 3b 20 ab b6 bb 5d bd bf 3c ee 74 d6 3c
       0.0071176994 -0.005574599 0.023405725 0.026178803
000030 34 08 ab 3c 31 d4 f2 bc 3d 6f 80 3c eb cd 91 3d
       0.020877935 -0.029642196 0.015678043 0.07119354
000040 6f 3d 6a 3d 58 e8 77 bd 59 d0 aa bd 30 12 29 bd
       0.057187494 -0.060524315 -0.083405204 -0.04127711
000050 16 3d 1c bc 24 e9 8c 3b 95 77 71 bc 6a 83 1e 3e
       -0.009536048 0.0043002535 -0.014737983 0.15479818
000060 48 bb 5c 3d e2 3f c3 3d 35 33 d9 bd ad e3 9f 3d
       0.053889543 0.09533669 -0.1060547 0.078070976
000070 33 d8 3c 3d 2f 40 00 3d ba 3b 6a 3c 93 d3 f0 bc
       0.04610462 0.03131121 0.0142964665 -0.029397761
